checkpoints/checkpoint_critic_1.pth (torch, 170839 bytes, 5 tensors)

fcs1.weight f4 [256, 33]
000000 47 3b 20 bc 1a 2f bb bd bd 46 b0 3c 60 ef 30 bd
       -0.009779758 -0.09139843 0.021518106 -0.043197036
000010 70 6a 98 bd 79 d6 81 bd a2 bd cb bb f4 f1 8f 3d
       -0.07442176 -0.063397355 -0.0062176744 0.07028571
000020 a8 56 40 3d 24 1e 2f bc 90 9f 71 3d 05 9d 6d 3d
       0.04695764 -0.010688338 0.05899006 0.058011074
000030 d0 7e 62 bc a9 54 ec 3a 63 e4 38 3d e6 d0 1b 3d
       -0.01382418 0.0018030602 0.04513968 0.038041018
000040 c7 a2 22 3d 34 7d 9e 3c d0 ec a5 3c 62 9a 8f 3c
       0.039706018 0.01934681 0.020254523 0.01752967
000050 c2 e9 a2 3b f7 47 e1 3c 87 c1 28 bc f8 dc 5f bc
       0.0049717138 0.027500136 -0.010300047 -0.013663523
000060 0c 7f 58 3d 62 b1 2a bd 82 bb 75 3d b0 17 10 3d
       0.052855536 -0.04167307 0.059993275 0.03517884
000070 6c 84 94 3d 90 a7 9d bb 39 9e 1d bc 64 d7 69 bd
       0.0725182 -0.004811235 -0.009620243 -0.057090178
000080 0b 93 a9 bd 93 1b 09 bd 4e 6a b1 bd 0c 47 6c bd
       -0.08279999 -0.033473562 -0.08662854 -0.057684943
000090 62 f1 e2 3c 40 86 1c 3d fc 75 35 3c 1a 16 59 3d
       0.02770299 0.03821397 0.011075493 0.052999593
0000a0 ab 8a 52 3d 3e 60 86 bd 0c c1 07 3d 12 6a e3 3b
       0.051401775 -0.065613255 0.03314309 0.006940135
0000b0 ff b6 98 bd 90 63 69 bd 66 43 ba bd 27 2d 31 3d
       -0.07456779 -0.056979716 -0.090948865 0.04325595
0000c0 58 18 8b 3c e4 a6 00 3d 1b 7d 6d bc 63 ae a0 bc
       0.016979381 0.03140916 -0.0144951595 -0.019614404
0000d0 b1 97 2c 3c de 14 a2 bd 50 0d 3e 3d 00 ca 29 bd
       0.010534213 -0.07914136 0.046399415 -0.041452408
0000e0 64 c0 31 3b ef e8 5e 3d 3f 8d 8d bd c3 c3 ce 3d
       0.002712273 0.05442136 -0.06911706 0.10095932
0000f0 3b 71 86 bc 82 f5 b9 bc 82 67 14 bd b5 71 db 3b
       -0.016411414 -0.022700075 -0.036231525 0.0066969045
000100 14 f9 fa bc bd 36 9a 3e d1 26 56 bb d4 fb 76 bc
       -0.030636348 0.30119887 -0.0032676945 -0.015074689
000110 5e 9c 65 3d 63 aa fb bb 6e 3c 09 3c 57 ca 47 bd
       0.056057326 -0.007680224 0.008376224 -0.04877695
000120 06 00 ad 3d b0 b9 73 bd 15 ca 27 bc af 97 c2 3d
       0.0844727 -0.059503257 -0.010241051 0.095015876
000130 3a 6d 82 bc 58 82 0b 3c 82 7b 83 3c 23 0c 95 3d
       -0.015921224 0.008514963 0.016050104 0.072777055
000140 1e 5b f9 3c 9e d0 6d 3c 17 4a a0 bc 0f 57 89 3c
       0.030438956 0.01451507 -0.019566579 0.016765146
000150 10 ac 26 bb 54 a1 0a bd d5 f6 98 bc 8d 34 d6 bc
       -0.0025432147 -0.03384526 -0.018672386 -0.026148105
000160 fd 3a a6 bc 76 2d 43 bc 4d 8e 21 3c 36 70 28 3c
       -0.0202918 -0.011912694 0.009860587 0.010280659
000170 65 4d c7 3d ef 6b 1f 3d 3a 65 f0 3b 1c ad 40 3d
       0.09731559 0.038921293 0.007336286 0.04704009
000180 91 5b ef 3b 3c b2 3c 3d ce 91 38 3d 5e 7f fa 3c
       0.0073046167 0.046068415 0.045060925 0.030578312
000190 81 a3 61 3d 6b 46 f9 3c d6 12 4e 3c ec d7 a9 3c
       0.05508757 0.030429086 0.012577733 0.020732842
0001a0 3a 62 a0 3d 2a e5 57 bd 05 71 49 bd 2b b7 16 bb
       0.07831235 -0.052708782 -0.04918005 -0.002299736
0001b0 ff f0 15 3d 90 75 30 3d 05 9c 47 3d e1 f8 19 bc
       0.036606785 0.043080866 0.048732776 -0.009397716
0001c0 b8 80 cf 3c 28 3a 36 ba 0d 6e c8 bc 45 cb d3 bc
       0.025329933 -0.0006951415 -0.024466539 -0.025853762
0001d0 ca de 79 3d 8e d6 4b bd 1f c9 91 3c 40 fb 24 bd
       0.061003484 -0.049765162 0.017796097 -0.040278673
0001e0 45 b1 13 bd 13 7e a5 3d 2e 82 a4 3d 5a d0 84 bc
       -0.03605773 0.080806874 0.08032642 -0.016212631
0001f0 62 e2 e1 3c 3d 98 3b bd 99 3b 56 3b 98 8a 57 3d
       0.027573768 -0.045799483 0.0032689332 0.052622408
000200 26 80 61 bd 85 a0 70 3b c8 fc 21 bd e6 9c c1 3e
       -0.055053852 0.003671677 -0.03954771 0.37815017
000210 b1 c1 2c 3d 21 8f d2 bd 66 98 e5 bc a0 d8 68 bc
       0.042176906 -0.10281206 -0.02802677 -0.014211804
000220 e4 a4 11 3d a0 f9 7b bc a3 d3 48 3c 8f 2b 43 3d
       0.035557643 -0.015379339 0.012257489 0.047648963
000230 11 a2 16 3d e4 5f 23 bd 75 03 03 3c f3 a7 cd bb
       0.036775652 -0.03988637 0.00799643 -0.0062761246
000240 e0 ff f6 3c 78 b8 c2 3b f8 25 02 3d dd 77 0f 3d
       0.030151308 0.0059424005 0.03177449 0.03502642
000250 a5 eb 0d 3d 94 bb 05 bd 74 cf 0a 3d 8d ce 8a 3c
       0.034648556 -0.03264959 0.03388925 0.016944194
000260 46 be 7b bc 89 80 ee bc 7f 96 f6 bc ac 0e ce bc
       -0.015365189 -0.029114025 -0.030101059 -0.02515348
000270 b4 d3 86 3c 72 22 1b bd 6a c5 ee bd 64 ac a5 bd
       0.01645837 -0.037874646 -0.116587475 -0.080895215
000280 df b2 71 3d 80 83 71 3d 66 31 12 3d 20 34 2b bb
       0.059008475 0.0589633 0.03569164 -0.0026123598
000290 60 45 b5 bd 91 b5 c6 bd 62 43 8b bd f1 e1 0e 3d
       -0.08851123 -0.097026 -0.067999616 0.034883443
0002a0 12 ad fd 3b 26 10 c5 bb f3 f1 2a 3d b0 7d d5 3a
       0.007741579 -0.006013888 0.041734647 0.0016288068
0002b0 fc 07 eb 3c 4d 2e 87 3c a4 3c fc bc 3a 3f 09 bd
       0.02869033 0.01650157 -0.030790634 -0.033507563
0002c0 50 74 11 bd a2 80 98 3c 5e d3 26 3d 38 61 a6 3c
       -0.035511315 0.018616024 0.04072892 0.02031003
0002d0 c1 6b c8 bc 20 95 bf bc a2 3d 8d 3d 18 03 da bc
       -0.024465444 -0.023386538 0.06896521 -0.026612803
0002e0 14 91 1f 3c 07 e4 fc bc 19 59 2d bb fd 74 38 bd
       0.009739179 -0.03087045 -0.0026450811 -0.045033444
0002f0 81 27 a5 3d 9a 90 ea 3c 84 3b 32 bb 81 ba 8b 3d
       0.080641754 0.028633405 -0.0027196119 0.06822682
000300 06 01 1a bd eb 41 8e 3d c2 7d 28 3d a4 6c 98 3d
       -0.037598632 0.069461666 0.041135557 0.074425966
000310 20 6c 6c bc 4c ff 6a be d1 61 d1 bd 30 66 14 be
       -0.014430076 -0.2294895 -0.10223735 -0.14492106
000320 1a a3 4b bd 3d 13 a2 3d 43 b7 3f 3c 43 52 35 bd
       -0.049716093 0.07913826 0.011701408 -0.044267904
000330 6d 08 1d 3d c6 46 5d 3c 00 53 89 bb c2 90 24 3c
       0.038338114 0.013505643 -0.0041908026 0.010044279
000340 1b cb b3 bd bd e6 15 bd 03 a6 c8 b9 e7 63 44 bd
       -0.08778974 -0.036597002 -0.0003827066 -0.047946837
000350 ee 6b 75 3c 5e 22 a3 3c f1 16 78 3c 7d 58 d6 3c
       0.014979346 0.019913848 0.015142188 0.026165241
000360 57 e1 f3 3c 41 aa c6 3c 91 3c 37 bc 5b 59 a1 3c
       0.029770536 0.024251105 -0.011183874 0.019695928
000370 74 5f 06 3b fe 2c 0c bd 5f 92 00 bd ea 6b 8d 3d
       0.0020503672 -0.034222595 -0.03138959 0.069053486
000380 5a 04 55 3c 94 e0 bc bd df 58 47 bd 1a 03 26 3d
       0.013001526 -0.092225224 -0.04866874 0.0405303
000390 94 e3 98 3d 10 ec 10 3d dd 27 8a be a1 d7 75 39
       0.07465282 0.035381377 -0.26983538 0.00023445349
0003a0 39 dc 7a 3d 4f bd 07 3d f6 25 ca 3c 16 8f 52 3d
       0.061245177 0.033139523 0.024676304 0.05140599
0003b0 d4 17 93 3d 21 08 9f bd 3d 7b 27 bd d9 cb 90 3c
       0.07182279 -0.07765222 -0.040889014 0.017675327
0003c0 ff d7 19 3c 50 7e 4e 3d 53 8e 17 bb db 28 c9 bc
       0.009389876 0.05041343 -0.0023125603 -0.024555614
0003d0 ef 8e a2 3d c0 52 34 3e ca 1a c1 bd 9a 54 8d bc
       0.07937419 0.17609692 -0.09428938 -0.017252255
0003e0 0a 69 02 3d b2 3b 03 bd 15 14 0f 3c ef c9 84 bc
       0.031838454 -0.03203935 0.008732815 -0.01620957
0003f0 68 0b c7 bc 41 a5 b9 bc aa d9 9d 3c 06 7c 54 3d
       -0.024297431 -0.022661807 0.01926883 0.05187609

fcs1.bias f4 [256]
000000 db 94 fe bd 00 27 a9 bd 4f fe 3d 3e f4 87 85 bd
       -0.12430736 -0.08259392 0.18554042 -0.065200716
000010 11 e7 71 3d 59 83 04 3d ab e6 44 3e a1 19 65 bc
       0.059058253 0.032351825 0.19228618 -0.013983161
000020 8d 44 ce bd d8 7c b7 3d a3 95 a9 bc 77 0c 21 be
       -0.10071669 0.08959359 -0.020701235 -0.15727411
000030 4e de fc 3d 77 1c 34 bc 1a a4 78 3d 5d d2 40 bd
       0.12347089 -0.010993115 0.060703374 -0.047075618
000040 e9 21 d4 bd 56 41 cd bc 70 93 ee bd c4 1d ef bc
       -0.1035803 -0.025055569 -0.11649215 -0.029188998
000050 ce 93 83 3d 61 9b 53 3e 5d f4 f7 3d d0 5e 36 bc
       0.06424676 0.20664741 0.121071555 -0.0111310035
000060 e9 40 fc bd 5e 0e df 3b f3 87 34 be 2e 26 0f 3e
       -0.12317068 0.0068071326 -0.17629986 0.13979408
000070 3a 29 31 3d bb 28 1a be 2a 6d 38 3e 93 4a 33 3d
       0.043252207 -0.150546 0.18010393 0.04377229
000080 e2 ff 09 3d db 35 c1 3d b5 0c 7f bc 17 87 ab 3d
       0.033691294 0.094341 -0.015566994 0.08375376
000090 6e 88 fc 3d 75 b7 15 bd a9 49 06 be 5a 19 00 bd
       0.123307094 -0.03655191 -0.13114037 -0.031274177
0000a0 a8 a5 a9 bb f7 37 35 3d 50 d8 c7 bd 20 a2 3f bd
       -0.0051772185 0.044242825 -0.09758055 -0.046785474
0000b0 ae e9 43 be df 19 19 bd 5d a3 d9 bd fd 71 88 3d
       -0.1913211 -0.03737819 -0.10626862 0.066623665
0000c0 2c 8a 0d bd 0d 35 0e 3e 79 c2 4c bd 57 e6 20 bd
       -0.0345556 0.13887425 -0.04999015 -0.03928217
0000d0 8d cc 1c be 29 2b eb 3d 82 03 31 bd 92 b9 74 3d
       -0.15312405 0.114828415 -0.043216236 0.059747286
0000e0 65 80 94 3d f1 bd a5 bb fc e1 de bd 31 21 f2 bd
       0.07251052 -0.005058043 -0.10882947 -0.11822737
0000f0 74 65 90 bc c1 d8 e3 3d 0f 62 40 3c 8e 04 55 3d
       -0.017626502 0.11125327 0.011742129 0.052006297
000100 8d da ed 3c b6 41 42 be 95 c2 1f be ab 5c ea bd
       0.029034877 -0.18970379 -0.15601571 -0.11443456
000110 85 88 e7 3d 40 d4 e5 bd 86 62 30 3d 8d 26 7e bd
       0.11305336 -0.11222124 0.04306271 -0.062048484
000120 64 f9 34 3d bb 41 62 3e 6d e8 05 bc e0 34 25 be
       0.04418315 0.22095387 -0.00817309 -0.16133451
000130 4d 29 ca 3d a1 ab 21 be dd a8 0c be ce b7 06 3b
       0.09871159 -0.15788127 -0.13736291 0.0020556333
000140 38 a2 09 3d f0 4f d1 3c 30 67 b5 3d aa ca d3 3d
       0.03360197 0.025550812 0.08857572 0.103413895
000150 14 05 1a bd 5e 31 53 3e 30 66 14 be 33 a4 33 3e
       -0.0376025 0.20624301 -0.14492106 0.17543106
000160 be ea c7 bd c2 24 00 be 0b b2 13 be 16 2f 22 bc
       -0.097615704 -0.12514022 -0.14423387 -0.0098989215
000170 fa ed be 3d f6 d2 61 3d 4e ea b9 3c 0c 02 11 3d
       0.09322734 0.05513283 0.022694733 0.035402343
000180 90 8e 0c 3e 81 0f cb bd f8 f1 0c be 83 20 1d be
       0.13726258 -0.099150665 -0.13764179 -0.15344433
000190 43 81 88 bd b4 6f a8 bd 76 46 0c bb 4c a5 e9 bd
       -0.0666528 -0.08224431 -0.0021404303 -0.11408481
0001a0 4c ce 3f be 52 45 38 be 9d df f0 bc 87 09 a7 3d
       -0.1873104 -0.17995194 -0.029403502 0.08156114
0001b0 6b 7d 5b 3d cc 3f 4b be 1a 9d 84 3d 77 c1 53 bd
       0.053586405 -0.19848555 0.06475277 -0.051698174
0001c0 5e 9e 20 be 46 14 29 be dd 11 fc bc a4 f7 62 bd
       -0.15685412 -0.1651164 -0.030770237 -0.05541195
0001d0 ed 6b 8a 3d 43 56 62 bb 09 5d 99 bd 84 42 8d 3c
       0.067588665 -0.003453628 -0.07488448 0.017243631
0001e0 01 65 a3 3d 36 2f 81 3d 5c a1 1a 3d b1 2b b7 bd
       0.07978249 0.06307833 0.03775154 -0.0894388
0001f0 de 79 18 3c 1f 9c 1d bd ec a8 48 be f0 fd ea 3c
       0.009306399 -0.038478967 -0.19595689 0.02868554
000200 de a2 c2 bc 61 fc 26 3e fd 60 25 3e 57 54 45 be
       -0.023759302 0.16307212 0.1615028 -0.19270454
000210 15 72 a9 bd d8 3e ca bd 00 ab 0e 3e d3 87 e5 3c
       -0.082737125 -0.09875268 0.13932419 0.028018868
000220 3e 08 04 3d fe 38 61 bd 25 08 76 3c 11 d5 97 bd
       0.032234423 -0.054985993 0.01501659 -0.07413686
000230 8f 51 45 be a4 9c 33 3d a3 c4 23 be 64 35 a3 bc
       -0.19269393 0.043850556 -0.1599298 -0.01992292
000240 c4 00 4b be a7 bc 29 be 47 77 2d 3d 39 b9 69 3d
       -0.19824511 -0.16575871 0.04235008 0.057061408
000250 00 a0 61 bd 64 f1 79 3d c4 5f 28 be c2 a9 f3 3c
       -0.05508423 0.061021224 -0.16442782 0.029744033
000260 63 d4 d7 bd 65 02 5d 3d bb 08 c4 bd 55 ec 4d 3e
       -0.105385564 0.05395736 -0.09571978 0.20109685
000270 e2 66 f9 bd 9c 66 89 3d ef 9d dd bc 54 1a fd bc
       -0.121778265 0.06709024 -0.027052848 -0.030896343
000280 c3 8b 0d 3e 49 3d 20 3e be 5a 09 3b 05 86 1f be
       0.13822846 0.15648378 0.0020958628 -0.15578468
000290 61 a0 35 be 8b 2f 85 3d 23 5d 1f be f2 87 59 be
       -0.17736961 0.06503209 -0.15562873 -0.21243265
0002a0 4a c4 aa 3d 10 4a 0f 3e f8 b5 39 3d 95 3e 04 3e
       0.083382204 0.13993096 0.045339555 0.12914498
0002b0 de 92 60 3d aa 53 b9 bd ba 18 05 bd 1c 9c d7 3d
       0.054827563 -0.09049161 -0.032494284 0.105278224
0002c0 d4 1e aa bc 10 e1 10 be 0d 0e 5b 3e 65 33 4f be
       -0.020766653 -0.14148355 0.21392079 -0.20234449
0002d0 0d 08 ca bc ef 7a 1c 3e d1 50 13 be 33 9d 63 be
       -0.024662042 0.1528127 -0.14386298 -0.22227935
0002e0 14 a9 59 bd 14 d8 aa 3d 25 42 4f be 7c 7d 1b 3e
       -0.05313976 0.08341995 -0.20240076 0.15184587
0002f0 f8 9f a3 3b 15 17 9f 3d aa cb f8 bc 39 6e c9 3d
       0.004993435 0.077680744 -0.030370552 0.098354764
000300 b6 7c 08 be d4 7d 54 3d 35 51 43 bd 58 eb ed bc
       -0.13328823 0.05187781 -0.047684867 -0.029042885
000310 20 3f e4 3d 43 bc ac 3d a3 75 2d be 33 36 48 be
       0.11144853 0.084343456 -0.16939406 -0.19551925
000320 4c 90 a2 3d 57 ee ce bc f1 ee 90 bb 93 4b 58 3d
       0.07937679 -0.025260134 -0.0044230153 0.05280645
000330 63 5c 9d 3d 7f 18 5f bd 56 6a a1 bd 51 d0 62 bd
       0.07683637 -0.05446672 -0.0788161 -0.055374447
000340 99 6c 4f 3c 15 3a 29 bc b7 27 fc bd a5 23 4f be
       0.012660169 -0.010328789 -0.123122625 -0.20228441
000350 b6 ff a0 3d 47 8e 42 bd 04 d6 2c be 98 1b e9 3c
       0.07861273 -0.047498967 -0.16878515 0.02845554
000360 85 bf 6c 3e b4 04 f9 bd 20 76 8b 3d 2e e5 96 bd
       0.23119934 -0.121591 0.0680964 -0.07367931
000370 1e 1d 90 bc 3a 71 c4 3d af 7c 07 3e 0e cd 03 be
       -0.01759201 0.09591909 0.13231157 -0.12871191
000380 5c b2 a7 3d d2 fc 10 3e 4b e9 24 3e d0 b7 d7 bd
       0.08188316 0.14158943 0.16104619 -0.10533106
000390 b5 4f 72 bd 7b 56 96 bd ba dc 0e be d2 60 65 bd
       -0.059158046 -0.073407136 -0.13951388 -0.05600054
0003a0 e7 6d dd bd a3 36 7c 3c b1 36 f7 bc dc 37 76 bc
       -0.10811978 0.015393886 -0.030177446 -0.015027966
0003b0 28 6b 5b 3d ec 5f fb 3d 4f 81 bf 3d 84 3d 11 be
       0.05356899 0.12274155 0.093508355 -0.14183623
0003c0 25 ee e1 bd 97 20 a9 bd 66 b1 0f 3d 1c ff f7 3d
       -0.110317506 -0.08258169 0.03508129 0.12109205
0003d0 e2 1e 44 bd 41 41 63 3d 69 c4 37 3e 46 bd c5 3b
       -0.047881015 0.055482153 0.17946018 0.006034526
0003e0 5b c7 4b bc 8e 11 34 3e c0 4a 37 be 64 42 b8 bd
       -0.012437667 0.17584822 -0.17899609 -0.08997038
0003f0 8b 08 20 be be 8d a6 3d 70 3f 53 3d e0 7b 6d bd
       -0.15628259 0.08132504 0.05157417 -0.057979465

fc2.weight f4 [128, 260]
000000 2d cd 4d 3d 3e 8d c7 3d ae c7 b7 3c 69 4b 8d bd
       0.0502445 0.09743737 0.022434082 -0.06899149
000010 f8 cf 1f bd 24 6b f0 3c 92 88 8d 3c 00 19 61 be
       -0.039016694 0.029347964 0.017277036 -0.21982193
000020 f4 7e 84 3c c2 a2 d6 3c d8 d3 d7 bd 9c c3 0e 3d
       0.016173817 0.026200656 -0.10538453 0.034854516
000030 27 5e ae 3c fc e2 90 bd 66 cf 6f 3d d1 47 31 be
       0.02128513 -0.07074544 0.0585474 -0.17312552
000040 fe 35 d6 bd 06 bd 9e 3d 2b 5d bb 3d 8a fd 5c be
       -0.10459517 0.07750897 0.0914863 -0.21581092
000050 86 85 39 3b 13 e7 dc 3c 8b 9b b2 bc 11 67 70 bd
       0.0028308346 0.026965654 -0.021802684 -0.05869204
000060 0b 29 26 be 48 0a ef 3c 42 4a 7e 3d a2 f3 39 3d
       -0.16226594 0.029179707 0.062082537 0.045398362
000070 9f ea d5 3d 29 19 ab bb 18 b0 b4 3d 44 82 de 3d
       0.10445141 -0.005221505 0.0882265 0.1086469
000080 ea 5c 66 bd 2c a7 df bc 5a f8 3f 3d cd 90 81 3d
       -0.056240954 -0.027301393 0.046867706 0.06326447
000090 c3 71 fe bc fb d0 83 bd 02 11 c2 3c b3 09 d3 3d
       -0.031060105 -0.06436344 0.02368975 0.10304584
0000a0 59 e6 4b 3c f3 67 85 3d 53 25 c6 bc 36 fd e9 bd
       0.012445056 0.06513967 -0.02418772 -0.11425249
0000b0 3a 6f 5e 3d 07 0c ed 3c 1a 6c a3 3d e6 bf 95 bd
       0.054305293 0.0289364 0.07979603 -0.07311992
0000c0 99 2f df 3c 5e 79 d3 bc b3 08 be bc 01 d3 6a be
       0.027244376 -0.025814708 -0.023197507 -0.22932054
0000d0 a0 d6 01 be 26 fb a9 bc 31 81 50 3d c0 2b e2 bb
       -0.12679529 -0.02074964 0.050904457 -0.006902188
0000e0 73 aa 28 bc 6f 84 94 bb 59 7a 08 bd c3 04 e7 3c
       -0.0102945445 -0.004532389 -0.033319805 0.028200513
0000f0 05 a1 55 bd 8d dd 20 3d a2 2f 0b 3c b0 75 b5 bd
       -0.052155513 0.039273787 0.008495243 -0.08860338
000100 e1 79 83 3d c2 35 10 be f6 db af bd 7f 7f 8e bd
       0.06419731 -0.14083007 -0.08586876 -0.06957912
000110 72 00 19 3d e0 1e c4 3c ef e7 8d bc d9 07 e9 bd
       0.03735394 0.023940504 -0.017322509 -0.1137845
000120 39 46 36 3d 5b ea 97 bd 97 0a 96 bd 84 4a 4f be
       0.044500563 -0.07417747 -0.073262386 -0.20243269
000130 f0 74 e9 3d b7 b3 3c bd b3 b5 ab bd 79 14 a7 bc
       0.11399257 -0.046069827 -0.08384266 -0.020395504
000140 a9 08 c5 bd 86 59 74 3c fe fc d4 bd e4 d1 df 3d
       -0.096207924 0.014913922 -0.10399817 0.10928705
000150 91 05 1b bd fc 33 dc bd b8 55 9f 3c 57 22 e4 3b
       -0.037847105 -0.10752103 0.019450054 0.0069621014
000160 82 77 f8 bd 1f 0a 8d 3d 9e 97 21 3c 51 34 6b be
       -0.12132169 0.06886696 0.0098628085 -0.22969176
000170 76 e2 89 3d 04 29 89 3b 91 33 35 bd 2d 5c af bc
       0.06732647 0.0041857976 -0.04423863 -0.021406258
000180 22 15 81 bd a3 c6 ab 3d ae a1 ae bd 4b bb 3f bd
       -0.06302859 0.08387496 -0.08526932 -0.046809476
000190 55 9d 08 bd 65 51 bf bc 8f b6 05 3e 32 4e 57 bd
       -0.03335317 -0.023354242 0.13057922 -0.052564807
0001a0 ad e9 d3 bd 40 81 3e bd 0b 11 96 bc ac 1f fb 3c
       -0.103473045 -0.04650998 -0.018318674 0.03065475
0001b0 c5 7d 9c bd fe 8f 2c bd 58 80 0b 3e fc 3d a1 bd
       -0.07641176 -0.04212951 0.13623178 -0.07873151
0001c0 87 24 0d be cb ad 36 bd 47 e6 ef bc 1f f2 fb bd
       -0.13783465 -0.044599336 -0.02928461 -0.1230204
0001d0 34 88 4f bc d2 5b 2f 3d a4 f2 d7 3c 8a f4 1c be
       -0.012666751 0.042812176 0.026360817 -0.15327659
0001e0 db 64 cf 3d 49 a3 60 bd a2 30 a3 3d 8f 08 9e bd
       0.101266585 -0.05484322 0.0796826 -0.07716476
0001f0 8e 11 94 bd fc 53 c7 bd 70 f7 7d 3c e2 87 21 3d
       -0.07229911 -0.097328156 0.015500888 0.03943623
000200 b2 ac 9d 3d 0e 6e 09 bc 09 a0 27 bd de 9e 39 3d
       0.07698955 -0.0083880555 -0.040924106 0.045317523
000210 48 49 45 bd 0e 21 58 be 80 f9 be 3c 10 7c 19 3d
       -0.04816559 -0.2110636 0.02331233 0.03747183
000220 1c 94 61 3d 77 60 dc bd a7 3e d7 3d 9e 10 80 3d
       0.05507289 -0.10760587 0.10509997 0.062531695
000230 61 de 6a bd 6e 0a 02 bd db e3 f1 bd 82 e6 8a 3d
       -0.057340983 -0.031748228 -0.11811038 0.06782247
000240 ce 95 2f be 57 01 24 bd ea 44 23 3d 98 1e d4 3d
       -0.1714699 -0.04004034 0.039860643 0.10357398
000250 40 b2 2b 3c cf 5b d4 3d 63 a0 c6 3d eb 78 2e be
       0.01047951 0.103690736 0.0969856 -0.17038314
000260 69 7a 9a bd 21 59 7d bd a3 c5 bb 3d 65 c3 05 3e
       -0.07542879 -0.061852578 0.091685556 0.13062818
000270 ca 61 32 be 88 f1 23 3d a6 dc 2d 3e e9 2a e7 bd
       -0.17420116 0.040025264 0.16978702 -0.11287481
000280 89 62 a5 3d 05 04 e8 bd 44 cc 9f ba 93 d1 00 3d
       0.08075435 -0.11328892 -0.0012191613 0.031449866
000290 41 8d 10 be 99 1a 0d bd 8f 95 dd 3c e9 b3 31 bd
       -0.14116384 -0.034449194 0.027048854 -0.043384466
0002a0 96 a9 a2 bc a1 0e 7b 3d 80 8a 32 3d 0e ea c5 bc
       -0.019856256 0.061293248 0.043589115 -0.024159458
0002b0 98 ed e8 bd d8 03 5b bd 25 20 04 3e ef 8f cb 3c
       -0.113734424 -0.053470463 0.12902887 0.024848906
0002c0 39 34 f3 bc 32 53 0d 3d dd 3f 4b bb 91 e7 87 be
       -0.029687988 0.03450317 -0.0031013407 -0.2654386
0002d0 5e fd 78 bd 41 5f c2 bb 51 0a ff 3d c8 06 d1 bd
       -0.060788505 -0.0059317653 0.124531396 -0.102063715
0002e0 02 1b 7c bd 3b e7 c7 bd cd 0f 31 3d 27 02 6e bd
       -0.061549194 -0.097609006 0.04322796 -0.05810752
0002f0 11 aa 6c bd 88 e1 8a 3c f0 10 54 bd a6 67 36 be
       -0.057779375 0.016953245 -0.051773965 -0.17812976
000300 5d b4 c9 bc 59 34 c2 bc ca 8e 41 3e 18 7b cd bc
       -0.024622137 -0.023706602 0.18902126 -0.02508311
000310 7d 7b 4d bd fd 2c 0a 3e 04 8b 9e bd e0 80 10 3c
       -0.050166596 0.13493724 -0.07741359 0.008819789
000320 d5 e6 68 bd b5 17 98 bd e9 8a 4e bc b1 2a 77 bd
       -0.056860764 -0.07426397 -0.012606361 -0.060343448
000330 63 db e4 bc 83 80 1b be 0a c0 d2 bc f0 b7 aa bd
       -0.027936643 -0.15185742 -0.025726337 -0.083358645
000340 4c 1e f2 3c 13 6b 9b 3d ac 0d 42 bc 5e 66 0d bc
       0.029555462 0.07588782 -0.01184408 -0.008630363
000350 08 78 c8 bd 04 b2 09 3e d7 6e 97 bc 81 e6 20 bd
       -0.09788519 0.13446814 -0.01848547 -0.039282326
000360 df 75 55 3d c6 e4 8c bd 1f 00 60 3c cb e5 b3 3c
       0.052114364 -0.068795726 0.013671904 0.02196016
000370 ba 31 37 3d 0a de 7e bc 89 3b 01 3e a5 b1 39 bd
       0.044725157 -0.015555868 0.12620367 -0.04533543
000380 50 49 29 bd 08 e6 b1 3d 0c b7 07 3b fe 23 9b bd
       -0.041329682 0.08686453 0.002070847 -0.07575224
000390 f0 b6 21 bd 3c ab c7 3b 49 68 4c 3d 4a fd cc 3c
       -0.039481103 0.006093411 0.04990414 0.025023121
0003a0 08 db de bd 9a 17 80 3d 6c 24 7d bc 51 c0 24 3d
       -0.10881621 0.06254502 -0.015450578 0.04022247
0003b0 de c3 cc bd b4 a8 32 bc 72 76 a8 bd 4a f6 37 bd
       -0.09998296 -0.01090448 -0.08225717 -0.044912614
0003c0 a9 c1 08 bd 89 5a f1 3a 83 b3 82 bc a2 60 75 3d
       -0.033387814 0.0018413822 -0.015954738 0.05990661
0003d0 9c be 98 3d 97 fe b0 3d 15 7e e4 3d 34 d5 df 3d
       0.07458231 0.08642309 0.11156861 0.10929337
0003e0 63 6a 5e bd 4a 57 a8 3b 9b 39 11 3b c8 e3 e1 3d
       -0.054300677 0.005137359 0.002215958 0.11029774
0003f0 eb 49 61 3c 3b 9b a6 bd e9 7b 50 3d 23 99 19 3b
       0.013750534 -0.081350766 0.05089942 0.0023437224

fc2.bias f4 [128]
000000 dc e4 80 3d d6 bc 8d 3d 0d ed 91 bd b6 b9 6f 3c
       0.062936515 0.06920783 -0.07125292 0.014631679
000010 d5 cf ba bd 05 44 91 3d 88 95 20 3d e2 68 86 bd
       -0.09121672 0.07093052 0.039205104 -0.065629736
000020 df dd 32 3d 92 07 b2 bc d2 f6 a4 bd d0 d2 28 3e
       0.043668624 -0.021732125 -0.0805489 0.16486669
000030 47 7f 90 3d 97 aa a7 3d db a9 30 3e d8 4f a7 3d
       0.07055526 0.08186834 0.17252295 0.08169526
000040 c7 85 ed 3d 8b 3c a4 bd a0 d9 2e ba b8 65 bb 3d
       0.11597782 -0.0801936 -0.0006670002 0.09150261
000050 1b f7 85 3d 50 9c a1 3d 58 c2 04 3d ec 8a 29 bc
       0.06541272 0.07891142 0.032411903 -0.010348063
000060 a5 31 16 bd d3 54 1a 3e 27 d2 ca ba 46 cd 97 3c
       -0.03666844 0.1507142 -0.0015474007 0.0185305
000070 6d 12 ab bc 57 9b c7 bc 25 69 94 bd 87 10 7d 3d
       -0.02088281 -0.024366064 -0.07246617 0.06178334
000080 d0 93 b1 3d 30 54 78 3d 52 58 7c bd d4 0c 9a 3c
       0.08670771 0.060627162 -0.061607666 0.018804945
000090 c4 9c de 3c 4e 74 7e bb 95 1c 90 bd c4 1a 7b 3b
       0.027174361 -0.0038826647 -0.070367016 0.0038315514
0000a0 92 be df 3d e0 b4 85 bd 9e 44 96 3c d3 98 a9 ba
       0.1092502 -0.0652864 0.018343266 -0.0012939222
0000b0 e9 65 21 3d 1d f3 1d bc 19 da 71 bd 29 ff 5f 3d
       0.03940383 -0.009640482 -0.059045885 0.0546867
0000c0 83 47 ce bb 8f db 16 bd ee 89 84 3d 08 08 84 3d
       -0.006295146 -0.03683048 0.064716205 0.06446844
0000d0 48 b5 ba 3d ce 49 2a 3d 41 66 8a bd c0 dc 9c bb
       0.09116608 0.041574292 -0.06757785 -0.0047870576
0000e0 ce f6 cd ba 4d 89 e0 3c b5 a6 d8 3c 54 7c 8d bb
       -0.0015713812 0.02740922 0.02644668 -0.0043177996
0000f0 4d 5f 80 bd d8 ea 46 3c e4 3f 27 ba bd 01 00 bd
       -0.06268177 0.012140952 -0.0006380065 -0.031251658
000100 72 dc 44 3d 64 f2 2f 3c cb 3b 66 bc a8 47 55 bd
       0.048061796 0.010738943 -0.014052342 -0.05207029
000110 fd ca ae bd 2b 7d 41 3d 9c f9 ab 3c 0e af e6 3c
       -0.08534811 0.04723851 0.020993046 0.028159644
000120 1c 80 5d bd 57 fe 0c bd 96 d7 3d 3e 6f 96 88 bd
       -0.054077253 -0.034422245 0.18539271 -0.06669318
000130 15 62 b7 bc 6f f4 5e 3d af 93 a8 3d 24 d6 00 3d
       -0.022385636 0.05443233 0.082312934 0.03145422
000140 0f af 13 3d 7b 1e 67 bd 40 31 03 3d 47 b1 06 bc
       0.03605562 -0.056425553 0.03202939 -0.008220977
000150 bb 10 06 3d 82 9e 38 3d cc 56 5f 3d 16 9f aa bb
       0.0327308 0.04507304 0.054526135 -0.005206953
000160 77 c1 ba bc 30 45 29 3c 67 51 8c bd 30 1a dd 3d
       -0.02279733 0.010331437 -0.06851464 0.107960105
000170 55 c5 7f bd 87 4e a6 bc 5d 0e db bc f1 72 59 bc
       -0.06244405 -0.020301117 -0.026740247 -0.013272033
000180 55 8d 71 bd 9e e4 38 bd 66 27 0c 3d 1a ac 9e 3d
       -0.058972675 -0.0451399 0.03421726 0.077476695
000190 14 da 29 3d bb f8 22 3d 1e 17 e8 bc 8f 15 ba 3d
       0.04146774 0.03978799 -0.028331336 0.09086143
0001a0 8a b9 69 3c 14 45 8a 3d 39 c3 eb 3d 59 0f d8 3c
       0.014265427 0.06751457 0.11511845 0.026374506
0001b0 8b cb 1a 3d ba 4e b8 3d 60 b9 d2 3d 62 20 f9 3c
       0.03779177 0.08999391 0.10289264 0.03041095
0001c0 66 64 de bc 61 10 ef ba c4 71 35 3d d5 30 12 3d
       -0.027147483 -0.0018239134 0.04429795 0.0356911
0001d0 4e 91 80 3d e8 f3 82 bd d8 72 af 3d da 51 a6 3d
       0.06277715 -0.06394178 0.085668266 0.08121081
0001e0 4f d8 11 3a 02 25 95 3d ff 1e 1a 3d 6f 75 b0 3c
       0.00055635435 0.07282449 0.037627216 0.021540372
0001f0 44 a9 e1 39 ec 95 a2 bc 38 75 ef 3d 44 46 ec 3a
       0.00043041457 -0.019846879 0.116922796 0.0018026312

fc3.weight f4 [1, 128]
000000 76 ae da 3d 00 f4 d6 3d 62 e1 85 be 8b 0b ab be
       0.10677807 0.10495758 -0.26148516 -0.33407244
000010 69 9b 1f be a0 08 47 3d 21 2b c0 3d d1 57 dd bd
       -0.15586628 0.04859221 0.09383226 -0.10807765
000020 12 e9 9b 3d b7 8e aa 3d 44 20 df bd ae b7 ef 3d
       0.07612814 0.08328002 -0.10894826 0.11704956
000030 23 ac a9 3d 60 62 fb 3d 05 fc ac 3d 5f 51 f3 3d
       0.082847856 0.12274623 0.084465064 0.11880755
000040 a1 b5 cc 3d f8 f4 82 3e 32 b6 1a be 1b 7b ee 3d
       0.099955805 0.2557752 -0.15108564 0.11644574
000050 fa 63 c2 3d b2 cb 0c 3e c2 a5 dd 3d 7d d6 f2 bd
       0.09491725 0.13749579 0.108226314 -0.11857317
000060 d4 e3 6a be 2a 0f c9 3d 58 18 2f be da 8c aa 3d
       -0.22938472 0.098173454 -0.1709913 0.083276466
000070 f9 68 b7 bd 35 81 28 be ba 6d 8e bd 7c c3 0a 3e
       -0.08955569 -0.16455539 -0.069545224 0.13551134
000080 24 92 c7 3d 32 98 ba 3d e3 7d 5f be 80 35 a4 3d
       0.09744671 0.0911106 -0.21825366 0.08018017
000090 e5 7f e3 3d 1b 9c 99 be 5d 31 58 be d9 4b 78 bd
       0.11108378 -0.30001912 -0.2111258 -0.06061921
0000a0 0d a8 ca 3d a5 66 91 bd 16 6e 02 3e d8 d7 18 be
       0.098953344 -0.07099656 0.12737307 -0.14926088
0000b0 3b ec d8 3d a2 98 70 be 6b 32 9e bd 7f b5 7c 3d
       0.105919324 -0.23495725 -0.0772446 0.061696526
0000c0 18 46 8a be 5a ef 07 be d8 ec d7 3d 64 65 11 3e
       -0.27006602 -0.13274899 0.10543221 0.14198834
0000d0 30 af a1 3d da ab b6 3d 67 db a6 be 39 33 f5 bd
       0.078947425 0.08919497 -0.32589266 -0.119726606
0000e0 92 f5 92 be eb 3e 02 be f8 3a ba 3d a3 6d 3d be
       -0.2870298 -0.12719314 0.09093279 -0.18498854
0000f0 e7 15 58 be 5b c6 6d be 7b 5b 89 3d fd c1 0f be
       -0.21102105 -0.23220198 0.06706902 -0.14038844
000100 35 ac 92 3d af 2b 71 be 93 60 53 3d 02 39 4c be
       0.07161752 -0.2355182 0.051605772 -0.19943622
000110 b9 98 3a be 3f b1 a6 3d 16 08 e1 bd 28 4d c7 3d
       -0.18222322 0.08139276 -0.109878704 0.09731513
000120 7d 70 a9 bd 23 60 7d bd 0a 97 03 3e 79 ff f4 bd
       -0.082734086 -0.06185926 0.12850586 -0.1196279
000130 2b 24 68 be e8 ea fc 3d b3 ef 32 3e 51 62 0b 3e
       -0.22670047 0.12349492 0.1747425 0.13611723
000140 1f 92 a2 3d 74 b2 bd bd 11 4e 9e 3d ff e4 fa bd
       0.07938027 -0.09262553 0.07729734 -0.12250709
000150 7c a4 83 be b9 b0 7d 3d ed b1 9d 3d 10 ea 97 be
       -0.2571143 0.061936114 0.07699952 -0.29670763
000160 93 bd 09 3e 32 05 22 be ed 21 37 be d6 93 3e 3d
       0.13451223 -0.15822294 -0.17884035 0.046527706
000170 b7 a2 9b be 7b db 00 be 68 79 5a 3e d0 47 47 be
       -0.3039758 -0.12583725 0.21335375 -0.19460988
000180 ea b4 04 3d 94 4c 52 3e bb 0e ab 3d 81 1a 93 3d
       0.032399096 0.20537025 0.08352419 0.071827896
000190 eb 54 fd 3d ed 35 a6 3d 73 2c 96 bd 9a 8f 06 3e
       0.123697124 0.08115754 -0.07332697 0.13140717
0001a0 c6 3a d0 3d 3f 77 e0 3d eb 46 89 3d ea 2b be 3d
       0.1016746 0.109602444 0.0670298 0.0928572
0001b0 02 d9 29 be 51 ba d9 3d d6 4e e0 3d e8 ae 18 3e
       -0.16586688 0.1063124 0.10952537 0.14910471
0001c0 8c 40 3e be 54 ad e5 bd ec de 6d 3e 3c c3 93 3d
       -0.1857931 -0.112147 0.23229569 0.072149724
0001d0 b2 4c 57 3d 63 55 40 be 45 62 b7 3d a0 01 84 3d
       0.052563377 -0.18782572 0.0895429 0.064456224
0001e0 2f ca 41 be ec 23 b2 3d 04 0f 93 be 69 0a ba 3d
       -0.18924783 0.08698258 -0.28722394 0.09084017
0001f0 6f c8 ce bd 8f f4 1e 3e f4 75 c3 3d 30 a2 eb 3d
       -0.100968234 0.15522979 0.09543982 0.11505544
