checkpoints/checkpoint_critic_2_3.pth (torch, 87959 bytes, 5 tensors)

hidden1.weight f4 [128, 37]
0.11999552 0.48523292 0.29734445 -0.26632965 0.034319915 -0.26209337 -0.074309684 -0.27715084
-0.08137802 -0.052014142 -0.26291072 0.10326267 -0.1694871 -0.058977373 -0.03113176 -0.23373468
0.67038476 -0.8762215 0.3889094 -0.27216542 0.098467164 -0.12991121 0.078617975 -0.32047164
-0.14746524 -0.27884358 -0.07342966 0.49170786 0.27278423 -0.10836067 -0.45107692 0.06318481
2.1189988 0.28322744 0.016188467 -0.16815843 -0.12702699 -0.17799236 0.25025544 0.82242364
-0.6102549 0.3297834 0.37081572 0.2772706 -0.047962863 -0.0814097 0.051265597 0.048734423
-0.02751334 0.25858387 0.22675423 0.10124659 -0.7995541 0.04446563 -0.085812904 -0.33075345
-0.16511902 0.2069745 -0.094741344 0.01927309 0.17687017 -0.22328357 -0.2810987 0.058346
0.6909454 0.5344177 0.12881742 -0.63992965 0.014977336 -1.3136191 -0.14311878 0.04985796
-0.37115964 -0.10708023 0.03891644 0.15829647 -0.105644144 -0.4762882 0.052839283 0.24419293
0.2315728 0.024517193 -0.38986892 0.1580713 0.1264979 0.12682074 0.2389383 0.25163266
0.6700898 0.08962246 -0.3768323 0.17454119 0.4283778 -0.59391916 0.17945848 -0.17310467
-0.20189753 -0.08210113 -0.42956248 -0.25621706 0.08651917 0.22207975 0.051445708 -0.017746761
-0.44473878 -0.014951095 0.43450934 0.1344151 -0.3713565 0.117376596 0.10009197 0.16555892
0.16313761 -0.51576084 -0.2205743 0.019436158 0.23821647 -0.0118564395 0.20080055 -0.12382939
0.08730104 0.11724426 -0.3150813 -0.11632092 -0.22545223 0.35870567 0.30102283 -0.184878
-0.16857845 -0.0049348962 -0.10713186 -0.052232776 0.41865033 0.24622348 -0.4254088 -0.14174482
0.27518097 0.33193502 0.6005531 -0.18514512 -0.008929193 -0.5211359 -0.059496008 0.71420646
0.13815731 -0.28882256 0.08094489 0.16116202 0.05048421 0.18671249 -0.103851736 -0.3415777
0.37529033 0.16458827 -0.22881995 -0.06058932 -0.1778647 0.113016024 0.044135 0.076198526
0.13949332 -0.041923244 -0.06547601 0.13374764 0.26758537 0.0052968776 0.07748388 -0.35557753
-0.0022000847 -0.059535682 -0.099448435 0.13109207 -0.000528735 0.20233797 0.290413 0.55424327
-0.037558246 -0.015909463 -0.47622988 -0.16083434 3.3245847 -0.2781869 0.051168043 0.14805607
-0.15018316 -0.23320521 -0.6619566 0.19430238 0.37638846 -0.40358004 0.47275308 0.25541478
0.050861396 -0.17849877 0.067884944 0.01507807 -0.12487092 0.052933753 0.18093808 0.49344736
-0.047617164 -0.008470162 0.10130605 0.16280977 -0.23313081 -0.03271239 -0.054176837 -0.039239377
-0.008460164 -0.005142639 -0.10120631 0.34137908 -0.51215225 0.2718757 -0.12703837 0.38887104
0.04385656 0.57427394 -0.058226816 -0.107995 0.2872257 -0.033112176 -0.5925822 0.37096298
-0.23780465 -0.068510026 -0.27632573 -1.1292048 -0.06372323 0.15659547 -0.41139218 0.1431163
-0.013115504 0.08935587 -0.010127118 0.8446636 -0.43582815 0.17246011 0.01662487 0.11953326
-0.37460548 -0.023627352 -0.09848116 -0.018852636 0.17590182 0.20442522 -0.26498076 0.109908104
-0.4761331 0.46885857 -0.16399905 0.034501 -0.43365774 0.030472219 0.95825744 0.0847527
00000000: 36c0 f53d 7370 f83e 883d 983e 5c5c 88be
00000010: 0a93 0c3d 1a31 86be ad2f 98bd b7e6 8dbe
00000020: 85a9 a6bd c80c 55bd 3c9c 86be 617b d33d
00000030: 078e 2dbe 4292 71bd 0808 ffbc 2558 6fbe
00000040: 569e 2b3f 0d50 60bf 221f c73e 4459 8bbe
00000050: 27a9 c93d 7207 05be 7602 a13d dc14 a4be
00000060: 2101 17be 96c4 8ebe 4a62 96bd 22c1 fb3e
00000070: 60aa 8b3e 33ec ddbd 8ef3 e6be 0a67 813d
00000080: ad9d 0740 3003 913e ad9d 843c b931 2cbe
00000090: 5d13 02be a143 36be 7b21 803e 5b8a 523f
000000a0: aa39 1cbf 5fd9 a83e 8fdb bd3e 69f6 8d3e
000000b0: b574 44bd 21ba a6bd e0fb 513d bf9d 473d
000000c0: a863 e1bc 1b65 843e 4332 683e 5f5a cf3d
000000d0: 94af 4cbf 9821 363d adbe afbd 8458 a9be
000000e0: f614 29be 20f1 533e c007 c2bd 99e2 9d3c
000000f0: 741d 353e 73a4 64be 2bec 8fbe 37fc 6e3d
00000100: cce1 303f 99cf 083f b7e8 033e 6ed2 23bf
00000110: 8063 753c ac24 a8bf bb8d 12be dc37 4c3d
00000120: a308 bebe e14c dbbd d866 1f3d 7818 223e
00000130: f55b d8bd 0cdc f3be 016e 583d b60d 7a3e
00000140: 6c21 6d3e 48d8 c83c e69c c7be 71dd 213e
00000150: aa88 013e 4cdd 013e 3eac 743e ffd5 803e
00000160: 018b 2b3f fb8b b73d 2af0 c0be edba 323e
00000170: 5654 db3e 160b 18bf f7c3 373e 5a42 31be
00000180: 3abe 4ebe a324 a8bd 9def dbbe e22e 83be
00000190: f630 b13d e068 633e bcb8 523d a861 91bc
000001a0: cdb4 e3be 70f5 74bc 0278 de3e 1da4 093e
000001b0: 7022 bebe 2463 f03d 05fd cc3d 4788 293e
000001c0: 8c0d 273e e708 04bf 3bde 61be 9438 9f3c
000001d0: 05ef 733e 8341 42bc a99e 4d3e 439a fdbd
000001e0: e3ca b23d c21d f03d 5652 a1be aa39 eebd
000001f0: f3dc 66be 45a8 b73e aa1f 9a3e a950 3dbe
00000200: d49f 2cbe e9b4 a1bb f367 dbbd 09f2 55bd
00000210: 5659 d63e 0222 7c3e 2fcf d9be 8e25 11be
00000220: 85e4 8c3e 63f3 a93e d9bd 193f af96 3dbe
00000230: c04b 12bc 2a69 05bf 16b2 73bd 3cd6 363f
00000240: 1c79 0d3e 8de0 93be 6fc6 a53d a807 253e
00000250: 88c8 4e3d 8f31 3f3e 38b0 d4bd 46e3 aebe
00000260: 0e26 c03e d489 283e c74f 6abe 822c 78bd
00000270: 2a22 36be f274 e73d e7c6 343d f90d 9c3d
00000280: 56d7 0e3e b5b7 2bbd 4918 86bd 24f5 083e
00000290: f300 893e 6e91 ad3b deaf 9e3d 420e b6be
000002a0: 4c2f 10bb b0db 73bd 9fab cbbd 003d 063e
000002b0: ce9a 0aba af31 4f3e 03b1 943e e3e2 0d3f
000002c0: add6 19bd 9054 82bc 67d4 f3be c2b1 24be
000002d0: ffc5 5440 836e 8ebe 9595 513d 039c 173e
000002e0: 9dc9 19be 59cd 6ebe fd75 29bf 34f7 463e
000002f0: fdb5 c03e 0ba2 cebe b10c f23e bac5 823e
00000300: 0a54 503d 62c8 36be 4307 8b3d 020a 773c
00000310: 53bc ffbd 10d1 583d d547 393e 22a5 fc3e
00000320: 370a 43bd 6fc6 0abc 8c79 cf3d 9bb7 263e
00000330: d8b9 6ebe 6dfd 05bd 88e8 5dbd 78b9 20bd
00000340: 809c 0abc 9583 a8bb 4145 cfbd 3dc9 ae3e
00000350: 691c 03bf 4b33 8b3e 5916 02be 1b1a c73e
00000360: f0a2 333d 9e03 133f 3e7f 6ebd 7c2c ddbd
00000370: 3f0f 933e a2a0 07bd 78b3 17bf dcee bd3e
00000380: 1083 73be fc4e 8cbd 917a 8dbe c889 90bf
00000390: 5381 82bd 905a 203e ffa1 d2be 148d 123e
000003a0: 69e2 56bc 3600 b73d 36ec 25bc e03b 583f
000003b0: de24 dfbe 6299 303e e130 883c dbcd f43d
000003c0: 4acc bfbe 268e c1bc 7eb0 c9bd d870 9abc
000003d0: 9b1f 343e d854 513e 8fab 87be 8017 e13d
000003e0: b8c7 f3be 3b0e f03e 5eef 27be ec50 0d3d
000003f0: 6308 debe e0a0 f93c 5c50 753f d392 ad3d

hidden1.bias f4 [128]
-0.6576749 -0.570688 -0.2076545 -0.40349653 -0.51626503 0.45029175 -0.50164276 -0.8491329
-0.2935184 -1.0802157 -0.5971988 -0.76255167 0.105943084 0.30010992 -0.6092147 -0.56512314
-0.39842117 -0.1150825 -0.20072983 -0.3687761 -0.4686347 -0.34638584 0.36803183 -0.15003587
-0.14867638 -0.6802478 -0.2440004 -0.5406902 0.49570638 0.13788895 -0.38673642 -0.51636493
-0.749556 -0.6290136 0.13516273 -0.37343067 -0.30037087 -0.56752384 -0.59808415 -0.72324353
0.23522483 -0.3473743 -0.159642 -0.7642589 -0.58022344 -0.6236924 -0.3285119 -0.13438754
-0.78115124 -0.70213306 -0.36256096 -0.28909272 0.18616301 -0.46222377 -0.30496335 -0.45664743
-0.87352747 -0.67637175 -0.94613814 -0.4445967 -0.3923997 -1.3508226 -0.5784901 -0.3179324
-0.66744894 -0.58139545 -0.6365307 -0.30696958 -0.84119093 -0.4544118 -0.49516973 -0.27299592
-0.6708218 -0.5024001 -0.5707021 -0.42866743 -0.6580625 -0.5058875 -0.40823907 -0.67236775
-0.34694287 -0.538781 -0.79730296 -0.8018354 -0.679287 -0.12670973 -0.50694597 -0.33336633
-0.11906266 -0.32402703 -0.38339022 -0.45861375 0.25210539 -0.099259295 -0.52870065 -0.18670315
-0.51256526 -0.048833027 -0.41065255 -0.63044894 0.18548952 0.42612746 -0.6651854 -0.13563052
-0.7285128 -0.4589628 -0.68243223 0.5491637 -0.56623673 0.2229623 -0.6723882 -0.66277725
-0.5079663 -0.39790806 0.4983511 0.14368771 -0.45061478 -0.29889512 0.67061394 -0.5926337
-0.25292784 -0.8746279 -0.5754771 -0.47552395 -0.38782987 -0.9364985 -0.71653676 0.014093072
00000000: 625d 28bf 9c18 12bf 62a3 54be 1997 cebe
00000010: f229 04bf a48c e63e a96b 00bf c660 59bf
00000020: 0b48 96be 8244 8abf 05e2 18bf 9636 43bf
00000030: b0f8 d83d 02a8 993e 7ff5 1bbf e9ab 10bf
00000040: dcfd cbbe 60b0 ebbd 1f8c 4dbe 39d0 bcbe
00000050: e3f0 efbe 7c59 b1be ab6e bc3e 01a3 19be
00000060: 9f3e 18be b824 2ebf 3edb 79be ac6a 0abf
00000070: 3acd fd3e c332 0d3e 5102 c6be 7e30 04bf
00000080: e7e2 3fbf 0907 21bf 1968 0a3e 4e32 bfbe
00000090: 36ca 99be 3e49 11bf 0b1c 19bf 7d26 39bf
000000a0: c7de 703e 0bdb b1be 3179 23be 79a6 43bf
000000b0: 8689 14bf 4eaa 1fbf b632 a8be e39c 09be
000000c0: 87f9 47bf febe 33bf 97a1 b9be f603 94be
000000d0: 84a1 3e3e 98a8 ecbe 2824 9cbe b1cd e9be
000000e0: 7f9f 5fbf b326 2dbf 1c36 72bf 2ea2 e3be
000000f0: 9de8 c8be c1e7 acbf ed17 14bf 09c8 a2be
00000100: efdd 2abf 55d6 14bf adf3 22bf 1e2b 9dbe
00000110: 4a58 57bf aaa8 e8be e386 fdbe 1fc6 8bbe
00000120: faba 2bbf 4b9d 00bf 8819 12bf 4c7a dbbe
00000130: c976 28bf d881 01bf b604 d1be 4b20 2cbf
00000140: 7fa2 b1be 8ded 09bf 0c1c 4cbf 1645 4dbf
00000150: c1e5 2dbf 32c0 01be 36c7 01bf feae aabe
00000160: 20d7 f3bd dfe6 a5be b94b c4be 6ccf eabe
00000170: f513 813e 7548 cbbd ed58 07bf 1c2f 3fbe
00000180: 7a37 03bf 2405 48bd 0d41 d2be 1a65 21bf
00000190: f7f0 3d3e 612d da3e 9749 2abf bae2 0abe
000001a0: d17f 3abf 2cfd eabe e1b3 2ebf fe95 0c3f
000001b0: e4f4 10bf 3b50 643e a221 2cbf c5ab 29bf
000001c0: 140a 02bf 9bba cbbe e027 ff3e df22 133e
000001d0: fbb6 e6be c808 99be 5bad 2b3f d8b6 17bf
000001e0: c27f 81be 9de7 5fbf 7852 13bf e077 f3be
000001f0: a391 c6be 5ebe 6fbf f46e 37bf a1e6 663c

hidden2.weight f4 [128, 128]
-0.032151494 -0.08242502 -0.010135435 -0.04794928 0.013534616 0.042695608 -0.07555406 -0.034927107
-0.054782443 -0.0036407246 -0.04013241 0.063999996 -0.036425333 -0.05704154 0.02136084 -0.12019163
-0.1079607 0.052449517 0.046263233 0.023426108 -0.13954027 -0.058124952 -0.064267404 -0.02248729
0.028221928 -0.066523805 -0.014983555 -0.002596888 -0.0030002946 -0.07096798 0.029791165 -0.09749304
-0.1187657 -0.042082574 0.005770591 -0.012646828 -0.0958639 0.04300434 -0.059890136 -0.0399982
-0.10808518 0.0048592268 -0.054523055 -0.1025777 0.057113077 -0.008234652 -0.064659886 0.020865614
-0.07117398 -0.06761621 -0.10997806 -0.029592939 -0.089377865 0.002806016 -0.05964432 -0.010187026
-0.031014727 -0.09453947 -0.002959097 0.0053543337 -0.06095517 -0.10017882 -0.10282712 -0.006135416
-0.014742193 0.040353052 0.0124951415 0.058019392 0.0026050333 -0.11279295 -0.026513333 0.014653205
-0.03828335 -0.0550414 0.047074914 0.08112342 -0.09358162 -0.082779415 -0.040305857 -0.110379875
-0.06547919 -0.08646678 0.007922836 -0.043060448 -0.15055162 -0.11059931 -0.033169176 -0.112142205
0.022986446 -0.16926633 0.038196366 0.06273616 0.009584843 -0.080536366 -0.055664826 -0.0866006
-0.036430053 0.006208432 -0.037887108 0.08657332 -0.06348971 -0.079135075 0.031305853 -0.07120843
-0.08325731 -0.085505374 -0.0014111088 -0.023107106 -0.03451478 0.029935302 -0.09782707 -0.07096255
-0.064695016 0.07515607 0.053543635 0.048731543 0.061387938 -0.033582106 -0.09767651 0.019322455
0.004270511 -0.08915133 -0.095050626 -0.0037362585 -0.021624405 0.029651135 0.039259322 0.0330651
-0.042610597 -0.08764532 -0.0618567 -0.04395095 -0.083653696 -0.040580206 -0.04268464 -0.014673519
-0.028021542 -0.010640232 -0.09575197 0.034631543 0.03755569 -0.107655816 -0.08374306 -0.031480506
-0.0106891235 0.037905477 0.06918389 0.029908534 -0.096099354 -0.055113852 -0.13609214 -0.028109722
0.020611709 -0.026278675 -0.045240182 -0.09097955 -0.014793507 -0.059978083 0.02809055 -0.0087265195
-0.0066060345 -0.112229586 -0.09735817 -0.028879171 -0.03700829 0.04102162 -0.09156702 -0.025066389
-0.10035369 -0.007622538 0.03394491 0.047949888 0.076163985 -0.10577357 0.02885022 0.032553952
0.049540665 0.039291058 -0.07734906 0.030624924 0.057885 -0.0825899 0.025485754 0.057094466
0.05862427 -0.0733345 0.03529677 -0.009037991 -0.056322444 -0.037866767 -0.06193586 -0.09554118
-0.07016417 0.01333487 -0.083643496 -0.014212878 0.03777692 -0.06643094 -0.070937626 0.02472123
0.0058690463 -0.14770922 0.0027141063 0.031406313 0.045144293 -0.107261576 -0.037339292 -0.049093015
-0.077694274 -0.029024817 0.013079244 -0.11923951 0.06678951 -0.09892433 -0.013017087 -0.025715124
-0.061965868 -0.056132324 -0.085737176 0.014655578 0.03937769 0.03033293 -0.068071276 -0.039285634
-0.04814749 0.03600096 -0.032859538 0.056593865 0.041866258 0.020760765 -0.0047445633 0.0069283573
-0.0984133 -0.06482584 -0.025696214 0.026821943 -0.091884285 0.027111476 -0.075138085 -0.02654769
-0.014573859 -0.10431201 0.022108749 -0.06477922 -0.05606726 -0.04575881 -0.14554612 -0.005660977
0.04182162 -0.10284975 -0.09500675 -0.005068925 -0.13488808 -0.041862775 0.05836693 0.018934425
00000000: 49b1 03bd 73ce a8bd 180f 26bc 7766 44bd
00000010: 4bc0 5d3c 97e1 2e3d 16bc 9abd ba0f 0fbd
00000020: 8e63 60bd 3999 6ebb e261 24bd 6e12 833d
00000030: bb32 15bd 64a4 69bd eefc ae3c 0827 f6bd
00000040: 801a ddbd 4ed5 563d 847e 3d3d 1ce8 bf3c
00000050: a5e3 0ebe 6e14 6ebd a19e 83bd 4437 b8bc
00000060: ac31 e73c a23d 88bd 967d 75bc 8d30 2abb
00000070: 97a0 44bb a957 91bd 9a0c f43c 6eaa c7bd
00000080: 6e3b f3bd c75e 2cbd 3a17 bd3b a434 4fbc
00000090: 4b54 c4bd 5225 303d 5c4f 75bd 27d5 23bd
000000a0: c35b ddbd 263a 9f3b 9153 5fbd 4214 d2bd
000000b0: 67ef 693d a2ea 06bc 676c 84bd 5dee aa3c
000000c0: aac3 91bd 5e7a 8abd 2d3c e1bd e46c f2bc
000000d0: be0b b7bd 23e5 373b 9a4d 74bd 7ce7 26bc
000000e0: 9912 febc e99d c1bd 69ed 41bb 6873 af3b
000000f0: 21ac 79bd 8e2a cdbd 0697 d2bd 9a0b c9bb
00000100: 3d89 71bc 3e49 253d 6cb8 4c3c bea5 6d3d
00000110: 35b9 2a3b fdff e6bd 7d32 d9bc ff13 703c
00000120: 01cf 1cbd 1773 61bd a0d1 403d 0924 a63d
00000130: b8a7 bfbd 4188 a9bd c117 25bd d80e e2bd
00000140: f419 86bd 7f15 b1bd c8ce 013c 2760 30bd
00000150: 342a 1abe e481 e2bd 67dc 07bd d0aa e5bd
00000160: 124e bc3c 2754 2dbe cb73 1c3d d17b 803d
00000170: bf09 1d3c 40f0 a4bd cd00 64bd a85b b1bd
00000180: ae37 15bd 1a70 cb3b 832f 1bbd 5a4d b13d
00000190: e506 82bd 9211 a2bd 913a 003d bad5 91bd
000001a0: cf82 aabd 711d afbd f4f4 b8ba 1d4b bdbc
000001b0: 5f5f 0dbd e13a f53c 8f59 c8bd d054 91bd
000001c0: d27e 84bd 6deb 993d 9250 5b3d ba9a 473d
000001d0: eb71 7b3d 648d 09bd 9f0a c8bd 204a 9e3c
000001e0: a5ef 8b3b f994 b6bd e7a9 c2bd 04dc 74bb
000001f0: aa25 b1bc f0e6 f23c 62ce 203d 456f 073d
00000200: 7388 2ebd 647f b3bd 735d 7dbd e905 34bd
00000210: a152 abbd 6e37 26bd 17d6 2ebd 3369 70bc
00000220: 6f8d e5bc 5e54 2ebc 9c19 c4bd ced9 0d3d
00000230: ffd3 193d a77a dcbd 7b81 abbd b4f1 00bd
00000240: 6f21 2fbc c642 1b3d 49b0 8d3d be02 f53c
00000250: bdcf c4bd 10bf 61bd bd5b 0bbe 5c46 e6bc
00000260: e3d9 a83c 6046 d7bc c54d 39bd 7c53 babd
00000270: 7760 72bc 94ab 75bd 271e e63c adf9 0ebc
00000280: 6f77 d8bb a0d8 e5bd b863 c7bd 0394 ecbc
00000290: 0196 17bd 4906 283d 7d87 bbbd 0758 cdbc
000002a0: 3c86 cdbd 7cc6 f9bb d109 0b3d 1a67 443d
000002b0: ddfb 9b3d d09f d8bd 4c57 ec3c 4b57 053d
000002c0: 27eb 4a3d a9ef 203d 2f69 9ebd 1fe1 fa3c
000002d0: d218 6d3d e524 a9bd 80c7 d03c e3db 693d
000002e0: 0120 703d 6630 96bd 5993 103d 1514 14bc
000002f0: 5db2 66bd 2f1a 1bbd 75b0 7dbd 18ab c3bd
00000300: 3bb2 8fbd 807a 5a3c 484d abbd 22dd 68bc
00000310: f9bb 1a3d f20c 88bd bf47 91bd 2d84 ca3c
00000320: 2151 c03b 1641 17be 26df 313b e8a3 003d
00000330: 39e9 383d f5ab dbbd 16f1 18bd c215 49bd
00000340: 2d1e 9fbd 74c5 edbc 534a 563c d833 f4bd
00000350: f0c8 883d d798 cabd 9f45 55bc 86a8 d2bc
00000360: eccf 7dbd 02eb 65bd f996 afbd f31d 703c
00000370: 804a 213d c47c f83c f468 8bbd f9e9 20bd
00000380: 4d36 45bd be75 133d b997 06bd f8ce 673d
00000390: f47b 2b3d 7b12 aa3c 4878 9bbb 4607 e33b
000003a0: ea8c c9bd 69c3 84bd de80 d2bc b1b9 db3c
000003b0: d42d bcbd e318 de3c ffe1 99bd 8b7a d9bc
000003c0: 32c7 6ebc 89a1 d5bd 681d b53c f8aa 84bd
000003d0: c9a6 65bd 976d 3bbd 0b0a 15be b87f b9bb
000003e0: 264d 2b3d e4a2 d2bd e692 c2bd 3a19 a6bb
000003f0: 1a20 0abe 4d78 2bbd 2912 6f3d 5e1c 9b3c

hidden2.bias f4 [128]
-0.14151068 0.046469938 0.010020702 0.6983355 -0.040562946 1.0493021 -0.1155428 -0.08817491
-0.14590189 -0.115382895 0.44935152 -0.05422631 0.005825516 -0.074090295 -0.09771536 -0.13088927
-0.1240733 -0.06737485 -0.13886859 -0.07266394 -0.15057519 -0.045254808 -0.004395028 0.5490256
-0.11713452 -0.06381267 -0.017676247 -0.11985053 -0.11693326 -0.09225162 -0.08561442 0.015437155
-0.07214553 0.043129366 -0.0009142381 -0.08300782 0.06125377 -0.0796309 0.011109906 -0.03410507
-0.14452054 0.03356617 0.0023289877 -0.20195584 -0.076579995 -0.087574996 -0.016785862 -0.23426883
-0.14921291 -0.15059617 -0.11234423 -0.016959919 -0.102818154 -0.14623378 0.6487232 -0.10595539
-0.097253546 -0.030793443 -0.12145335 -0.05273561 -0.19954683 -0.15302528 -0.04267569 -0.08786404
1.030653 0.052290447 -0.0038282697 -0.023285262 -0.016432729 -0.07311198 -0.14853314 -0.030245233
-0.08122072 -0.0717765 0.043258715 0.036406264 -0.09452833 -0.01435684 -0.056116868 -0.115917176
-0.09057307 -0.09898215 -0.08422146 -0.12956549 -0.059883825 -0.10066017 -0.13508266 -0.0942369
-0.08619967 -0.15477158 0.38625848 -0.1318836 -0.0047753514 -0.0066902237 -0.076422974 -0.15194854
-0.11583185 0.0026069942 -0.057563264 -0.4440907 0.012578396 -0.043303106 -0.10770337 -0.05543561
-0.064132996 -0.07382271 0.3670302 -0.14211474 -0.10238982 -0.023546906 0.009239221 -0.12589061
-0.055371895 0.486239 -0.025370548 0.5568647 -0.09912082 0.010010276 -0.31546807 -0.094129935
0.035554796 -0.04213397 -0.15143102 -0.12156547 -0.12767845 0.024708632 -0.059444405 0.567688
00000000: 2de8 10be 4357 3e3d df2d 243c 1ec6 323f
00000010: 5525 26bd 884f 863f b4a1 ecbd 0c95 b4bd
00000020: 4e67 15be de4d ecbd 6711 e63e 681c 5ebd
00000030: f8e3 be3b a7bc 97bd fe1e c8bd d607 06be
00000040: 241a febd d3fb 89bd 9133 0ebe d5d0 94bd
00000050: 6230 1abe 1b5d 39bd 2b04 90bb f18c 0c3f
00000060: 39e4 efbd 38b0 82bd c7cd 90bc 3274 f5bd
00000070: b47a efbd 6bee bcbd 9d56 afbd 1fec 7c3c
00000080: 09c1 93bd 6ba8 303d 7ba9 6fba 0100 aabd
00000090: 3ce5 7a3d 8615 a3bd 5306 363c c2b1 0bbd
000000a0: 31fd 13be ae7c 093d eea1 183b 83cd 4ebe
000000b0: f9d5 9cbd 855a b3bd 8182 89bc 2be4 6fbe
000000c0: 45cb 18be e235 1abe bb14 e6bd 87ef 8abc
000000d0: 5392 d2bd 4fbe 15be b912 263f 24ff d8bd
000000e0: de2c c7bd 8842 fcbc 89bc f8bd 4c01 58bd
000000f0: 0156 4cbe a9b2 1cbe b4cc 2ebd 10f2 b3bd
00000100: 70ec 833f 822e 563d b5e3 7abb bcc0 bebc
00000110: ee9d 86bc bcbb 95bd 1219 18be dac4 f7bc
00000120: 0d57 a6bd 8fff 92bd 0d30 313d bc1e 153d
00000130: 1298 c1bd f438 6bbc cdda 65bd fc65 edbd
00000140: 607e b9bd 27b7 cabd 4d7c acbd d1ac 04be
00000150: be48 75bd eb26 cebd 1c53 0abe 47ff c0bd
00000160: 7489 b0bd 717c 1ebe acc3 c53e 7f0c 07be
00000170: 8d7a 9cbb aa39 dbbb a683 9cbd 6698 1bbe
00000180: 4039 edbd 1bda 2a3b 75c7 6bbd db5f e3be
00000190: 9e15 4e3c 995e 31bd 9693 dcbd 7310 63bd
000001a0: 2958 83bd 5c30 97bd 62eb bb3e 8786 11be
000001b0: c1b1 d1bd 71e5 c0bc 1a60 173c 78e9 00be
000001c0: a4cd 62bd 51f4 f83e e5d5 cfbc af8e 0e3f
000001d0: dbff cabd 2402 243c 0885 a1be 32c7 c0bd
000001e0: e8a1 113d ab94 2cbd bc10 1bbe 51f7 f8bd
000001f0: 24be 02be c269 ca3c fa7b 73bd 0054 113f

out.weight f4 [1, 128]
-0.014252129 -0.0077161132 0.023491444 0.025005052 0.029424228 0.08783334 -0.019099489 -0.013303941
0.019093398 -0.028245429 0.019484153 -0.00065910356 -0.009430032 0.0020728058 0.0152438255 -0.014823312
0.007303514 -0.0037297818 0.03233632 -0.005657985 0.012775774 -0.0027308948 -0.027978187 -0.016534528
-0.0053402013 -0.029039048 0.0029032426 0.0015825246 -0.0068410872 0.005420291 0.00912462 -0.022478499
-0.005115138 -0.014305534 0.030304423 0.019573826 -0.0059935953 0.013054607 -0.0031988595 -0.008385337
0.0020116123 -0.00042309563 0.003833208 -0.060537852 0.0083619 -0.021227794 -0.01332302 0.02462385
-0.08847699 0.021834472 -0.02014753 0.00023006726 0.018621972 -0.038862053 0.028504726 -0.07311734
-0.0066912537 -0.002436202 -0.031230563 0.009918491 0.00047474168 0.014678639 0.016008629 -1.4402207e-05
0.10975142 0.002645408 -0.02850928 0.0030682504 0.0018529207 0.0052659 -0.026173927 0.0028857344
0.023884414 0.0026362003 -0.015786959 -0.002486193 -0.00071739627 -0.010878101 0.0057386234 0.030412165
0.005680381 0.0050385026 -0.0071801674 0.0068814997 -0.008550015 -0.022237187 -0.01269362 -0.0014871546
0.027416993 0.014179774 0.03737006 -0.008026789 0.050117895 0.023539409 -0.0016468508 -0.024396975
-0.001633254 0.008899631 0.012607346 -0.03775243 0.02014784 0.029960796 0.020970324 -0.004546373
-0.011790476 -0.011955047 0.056610048 0.016882446 -0.007697621 0.0011458256 0.011501111 -0.011918255
0.00012259361 0.023104351 -0.01822487 0.015738446 -0.0178803 0.023488304 -0.035526168 -0.0059072133
-0.0026141447 -0.123993784 -0.009182192 0.036188763 0.0013764048 -0.057476554 -0.06209366 0.01706599
00000000: c381 69bc 73d7 fcbb 2171 c03c 65d7 cc3c
00000010: 140b f13c f7e1 b33d 8876 9cbc c6f8 59bc
00000020: c269 9c3c f562 e7bc 3b9d 9f3c b1c7 2cba
00000030: 6c80 1abc e9d7 073b 3dc1 793c 7add 72bc
00000040: 5152 ef3b 5b6f 74bb 1773 043d 9e66 b9bb
00000050: 7b51 513c d0f8 32bb 8332 e5bc 6b73 87bc
00000060: dbfc aebb 4ce3 edbc 5444 3e3b b76c cf3a
00000070: 332b e0bb b29c b13b 6e7f 153c d424 b8bc
00000080: e39c a7bb c261 6abc fb40 f83c 4a59 a03c
00000090: ec65 c4bb fee2 553c f5a3 51bb a762 09bc
000000a0: 41d5 033b efd2 ddb9 8f36 7b3b 8af6 77bd
000000b0: 5a00 093c e9e5 adbc cc48 5abc f5b7 c93c
000000c0: 6d33 b5bd 35de b23c 6f0c a5bc 363e 7139
000000d0: 1b8d 983c d12d 1fbd be82 e93c 8bbe 95bd
000000e0: 4e42 dbbb b0a8 1fbb 3dd7 ffbc 2b81 223c
000000f0: c0e6 f839 ad7e 703c 8724 833c 02a1 71b7
00000100: 5ac5 e03d 955e 2d3b 4b8c e9bc b314 493b
00000110: b4dd f23a 928d ac3b b46a d6bc 971e 3d3b
00000120: 3fa9 c33c 1ac4 2c3b a753 81bc 66ef 22bb
00000130: a60f 3cba 103a 32bc 100b bc3b ef22 f93c
00000140: 7d22 ba3b 061a a53b 9c47 ebbb 347e e13b
00000150: 5d15 0cbc c32a b6bc e7f8 4fbc a1ec c2ba
00000160: 9a99 e03c 4852 683c 5911 193d cb82 03bc
00000170: 6c48 4d3d b8d5 c03c 25db d7ba 2adc c7bc
00000180: e912 d6ba c2cf 113c 0b8f 4e3c 4ba2 1abd
00000190: 150d a53c 5870 f53c f5c9 ab3c bef9 94bb
000001a0: d72c 41bc 1adf 43bc f0df 673d 0e4d 8a3c
000001b0: 533c fcbb 872f 963a 286f 3c3c c944 43bc
000001c0: 798c 0039 5645 bd3c 534c 95bc eaed 803c
000001d0: b579 92bc 8b6a c03c e383 11bd 4c91 c1bb
000001e0: 1252 2bbb 74f0 fdbd e870 16bc ab3a 143d
000001f0: 7b68 b43a 896c 6bbd ec55 7ebd facd 8b3c
