checkpoints/checkpoint_critic_4_median_6.pth (torch, 87959 bytes, 5 tensors)

hidden1.weight f4 [128, 37]
00000000: 2cbf c63e 36ba dd3c 8ac0 343e 808c 00bf
00000010: 87d0 123e 6dc1 2cbf 372d 5c3e ec14 ea3d
00000020: 6d11 c4be 8705 27bd bcf1 573e 5a6f 803a
00000030: f4cf 5d3e fa34 9d3e 4751 05bf 2b66 9f3e
00000040: 1782 813f 0a77 8ebe 9ebc 99bd 4219 77bd
00000050: 504c 3e3e 0025 b23e a1e5 9c3d a3e8 5ebe
00000060: 27e5 e9bd 25d8 453e 6b28 01bf 306d 913f
00000070: 03b1 10be b8d7 b63c aea6 9fbf d4de 4e3d
00000080: 3412 6dbf 52b0 e5bd f0d2 1ebe d913 0c3f
00000090: 5732 2abe 6e95 f0be aebd cf3c e8b2 3ebb
000000a0: 677d 3abf 8fb9 9a3f 3b73 14bf e433 88be
000000b0: 82e2 9d3d 0bd1 dfbe d3ca ccbe e239 16be
000000c0: fc3e f8bd 94e2 223c 5212 48be dc0f a7bc
000000d0: 4073 683e 388a 2c3d e543 f8be 50f8 873e
000000e0: ce4c 08be 1a4f 7f3e c3cb 9cbe 2b7d cebe
000000f0: 6e08 553e 7f07 353d 64df 663e 12dd d43e
00000100: 85a5 313f 3c19 2dbe c8de 04bd 6369 5abf
00000110: 2689 3bbd 3aca 963f fb69 81bc 40cd 0f3e
00000120: 056c d83e e0c9 5dbf 525d 9abc f256 7bbe
00000130: 3eef 9b3d 7d0a b23e 37ef 57be ef73 5b3e
00000140: 56ef 12be 12d6 de3d 3ad0 c3bc 0331 893d
00000150: ffc6 6cbd f1d4 143e 366d 52be d35b 7abd
00000160: 3781 713d cfca 9fbe 3ff0 c7be 7da3 293e
00000170: 85b9 e43d 0bf6 96bd 94c1 91bd 6d1a 8e3d
00000180: d1a7 123d 2221 fbbc dbd4 7dbc 1714 a9bd
00000190: 446a 81bc a232 30be d9aa ddbe 80da 3c3d
000001a0: d36f 883e 28e9 db3c 92d5 d23e cc98 893c
000001b0: d79b 983d f58f 833e 8d57 a53d 9d90 a63d
000001c0: 3020 4b3e 7eba 63be 277e 8dbe ecbf 1ebe
000001d0: 8d79 ba3e aa18 7a3d f275 17bd 360e 173e
000001e0: 0171 25bd 8d33 a83c ed67 033d 1fbc febd
000001f0: 9921 203e 080e f43d 04fd 033e defe fdbc
00000200: 3cf1 583e ecac b13c 033e 243e 2b18 793d
00000210: 0cae 2c3e b2b9 11bb 7f95 ab3b d780 cf3d
00000220: 09e4 203d 2544 e8be 100c 863f 30e9 ad3e
00000230: ec6a 133d a413 78bf 3277 94bd 8051 d0c0
00000240: 722a 1fbc 3d83 123d 3684 fb3d 8aa2 a03d
00000250: a3aa 26be 29d5 143f b0ec 533d 3446 943c
00000260: 6b5f bebd 2422 23bf 9131 15bf ada1 a53e
00000270: 117a 493e 28d3 9ebe e71d dcbd 8e92 ba3e
00000280: d90a d7be 984b dcbc ff37 293e f0b5 fdbd
00000290: 385a b6bd f8c3 0dbf 610b 193e 033b 74be
000002a0: cf49 243e 4ad9 dcbe 3ac1 c13d c4cb 83be
000002b0: 2334 aabe 411e cfbe af01 01bf bb0a 5c3f
000002c0: a954 c8bd 4f9a e9bd a7a5 6cbf 06a0 59bd
000002d0: 199a 8d3f 0a39 d93e 5963 9cbe d53e 5f3e
000002e0: 3847 5b3d 03ca c4bd f3d2 4c3f e071 4e3e
000002f0: 48fe 00bf 8659 9a3e c48e 19be b253 2dbf
00000300: 5005 acbd dfdf 55be 131e 9e3e b89a 66be
00000310: b3c3 1b3f 3b22 103e da2c 8f3e 15df fcbe
00000320: f9d7 2bbd 6dc4 b9be adf8 5d3e 7818 7bbf
00000330: 9146 bebd cc20 ab3d 0281 6fba f29f 663e
00000340: 7905 18bc 9e36 07be a265 183e d0d6 26be
00000350: 897f 773f 21e4 f8be 5a80 c8bd e64e 44bf
00000360: 598b 013e 37b0 883e 2df1 103e 9677 2d3e
00000370: 22bc c9bf 67f3 663e 9be9 0b3f d5e4 973f
00000380: 8f6b 82be de13 0dbf f6d4 d33e cb54 a4bf
00000390: a5dd b13e a21c 583e f36b 59bf d216 273f
000003a0: a3ec f9bd e16c 11bf 1afb 4fbe 8308 a9bb
000003b0: c07a 1b3e 2240 d7bd ea42 a03e 82e6 dd3e
000003c0: d93c 813e 5891 9ebc 6d94 a5be 9ed8 7ebd
000003d0: cf1c b3bd d442 16be ee84 fd3e ae29 62bc
000003e0: 559e 9c3e 28c9 843f 5d3c 0ebe 9d68 1d3e
000003f0: 92a8 a1bf e824 d23c 46f0 f7bf 9991 a23e
0.38817728 0.027066331 0.17651573 -0.50214386 0.1433736 -0.67482644 0.21501623 0.11429772
-0.38294545 -0.040776756 0.21088308 0.000979881 0.21661359 0.3070448 -0.52077144 0.31132635
1.0117825 -0.27825195 -0.07506679 -0.060326822 0.18583798 0.34793854 0.07660986 -0.21768431
-0.114206605 0.19320734 -0.504523 1.1361446 -0.14130025 0.02231966 -1.2472742 0.050505474
-0.926059 -0.11215271 -0.15510154 0.54717785 -0.16620766 -0.46989006 0.025359001 -0.0029098336
-0.728476 1.2087878 -0.5798833 -0.2660209 0.077092186 -0.43714175 -0.39998493 -0.14670518
-0.12121388 0.009941716 -0.19538239 -0.020393305 0.22700214 0.042124003 -0.484893 0.26556635
-0.13310549 0.24932519 -0.30624208 -0.4032987 0.20803997 0.044196602 0.22546154 0.41574913
0.6939319 -0.16904157 -0.032439023 -0.8531706 -0.04578509 1.1780465 -0.015797606 0.1404314
0.42269912 -0.8663616 -0.018843327 -0.24544886 0.07613991 0.34773627 -0.21087347 0.21430944
-0.14349112 0.108806744 -0.023903001 0.06698801 -0.057806965 0.14534356 -0.20549473 -0.061122727
0.05896112 -0.31209418 -0.3905048 0.16566272 0.111681975 -0.07371148 -0.07117 0.06938634
0.035804573 -0.030655447 -0.015492643 -0.08255785 -0.015797742 -0.17206815 -0.4329441 0.046106815
0.26647815 0.026844576 0.41178566 0.016796492 0.07451599 0.25695768 0.080733396 0.081330515
0.19836497 -0.2223911 -0.2763531 -0.155029 0.3642086 0.061058678 -0.036977716 0.14751515
-0.040390972 0.020532394 0.032081533 -0.12438225 0.15637816 0.11916739 0.12889487 -0.03100532
0.21185774 0.0216889 0.1603928 0.060814064 0.16863269 -0.0022235927 0.005236327 0.10131996
0.03927997 -0.4536449 1.0472431 0.3396697 0.03599064 -0.9690497 -0.07249297 -6.5099487
-0.00971471 0.03576969 0.122810766 0.07843502 -0.1627603 0.58137757 0.051739395 0.018099882
-0.09295543 -0.6372397 -0.5827876 0.3234991 0.19675471 -0.31020474 -0.10747891 0.36439937
-0.42000464 -0.026891515 0.16525267 -0.123882174 -0.089039266 -0.5537715 0.14945747 -0.23850636
0.1604378 -0.43134528 0.09460683 -0.25741398 -0.33242902 -0.4045277 -0.50393194 0.85953873
-0.09781773 -0.11406385 -0.92440265 -0.053131126 1.1062652 0.4242633 -0.30544546 0.21801312
0.053534716 -0.09608843 0.8000938 0.20160627 -0.50388 0.30146426 -0.14995867 -0.67705834
-0.08399451 -0.20886181 0.3088232 -0.22519958 0.6084549 0.14075558 0.27963907 -0.49388948
-0.041954014 -0.36282673 0.21676894 -0.9808421 -0.09290803 0.08355865 -0.000913635 0.22521952
-0.0092786485 -0.13204429 0.1488252 -0.16292882 0.9667898 -0.4861155 -0.09790106 -0.7668289
0.12650813 0.2669694 0.14154501 0.1694015 -1.5760539 0.22553788 0.5465333 1.1866709
-0.25472686 -0.5510844 0.41373414 -1.2838377 0.34739414 0.21104673 -0.8493034 0.65269196
-0.12203338 -0.5680676 -0.20310631 -0.0051584854 0.15183544 -0.10510279 0.3130105 0.43339926
0.25241736 -0.019356415 -0.32339802 -0.0622183 -0.08745729 -0.1467393 0.4951548 -0.0138038825
0.30589548 1.0373888 -0.13890214 0.15371938 -1.2629569 0.025652364 -1.9370201 0.31751707

hidden1.bias f4 [128]
00000000: 607a 9cbf 2411 7abf 8466 cd3e 89e0 84bf
00000010: 1581 71bf a7dd 80bf 4f06 8fbf 6d4d 49bf
00000020: 1c15 dcbe 0a2c 42bf fad4 ddbe 97fc 4ebf
00000030: 4fc8 aebf 6cc6 31be f9ef 65bf c6ab 6cbd
00000040: 05dd f6be b7f3 52bf e4ee 1fbf 112f 9cbf
00000050: 8596 34bf 1e06 bfbe 7314 9cbf 47b8 2fbf
00000060: 32f8 2fbf 4c1a 84bf 7c40 45bf 7d4e 86bf
00000070: df81 90bf 128b a0bf 9b97 6abf f846 5f3d
00000080: c754 8cbf 4ea7 22bf 9400 a4bf 2133 40bf
00000090: d6db 28bf 1c32 85bf 01e0 5bbf 9ccc a8bf
000000a0: 0816 0fbf 23e9 74bf 15cd 5cbe 3a70 27bf
000000b0: 89ea 953d 1e41 64bf 8ab3 8bbf 0452 27bf
000000c0: b215 17be baa1 83bf c6ed 3dbf f02f 97bf
000000d0: a940 f33e d626 cebe 21fc 4abf ac36 4dbf
000000e0: 8064 60be 51cb 03be 5d2f eabe 5b77 3abf
000000f0: 6104 64bf b293 7ebf e41d d33d 0f4c 89bf
00000100: 2d9d e8be 801c 17bf f7ab 4b3f 31aa 25bf
00000110: 070d 1fbf 622c 3ebf 741a 41bf 9124 95bf
00000120: 525d 66bc 1643 263f a97b e93e 7e71 e3be
00000130: 84a3 963f fdce 8ebf 4ee1 7cbf 8539 1dbf
00000140: 9243 51bf 1357 78bf ba94 e2be 2c84 0ebf
00000150: 2f06 ffbe 4268 70bf ea3a 59bf 4286 2cbf
00000160: a21f 4fbf bf87 193e d043 5ebf 5715 88bf
00000170: 622e 64bf 778a 55bf 77e5 0cbf ccac 3cbf
00000180: 38d6 2fbf f693 42bf 911c 19bf dee1 adbf
00000190: 6ade 95bf 1144 a0bf c7cb 82bf 8b9c 76bf
000001a0: 8902 5abf f9ce 90bf 740c 9dbf b74f 75bf
000001b0: 885e 20be 5315 92bf 1896 48be efb2 3cbf
000001c0: 28da 8bbf 7bc6 88bf 6b8a 4fbf 97bb c8be
000001d0: 869c 81bf 6c30 aebf bbb5 8ebf dfdf 8fbe
000001e0: 353d 7cbf bbd1 70bf c70f 8dbf dd06 893e
000001f0: 0109 99be 7a0c 85bf 69b3 9ebe ec48 77bf
-1.2224846 -0.97682405 0.40117276 -1.0381023 -0.9433759 -1.0067643 -1.11738 -0.7863377
-0.42984855 -0.7584845 -0.4332655 -0.8085417 -1.3654879 -0.17360848 -0.89819294 -0.057781003
-0.482155 -0.8240313 -0.62473893 -1.2201864 -0.70542175 -0.37309355 -1.2193741 -0.6864056
-0.6873809 -1.0320525 -0.7705152 -1.0492703 -1.1289634 -1.2542441 -0.9163758 0.05451104
-1.0963372 -0.63536537 -1.2812676 -0.75078017 -0.65960443 -1.0405917 -0.8588868 -1.3187442
-0.5589299 -0.9566824 -0.21562608 -0.6540562 0.07320125 -0.8916186 -1.0914166 -0.6535952
-0.1475437 -1.028373 -0.7419094 -1.1811504 0.4751027 -0.40264004 -0.7929097 -0.8016155
-0.21913338 -0.12870528 -0.4573926 -0.7283837 -0.8906918 -0.99444115 0.103084356 -1.0726336
-0.45432416 -0.5902786 0.7955927 -0.64712816 -0.62129253 -0.7428647 -0.7543099 -1.1651784
-0.014060335 0.64946115 0.45602158 -0.44422525 1.1768651 -1.1156918 -0.9878129 -0.6141589
-0.8174373 -0.97007865 -0.44254094 -0.5567043 -0.49809405 -0.93909085 -0.8485552 -0.6739236
-0.8090764 0.1499319 -0.86822224 -1.0631512 -0.89133275 -0.83414406 -0.55037636 -0.7370117
-0.68686247 -0.7600702 -0.59809214 -1.3584554 -1.17085 -1.2520772 -1.0218438 -0.96332616
-0.8516012 -1.1313163 -1.2269425 -0.9582476 -0.15661061 -1.1412758 -0.19588506 -0.7371053
-1.0925951 -1.0685571 -0.81070584 -0.3920562 -1.0125892 -1.3608527 -1.114921 -0.28100488
-0.98530895 -0.94070023 -1.102044 0.2676305 -0.29889682 -1.0394433 -0.30996254 -0.96595645

hidden2.weight f4 [128, 128]
00000000: f8ff 0a3b c30f e1bd 6eb8 d93a c479 b9bd
00000010: 36f8 33bd bc24 9cbe 371f 9ebe 6df3 2a3e
00000020: 61e4 abbe e7ee 15be 31cf b5be 8cd0 13be
00000030: 0a98 a1bd 2ccd d6bd da2e 48be e985 b8bc
00000040: 88fc 05bd 420d 423e c0c3 4fbe 5f54 8cbe
00000050: dcda afbe 30e8 313e 10f6 82bc df19 93be
00000060: af91 31be a02d 3b3d 9ce3 a53d 3df6 98bd
00000070: d0f3 1abe 1a55 4dbe 47ed 8abd b9a7 e53d
00000080: 0fe0 85be a240 37bd e024 013e 1825 803c
00000090: d758 63bd 71cc 60be 6014 a0be a74e 7c3c
000000a0: 0cc6 3bbe 1733 4bbd ac04 9c3d 2e22 66be
000000b0: 21c2 f0bd 6586 e53d 7440 eebe 0241 a7bd
000000c0: 1be4 6fbe f7d2 1dbd d192 233e 7ccb 4fbe
000000d0: 914a 80be 0cf4 30be 5a33 47be 9ab4 91bd
000000e0: 2215 e3be 9540 8f3d ba14 62bd fe5b e4bd
000000f0: 253f 9f3e 8537 f8bd 0e26 d23c 8b5f c1bd
00000100: 8323 253c f012 b4bd 94c2 dabd cee8 00be
00000110: 3d52 dabd a2d6 e6be a51d 1c3e 8b69 a2bc
00000120: c7af fd3d 58cf c9be 5259 1abe cac1 33bd
00000130: 91b4 c6be 8d75 0fbc 5067 88be a683 87be
00000140: 54ba 3fbe 801e 89bd 8a8d c1bd ea05 a43b
00000150: d96a b63c 97f1 1cbe cd9d 93be b62e b9be
00000160: ec0b 8ebe c264 c6bd 6104 023d 3a6d ad3c
00000170: 3b98 a8bd 07b7 3fbe 3bb3 c23c cf1f 143d
00000180: 2578 febd 8d9d f0be 811b f4bc c422 9dbd
00000190: b5d0 ad3c 9049 23bd 54cc 1ebd 9e3b f6bb
000001a0: db4b cdbe 8f7d 1fbe f88d e03d dd93 4fbd
000001b0: 949e 8cbd 4666 cfbd 7380 97be a351 bebe
000001c0: e4ad a2bd 5a50 adbe 8672 edbd ae47 a73c
000001d0: a851 d9be 4965 9bbe be7d 99be 6fee d23d
000001e0: e824 35be cff3 7cbd d32e f0bd eeae 80be
000001f0: aeb3 babe 7f25 9a3d ddf5 f3bd 9d05 f6bd
00000200: 79e7 d03c 144d 87bd 1fcb 32bc af08 d2bd
00000210: 2ed6 0abe 6a04 1cbe c4c8 083d a4d3 70bd
00000220: edac 10be b1dc 15bd 79a1 33be 3667 d3bd
00000230: cc73 50be 1ca4 67bc 8b1c 9cbd 0975 d1bc
00000240: 923a c8bc ab37 9bbd f1da cc3b 98f1 04bc
00000250: dc94 4d3d 42c8 82bd 7de6 95bd 0032 e3bd
00000260: 342c 9cbd e5d9 383c 4d37 51be db42 c1bc
00000270: f7a3 0dbe 194e 133d cf7b 1e3d 6267 0cbe
00000280: d3a3 04be 3ac2 28bd 8288 e0bd 410f 9dbb
00000290: ff71 6cbd a27b 88bc ce7f 40bd 3713 09be
000002a0: 87c2 d03c 4c92 d4bd 2e94 d2bd 44cc 07bd
000002b0: 4e79 c4bc 7142 9abd 20a3 c53b 5d13 babd
000002c0: dbab 8cbd 5881 b5bd 4d1a a5bc edd2 90bd
000002d0: 31e0 97bd a139 02be fff2 cfbc 4c7b 2d3d
000002e0: a96b 623d 3f96 0ebe d1b4 28be 846f 8bbd
000002f0: 893f 2bbd 5c8f 60bd 7308 84bd 72c4 35bd
00000300: 5517 bebd 4ce3 743c 2018 3fbe 1d95 99bd
00000310: b8e1 5fbe cb1c 673b 218d 7cbd da4d 60bd
00000320: 09f5 f93c ce81 01be 26d6 ab3c 22e5 b5bd
00000330: a5b4 9dbd d428 b43b 6b60 7cbc 5e37 b2bd
00000340: 1c0e 68bd 6cb9 10be 42f3 e0bc e30e 493c
00000350: 4819 c8bd fc12 c0bd 1fee 00bd 21c7 853d
00000360: b9a9 2dbe fe1b c7bd bf9e 803c 0251 bdbd
00000370: af5f d1bd f400 1bbe db95 25be 6444 05bb
00000380: 579b e4bd e8ef 7e3c 23a2 13be cd25 d13d
00000390: 82cd 86bc 52fc 4cbd a910 a2bd f5c7 d1bd
000003a0: c670 f2bd ffba 59bd 08f1 a7bd b482 b9bd
000003b0: f80f be3d 1a06 d5bd e078 e4bd 42ce 0abd
000003c0: 0776 07be 752b e6bc de27 fc3b 2574 00be
000003d0: dd46 c5bc 9cdf 8c3c f346 64bc f335 b73c
000003e0: fc3c 3cbd 140f 1c3a 23f6 8ebd 2543 19be
000003f0: 46b0 2abe af20 c2bd ce1d a83d 42b0 e6bd
0.0021209698 -0.109893344 0.001661075 -0.09056428 -0.043937884 -0.30496776 -0.3088319 0.16694422
-0.33572677 -0.14641915 -0.35509637 -0.14435023 -0.07890327 -0.10488352 -0.19549122 -0.02252479
-0.032711536 0.1895037 -0.20289516 -0.2740812 -0.34346664 0.17373729 -0.015986472 -0.28730676
-0.1734073 0.04569781 0.08100054 -0.07468841 -0.1513207 -0.20051995 -0.06783538 0.11213631
-0.26147506 -0.044739373 0.12611723 0.015642688 -0.055504646 -0.21952988 -0.31265545 0.015399612
-0.18337268 -0.04960927 0.076180786 -0.22473976 -0.11755777 0.11207274 -0.4653355 -0.08166696
-0.23426859 -0.03853127 0.15973975 -0.20292467 -0.2505689 -0.17280596 -0.19453183 -0.07114525
-0.4435206 0.0699474 -0.055195548 -0.111503586 0.31102863 -0.121199645 0.025652912 -0.094420515
0.010079267 -0.087926745 -0.10681644 -0.12588808 -0.10660217 -0.45085627 0.15245683 -0.019825717
0.123870425 -0.39416003 -0.15073135 -0.043885984 -0.38809636 -0.008756054 -0.2664132 -0.26467627
-0.18723422 -0.066952705 -0.094508246 0.005005588 0.022267746 -0.15326534 -0.2883133 -0.3616845
-0.2774347 -0.09687187 0.031742457 0.021170247 -0.08232161 -0.18722163 0.023767104 0.036163148
-0.124252595 -0.46995202 -0.029798271 -0.07672647 0.021217683 -0.039865077 -0.03876908 -0.007514431
-0.40096936 -0.1557524 0.109645784 -0.050678123 -0.06866184 -0.10126929 -0.29590186 -0.3717166
-0.07943323 -0.33850366 -0.11594109 0.020419922 -0.4244511 -0.30350712 -0.29978746 0.10299384
-0.1768986 -0.06175595 -0.11727681 -0.2513346 -0.3646521 0.07526683 -0.11912129 -0.120127894
0.025501 -0.06606498 -0.010912686 -0.102555625 -0.13558266 -0.15236059 0.03339459 -0.058795586
-0.14128466 -0.03658742 -0.17542066 -0.1032242 -0.20356673 -0.014138248 -0.07622632 -0.025568502
-0.024441991 -0.07578977 0.006251686 -0.008114241 0.05019079 -0.063858524 -0.07319353 -0.11093521
-0.076256186 0.011282419 -0.20431252 -0.02359145 -0.13832079 0.03596315 0.03869229 -0.13711312
-0.12953119 -0.041200854 -0.10963537 -0.004793078 -0.057725903 -0.016660515 -0.046996884 -0.13386236
0.025483383 -0.103794664 -0.10282169 -0.033153787 -0.023983624 -0.07532204 0.006031409 -0.090857245
-0.06868716 -0.08862561 -0.020154143 -0.07071481 -0.07415808 -0.12717296 -0.025384424 0.042353913
0.055278454 -0.13924502 -0.16475226 -0.06808379 -0.04180864 -0.05482422 -0.06446924 -0.044376798
-0.09281794 0.01494677 -0.18661547 -0.07499144 -0.21863449 0.0035264965 -0.06165803 -0.054761745
0.03051235 -0.12647173 0.020976137 -0.08881594 -0.07700471 0.005498031 -0.015403847 -0.08701967
-0.05665408 -0.14133233 -0.027459744 0.012271616 -0.09770447 -0.09378621 -0.03147709 0.065321214
-0.16959275 -0.09722136 0.015700696 -0.09243967 -0.10223328 -0.15137082 -0.16170447 -0.0020334953
-0.11162441 0.015560128 -0.14417319 0.10212288 -0.016455416 -0.05004532 -0.07913334 -0.10243217
-0.11837916 -0.05315685 -0.0820027 -0.09058133 0.092803895 -0.104015544 -0.111558676 -0.03388811
-0.13228618 -0.028096894 0.007695182 -0.12544306 -0.024081642 0.017196469 -0.013932931 0.022364592
-0.045956597 0.00059531746 -0.069805406 -0.1496702 -0.16668805 -0.0947889 0.0820881 -0.11264087

hidden2.bias f4 [128]
00000000: 8d03 cebd 1780 483c f140 24be fc5a dabd
00000010: 7eb4 b3bd 5ad3 19bf 4557 25bd 1623 c33c
00000020: 1288 34bd b7c6 b9bd 20ef 13be c226 863c
00000030: 6bca c4bd 8f94 f9bc f340 c23c dcb5 87bf
00000040: b3ff 8abd 94e9 24bd 16ea 073e cb4a b6bd
00000050: 801d 25bd 22c6 4cbd 861b 0b3f 1298 9d3b
00000060: 6c3d fbbd 890d d1bd b6c0 01bd 5e1d 35bd
00000070: aaaa c33f 37ad 75bd e400 b63f 1ba3 46bb
00000080: 3c5c f4bd bd95 2abe 1bb5 4a3f 4ef0 0ebd
00000090: 7323 2bbd 62d7 6fbd 6bab 283e 32b6 07be
000000a0: 8e25 1ebf a8b7 2ebc 63ce c5bd f9bb c5bd
000000b0: d9a7 0ebe c0e7 9c3c bedf 7d3c 4bae 00bc
000000c0: a624 d13a b789 443d 8a0b 01be 5a96 28bd
000000d0: 2a6f 573e 0d72 03be 190e f1be 28be 0cbe
000000e0: e2b0 12bc 4786 9d3b 729d 10be 216b fbbd
000000f0: 8185 20bc 8bfd 10bf a7d6 1d3c 1761 a0bd
00000100: 8fa1 19be 6496 11be 7b06 d9bd 08c8 d43f
00000110: 69c2 3fbf fb67 a9bd de90 20be 2296 0ebc
00000120: 475f da3e 34fb 16be 4fef d4bd 0c1f dd3f
00000130: 1292 b339 63d5 1abe 28f2 6cbb 14f4 66bd
00000140: e0a2 2d3f ab5a d3bd 83b8 aabe 455d 11be
00000150: 5182 b73c 4c75 08be bfe1 163e 4e27 90bd
00000160: 3f0b 39be cdeb 1bbc d740 bebd 111e 703f
00000170: 81a8 98be 3efb 06bf 776d a3bd 326c bbbe
00000180: fcf8 df3c 337b 2bbd e38e 90bd fba2 febe
00000190: 4f4e 22be 8ae2 aebc fdae 23be 44fa 02be
000001a0: 5047 57be 9504 00be 8eb7 f2bd 8c35 17bd
000001b0: f0a0 003f 4664 e1bd 9e8e 13be 146c 6b3f
000001c0: e0f4 d2bd 1336 18be 6532 283d ea21 a7bd
000001d0: d043 dcbd 9ff6 19ba 1f78 fcbd 332b a5b8
000001e0: 1abc f1bd 0c62 043e f9b5 14bd 58d7 62bc
000001f0: de3e f6bd 8a64 25be 5523 8bbd 279c 35be
-0.10059271 0.01223757 -0.16040398 -0.10661885 -0.087746605 -0.6008812 -0.04036643 0.023820441
-0.04407508 -0.09071105 -0.14446688 0.016375903 -0.09608921 -0.030466346 0.02371261 -1.0602374
-0.06787052 -0.04026182 0.1327289 -0.089009844 -0.040311337 -0.04999364 0.5433887 0.004809388
-0.12267575 -0.1020766 -0.031677924 -0.04421746 1.5286458 -0.059979644 1.4219022 -0.003030962
-0.11931655 -0.16658683 0.79182595 -0.03489714 -0.041781854 -0.058555014 0.16471641 -0.13253096
-0.61776054 -0.010663904 -0.09658506 -0.096549936 -0.13931216 0.019153476 0.015495239 -0.007854055
0.0015956357 0.047982898 -0.12602058 -0.04115901 0.210385 -0.12836476 -0.47081068 -0.13744414
-0.008953305 0.004807267 -0.1412256 -0.122762926 -0.009797455 -0.56636876 0.009633697 -0.078310184
-0.15003036 -0.14217526 -0.10596939 1.6623545 -0.7490602 -0.08271786 -0.15680262 -0.008702787
0.42650816 -0.14744264 -0.10397207 1.72751 0.0003425037 -0.15120463 -0.0036155079 -0.056385115
0.6782665 -0.10320028 -0.33343896 -0.14195736 0.022401007 -0.13325995 0.14734553 -0.07038747
-0.18070696 -0.0095166685 -0.09289711 0.9379588 -0.29816058 -0.52727115 -0.07979863 -0.36605984
0.027340405 -0.04186554 -0.070585035 -0.4973372 -0.15850185 -0.021348257 -0.15984721 -0.12790781
-0.21023297 -0.12501748 -0.118514165 -0.0369163 0.5024557 -0.11005454 -0.14409873 0.9196179
-0.103006124 -0.14864378 0.041063685 -0.081607655 -0.10755122 -0.0005873236 -0.12327599 -7.8758596e-05
-0.11803456 0.12928027 -0.036306355 -0.013845287 -0.1202371 -0.16151634 -0.067938484 -0.17735349

out.weight f4 [1, 128]
00000000: 3a05 a9bc 70eb 1e3b 57ad c8bb b714 a0bc
00000010: 0bd3 ea3b 6e18 d3bb adcc efba 7e77 80bc
00000020: fefd 4dbc 13c9 063c 5664 403c 08cb c6ba
00000030: 6efa 80bc 3f22 8e3c 889f d0bb bf76 2dbc
00000040: cfeb 9c3b bef6 9ebc 3037 8c3d 28ac 79bb
00000050: 5bf2 26bb e9f8 f1bb b461 fa3c 084e ccbc
00000060: 457a cd39 7fdd e33b dc65 5f3c df0e 393c
00000070: 5b19 c4bc 07d2 7e3b 658a 223d 0352 80bc
00000080: 30e0 683c 5cb2 3c3c 32f9 383d c21f bd3c
00000090: 4e9b adbc 9143 04bd 1372 653c 8283 353c
000000a0: efd4 70bc f926 adbd 61f7 b5ba 1207 62bc
000000b0: 7be3 ec3c 650f fd3c 980c 843b 8165 cbbc
000000c0: 92f3 483c 10a2 cf3c b56e ebbc 8a5a 78bc
000000d0: f9b9 a93c bd17 da3b 8bdf 89bc f9ee 48bb
000000e0: 330e f3bb 71a8 5db9 9bd0 8d3c c166 10bc
000000f0: 54eb a4bc 2c86 833c 1bb5 903b 50a0 d7bc
00000100: aef8 16bc 13c0 363c 4bdb 3fbc e358 cb3d
00000110: 8157 20bd ee7f e83c 0470 40bc 48ce 563c
00000120: 86f9 2c3d 1ccb 2f3c 48ff e13c 5f10 6e3d
00000130: cadb 073b 9fb8 d5bb ec54 c5bc 45de e83c
00000140: 1017 d93b c4b0 0e3d 40ec b4bc 5450 a6bc
00000150: df1b 6eb9 876b 59bc fc00 1ebd 9c21 63bb
00000160: e92d afbc 1a13 9b3c e1bd ccbc e4c2 9dbc
00000170: 5c6f 2abb 6291 16bd d574 87bc 2b1e 653a
00000180: 3d0b 193c c7cb 08bc bb2d 88bb e223 0ebb
00000190: a490 e53b 2e16 e03b 5587 0b3d 0906 fdbc
000001a0: ccc4 b6ba 4945 b4bc 192d c13b edaf e6ba
000001b0: 52ea f23b 9db5 a7bc 0068 b53c 0292 8cbd
000001c0: 8119 ce3c 72ad 19bc 3670 76b9 c554 333b
000001d0: e2d4 67bc 97c0 333d 2a96 223c 787c 123d
000001e0: c883 d7bc 1029 b8ba 7d35 26bc d132 8d3c
000001f0: 14c0 cebb ef57 0d3c 9247 713d b762 8d3b
-0.020632375 0.0024249218 -0.0061241793 -0.019541128 0.0071662716 -0.006442121 -0.0018295251 -0.015681978
-0.0125727635 0.008226651 0.011742672 -0.0015166709 -0.015744414 0.017350314 -0.006366674 -0.010587393
0.0047888528 -0.019404765 0.06846464 -0.0038096998 -0.0025474045 -0.0073844087 0.030564167 -0.024939552
0.00039191745 0.0069538946 0.013635125 0.011295049 -0.023937872 0.003888251 0.039682765 -0.015664106
0.014213607 0.011517134 0.045159526 0.023086432 -0.02119222 -0.032291 0.014004248 0.011078717
-0.014699205 -0.08454699 -0.0013882929 -0.013795631 0.028917065 0.03089113 0.0040298216 -0.024828674
0.012265103 0.025345832 -0.028739313 -0.015158305 0.020718561 0.006655662 -0.016830226 -0.0030660017
-0.007417464 -0.00021138952 0.017311385 -0.008813561 -0.020131744 0.01605519 0.0044161207 -0.02632156
-0.009214563 0.0111541925 -0.011709998 0.09929063 -0.03914595 0.028381314 -0.011745457 0.013110705
0.04223015 0.010729577 0.027587548 0.05812108 0.002073037 -0.0065222527 -0.024088345 0.028426299
0.0066250637 0.034836546 -0.022085309 -0.020301975 -0.00022707832 -0.013270265 -0.038575158 -0.0034657484
-0.021384196 0.018930007 -0.024992885 -0.01925797 -0.0026006317 -0.03675974 -0.016535202 0.0008740152
0.009341058 -0.008349366 -0.004155842 -0.0021688868 0.007005768 0.0068385815 0.03406461 -0.030886667
-0.0013944148 -0.022005694 0.0058952686 -0.0017600037 0.007413187 -0.020472342 0.022144318 -0.06863786
0.025158646 -0.0093797315 -0.0002350219 0.002736376 -0.014149876 0.04388484 0.009923497 0.035763234
-0.026307955 -0.0014050324 -0.010144589 0.017236145 -0.0063095186 0.008626922 0.058906145 0.0043147462
