checkpoints/checkpoint_critic_2_min_3.pth (torch, 87959 bytes, 5 tensors)

hidden1.weight f4 [128, 37]
000000 93 1e 96 3f 6a 06 41 3f 61 98 ee 3e fd a9 72 3e
       1.172808 0.7540041 0.4660063 0.23697658
000010 45 84 00 bf a9 ff dd bd 8a cb 9d bd 91 87 4d 3e
       -0.5020183 -0.10839779 -0.077048376 0.20071246
000020 d5 cf 10 3f e1 93 f7 be ec a9 54 3f 9a 03 7c be
       0.56567127 -0.4835501 0.8307178 -0.24610749
000030 97 3c 13 3f 28 eb 28 bf 00 39 66 be 2d 04 c8 3e
       0.5751433 -0.6598382 -0.22482681 0.39065686
000040 cc 37 b1 3e a4 70 3c bf fc 03 90 3e 29 aa 8c 3f
       0.34612882 -0.73609376 0.2812804 1.0989429
000050 f4 9b 32 bf b8 54 2c 3f c4 85 4f bf 56 01 6a bf
       -0.69769216 0.6731677 -0.81063485 -0.9140829
000060 37 52 4f 3e 0f 27 6f 3e 1f 9e 54 3e 3c 6b 93 3f
       0.20246206 0.23354743 0.20763443 1.15171
000070 4f 19 62 3d 13 76 0e 3e 0e 98 91 bf a0 07 dd bd
       0.055199917 0.13912229 -1.1374528 -0.1079247
000080 24 51 bc bf ba cb b2 be 2a 4d ed be e1 49 4a bf
       -1.4712262 -0.34921056 -0.46347934 -0.7901898
000090 28 a1 5c bd 93 e4 db be 29 b8 0b 3f 71 b9 96 bf
       -0.053864628 -0.42947826 0.5457788 -1.1775342
0000a0 34 5f 35 bf 33 1c 3e 3d 8b 26 32 be a3 98 54 bf
       -0.70848393 0.04641361 -0.17397515 -0.83045405
0000b0 e6 20 c4 bd 7e 03 81 be d0 08 39 bf c0 6f 7d 3e
       -0.095765874 -0.25197977 -0.7227907 0.2474966
0000c0 c8 bb af 3e 3b e6 85 be 2e cb 37 3f 87 29 12 3f
       0.34322953 -0.26152214 0.717944 0.57094616
0000d0 8d ae 3d be 61 5c e5 3d 77 98 c3 3e cc 61 3f 3f
       -0.18523617 0.111992605 0.3820226 0.747586
0000e0 51 9a ba 3e a5 dc fc bc d7 03 42 be c7 06 7a 3e
       0.3644586 -0.03086693 -0.18946777 0.24416648
0000f0 14 85 52 3e f8 73 d8 3e 8b fb 4b be d2 3c a7 be
       0.20558578 0.42275977 -0.19920175 -0.3266359
000100 6a 1f 98 3f c6 b8 3e be c0 df fb bb d7 33 69 bf
       1.1884587 -0.18625173 -0.007686585 -0.91094726
000110 a4 0d 4d 3d d2 71 fc 3f 30 b8 94 3f 86 15 00 3f
       0.050061837 1.9722235 1.161871 0.5003284
000120 72 6c 65 3e 5d 99 46 3f 7b 62 05 bf 4e a8 16 be
       0.2240465 0.77577764 -0.52103394 -0.1471264
000130 e9 0f ab 3e 48 d8 90 bf 4a ac f0 be 92 8f a6 bf
       0.33410576 -1.1316004 -0.47006446 -1.3012564
000140 dc 8f 9e bf 91 39 fd 3e 52 e3 93 be 80 16 e9 3d
       -1.2387652 0.49457982 -0.2888437 0.11381245
000150 49 aa 21 3e c7 17 16 3d db 6c 1d 3d 6c 09 db be
       0.15787615 0.03664377 0.03843389 -0.42780626
000160 e5 bb 22 be 67 08 5b 3d ce 67 d2 be f6 51 95 be
       -0.15891989 0.05347481 -0.41094822 -0.29164094
000170 8f a0 ef 3e 70 9a 5e bf dc 2e cc bd 84 bc 2e 3e
       0.46802184 -0.869544 -0.09969875 0.170641
000180 bd 8e 21 be 27 af 17 be 80 0e a6 bd 62 1d 60 3e
       -0.15777107 -0.14812909 -0.081082344 0.21886209
000190 65 31 16 3e a2 60 a9 3e 7f f5 4f 3e 28 07 e4 3c
       0.1466728 0.33081537 0.20308493 0.027835444
0001a0 a5 70 a6 be 57 a2 a7 bd ca a4 6e 40 f7 46 97 bd
       -0.32507816 -0.08185261 3.728808 -0.07386582
0001b0 06 be b9 bd f2 aa 91 3c 48 46 af 3e a3 1f 79 be
       -0.09069447 0.017781708 0.34233308 -0.24328475
0001c0 20 c6 e2 3d 2b e8 5e be a7 f5 ab bf c9 c3 cc be
       0.110729456 -0.21768253 -1.3434342 -0.39993122
0001d0 61 71 12 bf 08 a3 21 bf b6 7c 2b be a4 0f 07 3f
       -0.5720425 -0.6313939 -0.16746792 0.5275824
0001e0 95 cc 96 3e 04 9e 10 be 34 96 b4 be 5c 45 3a 3e
       0.2945296 -0.14122778 -0.35270846 0.18190521
0001f0 ce 12 6d 3e 89 53 9e 3e 82 b7 65 3e 1f 91 30 bf
       0.23151705 0.30923107 0.22433284 -0.6897144
000200 0e 8e b2 be 12 38 bd be 6f fe d9 bd 6e 72 f1 bc
       -0.34874004 -0.3695684 -0.106442325 -0.02947351
000210 9f e8 8a 3e 79 d2 8e bb 3a 31 81 3e 89 61 d7 3d
       0.271306 -0.0043585864 0.2523287 0.1051665
000220 cc 6f 59 3e 13 ea 97 be b2 30 43 3f 59 b5 f1 3e
       0.21234053 -0.29670772 0.7624618 0.4720867
000230 9e 61 bf 3d b2 28 35 bf 80 9e d0 3b e2 28 b6 c0
       0.09344791 -0.7076522 0.006366551 -5.6924906
000240 d7 9c b0 be 5b db 32 be 2a 84 3e be 26 f6 3c bf
       -0.3449466 -0.1746649 -0.18605104 -0.7381309
000250 59 39 b2 bc 92 6c 12 3e 94 0f c4 bf de 61 86 bf
       -0.021755861 0.14299229 -1.5317254 -1.0498617
000260 48 08 a1 bf 08 d3 49 bf 4d 5a 7f be 83 03 34 bd
       -1.2580652 -0.78837633 -0.24936791 -0.04394866
000270 b4 c4 5d 3f d3 74 4e 3f 1e b4 05 bf 55 64 b9 3d
       0.8662827 0.8064701 -0.5222796 0.0905234
000280 80 bd 45 be 7b 64 25 be 5d 7f 9a 3d a4 9d 44 3f
       -0.1931057 -0.16151612 0.07543824 0.7680304
000290 cc 26 e3 3c fc 18 4d 3f af 5a 6e 3f 7b 91 04 bf
       0.02772846 0.8011625 0.9310712 -0.51784486
0002a0 a1 53 36 3e 22 b9 ed bc 4f ad 7e 3f f4 af 9e 3e
       0.1780534 -0.029018942 0.994832 0.30993617
0002b0 e8 38 e7 3e 04 8d df 3e 0f d7 be 3d c5 75 b3 3f
       0.45160604 0.43662274 0.09318363 1.4020315
0002c0 98 8c b9 bd b8 b7 c4 bc b0 35 ba bf a0 86 96 3b
       -0.09060019 -0.024013385 -1.4547634 0.0045936853
0002d0 4f a9 7f 3f e2 91 22 be 1e 48 d2 3e 4a 25 9c bf
       0.9986772 -0.15875962 0.41070646 -1.219888
0002e0 c2 2d ca 3f a2 b0 20 3f 34 f9 a0 3f 13 5a 29 bf
       1.5795214 0.6276952 1.2576051 -0.6615307
0002f0 f1 7a 07 bf 9b 60 5b be f9 c5 38 bf 39 96 b7 3e
       -0.5292197 -0.21423571 -0.7217708 0.35856798
000300 cf 42 88 3e 75 da 96 3e 16 f4 29 3f 0e 6e ad 3e
       0.2661347 0.29463544 0.6638807 0.33873028
000310 18 2b dc 3e 91 83 78 be a2 bf 1d 3e c5 ae 1b bf
       0.43001628 -0.24268939 0.15405133 -0.6081355
000320 75 eb 88 3e fd c9 97 bf 86 4f 06 3f 37 48 74 bf
       0.2674214 -1.1858517 0.52465093 -0.9542269
000330 3e 86 17 3f f5 58 e7 3e bd 52 5d 3e c9 95 74 3e
       0.5918921 0.45185056 0.21613593 0.23885264
000340 19 8d bc 3e 9a e2 7c be 6f 58 41 3e 0f 40 f4 be
       0.368264 -0.24695817 0.18881391 -0.47705123
000350 30 56 3a 3e cf 7f 93 3e ba 54 4d bd 1f d0 c9 bd
       0.1819694 0.28808448 -0.05012963 -0.09854149
000360 98 3c f1 bd ee 11 df bf 83 49 29 be 7f a0 0d 3f
       -0.117791355 -1.7427347 -0.16531949 0.5532302
000370 9c a4 76 3f b2 73 84 3f 3a 96 d4 3e 98 c8 ac 3f
       0.96344924 1.0347807 0.41520864 1.3498716
000380 79 98 d6 3e 4d 0f e5 bf 0f b1 88 be 25 2c 45 bf
       0.41913202 -1.7895294 -0.26697585 -0.77020484
000390 53 d8 0e bf 6d d2 a3 3d 83 a4 17 be 3e f9 72 be
       -0.55798835 0.0799912 -0.1480885 -0.23727891
0003a0 e8 6b c3 bd d3 7f 94 3e ed c5 91 be a1 16 c3 3e
       -0.09542066 0.29003772 -0.28471318 0.38103202
0003b0 67 d8 40 bf 04 10 88 be 17 e8 0a be 2e 98 4d be
       -0.75330204 -0.2657472 -0.13565098 -0.20077583
0003c0 27 32 62 3e 72 76 3c be 72 85 0a ba e2 ba ac be
       0.22089444 -0.18404558 -0.0005284167 -0.3373633
0003d0 b3 b1 2f 3e a4 0b 31 3d 4e d9 e1 be 78 55 85 be
       0.1715763 0.043223992 -0.44111103 -0.2604177
0003e0 d8 37 95 3e 04 71 a0 3f 57 69 01 3c 9c 70 b1 bd
       0.29144168 1.253449 0.00789865 -0.08664057
0003f0 ef e3 99 bf 5c 1b c9 bd 35 17 5b bf 42 f7 bd 3e
       -1.2022685 -0.098196715 -0.85582286 0.37102705

hidden1.bias f4 [128]
000000 b2 75 94 bf 81 35 8a bf 40 ed 7d be fb cb 14 bf
       -1.1598418 -1.0797578 -0.24797535 -0.5812375
000010 da 10 c4 bf 6e 57 09 be 40 bc 7a bf 58 da 81 bf
       -1.5317643 -0.13412258 -0.97943497 -1.0144758
000020 e1 ad 84 bf ce fc dc be e8 12 48 bf 91 ea 55 bf
       -1.0365564 -0.43161625 -0.7815385 -0.83561045
000030 44 c9 cc bf a7 30 62 3b 84 01 f5 bf 19 1a b8 bf
       -1.5998921 0.0034513862 -1.9141088 -1.4382964
000040 8f b3 9f bf a6 39 79 bf a1 82 5e be 7d be 06 bf
       -1.2476672 -0.9735359 -0.21729518 -0.5263441
000050 94 b1 0f bf f8 3e 42 bf ee 43 80 bf be f4 88 bf
       -0.5613034 -0.7587733 -1.002073 -1.0699689
000060 db 2f 9e bf 1e b6 cd bf 73 1b a2 bf 94 50 8f bf
       -1.2358354 -1.6071203 -1.2664627 -1.1196465
000070 26 42 83 bf 63 69 53 bf 9a 06 b2 bf b7 e6 15 bf
       -1.0254562 -0.8258268 -1.3908265 -0.5855517
000080 d4 53 3a be 81 bf 9a bc 80 0b c7 be a2 67 ac be
       -0.1819604 -0.018890144 -0.3887596 -0.33672816
000090 c4 f6 52 bf de 0a 6e bf 21 d8 84 be 9e 7a 5d bf
       -0.82407784 -0.9298533 -0.25946143 -0.86515224
0000a0 f1 7f d0 bc 93 e3 0e bf ec 9a 15 3d 55 17 81 bf
       -0.025451632 -0.55816 0.0365247 -1.0085245
0000b0 3f 0a 3b 3e 71 05 3e bf 46 26 c0 be 16 9c be bf
       0.18265627 -0.7422705 -0.375292 -1.4891384
0000c0 aa 5e 9d bf 1c ce a1 bf 7a b7 1b bf a6 e9 82 bf
       -1.2294514 -1.2641025 -0.6082684 -1.0227554
0000d0 cf 8e a0 be 38 38 4b bf c5 42 b2 bf 9d ec b4 be
       -0.31358954 -0.7938266 -1.3926626 -0.35336772
0000e0 82 88 2b bf 48 8d 74 bf 5c 92 82 bf 34 1d 52 be
       -0.6700517 -0.9552808 -1.0200915 -0.20518953
0000f0 03 37 82 bf 0d 38 8f bf 96 9e ae bf 82 f5 20 3e
       -1.0173038 -1.118898 -1.3642147 0.15718654
000100 11 89 b6 be 2f 30 78 bf eb d3 9b bf d3 ed 86 bf
       -0.35651448 -0.9694852 -1.2174047 -1.0541328
000110 50 ac 33 bf dc 1f 43 be 58 37 b7 bf 8a 01 57 be
       -0.70184803 -0.19055122 -1.4313765 -0.20996681
000120 0d 43 5d bf f5 53 a7 bd 45 dd b7 bf 21 03 49 bf
       -0.86430436 -0.081703104 -1.4364401 -0.785204
000130 41 b6 f9 be 22 d1 be be 21 76 21 3d 90 d7 cf bd
       -0.4877186 -0.3726893 0.039419297 -0.10148537
000140 73 88 b9 be d4 6f 89 bf 8e 99 17 bf a3 98 c0 3e
       -0.36236915 -1.0737252 -0.5921868 0.37616453
000150 56 62 1f 3f b2 31 0a bf ab 23 19 be a5 49 07 bf
       0.62259424 -0.5398208 -0.14955013 -0.5284675
000160 af ae 58 be 5b ac b5 bf 04 66 89 bf e2 8b 7f 3e
       -0.21160387 -1.4193224 -1.0734258 0.24955705
000170 0f bc b8 bf 9b 27 a7 bf 5e fa 10 be cc b5 a0 bf
       -1.4432391 -1.3058962 -0.14158008 -1.255548
000180 23 94 60 3e d4 fa bb be 4f 1e d8 be 2a 2d a3 bf
       0.2193151 -0.36714804 -0.42210624 -1.2748158
000190 11 04 45 bf fa 8f e9 be cd 3e 52 bf 1c 6b 3b be
       -0.7695933 -0.45617658 -0.82127076 -0.18302578
0001a0 09 fb ed 3c 04 66 4c bf 5d 40 93 bf 98 27 51 bf
       0.029050367 -0.79843163 -1.1504017 -0.8170104
0001b0 32 91 0a bf 70 ca cb be b9 42 5b 3d 14 78 1c bf
       -0.541278 -0.39802885 0.05353043 -0.61120725
0001c0 61 c8 ce be 23 cd a1 bf 2f 92 0c bf 6b bb 55 be
       -0.40387252 -1.2640728 -0.5491056 -0.20872276
0001d0 03 9f 8c bf 31 ff 02 c0 7a ed e8 be 84 70 53 bf
       -1.0986027 -2.0468256 -0.4549368 -0.8259356
0001e0 6a 0f 51 bf 32 59 ef be d7 61 72 bf 97 a1 8a bf
       -0.81664145 -0.46747738 -0.9468054 -1.0830563
0001f0 fe e2 f9 bf c1 11 56 be 0a 8a f3 be 09 bf a3 bc
       -1.9522398 -0.2090521 -0.47566253 -0.019988554

hidden2.weight f4 [128, 128]
000000 6e 90 bc bd c8 2a 87 3c 8b c6 3e be 61 c5 b5 bd
       -0.09207235 0.016499892 -0.18630426 -0.08875538
000010 65 7a ab bd 28 dd ac bd f7 1a ae 3c 23 b8 ce bd
       -0.08372954 -0.0844062 0.021253092 -0.10093715
000020 1d 46 00 be a3 eb 3d bd 36 1f 7c bd b6 df ba bd
       -0.12526746 -0.0463673 -0.061553203 -0.09124701
000030 57 ed 05 be 17 4f 0c be 7b ab de bd b6 f1 0f bd
       -0.13078819 -0.13702045 -0.10872551 -0.035142623
000040 b7 3a 8c bd b0 56 be bd d6 72 39 be df e4 13 bd
       -0.068471365 -0.09293878 -0.18110213 -0.03610694
000050 04 7c 91 3c be 85 0f be 07 24 2e bd 98 fe 7b be
       0.01775933 -0.14015862 -0.042514827 -0.24608839
000060 5c f6 8b bd 1e 58 03 be 61 d6 e1 bd 4b 06 68 bc
       -0.06834099 -0.12826583 -0.11027218 -0.014161657
000070 9b 43 0d be 01 9c 88 3c 98 21 b9 bb ee 1b 9e 3d
       -0.1379532 0.016675951 -0.0056497566 0.07720171
000080 ac 38 66 be ad 32 b7 bd 16 a8 2f bd 73 59 92 bd
       -0.22482556 -0.089452125 -0.04288491 -0.07145967
000090 5e 5c a1 bc ac 4a 35 3c 57 3e 4f be b8 8b f1 bd
       -0.019697364 0.011065166 -0.20238625 -0.11794227
0000a0 db c8 33 bd c1 b0 b6 bc eb 6f 8c bd 57 e4 35 be
       -0.043892723 -0.02230108 -0.06857284 -0.17762886
0000b0 c1 88 01 be 34 42 62 be c4 55 12 3d 1b ce aa bd
       -0.12649824 -0.22095567 0.035726324 -0.08340093
0000c0 5a 01 a6 bd dd a1 96 bc 1e 40 74 bd 3a 52 29 be
       -0.081057265 -0.01838773 -0.05963146 -0.16535273
0000d0 3e 1e 8f bd 7b b2 3a be 12 fa bf 3c 86 3b 4b 3d
       -0.0698819 -0.18232147 0.023434673 0.049617313
0000e0 d3 1f 36 be 33 40 f6 bd 26 63 b3 bd 7f 3b d1 3d
       -0.17785577 -0.12023964 -0.087591454 0.10216426
0000f0 2b 53 44 3b 17 2c c2 bc bf c1 c1 bd 9f 91 33 3c
       0.0029956799 -0.023702664 -0.09460782 0.010960012
000100 6e e2 11 bd f8 86 c3 bd 2b ce 75 be 8a 2e c0 bd
       -0.03561633 -0.095472276 -0.24004428 -0.093838766
000110 bc 30 46 be f9 d3 a8 bd ca ab 17 bb d7 98 00 bd
       -0.19354528 -0.082435556 -0.0023143166 -0.03139576
000120 ab 06 d5 bd f2 c4 b0 bc 8a b1 d9 bc 77 7d 76 bd
       -0.104016624 -0.021578286 -0.026573915 -0.060178246
000130 9d 44 e2 3d a7 de 9b bd 44 d4 c7 bd 77 c2 70 3d
       0.11048243 -0.07610827 -0.09757283 0.058779206
000140 cc 28 e3 bd 09 33 f4 bd 56 09 29 3d f0 dc 60 be
       -0.11091766 -0.11923797 0.04126867 -0.21959281
000150 03 f3 bf 3c c0 01 3b 3d ea 41 5d bd 58 74 e5 3d
       0.023431307 0.045655966 -0.05401794 0.112038314
000160 94 f5 cc ba 6d 98 f6 3b 6f f1 f2 bd 5d 32 f8 bc
       -0.0015637153 0.007525495 -0.11862456 -0.030297453
000170 31 05 72 bc d9 65 2b bd ae c0 47 3c a4 9d bf bd
       -0.014771746 -0.041845176 0.0121919345 -0.093562394
000180 2f 54 25 bb 3b 1a 85 bd f1 7a de bc 34 7b d6 bd
       -0.002522718 -0.06499144 -0.027158232 -0.10472718
000190 e0 24 ad bc 5d 94 27 be 01 12 b8 bd ed 65 62 be
       -0.021135747 -0.1636519 -0.08987809 -0.22109194
0001a0 5f cf 4b be ff f2 08 be e5 16 e5 bd e5 0d 9c bd
       -0.19903325 -0.13373946 -0.111860074 -0.07619838
0001b0 7b 94 36 bd 87 ea 07 bc 07 53 d0 3c 71 e9 f2 bd
       -0.044575196 -0.008295662 0.025430216 -0.11860932
0001c0 e4 ca b0 bd f7 50 70 bd 4f 66 eb bd 78 ee a2 bd
       -0.08632448 -0.058670964 -0.11494123 -0.079556406
0001d0 ff c4 f7 bc 21 23 cf bd 86 ce 96 bd 3f 84 09 bc
       -0.030245302 -0.10114122 -0.0736361 -0.008393346
0001e0 6e db 30 be e3 e4 09 be 10 cf 82 bd d7 97 64 bd
       -0.17271206 -0.1346622 -0.0638715 -0.05580887
0001f0 40 47 5b bd 8c f3 0a be dc 39 3e bd 4f 63 01 be
       -0.053534746 -0.13569468 -0.046441898 -0.1263554
000200 4b 94 9a bd 6e c0 61 bd 40 7b 41 be 97 e3 e8 bd
       -0.07547816 -0.055115156 -0.18894672 -0.11371534
000210 ed 96 86 3d 9f de c8 bd f9 8c 8e bd 03 4b 85 bd
       0.065717556 -0.098080866 -0.06960482 -0.06508448
000220 40 d1 b9 bd 2f 71 ec bd b0 7e 0b 3d 23 e0 40 3d
       -0.090731144 -0.115450256 0.034056365 0.047088753
000230 e8 34 9f bd d4 37 e2 bd 7f 82 54 3c f5 09 44 bd
       -0.07773763 -0.110458046 0.012970566 -0.04786106
000240 ad 6b bf bc 41 d1 bf bd ff 0b 64 3d 4c 38 94 bd
       -0.023366774 -0.09366084 0.055675503 -0.072373
000250 3f 3d b9 bd 76 d0 35 bc af f1 0e 3c 94 64 c8 3b
       -0.09044885 -0.011097064 0.008724614 0.0061155055
000260 73 5a e2 bd 82 47 ef 3c ce 11 4d bc 16 78 7a 3c
       -0.11052408 0.029208902 -0.012516452 0.01528742
000270 a5 9d 87 bc ea 00 cf bd 5c b4 04 bc 74 23 13 bd
       -0.016554663 -0.10107596 -0.008099642 -0.035922483
000280 f0 a9 6e bd 93 d8 83 bd e2 68 71 bd 91 03 a6 bd
       -0.058267534 -0.06437793 -0.058937915 -0.08106149
000290 cd 3a a1 bc 74 f7 f5 bd 97 7a 64 bd c9 be 2f 3d
       -0.019681359 -0.120100886 -0.055780973 0.042906556
0002a0 34 e2 b8 3d cb f8 b9 3c 40 7e b6 bc db 70 70 bd
       0.0902752 0.022701642 -0.022276998 -0.058701377
0002b0 35 23 5e bd 1b e4 b1 bd 75 68 2d 3d d8 90 f6 bd
       -0.054232795 -0.08686086 0.042335946 -0.120393455
0002c0 94 b9 0c bd c7 b8 ea 3c 01 7f f0 3d cb 09 38 3c
       -0.03435667 0.028652562 0.11742974 0.011232804
0002d0 21 90 a1 bd d0 d4 ce bd ba 23 80 bc 3c 70 35 bd
       -0.078888185 -0.100991845 -0.015642036 -0.04429649
0002e0 53 19 f6 bd 50 7e 57 3d c8 1f 3d ba 75 d4 51 3c
       -0.12016549 0.052610695 -0.00072145136 0.012807001
0002f0 cc 2c 07 bd 9b 02 59 3c de a2 93 bd b9 8a 45 ba
       -0.033001706 0.01324525 -0.07208799 -0.0007535625
000300 0f f3 56 3c 02 8f 95 ba d1 a2 7f 3b a6 3d 16 bc
       0.013119473 -0.0011410418 0.0039006958 -0.009169972
000310 32 21 1b be 35 45 41 bd 4b 03 fe bd 97 7c c0 bd
       -0.15149382 -0.04718514 -0.12402972 -0.093987636
000320 95 90 7f bd b7 8e ac bd b9 80 04 3d 90 f5 10 be
       -0.062393744 -0.08425658 0.032349322 -0.14156175
000330 24 e3 e9 bd af c7 05 bd 77 3d 1f bb 92 9f 96 bd
       -0.11420277 -0.032661136 -0.002429811 -0.07354654
000340 c2 3b bc bc 1d 89 d9 bd 75 e5 99 bc ec 85 d8 bd
       -0.022977713 -0.106218554 -0.018786171 -0.105724186
000350 1f 10 f4 bc 03 b8 dd bd 64 d1 5b bd 7f 83 8a bd
       -0.029792843 -0.10826113 -0.053666487 -0.06763362
000360 37 de 28 3d 02 03 76 3d 3a 18 b7 bd b3 59 98 bd
       0.041227546 0.060061462 -0.08940168 -0.07438984
000370 26 c4 a1 bd 07 8e 11 3d 4f 6b a2 39 05 85 87 bd
       -0.078987405 0.03553584 0.00030979 -0.06617168
000380 d2 4c 0f be 67 e3 2d bd 9a c5 0b 3b d3 e5 8c bd
       -0.13994148 -0.042453196 0.0021327497 -0.06879773
000390 9d 64 67 3c 6c 91 7e bd a5 ff e6 bd 09 72 90 bd
       0.014123109 -0.062150404 -0.11279229 -0.070530005
0003a0 ed 73 9b 39 7b 7b 95 bb 7e d5 fe bd 1d ce 44 bd
       0.00029650275 -0.004561839 -0.12443064 -0.048048127
0003b0 da 93 a7 bd ee 76 30 be 1f c9 08 be fc e0 eb bd
       -0.08182497 -0.17232868 -0.13357972 -0.11517522
0003c0 10 b5 b1 3b 17 84 9b bd 0c 76 41 bd 4e 64 67 bd
       0.0054231957 -0.075935535 -0.04723172 -0.056492142
0003d0 de f9 d9 3c 84 58 c1 bd 6a 44 88 3b f1 36 d4 bd
       0.026608404 -0.09440711 0.004158546 -0.10362042
0003e0 a2 78 ea 3c fd af d5 bd 15 95 b0 bd 0f 8d 14 bc
       0.028621975 -0.10433958 -0.08622185 -0.009066834
0003f0 31 a9 7a bc 47 b4 c3 bc 0b 10 48 bd f9 bd 63 bd
       -0.015299127 -0.023889674 -0.048843425 -0.055601094

hidden2.bias f4 [128]
000000 be 55 2d bd 1f 2b 15 be ce 93 1b be 7a 42 96 bd
       -0.0423181 -0.1456723 -0.15193102 -0.07336898
000010 88 66 08 bd 2d ff 00 be 6b 55 bd bf 87 88 0c bf
       -0.033300906 -0.12597342 -1.4791692 -0.54895824
000020 72 6b ec bd 3b 7b 99 bd e4 7e 37 bd 8a 30 11 be
       -0.11543931 -0.074942075 -0.044798747 -0.14178672
000030 9a b5 d7 bd cc 48 d1 bd a2 03 7d bd 01 b4 e5 bd
       -0.105326846 -0.10218963 -0.061771043 -0.11215974
000040 e6 a0 e9 bd 59 a5 29 be a5 ad d6 3c e8 b3 bc bc
       -0.11407642 -0.16566981 0.026205847 -0.023035005
000050 1d 42 b5 be 8e 13 ca 3f 9a 9e 55 3e 87 8c f8 bc
       -0.35402003 1.5787218 0.20861283 -0.030340446
000060 6e ac fd 3e cd 14 6a 3e 61 d7 be bd 0a 89 0c be
       0.49545616 0.22859497 -0.09318424 -0.13724151
000070 08 8b 89 bd 81 97 a3 bc d5 1b e2 3c 4a 15 65 bf
       -0.06715971 -0.019969704 0.027601162 -0.8948561
000080 d5 b5 4e bd 50 36 ef bd 67 be 27 3c a4 15 30 bd
       -0.050466377 -0.11680281 0.010238267 -0.042989388
000090 03 de 2a bd 3f 5d f1 bd 4f 85 c0 bd 2b 67 46 be
       -0.041715633 -0.117853634 -0.094004266 -0.19375293
0000a0 8c fd 3e bd 3f 94 1c be da d6 03 be e3 fb 6f be
       -0.04662852 -0.15290926 -0.12874928 -0.23435931
0000b0 bd e2 1b be 11 70 52 bd 53 aa 25 be 49 2a b4 bd
       -0.15223213 -0.051376406 -0.16178255 -0.08797128
0000c0 e7 f0 8e be 5f 29 ae bd 88 06 fe bd f3 b4 13 be
       -0.2791817 -0.08503985 -0.124035895 -0.14424495
0000d0 90 66 cc bd 09 62 e6 bd 80 19 30 be 2c e5 11 be
       -0.099805 -0.112491675 -0.17197227 -0.14247578
0000e0 b8 f5 8e 3d a3 06 5c bf cc 9f 44 3f 7b 73 72 3d
       0.06980461 -0.85947627 0.7680633 0.059192162
0000f0 8e 24 39 bd 30 47 cb bd 5f e0 c1 3f 89 8b 8e bc
       -0.045200877 -0.09925687 1.5146598 -0.01740052
000100 46 29 f0 bc 50 b2 2e be 50 e0 76 bd 28 53 d8 bd
       -0.029316556 -0.17060208 -0.060272515 -0.10562736
000110 fc b7 22 be a2 5c 1f bd 42 6f 2f be fe cd 14 3f
       -0.15890497 -0.0389067 -0.17132285 0.5812682
000120 d9 76 3b 3c b3 69 0f be 16 25 b0 bc 2d 28 82 bd
       0.01144191 -0.14005165 -0.021502059 -0.06355319
000130 a4 21 16 bf 29 db 58 bd e8 54 3e 3e a3 64 91 bd
       -0.5864508 -0.052943382 0.18587077 -0.07099273
000140 6a 13 05 be 52 3b 53 be b7 8a 66 be 7e 65 67 bd
       -0.12995687 -0.20628098 -0.22513853 -0.056493275
000150 47 be 0f be 8e 52 31 be 72 9d 5e 3f 06 00 37 be
       -0.14037429 -0.17316648 0.8695899 -0.17871103
000160 a4 4e a2 bc 74 f9 2f bd e2 9f 26 bc 6a a0 bc be
       -0.01981289 -0.042962506 -0.010169955 -0.36841136
000170 9b a2 13 3b 9a 3e 26 be 2b 7b 3f be dd 97 c6 bd
       0.002252734 -0.16234818 -0.18699329 -0.09696934
000180 18 52 0b be 6e 08 ec 3f 15 98 ef bc c3 0d 82 bd
       -0.13605535 1.8440073 -0.029247323 -0.06350281
000190 ec 0d 3e be bf 54 0e bd c5 cd 02 be 80 2f 8a 3f
       -0.18559998 -0.03474879 -0.12773807 1.0795746
0001a0 68 0c 24 3f f5 e7 8e bd 33 d4 63 bc a6 52 16 be
       0.6408143 -0.06977836 -0.013905573 -0.14679965
0001b0 3e 3f 34 3c b7 f2 ed bd 1e 19 33 3f 9b 2c 0c be
       0.011001406 -0.1161856 0.699602 -0.1368889
0001c0 c1 d7 a8 bd e2 3a 38 3d 3a c7 3a 3f df 5b c1 bd
       -0.08244277 0.04497803 0.72960246 -0.09441351
0001d0 cd b8 9d bd bb fa 6f bc 70 b8 46 be ed 61 33 be
       -0.077012636 -0.014647181 -0.19406295 -0.17517824
0001e0 85 ee 20 3f 0a 7d 1c 3e ee c6 46 3e 96 a8 23 bd
       0.6286395 0.15282074 0.19411823 -0.039955698
0001f0 09 f0 8f 3f 13 89 04 be dc 00 09 be 22 51 4e be
       1.1245128 -0.12942915 -0.13379234 -0.20148137

out.weight f4 [1, 128]
000000 b4 42 f1 3c 67 d2 2c 3c b0 49 8a bd d6 44 5b 3b
       0.029450752 0.010548211 -0.06752336 0.0033457777
000010 06 72 dd bc 37 cf a7 ba e4 b1 25 bd 43 03 0b bb
       -0.02703191 -0.0012802844 -0.040452853 -0.002121166
000020 95 5b 53 bb 5a 08 0c 39 ca c5 bf 3c 7a 45 db 3d
       -0.0032250632 0.00013354552 0.023409743 0.10706611
000030 b8 e5 bf bc e4 1d 2b bb ac 89 ca 3b 23 12 bd 3b
       -0.023424968 -0.0026110345 0.0061809625 0.0057699843
000040 9d 33 3e 3b b0 8f f6 3c 9b 9f 0c bd f9 34 6d 3b
       0.0029022463 0.030097812 -0.0343319 0.0036194904
000050 07 96 05 3c d2 9f 7c 3c 7e a6 2d bc ca 37 42 3c
       0.008153445 0.0154189635 -0.010598777 0.011854121
000060 7b 08 1c bd a1 b1 e1 bb eb 56 35 3c c0 59 1f bc
       -0.038094025 -0.00688763 0.011068086 -0.009725988
000070 96 2b e1 3c d1 ed ea 3c 59 8f 82 bb 65 6a 2c 3d
       0.027486604 0.028677853 -0.0039843735 0.042093653
000080 2a c3 91 bc d3 c6 c9 bc ac f8 b8 3c 65 39 8b 3c
       -0.017793257 -0.02463094 0.022579513 0.016995141
000090 11 d3 bb 3c ac 4a 25 bc 8b b6 27 bc db a0 b7 3c
       0.022927793 -0.010088604 -0.010236393 0.022415569
0000a0 c9 b5 e3 bc a6 52 8a 39 6b 53 a7 3c d6 9d 27 3d
       -0.027796643 0.0002638299 0.020425519 0.04092201
0000b0 cc 20 af bc 53 46 19 bc 23 9f a2 bc 73 b0 c3 bc
       -0.021377943 -0.0093551455 -0.019851273 -0.023887848
0000c0 a0 32 54 bc 32 25 db bb d3 fa d9 3c 15 cb df bc
       -0.012951523 -0.0066877836 0.02660886 -0.027318517
0000d0 2c 6f b7 3b e1 6f e5 bc 4b a8 ab 3b 0c 88 4c 3c
       0.0055979695 -0.02800745 0.005238568 0.012483608
0000e0 75 62 24 3c 77 77 a3 bd 7d df 77 bb 85 6b 4e 3c
       0.01003324 -0.079817705 -0.0037822418 0.012598877
0000f0 c8 0d ee bc 82 c0 b6 bb b7 37 33 bd 77 37 3c bb
       -0.029059306 -0.005577148 -0.043754306 -0.0028719583
000100 16 11 7d bc 92 d0 af 3c 3b 45 b2 3c 4f 23 af bc
       -0.015445968 0.021461759 0.021761527 -0.021379141
000110 94 dd b2 bb 78 0e 88 bc d6 42 38 bc df c5 ae 3b
       -0.005458543 -0.016608462 -0.011246404 0.0053336467
000120 6b 4b 0c bd e9 a3 11 3c 25 57 db bb 13 29 ba bc
       -0.03425161 0.008889177 -0.006693738 -0.022724664
000130 c8 f6 87 3d 7a f2 91 bc 4e 79 16 bc 3f e9 1b bc
       0.06638867 -0.017815817 -0.009184195 -0.009516059
000140 a5 80 20 3c ca cf e7 bd 22 0e dc 3c 36 1d 97 bd
       0.009796296 -0.113189295 0.026862208 -0.073786184
000150 af 41 ce 3b 26 6f fa bc 38 3f b7 3c 6f d8 f1 bc
       0.006294451 -0.030570578 0.022369012 -0.029522149
000160 cd 9d da bb cb fe 5f 3c b3 c1 80 bc 63 02 30 3d
       -0.0066716434 0.013671587 -0.015717363 0.042971026
000170 65 a0 88 bc b2 f7 10 3c b2 ff c1 3a ea da 68 bc
       -0.016678045 0.008848118 0.0014800935 -0.014212349
000180 d5 88 bf bc fa b6 91 3d a0 96 89 3c 56 b0 0a ba
       -0.023380676 0.07114978 0.016795456 -0.00052905583
000190 ef 7c b7 3c ae 0f ff 3c 4a 67 53 bd 83 66 77 3d
       0.02239844 0.031135406 -0.051612176 0.060400497
0001a0 4d 03 d0 bc ba c8 75 bc e9 84 7d bc 9f 15 0a bc
       -0.025392199 -0.01500147 -0.015473583 -0.008428006
0001b0 2d ba ed bb 25 bb bd 3c c6 ad 1a 3d 03 c5 65 bc
       -0.00725486 0.023160527 0.03776338 -0.014024022
0001c0 0c a0 b8 3c 19 5e d8 3c ee 2e 00 bd a3 89 c2 bc
       0.022537254 0.026412057 -0.031294756 -0.02374727
0001d0 67 e5 b2 3c fa 53 b2 3a 37 9e 9c 3c c5 84 c0 bc
       0.021837903 0.0013605349 0.019118411 -0.02350081
0001e0 c0 da 03 bd e8 80 80 bc 33 85 9a bd 8c 5a 34 bc
       -0.032191038 -0.015686467 -0.07544937 -0.011007916
0001f0 c7 28 9a bc 20 5f 81 bc 18 a0 96 bc d7 4a 06 bd
       -0.018818272 -0.01579243 -0.018386886 -0.032786217
