checkpoints/checkpoint_actor_1.pth (torch, 170327 bytes, 6 tensors)

fc1.weight f4 [256, 33]
00000000: d383 dbbd f6c8 e53d c87b 023e 2d81 883c
00000010: 05d4 46be 315a 28bc b8a1 42bd 1c8f 0b3c
00000020: 09e2 3abe 38d0 3abe 5cd9 a4bd 7bdb 48be
00000030: 33fb 7d3d d6cb 933d cac9 94bd b6d6 61bd
00000040: 1c00 473d d421 283d 3705 8f3a 8f63 abbb
00000050: 58bb cf3c d311 9fbd 2488 22bd 9f3e b23d
00000060: 1304 e2bc c2a9 10be 0470 803d bd73 d93d
00000070: 90cb 8ebe 3475 bdbc 82bc d2bd 9098 213d
00000080: 7ec4 5e3c 3d54 f43d 7288 b03d 80c8 e3bc
00000090: 45d1 97bd 52b0 983d 0d55 a2bd 3b51 123e
000000a0: e708 b83d cf19 1b3c 6b37 3a3d 933d 65bd
000000b0: c929 c93c f05b cfbd 4233 1e3e 482f 6ebd
000000c0: 6246 12be ff63 063d e5ab 3dbd 6f11 b93d
000000d0: a4cb 86bd 1778 ab3b fe80 f43d 030d 573e
000000e0: dc8c 353c ed2b e43c c292 f7bd 41f1 0ebd
000000f0: 083f e73d 4639 e7bd 04e7 26bd 251d 2fbe
00000100: 8011 503b 60b6 f3bd de86 cb3d 411e 7dbd
00000110: a07a 2f3e de48 e93c b9e9 78bd 2c6c dabd
00000120: afb7 133e 4d7f 863d c6e5 00bd 444b 2ebd
00000130: 2388 38bd 16a0 043d 7fb0 7d3d 02be 463c
00000140: 5e09 f6bc 6b69 10be 8cf8 4ebc f326 dd3d
00000150: f158 1bbc 2a9f dbbc 1d9a 3ebd 51b4 dfbc
00000160: e461 253e e8c7 8abc 2f00 14bb 328e 6ebd
00000170: 6043 08be c936 20bd 28b3 0e3d 786d 473d
00000180: bb49 04bd 56b3 353d 8c75 d03e 52e5 db3d
00000190: 48d9 6e3e 3c27 dfbd 041b 9bbc 8c8e d73d
000001a0: 5bfd 20be 3eab 07be abe0 21bb bafa 99bd
000001b0: db2d b23d c66c d7bc 5282 563e f7a3 5938
000001c0: 2e59 97bd 2586 76be 90aa 4c3d e6d0 e5bc
000001d0: d63f 81bc 5fdc 4e3c 516f 843d e3f8 36bd
000001e0: f73f a23c 67d9 0a3e 201a dabb d36a 0dbe
000001f0: ffe2 61bc 6b06 803d 60bb 80bb daa9 c93c
00000200: 1883 153d 0104 efbd 680e e7bc 498d bbbd
00000210: 4324 8d3d bc74 553d 3bb1 3b3c 94a2 79bd
00000220: 409b e83d f751 093d cea9 3c3d 1eb0 f23d
00000230: df5d 17be 148d aebd 34b0 0cbe dcab 2f3d
00000240: 02e2 c9bc ec8d 8b3d 5a3e 1bbe 9ab5 183d
00000250: 6152 863c 9e7d a53c 20b5 7a3d 1a94 0cbc
00000260: 87df 9cbd 09c3 513d 4a05 433e 4fcf 1ebe
00000270: 9950 6bbb 360c 44bd e8e8 73be f7e6 a8bd
00000280: 1f18 f8bd a602 3c3d 377b 613c 1858 763d
00000290: 0323 163d 7370 4b3e 6053 0c3a 742a c6bb
000002a0: 3169 c83c 4121 623d 79a7 b1bd 3786 443d
000002b0: 51e6 6c3c a419 9cbd c305 ab3d 83da f03d
000002c0: e730 68bd 2a45 1ebc 4495 b5bd 8dc1 153e
000002d0: 9063 2e3d e4d4 e23d 5394 823d c2d7 92bd
000002e0: defb 283c fe99 703d d012 833d f8a0 d0bd
000002f0: 56eb 99bd 7f25 9b3d e74e eb3d 51b2 8e3c
00000300: fcbf 61bd 4799 433e dc1d 4ebd 5983 1d3d
00000310: 2095 613b d781 fa3e aef2 7dbd 7f00 4a3c
00000320: a73c b33d 7b62 95bc 589b 86bd f597 133d
00000330: e1ac 86bd a3af 03bb 812c 4bbe 9f96 dcbc
00000340: 09e9 92bd 65ec 843d e240 9cbd 0628 09be
00000350: 1966 f73c 5044 28be aa88 8d3d 9921 903d
00000360: 9781 2a3d 549b ec3d 8793 233c 2532 063e
00000370: 1f44 f33d 0d24 6abe 7f49 95bd dfc0 d8bd
00000380: 25b8 033e 139d 52bd 6491 e1bc 1864 0ebc
00000390: 13a3 eb3d f040 2b3d 075e 29bc d3fa 21be
000003a0: 3303 0dbc 81f8 c03d 09cc a6bb 7c8b afbd
000003b0: c013 aabc 78b4 123e 5b04 0c3e 3841 3abd
000003c0: f7d8 eabd eae4 a8bc aa2b f43d 63e7 92bd
000003d0: b8c4 3dbe 0b40 d2bd 4d0f 273d 84ce dfbc
000003e0: 22f0 553c 9981 973d ef93 8cbc 6626 dcbd
000003f0: c84b 5ebb 051e 1abe 3cc5 25be f2c3 c9bd
-0.10718503 0.11219971 0.12742531 0.016663158 -0.19416817 -0.01027541 -0.04751751 0.008518007
-0.18250288 -0.18243492 -0.080492705 -0.19614975 0.06200714 0.07216613 -0.07265051 -0.055136405
0.04858409 0.041047886 0.0010911588 -0.005230374 0.025357887 -0.077670716 -0.039680615 0.0870335
-0.027589833 -0.14127257 0.06271365 0.106177785 -0.2788968 -0.023127176 -0.10289861 0.039452136
0.013596652 0.1193013 0.08619775 -0.027805567 -0.07412962 0.074555054 -0.079263784 0.142888
0.08986073 0.0094666025 0.045463007 -0.055966925 0.024556058 -0.101249576 0.15449241 -0.05815056
-0.14284661 0.032810207 -0.04630651 0.09036528 -0.0658181 0.0052328217 0.11938666 0.21001057
0.011080947 0.027852977 -0.12088539 -0.034898046 0.11291319 -0.11290221 -0.040747657 -0.17100962
0.0031748712 -0.1190002 0.09937833 -0.06179643 0.17136621 0.028477129 -0.06076977 -0.106651634
0.14425538 0.065672494 -0.03146913 -0.042552248 -0.045051705 0.032379232 0.061935898 0.012130262
-0.030033763 -0.14102714 -0.0126325 0.107984446 -0.0094816545 -0.026809294 -0.046533693 -0.027307661
0.16150624 -0.016941026 -0.0022583117 -0.058241077 -0.13306952 -0.039114747 0.034838825 0.048688382
-0.032296877 0.04436048 0.4071468 0.10737099 0.23325074 -0.10896155 -0.01893378 0.105252355
-0.15721647 -0.13248917 -0.0024700563 -0.075185254 0.087001525 -0.026296984 0.20948151 5.1889536e-05
-0.073900566 -0.2407461 0.04996735 -0.028053712 -0.01577751 0.012625783 0.064665444 -0.04467095
0.019805891 0.13559495 -0.0066559464 -0.13810281 -0.01378703 0.06251224 -0.003928587 0.024617124
0.036501974 -0.116706856 -0.028205112 -0.091578074 0.06891682 0.05211328 0.011455829 -0.060946062
0.113577366 0.033525433 0.046060376 0.11849998 -0.14781903 -0.08523002 -0.13739091 0.042888507
-0.024643902 0.06814179 -0.15160504 0.037282564 0.016396703 0.0202015 0.06120789 -0.008580232
-0.07659822 0.05121139 0.19044986 -0.1550877 -0.0035906194 -0.047863208 -0.23819315 -0.08247178
-0.12113976 0.045900963 0.013762287 0.060142606 0.036654484 0.19867115 0.0005353 -0.0060475413
0.024464222 0.055207495 -0.08674521 0.04797956 0.014459209 -0.07622078 0.08350708 0.11760428
-0.056687262 -0.009660045 -0.08866361 0.14624615 0.04257542 0.11075762 0.06375947 -0.07170059
0.010313956 0.05874061 0.064000726 -0.10186952 -0.0751559 0.07575511 0.11489659 0.017419012
-0.05511473 0.1910144 -0.050321445 0.03845534 0.003442116 0.48927185 -0.061999016 0.01232922
0.08751803 -0.018235436 -0.06572598 0.03603359 -0.06575943 -0.0020093701 -0.19841196 -0.02692729
-0.07173354 0.06490401 -0.07629563 -0.13394174 0.030200051 -0.16432309 0.06910832 0.07037658
0.041627493 0.11553064 0.009983904 0.13105066 0.118782274 -0.22865315 -0.07289409 -0.10583662
0.12863214 -0.05141933 -0.027535148 -0.008690856 0.11505713 0.041809976 -0.010337359 -0.15818338
-0.00860672 0.09422398 -0.005090241 -0.085715264 -0.02076137 0.14326656 0.13673536 -0.045472354
-0.11467164 -0.020616967 0.11922391 -0.0717304 -0.18532073 -0.102661215 0.040786076 -0.027320154
0.01305774 0.07397766 -0.017160384 -0.107495114 -0.003391968 -0.15050514 -0.1618852 -0.09851827

fc1.bias f4 [256]
00000000: d13e 26be b1bf 96be 6c6a 463e 1285 b5bd
00000010: 5551 853d ba92 c23c 7594 273e 2b6a 8e3d
00000020: 4e6f 30be 0cac 1c3e 7d1f 70bc 9474 b1bd
00000030: 3465 083c df5c 0abe e5d5 bebc 5875 94bd
00000040: d105 1a3d bdce b53d 4c18 7abd 8774 563b
00000050: 39a9 0f3d bdae 653e 0a78 3e3e 6223 cd3d
00000060: aab1 e3bc 14d1 3d3e 2fe8 2dbe 70e6 223e
00000070: 5702 a33d fac8 36be 69cd 853e b555 00be
00000080: 37f0 e93d 6245 3f3c 59fb 87bd cb74 4b3d
00000090: 05c7 37bc c4f1 49bd 7b1b 3cbd 811f e7bd
000000a0: c164 0c3e 3fb8 633d 0755 e4bd f9c7 64be
000000b0: 26ea 11be d777 f1bd 0192 cbbd 6efe 3f3e
000000c0: 7e19 2b3d 6bd5 3f3e 9620 f2bc 9b45 86bc
000000d0: ec1e 2cbe ed92 843e 9142 b53c 21b1 ea3c
000000e0: 49f8 6f3e 15ae 323d 010b c43d 66da 4cbd
000000f0: 0f42 59bc cc47 223e 2cf4 b73d 6d8a 433e
00000100: 5382 cf3d b140 5dbd fc61 2cbd c6c8 d8bd
00000110: 7955 373e 96e4 42be 8435 c73d 7fb2 a8bd
00000120: 7f24 8f3d 49e6 2e3d 8915 863d 8c47 00be
00000130: e9c5 383e 2da3 5d3b 1813 8fbc c7f2 493d
00000140: 7547 ce3d dad2 22bd 6188 a83d 24ea a83d
00000150: 8875 f93c 975c 343e 3969 30be 6430 343e
00000160: 44f8 bebd 7f0d c7bd 1aea 45be 4948 433c
00000170: 138e 663e e51c d63d 857d be3d b2ae ca3d
00000180: 871f 0f3e 17ba 33be 4e4e a1bc 9b00 04be
00000190: 4d6c 2fbe 5635 84bc 8ef4 3cbd 0e16 8abd
000001a0: 17f0 10be b2a5 85bd fd3d 9ebd 8000 8c3b
000001b0: 1453 b23d b5b2 78be 4aa1 21bd 97d0 cfbd
000001c0: 13bd 10be 0862 10be eed8 0fbd 35da 68be
000001d0: fd04 213d 621a 8e3d 605c 4bbe 31c6 023e
000001e0: 7ef4 30bb d865 303e 8f1f 293d 9490 c2be
000001f0: be60 193e caee 12be 1699 95be 64cc 923d
00000200: c17f 8fbd 6eb5 153e b444 233e e5c1 fdbd
00000210: ecb3 15be d23e fd3c d159 b73d e79c b43d
00000220: 88c6 f4bd 3cac 9fbc 88ec 39bd 4adc 6abd
00000230: 4127 e4bd b906 f73d cae5 4abd dceb 953c
00000240: aedf f3bd 1522 45be 7610 1b3e 96bd fbbc
00000250: cd55 f53c f161 b93d 1752 96be fe66 8a3d
00000260: 1f6d e4bc f4bb 173e fbbe 2ebe 5848 823e
00000270: 082c 11be aced 2f3e 8b2f 27bc b370 093d
00000280: 2cbe 113e 2dad c53d 689c fc3d 5566 21bd
00000290: 7608 1ebe 7853 3c3e c5e2 69be ff8a 8fbd
000002a0: e50c 163e 0fa3 463e 1f6e 8dbc 7db5 183e
000002b0: 0710 3f3e c85e b0bc 8498 9cbd 03cf 4d3d
000002c0: 3a08 12bc af69 babc 8bf6 793e 354d 42be
000002d0: 1123 e93c 15cd 0f3e c3a3 53bc f981 eebd
000002e0: 467b c6b9 7eb1 dfbc 0f0d 05be 364c 993d
000002f0: da6c 1c3e e18e cc3d 2376 853c 73b6 cf3c
00000300: c273 4abd 4315 0a3e 02f0 b83d 0d0b bbbc
00000310: 6a0a b83c 7673 823d a610 7ebe b7d3 c3bd
00000320: b468 e13c f98a 03be b63f 183d 6188 d53d
00000330: c49a 683e 4d3a 1cbe c74d 7bbc 1e02 babd
00000340: 00f7 03be 8d6c 2e3c a2ce 4cbe 224b 73be
00000350: e9f2 eb3d e434 48bd 1ee2 3ebe 549d 823d
00000360: 6fd3 a23d aa97 1f3d 138a 573e c433 a23d
00000370: bf84 7f3d 1c02 993c d5da 9a3d 10d1 07bd
00000380: 375d de3d d5f8 8d3e b010 ea3d 89c8 863d
00000390: b679 d2bd cc15 2b3d b73e 2d3d 8694 893b
000003a0: de91 cfbd 6c83 9b3d aaf0 afbd 4694 0dbc
000003b0: 403c bc3c 47bf d53d efc7 293c 3e7c 90bc
000003c0: 238d d03c df81 edbc 841b 713c c713 a13d
000003d0: 8568 08be 2952 363d 8306 463e ae8d d63c
000003e0: d883 b63d 2fa4 4d3d e16d 6abe 0204 f7bd
000003f0: 0b67 d1bd b1db 4d3e 7193 c73d 9553 42bc
-0.162349 -0.29443124 0.19376534 -0.08863272 0.065096535 0.023751605 0.16365226 0.06953844
-0.1722996 0.15300006 -0.014655945 -0.08664814 0.00832491 -0.1351199 -0.023295352 -0.07248944
0.037603203 0.08877323 -0.061058328 0.0032723264 0.035073493 0.22429939 0.18600479 0.10016514
-0.027794678 0.18536788 -0.16983102 0.15908217 0.07959431 -0.17850104 0.26133278 -0.12532695
0.114227705 0.011674257 -0.06639738 0.04967193 -0.011216884 -0.04930283 -0.045924645 -0.11285306
0.1371031 0.055595633 -0.1114903 -0.22341909 -0.14249477 -0.11790436 -0.099399574 0.18749401
0.041772358 0.18733756 -0.029556554 -0.016390612 -0.16808671 0.25893345 0.022126468 0.028648915
0.23434557 0.04362305 0.09572411 -0.05001297 -0.0132603785 0.15847701 0.08982119 0.19095774
0.10132279 -0.054016773 -0.042085633 -0.105851695 0.17903699 -0.19032511 0.09727004 -0.082371704
0.06989383 0.042700086 0.06547076 -0.12527293 0.18044247 0.0033819184 -0.01746516 0.049303796
0.10072223 -0.039751865 0.08229137 0.08247784 0.030451551 0.17613445 -0.1722764 0.17596585
-0.09324697 -0.09719371 -0.19327584 0.01191909 0.22515135 0.1045473 0.09301285 0.09896602
0.1397687 -0.17551456 -0.019690659 -0.12890856 -0.17131157 -0.016138714 -0.046131663 -0.06742488
-0.14154087 -0.065257445 -0.07726667 0.0042725205 0.08707252 -0.24286921 -0.039460458 -0.10147207
-0.14134626 -0.14099896 -0.03511899 -0.2273949 0.039311398 0.06938626 -0.19859457 0.12770917
-0.0027001197 0.1722635 0.041289862 -0.3800093 0.1497831 -0.14348903 -0.29218358 0.07167891
-0.07006789 0.14619991 0.15944177 -0.12390498 -0.14619416 0.030913744 0.08952678 0.08818989
-0.11951929 -0.019491307 -0.04539159 -0.05733899 -0.111402996 0.12061829 -0.04953555 0.018300943
-0.11907898 -0.19251283 0.15142998 -0.03073005 0.02994814 0.09051884 -0.29359505 0.067579255
-0.027884064 0.14817792 -0.17065041 0.2544582 -0.14176953 0.17180508 -0.010204206 0.033554744
0.14232701 0.09652171 0.123345196 -0.039404232 -0.15432915 0.18391216 -0.22840412 -0.07008933
0.14653356 0.1939814 -0.017264424 0.14912982 0.18658458 -0.02152957 -0.076462775 0.05024625
-0.008913094 -0.022755472 0.24410455 -0.18974765 0.028459104 0.14043076 -0.012917462 -0.11645884
-0.0003785735 -0.027306315 -0.12993263 0.07485239 0.15275899 0.099881895 0.016291684 0.025355553
-0.0494268 0.13484673 0.09030153 -0.022832418 0.022465903 0.06369679 -0.24811038 -0.09561866
0.027515747 -0.12845983 0.037170134 0.10426403 0.22715288 -0.15256615 -0.015338368 -0.09082435
-0.12887192 0.010645998 -0.20000699 -0.2375913 0.11520941 -0.048878565 -0.18640944 0.06377664
0.07950484 0.038962997 0.21048765 0.0792003 0.062382456 0.018677764 0.0756127 -0.033158362
0.10857623 0.27728906 0.11428964 0.06581218 -0.10277121 0.041768834 0.042296138 0.0041986136
-0.10135244 0.07593426 -0.08590825 -0.008641308 0.022977948 0.10436874 0.010362609 -0.017637368
0.025457924 -0.028992591 0.014716033 0.078651 -0.13321121 0.044511948 0.19338422 0.026190605
0.08911866 0.050205406 -0.22893478 -0.12061311 -0.10224732 0.20103337 0.09744919 -0.011860748

fc2.weight f4 [128, 256]
00000000: 7e85 1ebe d508 06bd a2be c0bd e0d2 b53e
00000010: 7b24 2f3d aeea 94bd f507 6f3d dcd3 d7bc
00000020: 3863 00be 6c51 fabd 3b7d 5d3d 75bc 0ebe
00000030: 08a5 9b3d 1ca4 a83d 676b 04be b9cb e83d
00000040: d001 b93e 1e44 14be 540e cd3d 18ab 553d
00000050: b0d2 343e f30c 843e d54e d4bd 228f 9ebd
00000060: 9d87 0dbe 1513 663d 1045 f9bd 3d1a 36be
00000070: 19cb 5cb9 8aa6 8fbe b7db d9bd 0e8b 04be
00000080: 0b91 0ebd af26 0e3e c281 5bbe edff 853d
00000090: 8305 653e 10ba 0dbe c68e 423c b9de b13e
000000a0: 4fe1 febd 04de 983e 754a ef3d 1979 01be
000000b0: ac2a e83d bbfa 363e f36d fb3d 93cb 9cbe
000000c0: 98dc 37be aedc 5c3d 3fa3 0f3e 780e 50be
000000d0: 6a75 7d3d 588c 013d a0e6 b83d 3b56 b13d
000000e0: e769 b83c fba9 153d 6557 d83d fe72 8dbe
000000f0: f054 c23d e529 093e 84c3 25bd 7f47 723d
00000100: 0c04 67bd c1a7 4dbe 3a41 4ebe d211 1f3e
00000110: d493 2a3d 6b1d 3b3d 1efc 453e c07d ffbb
00000120: e491 7dbe a1d4 d2bd 9b5e 7cbe 91f7 a3bc
00000130: d61f 2e3e d42d a2bd 52d0 36bd c8ef 2bbe
00000140: 236d d73d 85ce 9abd 4e27 bd3d e682 7cbd
00000150: 9db3 1a3e 7c6b ebbd 5368 843d 36e9 863c
00000160: 04ff 1fbe 9001 41bd 6702 63bc dcef 8f3e
00000170: 5664 bdbd 47c4 a8bd 6c5b 1bbe af2e bebd
00000180: c6ca 383c 00e6 343e 027f 363d ccd5 333e
00000190: 40b7 4f3e 9898 3bbe 4b15 64bd 2f10 453d
000001a0: 291c 5f3e 6832 bebd be7d 1b3e 35b0 5cbc
000001b0: 1c76 1a3e 03a8 623d 0f82 013e 061a 823d
000001c0: d310 ddbc 852d f63d 054a e53d 20b8 113e
000001d0: 2e52 9cbd 98a4 ae3d 1836 333e bb38 743d
000001e0: 8336 1b3e 718f 3c3d 62d5 043d b896 053e
000001f0: 1ea8 76be 14cd ce3d ef11 d9bd 87e5 3bbc
00000200: a1df 053e 0812 1cbd 644d 083e 5691 c4bd
00000210: 8952 c7be c587 acbd 00e3 1bbe 10c7 03bc
00000220: 0593 ae3d 8c6c 803e 236b 12be dc19 e93c
00000230: 7b1e 493e de22 58be e55d 5aba 1ee7 4dbc
00000240: bd49 353d 780d ae3d 9199 0abe 5eee 913d
00000250: 7686 68bd 941f 76be 69d6 173d e476 25bd
00000260: 339e 7c3e dd7f 83bd 6187 8ebd c4c7 413d
00000270: c539 123e ebe6 3dbe afe8 22be 087c a93d
00000280: b926 17bd 785f 113e 6f6b 80be 9591 123e
00000290: 8507 99bd bceb 3c3d f1da 09be fdbf 533d
000002a0: 972e ae3d 054e 4e3e d42d 9b3d bd45 9a3e
000002b0: 5c81 84be 4e45 083e 8117 02be b93a c3bd
000002c0: b64c 0bbe 5c47 05bd a749 d8bc bff0 9fbc
000002d0: 97dc 13bd fcdc 4b3d 4330 933d 5dea 743d
000002e0: 3ad2 a7bd fcca 04bd 28c3 08bd 3ff8 10bd
000002f0: 4f3d bb3d 1bfc 323d 7389 60be 6aa4 02be
00000300: 8257 143d 4801 29be 7208 48be dd46 203d
00000310: 070a edbc 04b5 13bd 54f2 30be 9b72 243e
00000320: 3b00 d43c 445b b03d 7804 25be 9b1d 953d
00000330: 4d7a 5ebe 41b4 0fbe f26e 4e3e 6598 39bd
00000340: c55e a73e 746f 99bd cd5a 50bd 1a1c f8bb
00000350: 130c 39be 0cfd 283d 105a c13e 9674 11be
00000360: b45f 09be 9cee 77bc 4cc0 0e3d a910 89be
00000370: baa2 22bd f914 00be e319 993e 8161 48be
00000380: 71ae c43d 0775 34be 9db1 28be d87f 133e
00000390: 0924 273d 54f4 8b3c 5c93 ee3c 7f67 6ebe
000003a0: e493 69be c804 0cbd 9bcc c5bd 2648 0e3d
000003b0: 7cba c53d 175d c23b 0447 25be 8c2e 703e
000003c0: 2e51 7c3a 83a3 563e f150 043e 9665 283d
000003d0: 7178 fdbd 5606 d03d 4294 003e 576b 18be
000003e0: 69f7 53bd ffff 23be a069 83be 604e 833c
000003f0: 7a22 d53d 3bed 103e 8815 44be 3d0e 7f3d
-0.1548061 -0.032723267 -0.0941136 0.35512447 0.0427594 -0.07271324 0.058357198 -0.02634614
-0.12537849 -0.12222561 0.054074507 -0.13939078 0.075998366 0.082344264 -0.12931596 0.11366982
0.36134195 -0.1447911 0.100124985 0.05216512 0.17658496 0.2579113 -0.103665985 -0.07742144
-0.13821264 0.05617054 -0.12171376 -0.17783447 -0.00021056495 -0.28056747 -0.106376104 -0.1294367
-0.034806293 0.13881944 -0.21436217 0.065429546 0.22365384 -0.13840508 0.01187486 0.34740236
-0.12445318 0.29856884 0.116841234 -0.12643851 0.11336264 0.17869084 0.122768305 -0.30624065
-0.17955244 0.053921394 0.14027117 -0.2031802 0.061879553 0.031627983 0.09028363 0.08659025
0.022511436 0.03653906 0.10563544 -0.27626795 0.09488857 0.13394888 -0.04046966 0.059150215
-0.056400344 -0.20083524 -0.2014207 0.15534142 0.041644886 0.045682352 0.19334456 -0.007796973
-0.24762684 -0.10294462 -0.24645464 -0.02001551 0.17004332 -0.07918897 -0.044632263 -0.16790688
0.10518863 -0.07558922 0.092360124 -0.061648272 0.1510758 -0.114951104 0.06465211 0.016468626
-0.15624624 -0.04712063 -0.013855553 0.28112686 -0.09247653 -0.08240562 -0.15171593 -0.09286248
0.011278814 0.17665863 0.044554718 0.17562026 0.20284748 -0.18319929 -0.05568437 0.048111137
0.21788086 -0.09286958 0.15184686 -0.013469745 0.15084118 0.05533601 0.1264727 0.0635262
-0.026985561 0.12020401 0.11195759 0.14230394 -0.07632862 0.085274875 0.17501104 0.059624415
0.15157513 0.046035234 0.03243006 0.13045776 -0.24087569 0.10097709 -0.10599124 -0.011468298
0.13073589 -0.038103133 0.13310772 -0.09598033 -0.38930157 -0.084243335 -0.15223312 -0.008043066
0.085241355 0.25082815 -0.14298682 0.028454714 0.19640534 -0.21107051 -0.00083300314 -0.01256731
0.044259775 0.08498663 -0.13535143 0.07125543 -0.056768857 -0.24035484 0.03706971 -0.040396586
0.24669723 -0.06420872 -0.06959415 0.047309652 0.1427985 -0.1854512 -0.15909074 0.0827561
-0.036902163 0.14196575 -0.25081965 0.14313348 -0.07472137 0.04612325 -0.13462426 0.051696766
0.0850498 0.2014695 0.075771004 0.3013133 -0.25879943 0.13307688 -0.12704279 -0.09532685
-0.13603482 -0.032538757 -0.026402308 -0.019523976 -0.036099043 0.049771294 0.071869396 0.05979382
-0.081943944 -0.032420143 -0.03338924 -0.035392996 0.09142553 0.043697458 -0.21927433 -0.12758031
0.036216266 -0.16504395 -0.19534472 0.03913008 -0.028935445 -0.0360613 -0.17279941 0.16059344
0.025879016 0.086111575 -0.16114986 0.072810374 -0.21726342 -0.14033605 0.2015951 -0.04531135
0.3268949 -0.07491961 -0.050867844 -0.0075717093 -0.18071012 0.04125695 0.37764025 -0.1420463
-0.13415414 -0.0151325725 0.034851357 -0.26770523 -0.03970597 -0.12508 0.29902562 -0.19568445
0.096035846 -0.17622767 -0.16474004 0.14404237 0.04080585 0.017084278 0.029123 -0.23281668
-0.22810322 -0.034184247 -0.09658166 0.034736775 0.0965471 0.0059315073 -0.16140372 0.23455256
0.0009625134 0.20960812 0.12921502 0.041112505 -0.12376488 0.101574585 0.12556556 -0.14884697
-0.05174962 -0.16015624 -0.25666523 0.016028583 0.104069665 0.14152996 -0.19148839 0.062269438

fc2.bias f4 [128]
00000000: fa7a ebbd 7b95 3cbd bfdf fc3d a2eb 6abd
00000010: 3ba6 f3bc 027f 583c 0a42 9e3d 5e0f cfbc
00000020: 06ea b8bd 6a92 54bd 38e5 7c3d 1e2e 2dbd
00000030: 5bf2 4c3c 246b 85bd 6c6a 873c a129 32bd
00000040: 70f3 0fbd f032 233c 654b 183c 9699 fe3c
00000050: 3ba6 b6bc 33bc 3cbd 328b 053d e1f6 b9bd
00000060: 3e27 f13d cff2 bdbd d5bf 3a3d 1b46 58bd
00000070: e2ae 913d 00e6 b53d 5d8f 4d3d 2892 35bd
00000080: f056 a33c 2ede ad3d adb5 1e3c 9047 6dba
00000090: 8506 53bd dda5 683c 5c16 31bc 7017 103d
000000a0: 61a7 61bd b041 88bd b6ba c0bb bc6d e83d
000000b0: fa76 a43d 67ab 45bc a65e 8d3a 4aee c73a
000000c0: 1792 fc3c 156a e43d 00c6 19bd a2c0 623c
000000d0: c260 b5bd 47e5 85bd 7010 073c baa0 a03b
000000e0: 7a9b fbbc 3622 bd3d 1dca 9f3c b77a 2abc
000000f0: 5118 80bc 1b70 423d c771 ba3d fcf6 893d
00000100: 3e86 0a3d c583 80bd b5a0 e7bc e8b8 073d
00000110: c96d f13d f4c2 813c 26a1 fbbd 6d3d 2f3c
00000120: 426c 343c 2172 f23b cabe 883d 95d1 503d
00000130: 39a7 c63d f917 2f3c 393e c2bd f052 bb3c
00000140: 83ff c7bc 68d7 0bbd 6d62 843d 98f5 d7bb
00000150: 4d97 afbc 45f0 8fbd 7b72 f73c 0d79 963d
00000160: 8d4c 78bb 3f02 ee3c da74 89bd aae9 00bd
00000170: 6e58 2d3d 413a 8cbd 353d 51bd 6256 6dbb
00000180: de40 b63c 1a14 d4bb 8568 9d3c 707c c4bd
00000190: 7775 f43a 70ac 4bbd 9e89 d53c 1cf1 b43c
000001a0: 6a2a c03c 4efb 93bd ad64 073c 233c 943d
000001b0: f195 80bd 7114 d33c 3b14 80bc 32c4 ccbd
000001c0: 7c23 7c3d 153f 0a3d 1abc 0bbc 9b50 133c
000001d0: 442b f93c dc99 06bd 95b3 0abd 7acf a5bc
000001e0: 225f 8e3d ce29 803d e6a6 243d eecb 4bbc
000001f0: 12e0 2c3d 8152 b3bc 8409 a43c 565a 6c3c
-0.11498065 -0.046040993 0.12347364 -0.057353623 -0.02974235 0.013213875 0.0772744 -0.025275882
-0.090290114 -0.051897444 0.061742038 -0.04228031 0.012508954 -0.06514576 0.016530238 -0.04349673
-0.03514427 0.009960875 0.009295319 0.031079095 -0.022296062 -0.04607792 0.03260345 -0.090802915
0.11775063 -0.09274828 0.0455931 -0.052801233 0.071134344 0.0888176 0.05018555 -0.04432884
0.019938916 0.08489643 0.00968687 -0.0009051496 -0.05151989 0.014199701 -0.010808554 0.0351786
-0.055091266 -0.06653154 -0.0058816327 0.11349055 0.080305055 -0.012064791 0.0010785654 0.0015253511
0.03083138 0.11153046 -0.037542343 0.013839873 -0.08856346 -0.06537872 0.008243665 0.0049019726
-0.030713785 0.09235041 0.019505555 -0.010405234 -0.015636595 0.047470193 0.091037326 0.06736562
0.03381943 -0.06275133 -0.028274873 0.033135325 0.11788518 0.015840031 -0.12286596 0.010695797
0.011012139 0.007398859 0.06677015 0.050981123 0.09699864 0.010686868 -0.09484524 0.022866696
-0.02441383 -0.034140974 0.06464086 -0.0065905564 -0.02143445 -0.0702825 0.030205956 0.07347307
-0.0037887425 0.029053805 -0.06711741 -0.03147284 0.04232066 -0.068470486 -0.051083762 -0.0036214818
0.022247728 -0.006472123 0.019214878 -0.09594047 0.001865073 -0.049724996 0.026066598 0.022087626
0.023457725 -0.07225667 0.008263749 0.07238033 -0.06278599 0.025766583 -0.015634647 -0.09998359
0.061557278 0.033751566 -0.008528734 0.008991386 0.030416138 -0.032861575 -0.03386267 -0.020240534
0.06951739 0.062579736 0.04019823 -0.012438757 0.042205878 -0.021889927 0.020024069 0.014425835

fc3.weight f4 [4, 128]
00000000: b3da d7be 8c44 343e 90ae f33d 7698 cebe
00000010: 75f7 3b3c e878 8c3c 6d74 68bb 8745 253e
00000020: aac3 c2be e8dd be3e a3b6 b43d 4470 64be
00000030: b532 b83d 54f8 65be 1308 0f3e 790b e13d
00000040: 3284 b13e 9c34 51be e716 a7bd 42c9 c1bd
00000050: 374e b33d 7583 063f 1938 9abd c922 c2be
00000060: 0e9a ccbd c8da a13d d1a2 a7be 2165 a1be
00000070: d382 2b3e 8830 d43d fd70 6dbe 8862 013d
00000080: 1768 30bd f6d0 f13d 34c6 e83e 4fc7 84be
00000090: 40c5 52be 2cdd ef3d d23a 723d 60fb cb3d
000000a0: 7389 c2be afb2 073d 1193 13be 2d7b e63d
000000b0: 49f1 133e 505e 333e 1d3a b63d 5e87 8cbe
000000c0: 6c0a ba3d 2577 ae3d fc17 58be c183 edbe
000000d0: c020 a2bd 6f68 a43d b407 a23d 33c7 5dbe
000000e0: a429 53be e1f3 633e ca4a cabe 3a23 cd3a
000000f0: d2e1 96be cf48 583d e68b 003e 5494 bf3d
00000100: fd70 c7b9 4eab 05bf cc2d a43d eff3 ac3d
00000110: c901 ab3e b8e0 aebe 1405 053e 5c6f 803d
00000120: 3baf 2ebf 462c 163e 489b 563d be86 6c3e
00000130: f6b8 d73d 36ec 55be 41da 25be 5197 a33d
00000140: 646b b0be d79e 433e 8587 dc3c cb9b ed3d
00000150: f6f1 e63d ae2c 0f3e 01e5 b33d 6466 39be
00000160: 2ba1 a73d d2ec 97bd bff5 86bd 8f15 523d
00000170: c6a8 12bc a2a1 ed3d a5ff fcbe a0b5 c43c
00000180: 52c8 d4bc 2a10 ba3d 7e18 15be e805 833d
00000190: 562e 913d bb38 8abe b526 56be 8255 db3d
000001a0: 5db3 e53d a1b4 bd3e f706 a93d cd64 b13d
000001b0: 892b c6be ddae 37bf 8fac 57be 73cc 6bbe
000001c0: a5a4 63bd 1d36 cc3c c082 e6bd 2719 8a3d
000001d0: 1bfc ab3d 1970 9fbe 42d6 e7bd d94c a73d
000001e0: 80ff 06be 5146 983d 0ec2 a1be e998 74be
000001f0: aac6 823d 208d c83c 2fb2 d9be 1c43 9dbe
00000200: 1f5a c1be 9ca3 bbbe 0051 b7bc fdb0 a33e
00000210: 8db9 85be 1802 4d3e ddb2 14bd 5641 bcbd
00000220: 96b0 863e e320 5d3e 0e4d b0bd 369b 773d
00000230: 428f c93c 3024 013e b52d b8bd 1d03 303d
00000240: 5aba 67be b30b 5d3e 78ca a73b 8859 803e
00000250: 597a 11bd c5a8 d93d a1ea b1bc c6c5 36bf
00000260: 66c7 5b3e 1a12 1d3f 1e24 f83d 9a90 84bc
00000270: 1bad 0f3e 9bc7 6b3e 60f5 61bd 0504 e7bd
00000280: a94f ea3b 4d52 623d 3da6 833e 289a 7c3e
00000290: 6fed 513c e3fb 8b3d b44f b23e 728c d03d
000002a0: 7c29 a23e cd42 d1bd cc68 b43e e6c5 2dbd
000002b0: bc49 863d 29c2 e43e b88f 133e 3910 d4be
000002c0: cd0a b6bd 11fa 4bbc 70c1 18bc 86bd 6fbd
000002d0: 16eb 82be 2482 5cbe 1e49 963d 5686 78bd
000002e0: 4fcc 58bd 5a6c d03e 4b45 e93e 41b2 63be
000002f0: f117 f13d 4a63 ca3a 14da 92bc 028f 81bd
00000300: 50d4 1e3e c43f 5abe 8857 2f3d 533e 78bc
00000310: 03f2 1c3e 2980 90be a315 bdbc 11f5 e3bc
00000320: 87da 6d3e 8447 8a3d 0694 fbbb 718e d13e
00000330: f1df bcbc 8f73 2dbf ea75 bbbe 32c7 a73d
00000340: 6fb8 c33d e281 dabc 6cd4 86be de40 acbc
00000350: 4099 223d 5dc6 a93d ff4b a1bd 78dc 863c
00000360: cc24 85bd e076 ea3e ad91 4fbf 4e3f 9fbe
00000370: 19c5 c53d 0d13 fabe cc7b 20bf f953 60bd
00000380: 5b85 89bc 4b73 0dbe 3092 d7bd 10af db3e
00000390: a06a 1bbd 689c 9ebe 8f7c c0bd ce89 863e
000003a0: faa0 723d 2176 64be 75b2 f8bd 2a42 b03e
000003b0: 863e 6cbe 35c4 4ebe 7507 253e 7b12 793e
000003c0: 2958 913d 693a 6f3b 972b 87bd 36be 19bd
000003d0: 5321 9bbd 1b87 debe 1244 b1be cf9e c83d
000003e0: 4e79 923e 1677 ffbc aa8e d33c 8acc cebd
000003f0: 9ec4 0dbe 6210 2d3e aa40 5a3e c6f0 9c3b
-0.42159042 0.17604274 0.118985295 -0.40350693 0.011472573 0.017147496 -0.0035469786 0.16139804
-0.38039905 0.37278676 0.08823898 -0.22308451 0.089940466 -0.22458011 0.13967924 0.10988516
0.3467117 -0.20430225 -0.08158665 -0.09462215 0.08755153 0.5254434 -0.07530231 -0.37917164
-0.09990321 0.07903057 -0.32741407 -0.31522468 0.16749124 0.10360819 -0.23187633 0.031588107
-0.043068018 0.11807434 0.45463717 -0.2593331 -0.20583057 0.11712107 0.059138127 0.09960055
-0.3799549 0.03312939 -0.1441157 0.11253963 0.14447512 0.17516446 0.08897803 -0.27447027
0.09084019 0.08518819 -0.211029 -0.46389583 -0.07916403 0.080277316 0.079116255 -0.2165802
-0.20621353 0.22261001 -0.39510185 0.0015650757 -0.29469162 0.05280381 0.12553367 0.09354463
-0.0003804042 -0.52214515 0.080165476 0.08444964 0.333998 -0.34155822 0.12990218 0.0627124
-0.6823613 0.14665326 0.05239418 0.23098275 0.105333254 -0.20890889 -0.16196539 0.07987846
-0.34456933 0.19103561 0.02692009 0.11601981 0.11276619 0.13981888 0.087839134 -0.18105465
0.08185037 -0.07418217 -0.06589841 0.05129009 -0.008951372 0.11603095 -0.4941379 0.024012387
-0.025974426 0.09085114 -0.14560124 0.06397611 0.07088916 -0.26996407 -0.20913203 0.10709669
0.112158515 0.3705187 0.082532816 0.08661804 -0.3870509 -0.71751195 -0.2106192 -0.2302721
-0.05557694 0.024928147 -0.11255407 0.06743079 0.08397695 -0.3114021 -0.11320163 0.081689544
-0.13183403 0.07435287 -0.31593364 -0.23886456 0.063855484 0.024481356 -0.42518756 -0.30715263
-0.3776407 -0.36648262 -0.022377491 0.3197097 -0.26118127 0.2002033 -0.03630339 -0.09192149
0.263066 0.21594577 -0.08608447 0.060450755 0.024604443 0.1261146 -0.08993093 0.04297172
-0.22629681 0.21586494 0.0051205717 0.25068307 -0.03551707 0.10627893 -0.021718325 -0.7139553
0.21462783 0.61355746 0.12116264 -0.016182233 0.14030878 0.23025362 -0.05516565 -0.112800635
0.0071506095 0.05525427 0.25712767 0.24668181 0.012812956 0.06835153 0.34826434 0.10183038
0.31672275 -0.10217819 0.35236204 -0.04242506 0.065570325 0.44679382 0.14410293 -0.41418627
-0.08888779 -0.012449757 -0.009323463 -0.058530353 -0.2556998 -0.2153402 0.07338165 -0.060674988
-0.05292922 0.40707666 0.4556068 -0.22235967 0.117721446 0.0015440967 -0.017926253 -0.06326105
0.15510678 -0.21313387 0.042808086 -0.015151578 0.15326695 -0.28222778 -0.023081606 -0.027826818
0.23227893 0.06751922 -0.007677558 0.40928987 -0.023056002 -0.67754453 -0.366134 0.0819229
0.09556662 -0.026673261 -0.2633394 -0.021027025 0.03969693 0.08289788 -0.07875823 0.01646255
-0.06501159 0.4579382 -0.8108166 -0.31102985 0.09656734 -0.4884266 -0.626889 -0.054767583
-0.016787222 -0.13813512 -0.1052593 0.42907 -0.037943482 -0.30978703 -0.09398758 0.26277012
0.05923555 -0.22310688 -0.12143413 0.3442548 -0.23070726 -0.20192035 0.16116126 0.24323456
0.07096893 0.003650332 -0.06600111 -0.037534915 -0.075747155 -0.43462452 -0.34622246 0.09795915
0.28608173 -0.031184714 0.025824863 -0.100976065 -0.13844535 0.16900781 0.2131373 0.0047894446

fc3.bias f4 [4]
00000000: 025b 043e b8a1 bfbc 7d0b b0bc 5017 513d
0.12925342 -0.023392543 -0.021489853 0.051047623
