checkpoints/checkpoint_actor_1.pth (torch, 170327 bytes, 6 tensors)

fc1.weight f4 [256, 33]
00000000: 2a2a 76bc ee0f 383d 4561 86bd 7114 06bc
00000010: a0ba d2bc 2189 1dbe f36c 563d b473 913d
00000020: 4fd0 49bd 13cc 37be 329e 133d 7600 82bd
00000030: bf9d e1bd 9df1 d5bd 85d5 69bd 3da4 023e
00000040: 950e ba3d f40a efbc 0f2e 8ebb 32f0 c43c
00000050: 0556 dc3d e588 5ebc 1b2b aebd 2e69 073d
00000060: e0ed 1a3d dbf3 09be eda8 143e 4129 8bbd
00000070: ba58 29be 3475 bdbc 9fe0 913d 9098 213d
00000080: 382f 343f 9bf1 493b 0b36 75bc 3e6e e9bd
00000090: 83c6 bbbd ba7b b8bd 4cd5 1c3c ca28 fdbc
000000a0: 32dd 263d ee13 cdbd ada1 a6bc 3f42 73bc
000000b0: 2d81 6dbd 524e 1cbe 5b69 80bd 3d5f c93c
000000c0: 98cb 06bc 1d58 e93d 18db 34be efb1 2cbe
000000d0: 9935 bc3c 84db 013e 012a 08bd bc8a 4b3c
000000e0: f6db 79bd f2b6 083d 68ac 023e 4c77 e3bd
000000f0: abfd 72bd e9db f13a 04e7 26bd 8b83 a03a
00000100: 8011 503b 6f9e a1be e41d 603d b439 f0bb
00000110: 6825 5d3d 608e 46bc 4812 cd3b f9f1 20bd
00000120: f11c 44bd 2a71 a6bc acea 913e 9024 9c3d
00000130: 0305 243c 3d4b f53d 795b a43d 1cb4 e93d
00000140: f1b2 f738 4f44 00bd 34dd bbbc a025 b6bc
00000150: 988d e0bc 8006 d33d c322 ae3d de33 473d
00000160: 95db 543d 239a e23d c25d 893d 2ac1 6d3d
00000170: b944 983c f15e c8bd 79f7 6b3e 786d 473d
00000180: 8a78 d83c 56b3 353d ad1e 10bf 3ebd 11bd
00000190: 881f 96bc f2b7 dfbd e402 10bd 37a0 93bd
000001a0: 2d40 8d3c 3a16 c03c 40b3 cabd f1f4 493e
000001b0: fc94 fabd 0d9c e43c d23c f93d 3a26 fcbc
000001c0: b1df 9dbc 2679 79bd 9d71 fabd 0c83 7dbd
000001d0: d31b c9bb 6b72 8e3c f517 b4bc deae f8bc
000001e0: 21cb 393e 4aeb 1c3d 7e63 14bb 0e68 3fbe
000001f0: a231 03be 6cc9 b9bd 3301 c73a 0149 0b3e
00000200: 1883 153d a12b fabd 680e e7bc 8d44 383e
00000210: 7809 3c3e b0c3 8d3c b01a f63b f4d3 2abd
00000220: d902 2f3e c8da 4e3d 1968 5b3d 3f71 9c3d
00000230: a5d3 e03b 4126 c93d fd70 213e 264e 31bd
00000240: 5ef3 acbd f7b7 eb3c d488 b3bd acb9 a6bd
00000250: 3d01 0f3d b29e ac3d bb1b c8bd f6e1 113d
00000260: 2cf4 b9ba 3566 bb3d 275e 603d aedf 57bd
00000270: 5627 f03d 5f0e 88bd 6779 953c 11ca d43c
00000280: a47d 85be a602 3c3d 89e9 c1bd 1858 763d
00000290: 30a0 633d f1d4 603e b04b 443e 4705 b4bc
000002a0: bc5a 53bd 02fe d93d 48f4 08be d79a b03d
000002b0: 423b fa3c 2aa8 8d3e 1dbf 5c3e 4cf5 b53d
000002c0: f74c 1b3e 6f73 873d 1202 31be a7b3 02be
000002d0: e7dd 1abe 6060 03bd 8831 05be 4fd0 90bc
000002e0: c3cf 47bd 4c9c a0bd 801f a739 8655 4bbe
000002f0: afed 94bc 4720 c2bd 7d1d 2abd b319 1a3c
00000300: 348a 423d c60d 123e dc1d 4ebd 4b64 83bd
00000310: 2095 613b b5d4 043f d4e1 bcbd b9a6 7a3d
00000320: 71f5 2dbd 7750 cabc 5864 9ebd fc19 c73d
00000330: fe59 d9bc 2887 8fbd e3fb 8b3d 6a61 babd
00000340: bf84 04be a44c 92b7 baf7 0fbd db61 0fbd
00000350: ab03 263e bf4f 80bd 021f 59bb 9251 5f3d
00000360: edd3 9bbd e1ff 24bc 49f8 28be e926 fabd
00000370: d9e2 0d3e b0d2 88bd 4454 083e 7633 14bd
00000380: d0cc 0b3e 5cbe d93c 065a e03d 1864 0ebc
00000390: cdc9 173d f040 2b3d 220f 85bd aeeb abbd
000003a0: d487 44bd 1dd6 3d3d 50c7 c23c 72c7 163c
000003b0: b74e 7b3d 84c1 293d 79e2 023d 9ee6 84bc
000003c0: 3f0d a33c f02b 08bd 1dc1 56bd 24f3 833d
000003d0: 4f03 abbc ef2d 47be a073 303e 3b31 8e3a
000003e0: f117 98bc 0deb 34bd 5695 543c 3198 2c3d
000003f0: dce0 49bd 9e8d 75bb 1fd0 03bd 2ea0 dbbd
-0.015024701 0.044937067 -0.065615214 -0.008183585 -0.025723755 -0.15384342 0.052349996 0.07102147
-0.049270924 -0.17948942 0.03603954 -0.06347744 -0.11016416 -0.10446475 -0.057088394 0.12757964
0.090848126 -0.029180028 -0.0043389867 0.024040315 0.107585944 -0.013582443 -0.085043155 0.03305929
0.03782451 -0.1347193 0.14517565 -0.06794978 -0.16537753 -0.023127176 0.07122921 0.039452136
0.7038455 0.0030814174 -0.014966498 -0.1139798 -0.091687225 -0.09007974 0.009572338 -0.030903239
0.040738292 -0.10013567 -0.020340765 -0.014847337 -0.05798452 -0.15264252 -0.06270095 0.024581546
-0.0082272515 0.113937594 -0.17661703 -0.16864751 0.022974776 0.12681395 -0.033243183 0.012423214
-0.061000787 0.033377595 0.1276108 -0.111067384 -0.059323948 0.0018452379 -0.040747657 0.0012246234
0.0031748712 -0.31566188 0.054716006 -0.0073310975 0.05399075 -0.012118906 0.006258283 -0.039293263
-0.047879163 -0.020317633 0.28499353 0.07624161 0.0100109605 0.11977241 0.080252595 0.11411306
0.00011811208 -0.031315144 -0.022932626 -0.022234738 -0.027411267 0.10303974 0.08502724 0.04863345
0.051967222 0.110645555 0.06707336 0.058045544 0.018587457 -0.09783734 0.23043622 0.048688382
0.026424665 0.04436048 -0.5629681 -0.035580866 -0.018325582 -0.10923757 -0.035159007 -0.07208293
0.017242515 0.023448098 -0.098974705 0.19722344 -0.12235448 0.027906442 0.12169804 -0.030779947
-0.019271703 -0.06090655 -0.12228701 -0.061892554 -0.00613735 0.017388543 -0.02198408 -0.03035682
0.18143894 0.038310327 -0.002264231 -0.18692037 -0.12811902 -0.09071621 0.0015182853 0.13602068
0.036501974 -0.12215353 -0.028205112 0.179949 0.18362987 0.017305225 0.0075105056 -0.04170604
0.1709093 0.050501615 0.053566072 0.076387875 0.0068611675 0.098217495 0.15765758 -0.04328742
-0.08444856 0.028774245 -0.08766332 -0.08140883 0.03491329 0.08428706 -0.09770914 0.035615884
-0.0014187149 0.09150354 0.05477729 -0.052703552 0.11726253 -0.06643366 0.018246366 0.025975259
-0.2607242 0.045900963 -0.094683714 0.060142606 0.05557269 0.2195623 0.19169497 -0.021975173
-0.051600203 0.10644151 -0.13374436 0.08623283 0.030545834 0.27667361 0.21557279 0.08884677
0.15166079 0.06613814 -0.17285946 -0.12763844 -0.15123712 -0.032074332 -0.13007176 -0.017677454
-0.04878212 -0.07842311 0.00031876191 -0.19856843 -0.018179743 -0.09478813 -0.04153203 0.009405541
0.047495082 0.14263067 -0.050321445 -0.06415614 0.003442116 0.51887065 -0.09222761 0.061194155
-0.0424704 -0.024696572 -0.07733983 0.09721753 -0.02653217 -0.07008201 0.06835153 -0.091006115
-0.12941264 -1.7440245e-05 -0.03514836 -0.03500543 0.16212337 -0.0626521 -0.0033130054 0.05452115
-0.07608781 -0.010070772 -0.16500963 -0.12214453 0.13856067 -0.066808105 0.13313395 -0.03618189
0.13652349 0.026580028 0.109546706 -0.008690856 0.037057687 0.041809976 -0.06497027 -0.08394562
-0.0479811 0.046346772 0.02377668 0.009202825 0.061354365 0.041444317 0.031954262 -0.016223248
0.019903777 -0.033245027 -0.05243026 0.0644286 -0.020875601 -0.19451116 0.17231607 0.0010848412
-0.018566104 -0.044169474 0.012975058 0.04213733 -0.04928671 -0.0037468444 -0.0321809 -0.10723911

fc1.bias f4 [256]
00000000: 08f4 403c c040 fabd 4446 813e abac c0bd
00000010: ab90 31bd 1781 a1bd 406a af3d 5c4f 783d
00000020: 8a6d 0abd ade1 9c3e 194c d93d 9d4b 07be
00000030: 7c4b 333d dda1 f0bc 662a cf3c 4e9b 53be
00000040: ff9f 033e 312c 8c3d ebef 63be 664e 91bd
00000050: 6acd 12bd 9e48 983d e47f 093e 6f8d fc3d
00000060: e946 d93b 86ab 56bd 0afc 81be 3ee9 a83e
00000070: 2ac7 2a3e deef 93be 88df 943e c8a9 08be
00000080: a2c4 6f3d 577f 233e a0c3 1abd d2e5 243e
00000090: bcd1 213e 200d afbc 1449 b7bd ba90 4ebe
000000a0: bdbd b43b 2e17 253d 505c 81bd d35a 61be
000000b0: 867f 8bbd a75e e9bd 69a0 153d 1e89 b8bd
000000c0: aca5 37bd b47e 8e3d 5f5e 3ebd 653d 1ebc
000000d0: 6747 22be 5403 ef3d 4a58 f23b f0a2 1b3d
000000e0: 95b7 0f3d ce21 843d 350f 1cbd 8a01 babd
000000f0: f6d6 6d3d bc38 b13d 5f05 a73d d82a 9f3d
00000100: fd8b bc3c 0974 8abe ddf0 2a3d 6aa6 07be
00000110: 876f d23d 1d3a 5abe e507 103e 9e6d 1bbe
00000120: ce01 673d 1212 033e 0edb 2f3d 6acb acbc
00000130: 08b4 853e b714 933d 7b83 febd 4afd 093e
00000140: a7d6 ef3c 1694 d03d 3211 d23d 8cd2 013e
00000150: bf98 e23d 5aca 493e 8a7c 7fbe 670b 1e3e
00000160: b63c 373d d4fc 8cbd 743f 82bd 6cdd 4f3d
00000170: 60cd c43d 163f cb3d e41d 843e 8af5 8e3d
00000180: 9697 1e3e 522f 6cbe 3d8b 4fbe b221 26be
00000190: 8ca8 36bd fca7 06bb 27b5 5abe 2326 d2bc
000001a0: 29f9 78bd 16cc 2fbe 431a 303d 8e3d d03d
000001b0: e72d 333e 4d69 a8bd 21ad 233d 93fe 95bd
000001c0: 75f2 e6bd db7d 0cbd 7844 07be fee5 91bd
000001d0: f007 8a3e fe40 953d 79c2 f1bd 6c1b fb3d
000001e0: 0d33 113e 34bc b73d bbee f7bd 4510 24be
000001f0: 90e4 0d3d 13c5 e03c 8670 e6bd 3744 b23d
00000200: 8212 31bd 3c09 1c3e 6a9a aa3d 4877 6cbe
00000210: 63ed 3dbd aec1 033d b6e4 443e d20d 403e
00000220: ae2c b33b fbcd df3d 5e62 42bc 67e2 3abd
00000230: d6db bf3c 16a4 043e 7c6c 36bd 56e1 9c3d
00000240: bed0 58be 6b6a 5d3d 05e0 fb3d 7fe7 263d
00000250: d8e6 9d3d b341 2e3c 73a1 1abe 1225 db3d
00000260: 7466 77be 07e9 c33d d477 afbd 39c5 2d3e
00000270: 7df9 73be 225b 033e 15e1 893c 1648 94bd
00000280: 45b4 2d3e b6f7 223e 4150 b13c 37c7 1ebe
00000290: 4247 7ebd 5728 5c3e 23fc 05be ed46 83bd
000002a0: 3135 563e b8f4 cd3d f212 31bd 79b4 193e
000002b0: b8ea 043e 8422 46be cc5b 41be 6e18 4dbd
000002c0: 41f2 0cbe ed97 76be ca8a d53d 4da9 96bc
000002d0: ab13 6d3c 6402 213e f61b 17be ed77 5ebe
000002e0: 973a 2d3d c8e7 8ebb 48dd 2bbe dc31 303e
000002f0: 77bc 833e 06a7 213e decd eebc 33f2 bc3c
00000300: 538d a2bd bc26 ce3c c262 853e d212 d9bc
00000310: 8d64 a73d 2827 35bd 8162 c3bd 33eb e7bd
00000320: 899d 9e3d 59bd 1dbd a251 043d c9ec 163d
00000330: fca0 3d3e c3b5 1ebd 85ed 753c 196f 50be
00000340: 9bf6 64bc 4006 363d dab0 c0bd 869e fd3b
00000350: 2323 853e abad a0bd 77a0 0cbe 8c2a 50bd
00000360: dbc4 143e 1564 9fbc ec8f ed3d 964d fd3d
00000370: eed0 dd3d e213 ba3d 30f3 493e 4a9d 17bd
00000380: 2442 153e e23e e23d 89be 783e feab 09bd
00000390: 5844 95bd f422 073d 4f4d 8bbd 4c9c 3dbe
000003a0: c30b cabd ba31 b73d ecde c83d dc9f 39bd
000003b0: d3a2 9c3d cb8e 0c3e cf42 393d 9b5e 45be
000003c0: aa55 cdbd 7a00 d4bd 2ade 053e 7373 95bd
000003d0: 3766 eb3b 29ec d6bd b206 003e 945c 923d
000003e0: 6bc2 023e 988e 0c3e bc7c fdbd 4355 56be
000003f0: b413 bd3c ac10 cf3d 12bc 233e 022f d53d
0.011776932 -0.12219381 0.2524892 -0.09407934 -0.043350857 -0.0788595 0.085651875 0.060622558
-0.03379587 0.30640927 0.106102176 -0.13212438 0.04377316 -0.029374057 0.025288772 -0.20664713
0.12854002 0.06844366 -0.2225949 -0.070950314 -0.03584043 0.07435726 0.13427693 0.12331664
0.0066307676 -0.05240967 -0.25387603 0.3299045 0.16677538 -0.28893942 0.2907679 -0.13346016
0.058537133 0.15966545 -0.03778422 0.16103294 0.15802664 -0.021368563 -0.089494854 -0.20172396
0.0055157826 0.04030531 -0.06316435 -0.22007303 -0.068114325 -0.113950066 0.036529932 -0.09010528
-0.04483573 0.069577605 -0.046476718 -0.009658192 -0.1584755 0.11670557 0.007395779 0.037997186
0.035087187 0.0645176 -0.03810044 -0.09082325 0.05806633 0.08653399 0.08155321 0.07771844
0.02301597 -0.27041653 0.04173361 -0.13247076 0.102751784 -0.21311231 0.14065512 -0.15178534
0.056398205 0.12799862 0.042933516 -0.02109309 0.26113915 0.071816854 -0.12427422 0.13475528
0.029277159 0.10184495 0.10257186 0.12677974 0.1106429 0.19706097 -0.24949852 0.15434037
0.044735633 -0.06884161 -0.06359759 0.050748274 0.09609485 0.09924142 0.25804055 0.069804266
0.15487513 -0.23064926 -0.20267959 -0.16223791 -0.044594333 -0.0020546904 -0.21358167 -0.02565295
-0.060784493 -0.17167696 0.042993795 0.101679906 0.17497979 -0.082232095 0.03996003 -0.07323947
-0.11276714 -0.034299713 -0.13209713 -0.07123946 0.2695918 0.07287787 -0.11804671 0.1226109
0.1417963 0.08971444 -0.12106081 -0.16021831 0.034641802 0.027437722 -0.11251931 0.08704417
-0.04323054 0.15237898 0.083302334 -0.23092377 -0.046368968 0.03216713 0.19227871 0.18755272
0.0054679727 0.109279595 -0.011864273 -0.04562607 0.023420256 0.12953219 -0.044537053 0.07660167
-0.21173379 0.054056566 0.12298588 0.040748116 0.077100456 0.010635781 -0.1510065 0.1070043
-0.24160177 0.09565931 -0.08567777 0.16969766 -0.23825641 0.12827733 0.01683096 -0.07240312
0.16963299 0.15914807 0.021644713 -0.15505682 -0.062079675 0.21499763 -0.13084464 -0.064100124
0.20918728 0.10056442 -0.04323096 0.15010251 0.12980163 -0.19349104 -0.18882674 -0.050072126
-0.13764288 -0.24081393 0.104268625 -0.018391276 0.014470021 0.15723568 -0.1475676 -0.21725436
0.042292204 -0.0043611266 -0.16783631 0.1720652 0.25729725 0.1578637 -0.0291509 0.023064708
-0.07937112 0.025164954 0.2605191 -0.026498232 0.081734754 -0.044226795 -0.095402725 -0.113241576
0.07744891 -0.038510654 0.032304414 0.03684691 0.18518442 -0.03874756 0.015010242 -0.2035488
-0.013974811 0.044439554 -0.09408732 0.0077398447 0.2600337 -0.078456245 -0.13733087 -0.050821826
0.1452822 -0.019456903 0.115997165 0.12368314 0.10830866 0.090858236 0.19721675 -0.037015237
0.14576012 0.1104715 0.24291433 -0.03361129 -0.07288426 0.03299232 -0.06801855 -0.18516654
-0.098655246 0.089450315 0.09808144 -0.04531847 0.07648244 0.13726346 0.04522973 -0.1927437
-0.10026105 -0.103516534 0.1307303 -0.07297411 0.007183816 -0.10494263 0.12502554 0.07146564
0.12769477 0.1372627 -0.12377307 -0.20930962 0.023080684 0.10110602 0.15989712 0.10409357

fc2.weight f4 [128, 256]
00000000: f4b8 db39 449e d53d 7d1c 3dbc fde2 cbbd
00000010: 0f1e bcbc 15cd 8abe b2fc a53d 8279 0c3e
00000020: 9f33 dcbd 8856 11be 57eb 6ebd 6d47 073b
00000030: 4646 343e 441f 78bc 1bdb c3bc b191 bc3e
00000040: cae9 513c 0ba2 5bbd 80e8 b5bc f7eb da3d
00000050: 6469 aabd c5d2 f3bd 939a f7bd fd0f 633d
00000060: d82a f83b ab0d cf3d 9f9d fa3d 6a6a d1bc
00000070: 7417 0b3d eb82 02be f3f0 813c 095e bf3c
00000080: 0da3 d43d f1ed 8a3c f324 923d 28dc 14be
00000090: 826e 953e 8cea 773d 89c5 823d ab31 29bd
000000a0: aef1 653e f34c e33d 8c36 023e 7eaa 89bd
000000b0: 15df 603e a5ed a43b ccef 403d 2298 92bd
000000c0: b49c 93bd 73b3 01bd 665c 91bd 6eb2 ecbd
000000d0: 3974 303d 16b0 4e3d 22dd b4bd 7bbd d83d
000000e0: fd7e 09be 6847 8cbd 1730 9cbd 43b5 59bd
000000f0: f934 0a3c 99b7 a33d 9c30 333e 63a1 e53c
00000100: d9d9 32be 907d e73c 8a40 7c3d 8700 d4bd
00000110: 8e76 873e 1908 98ba 7353 9bbc dec3 afbe
00000120: a302 653c ae52 4c3d 34bf b9bc 4c9b d4be
00000130: a52c 47be b06e 63be daaa b8bd 2cb2 3c3d
00000140: 2556 383d 2897 a73d 81f8 de3c 64f4 dd3d
00000150: 38e8 033e c369 843d 6ca3 5e3d a431 8c3e
00000160: 62af a63c ad29 053d c2ce 423d 30df f3bd
00000170: 4159 b93d ae71 2fbd 0a3c 0e3c 29fd 25bb
00000180: 8818 69bd 2001 78bd e3d8 903e fe0a 933d
00000190: 7714 6b3d 7ed2 a7bb 027a 8fbd 3f56 9c3d
000001a0: fa52 283d a9ae c7bd 69ae 1bbd 4a70 183e
000001b0: 7081 203e 48ed f63d 0748 1abd 203c 143d
000001c0: 5fd5 8ebe 2f84 963d 51d3 c63d 91eb b03d
000001d0: ae9b 183d 5883 193d 51bf 143e 72e8 c2bd
000001e0: 365e 563d 75b4 563c 0c88 a2be fad9 00be
000001f0: 42eb 423d af0c 493d 4007 bd3d fb99 023e
00000200: 38ee 18be d64b 773b a0f0 213e 753a a03d
00000210: 8ace 8abd 59de e93c 65d5 b2bd 19c1 5e3d
00000220: e40f aabd 1767 dbbd 7230 573c 5052 bd3d
00000230: 2d94 88be f156 d7bd 4438 d13d e8bf 0e3e
00000240: a30d 303d 9a41 f7bc ef05 06be 5d5e 2f3d
00000250: 14a9 173e e5b6 42bc eebd 6e3c 6a2b d03b
00000260: 9e3c 333e bb16 b8bb da9a 94bc 9d51 eebc
00000270: 8cda 4cbe a9aa e8bb 56dd 56bd ba81 d9bd
00000280: 140e 953d 6d50 88be 3489 dabd e33a 563d
00000290: 66b1 3b3e 52d3 3e3e eae0 6f3d 6613 3dbe
000002a0: 8125 ebbc d6db 113e 22aa 163d 9aba c83d
000002b0: 9fee 19be edcc d23d f5c9 033e 04cf 9b3e
000002c0: 4fb5 3abd 1ea7 dcbd 6b7d 14bd ec3a 22bd
000002d0: 44df 703d 89b9 833d 5af5 acbc 530f d23c
000002e0: 6d60 e93d 1006 be3d e4bd 20bd e0d6 3bbe
000002f0: 4212 debd 493d 0bbe 5a60 dabd 7db9 05be
00000300: f81b bd3b fddb 8f3d fa3a 83bc f019 b13c
00000310: 6856 8bbd c8d6 fd3d 3ab0 aabb 7581 28bd
00000320: 9106 b4bb 3d13 95be 6421 d33d f97d 89bd
00000330: 4ee6 8dbc 678f bc3c 5a6a 4b3e d49d 143e
00000340: 063b 003e 75f5 513d 9c7e 2bbe fa34 71bd
00000350: 81c0 39bc 7eb0 e93d dd95 683d 48ae 2f3e
00000360: 601b 193a e0db f03d 2462 763d 2145 c2bd
00000370: ca15 e6bd ba7b bbbb 0f86 ea3d be8f 51be
00000380: 75ad fd3d dbc2 893d 285a c43d 8504 0e3e
00000390: 766c 6c3d 30ba e3bd 9568 863d 010a 463e
000003a0: 3ff6 393d 1a7b e6bc d072 8c3d 4b92 afbd
000003b0: b149 0ebd 8650 2ebd 439f a33c d25b 3a3b
000003c0: 7c10 8cbd bd83 803e 1420 043e 5647 003a
000003d0: d307 d4bd 5b9c 593e a296 e43c a3ef 263d
000003e0: e56e 253c 01ef 183c d00d 0fbe 0bf1 17bd
000003f0: b48c bcbe c1b0 943d e7b7 7a3d 38c6 10be
0.00041908736 0.104305774 -0.011542437 -0.09955404 -0.022963552 -0.2710959 0.081048384 0.13718227
-0.107520334 -0.14193165 -0.058329906 0.0020641938 0.17604932 -0.015144173 -0.023908189 0.36829904
0.012812087 -0.053621333 -0.022205591 0.10689538 -0.08320883 -0.119054355 -0.120900296 0.05543517
0.0075734667 0.10110029 0.12237095 -0.025563437 0.033957914 -0.12745254 0.015861964 0.02336027
0.10382662 0.016959162 0.07135954 -0.14537108 0.29185873 0.060526416 0.06385333 -0.041307133
0.22455475 0.11098661 0.1271612 -0.06721972 0.21960099 0.0050332122 0.047103688 -0.07157923
-0.07207623 -0.031665277 -0.07097702 -0.1155747 0.04307959 0.050460897 -0.0883124 0.105830155
-0.13427348 -0.06849557 -0.0762636 -0.05315138 0.008435481 0.07994003 0.17499012 0.028031057
-0.17465915 0.028258115 0.061584987 -0.10351663 0.26457638 -0.0011599093 -0.01896069 -0.34329122
0.013977679 0.049883537 -0.02267418 -0.41524732 -0.19450624 -0.22210193 -0.09016962 0.046068355
0.04500403 0.08183128 0.027218105 0.108376294 0.12881553 0.06465485 0.05435507 0.27381623
0.0203473 0.03251045 0.04756046 -0.11907804 0.09050227 -0.042833023 0.008681307 -0.0025327897
-0.05690816 -0.060547948 0.2829047 0.07179831 0.057392564 -0.005121528 -0.07005693 0.07633638
0.041094758 -0.09750111 -0.038008127 0.14886585 0.15674376 0.120569766 -0.037666347 0.036190152
-0.27897164 0.07349431 0.09708274 0.08638681 0.037257843 0.037478775 0.14526106 -0.09516992
0.05233594 0.013104548 -0.3174442 -0.12583151 0.04758764 0.04908436 0.092298985 0.12754051
-0.14934623 0.003773441 0.15814447 0.0782365 -0.067776754 0.028548406 -0.08732108 0.05438337
-0.08303812 -0.10713022 0.013134109 0.092442155 -0.2667555 -0.1051463 0.1021581 0.13940394
0.042981755 -0.030182648 -0.13088201 0.0428146 0.14810592 -0.011884426 0.01457165 0.0063528316
0.17503592 -0.005617944 -0.018140245 -0.02909165 -0.20005244 -0.0071004224 -0.052457176 -0.106204465
0.07278076 -0.2662386 -0.10670701 0.052302253 0.18329391 0.186353 0.058564104 -0.18464431
-0.028704407 0.14244017 0.036783345 0.098012164 -0.15032433 0.10292993 0.12870009 0.30431378
-0.045583066 -0.107740626 -0.03625242 -0.039606974 0.058806673 0.064318724 -0.021113086 0.025642073
0.11395345 0.092785 -0.039243594 -0.18343687 -0.10843326 -0.13597597 -0.10662909 -0.1305904
0.0057711564 0.07024381 -0.016019333 0.021618813 -0.0680359 0.12394482 -0.005208996 -0.041139085
-0.005493947 -0.2911624 0.10309103 -0.067134805 -0.017321732 0.023017598 0.19864789 0.14513332
0.12522516 0.051259477 -0.16747516 -0.058888413 -0.0113374 0.11410616 0.056783546 0.17156327
0.0005840566 0.11760688 0.060152188 -0.094858415 -0.11234625 -0.0057215365 0.11451351 -0.2046499
0.123866 0.06726619 0.095875084 0.13868912 0.057720624 -0.11119497 0.06562916 0.19339754
0.045400854 -0.028134871 0.06857836 -0.08572825 -0.034738246 -0.042557262 0.019973403 0.0028436077
-0.06839082 0.25100508 0.12902862 0.00048934424 -0.10353055 0.21251051 0.027903859 0.04075588
0.01009724 0.009334327 -0.13970113 -0.03709511 -0.36826098 0.07260276 0.06121054 -0.14138114

fc2.bias f4 [128]
00000000: af24 a83c cece 07be 23c8 4b3d 4870 9fbd
00000010: beae 823d 3f15 41bc 4794 5b3d 60f6 eebd
00000020: 8103 00bd d576 443d 1d56 c5bc 2ee7 713d
00000030: 6254 e3bc 9de1 8abd 57c3 183d f0f9 0ebd
00000040: 7e30 dfbc b097 1ebd a36f 7bbd 101b 2a3d
00000050: f108 85bd ba79 e7bd b96e c0bb 2b7d 8bbd
00000060: cb4e 533d 2f13 81bd 4276 923d a79e cbbc
00000070: aa7d 013d e139 bd3c d519 163d 42dd 58bd
00000080: 207c 0cbd 8fe8 223d c66f f13c fa4d 9f3c
00000090: 2d7a af3c d827 db3b f4cb 2cbc 3c77 c03d
000000a0: fdf5 dfbd 0c8c 1fbd 23fe aabd 1d6f 053d
000000b0: 2822 d73c 071d 1c3d f20f f8bb 4478 1d3c
000000c0: 8687 0c3d 2348 333d 13b3 19bb b6a5 633d
000000d0: e587 e4bd 4a22 77bb 3907 823d c277 c2bb
000000e0: 7304 00bc 2bf8 b83d bcd0 4c3d 98b2 fdbc
000000f0: c9d4 95bc 4e99 b43d 8a0a ba3d ed22 913d
00000100: a4de 843b daa7 debd b83d 85bd bdec 9b3c
00000110: d7eb 793c 7496 523d d7e4 24bd cdbc ae3d
00000120: d336 843d 33b0 f53b 4fca 0a3d 066c 4a3d
00000130: 02f3 223d eae9 113d fb02 b03b 4b71 e8bc
00000140: 543a b0bc f04c cbbc 1df5 4f3b c6ab a9bd
00000150: 7617 7dbd 60a9 fb3b 34ee 333c bfcd f63d
00000160: a12b 8dbd 81d5 c6bd 0e47 613d 1eb0 413b
00000170: d3cf ca3b f142 8ebd 0b1d 9bbc 81ab 73bb
00000180: 8060 18bd 18aa 81bd 6d38 04bc 3e59 2939
00000190: 77a7 ae3a 10e1 1d3b 1689 ff3d 0e51 c6bc
000001a0: 9d0e 45bd 0837 e8bd f6df f9bc 72c3 493c
000001b0: d77d d3bb ad70 213d cbf0 d13c f15e a0bc
000001c0: 0533 133d 7582 9c3c 4846 a1bd 4db0 49bb
000001d0: 9ef5 903c 9fd9 7f3d 77a7 94bc 6d26 04bc
000001e0: afcc f63b d999 81bc 1c88 143d 929d 1d3d
000001f0: 7011 eabb 0e33 493c 4d44 8b3d 00fb 7abb
0.020525305 -0.13262483 0.049751412 -0.07785088 0.06380986 -0.011784851 0.053608205 -0.11668086
-0.03125334 0.04796489 -0.024088914 0.05905836 -0.027750198 -0.067813136 0.037295666 -0.034906328
-0.027244803 -0.03871888 -0.061385762 0.041529715 -0.06495846 -0.113025144 -0.005872574 -0.06810983
0.051588815 -0.06302487 0.07151462 -0.024855925 0.031613983 0.023098888 0.03664573 -0.052945383
-0.034298062 0.039772566 0.029472243 0.019446362 0.021420563 0.0066880994 -0.010546673 0.09397742
-0.109355904 -0.03895192 -0.08349254 0.03257667 0.026261404 0.03811362 -0.00757026 0.009611193
0.034308933 0.043769967 -0.0023452684 0.055577956 -0.11158732 -0.0037709647 0.06349034 -0.0059346864
-0.007813561 0.09031709 0.050003752 -0.03096895 -0.01828994 0.08818303 0.090840414 0.0708674
0.004054861 -0.10871859 -0.065059125 0.019033784 0.0152539825 0.051413015 -0.0402573 0.08532105
0.064557694 0.007497811 0.033884343 0.049419425 0.03978253 0.03562347 0.005371449 -0.028374335
-0.021512188 -0.02481696 0.0031731792 -0.08284716 -0.061789952 0.007680103 0.010982085 0.12050962
-0.06893087 -0.097086914 0.054999404 0.0029554437 0.0061893254 -0.06946362 -0.018934747 -0.0037181082
-0.037201405 -0.06331271 -0.008070094 0.00016150341 0.0013325055 0.0024090447 0.12477319 -0.024208572
-0.04810964 -0.113386214 -0.0305023 0.012314664 -0.0064542103 0.039414097 0.025627514 -0.019576522
0.035937328 0.019105176 -0.07874733 -0.003077525 0.017695244 0.0624634 -0.01814626 -0.008065802
0.0075317244 -0.01582043 0.036262617 0.03848035 -0.007143192 0.012280239 0.06800137 -0.003829658

fc3.weight f4 [4, 128]
00000000: f6de cb3d a7f6 f03d 3ed5 5d3e 004e 4e3e
00000010: 1ad4 a63c ad61 f3bd 064e 99be 66e1 983e
00000020: aaec 453e 888e 293d 6368 f9bd bf59 c2bb
00000030: 07ec dabc 6ab7 ddbd 0b04 f0bc 9c6c 6e3c
00000040: 25cd 1d3e d78e 88be b34b a63e aff7 d83d
00000050: 3262 a73c 527f 4dbd a33f 283e 2069 1c3e
00000060: 097f 09be ef6d 723e d570 3abd 950e 56be
00000070: 1d8b 063e 06ad d63d 4378 bc3d 644a 8d3e
00000080: f1f9 8bbe 4d70 3ebd 9814 7fbe 6cfb a33c
00000090: b9c0 ad3c 893f bfbc 575c 8cbd 4e35 6c3c
000000a0: b251 86be 75c8 893d fe95 94bc 305d 27be
000000b0: 297e ce3e 5d7f 15bd e3fc 4ebd d2b6 9cbe
000000c0: a293 9a3e 1e32 713e 2a0a 9c3e 487e 713d
000000d0: 3807 ca3d 6c24 90be 693f 3abc a450 54bd
000000e0: 0287 94bd 7077 c6bd 1f1e 453e 51ec 293e
000000f0: b0f8 80be 9088 19be 9365 29bd 639b e53c
00000100: 9e5c b6be 61c2 3b3e a611 77bd ed51 913c
00000110: 6415 5abe 9ad3 3cbe a477 5cbe 2a92 883c
00000120: c84c 01bf fdfa b83c 7cd1 843e b375 1a3e
00000130: 9390 d7be eece 95be e0f9 bf3d 6ada 683e
00000140: d7c2 68be e459 913e 7de7 183e 66d4 923c
00000150: c0d0 2dbd 014a d7bc 634e 00be 7a82 643e
00000160: 6ba8 97be 1d7d 993d fd4e 993d b78b 4ebe
00000170: b3f9 22bd 4cc0 953c 15a8 db3e 6870 a63e
00000180: 6861 22bf 325a 9a3e 0c9f 673e 61e8 c8bc
00000190: 6da8 c13c 201a 39be f65c 163e cf5e d13d
000001a0: e0fd 34bd 0e3e 993e c4a1 debe 3ac1 0b3e
000001b0: 5a6e 39bd 4e58 ae3d 15ad 51be 8d1c ed3d
000001c0: b3aa 323e 2305 eabd ea06 c13d 8a42 a7be
000001d0: deea 02bf e809 803d 78e6 88be 78d6 ec3d
000001e0: 4bce e3bc 1884 513e 4330 2f3e 8134 873d
000001f0: eb4d 0abe b8ef 713c b00e 8abc fe05 403e
00000200: 774c 913c 184f 42bd 4979 e23c 6c9e 3b3f
00000210: 8681 d5bd 9832 e4be 408a f9bd d036 0d3f
00000220: 9f32 a53d 29dd e1bc 839f 87be 3b66 b4bc
00000230: 0108 81bd 5282 d93b d1b7 6ebc 09f4 1cbd
00000240: 1506 7e3e bbfe 8d3e 1f21 b83e d46f 1a3f
00000250: f38f de3e 5015 183e 3034 a43e 3604 c6bd
00000260: 2d3e 9dbd f8c2 a9bb 2335 b0bd e443 e73d
00000270: 06b6 853e 1e43 9cbc 0130 10be c1fd abbc
00000280: 7824 13be c09d 90bd 7248 9fbe 6326 0f3e
00000290: f128 623d c393 5c3c 13ee 2cbd 9a04 b93d
000002a0: 9bbf 1d3e 25f8 a13e 660c 6cbd c716 2b3e
000002b0: b3d1 023e bb44 973c a2cd dcbc 7eb7 13be
000002c0: f5be 803e 1e16 103a d8ea 97be 233e bfbd
000002d0: 15c1 0e3f 5d11 4bbe 8570 ba3c 501f 5cbd
000002e0: 3704 89bd 250b e5bc a5a2 cbbc 3f24 57bd
000002f0: b19e 3cbc cd5f 34bd 601f 9cbd fcc3 62bd
00000300: 777c 7f3d 57b8 52be 4b6b 71bd 8685 d8bd
00000310: 6d31 90be 661a f4bd d330 d73e 9ee5 29bc
00000320: e042 1cbf 183b 133e 96a5 29bf 57fd 74bb
00000330: fd9e 143e 7966 4b3d de84 e03e cedf 4fbe
00000340: e7c8 82bd d0aa 883e c75f c3bd 7c34 f1bd
00000350: 10c2 17bd b252 cb3c ac8c 2a3e ecb7 623e
00000360: bd77 c43c b287 d9bd 792e 18bd f62e 9a3c
00000370: ccef 203c fb1b 0cbf 18b8 c4be c2fa 833e
00000380: 7cab a33e f5dc a3be fa1d 8b3d e999 c13c
00000390: 774b 08be 512f 253e 32aa f2bd 1f7b 94bd
000003a0: 00be 223c 9f81 32bd 212f 373e ed26 99bd
000003b0: a77b 76bb bf49 b5bd eda1 ed3d 99bc e03e
000003c0: 4a12 6bbc 29db a0bd a038 0a3d 3b66 303e
000003d0: 85ff ddbe c513 863d 5ca7 a8bc 6583 843d
000003e0: 7865 ad3e 99ad 8abe af6a b9be 18b9 c7bd
000003f0: 1998 383e 291a 5c3d bc88 9abd ba11 eebe
0.09954636 0.11765795 0.21663377 0.20146942 0.02036481 -0.118838646 -0.2994234 0.29859465
0.19328561 0.041395694 -0.12178113 -0.0059311087 -0.026723875 -0.10825999 -0.029298803 0.014552262
0.15410288 -0.26671478 0.3247963 0.10594117 0.020432565 -0.05017025 0.16430525 0.15274477
-0.13427366 0.23674749 -0.04551776 -0.20904 0.13139005 0.1048222 0.092026256 0.27595818
-0.27339128 -0.046493817 -0.249102 0.020017348 0.021210061 -0.023345726 -0.0685355 0.014417006
-0.26234204 0.06727687 -0.018137928 -0.16344142 0.40330628 -0.036498416 -0.05053414 -0.3060823
0.3019076 0.23554274 0.30476505 0.05895832 0.09864658 -0.28152788 -0.011367657 -0.051834717
-0.07252313 -0.0969075 0.19249772 0.16594054 -0.25189734 -0.149935 -0.041356634 0.028028196
-0.35617536 0.18335868 -0.060319565 0.01773926 -0.21297222 -0.18440095 -0.21530014 0.016671259
-0.50507784 0.022580618 0.25941074 0.15083961 -0.4210249 -0.29259437 0.09373832 0.22739568
-0.22730576 0.28388894 0.14932056 0.017923545 -0.042435408 -0.026280405 -0.12529902 0.22315398
-0.2962068 0.074945666 0.07485769 -0.20170484 -0.039788913 0.01828017 0.42901674 0.32507634
-0.6342988 0.3014694 0.22619265 -0.02452487 0.023639882 -0.18076372 0.146839 0.102231614
-0.044187427 0.29930156 -0.43482792 0.13647929 -0.045271255 0.085129365 -0.20476182 0.11577711
0.17447929 -0.11426761 0.09425147 -0.32667953 -0.5113963 0.062518895 -0.26738334 0.11564344
-0.02780833 0.20460546 0.17108254 0.06601811 -0.13506286 0.014766626 -0.016852707 0.18752286
0.017736657 -0.04743871 0.027645724 0.7328861 -0.10425095 -0.4456985 -0.12184572 0.5516176
0.08066296 -0.027571278 -0.26488885 -0.022021404 -0.06300355 0.00663785 -0.014570192 -0.038318668
0.24807008 0.27733406 0.3596277 0.60326886 0.434692 0.1485188 0.32071066 -0.09668772
-0.07677875 -0.005180713 -0.08603885 0.11292246 0.26115435 -0.019074973 -0.14080812 -0.020995023
-0.1436938 -0.070613384 -0.3110996 0.13979487 0.055214826 0.0134629635 -0.042219233 0.09034081
0.15405123 0.31634632 -0.05762901 0.16707908 0.12775306 0.01846539 -0.026953522 -0.14425465
0.2514569 0.000549646 -0.2967136 -0.093380235 0.5576337 -0.19830842 0.022758732 -0.0537408
-0.06690257 -0.027959416 -0.024857828 -0.0525248 -0.011512444 -0.044036675 -0.07623172 -0.055362687
0.06237456 -0.20578133 -0.058940213 -0.105723426 -0.2816271 -0.119190976 0.42029437 -0.010369686
-0.61039543 0.14378011 -0.6626829 -0.0037382448 0.14513774 0.049658272 0.4385137 -0.20300218
-0.06385975 0.2669282 -0.095397525 -0.11777589 -0.037050307 0.024819706 0.16655225 0.22140473
0.023982877 -0.10621585 -0.037153695 0.01882122 0.009822797 -0.54730195 -0.38421702 0.2577725
0.3196677 -0.32004514 0.06792827 0.02363296 -0.13310038 0.16131331 -0.118488684 -0.07250046
0.009932995 -0.043580648 0.17889072 -0.07478128 -0.0037610324 -0.088519566 0.116031505 0.4389389
-0.014347622 -0.078543015 0.033745408 0.17226498 -0.43359008 0.065467395 -0.020587616 0.06470374
0.33866477 -0.2708557 -0.36214206 -0.09752101 0.1802677 0.053735886 -0.07545611 -0.464979

fc3.bias f4 [4]
00000000: ddd1 923d 2fd3 80bc b02c 8abd b6a4 8e3b
0.071689345 -0.0157257 -0.06746805 0.004353131
