checkpoints/checkpoint_critic_5.pth (torch, 114131 bytes, 7 tensors)

supports f4 [51]
000000 00 00 00 00 cd cc cc 3d cd cc 4c 3e 9a 99 99 3e
       0.0 0.1 0.2 0.3
000010 cd cc cc 3e 00 00 00 3f 9a 99 19 3f 33 33 33 3f
       0.4 0.5 0.6 0.7
000020 cd cc 4c 3f 67 66 66 3f 00 00 80 3f cd cc 8c 3f
       0.8 0.90000004 1.0 1.1
000030 9a 99 99 3f 66 66 a6 3f 33 33 b3 3f 00 00 c0 3f
       1.2 1.3 1.4 1.5
000040 cd cc cc 3f 9a 99 d9 3f 67 66 e6 3f 33 33 f3 3f
       1.6 1.7 1.8000001 1.9
000050 00 00 00 40 66 66 06 40 cd cc 0c 40 33 33 13 40
       2.0 2.1 2.2 2.3
000060 9a 99 19 40 00 00 20 40 67 66 26 40 cd cc 2c 40
       2.4 2.5 2.6000001 2.7
000070 34 33 33 40 9a 99 39 40 00 00 40 40 67 66 46 40
       2.8000002 2.9 3.0 3.1000001
000080 cd cc 4c 40 33 33 53 40 9a 99 59 40 00 00 60 40
       3.2 3.3 3.4 3.5
000090 67 66 66 40 cd cc 6c 40 33 33 73 40 9a 99 79 40
       3.6000001 3.7 3.8 3.9
0000a0 00 00 80 40 33 33 83 40 66 66 86 40 9a 99 89 40
       4.0 4.1 4.2 4.3
0000b0 cd cc 8c 40 00 00 90 40 33 33 93 40 66 66 96 40
       4.4 4.5 4.6 4.7
0000c0 9a 99 99 40 cd cc 9c 40 00 00 a0 40
       4.8 4.9 5.0

fc1.weight f4 [128, 33]
000000 8b 2c d0 3e 5a 6a 95 3c 00 c8 64 3f 13 66 82 bf
       0.40658984 0.018239189 0.89367676 -1.01874
000010 60 ac 56 be 05 3f 95 3f c8 bb 2f 40 b3 8c 9f 3e
       -0.20964193 1.1659857 2.7458363 0.31162032
000020 88 99 8b 3f 91 2d ee 3e 58 f6 2f 3e 92 2d 0a bf
       1.0906229 0.4651914 0.17183816 -0.53975785
000030 2c b2 2e 3e 19 b8 73 be e8 c5 a3 be 41 4c b4 be
       0.17060155 -0.23800696 -0.31986928 -0.35214427
000040 31 2d e3 3f e0 73 55 bd 1a 78 55 3f 87 19 4e 3f
       1.7748166 -0.05211246 0.83386385 0.805077
000050 0c 29 f9 be 46 23 2e be 1b 8e 40 3e 4c 5b 7f 3e
       -0.4866413 -0.17005643 0.18804209 0.2493717
000060 e0 43 90 3d 72 ee ce be 2b 39 dc 3e e4 45 17 40
       0.07044196 -0.40416294 0.43012366 2.3636408
000070 3a 9f 2b bf 3b 1a 8f bd ad 7f 21 c0 e0 69 7d bc
       -0.67039835 -0.06987425 -2.5234177 -0.015467137
000080 9b 9d 9f 3f d9 2f d7 be 30 49 0d be 45 4e 53 3f
       1.2469972 -0.42028692 -0.1379745 0.82541305
000090 09 3c a2 3f 0f ae 3d c0 88 9c c9 3f c6 b0 d7 bf
       1.2674571 -2.9637487 1.5750895 -1.6850822
0000a0 ab f7 d3 3e 5a 8f 52 bf 16 ec 3c be af c9 87 be
       0.41399893 -0.8224999 -0.18449435 -0.2652106
0000b0 e8 7f e6 3e b9 a0 01 bf 8a f0 c1 be bf 5f 00 bd
       0.4501946 -0.5063587 -0.3787883 -0.03134131
0000c0 96 1d 44 3e f5 d7 c4 3f d9 ea c0 bf f6 1a 2b bf
       0.19151911 1.5378405 -1.507167 -0.66838014
0000d0 63 55 84 3f af 9c 08 3f b0 61 f8 bd 1e 2f 8e be
       1.0338558 0.5336408 -0.121280074 -0.27770323
0000e0 ae 12 85 3e ba 4b 88 3d b8 f4 75 3e be 80 35 3f
       0.25990814 0.06655069 0.24019134 0.7089957
0000f0 b2 ff 1c 40 c7 74 d0 3e aa 19 01 bd a8 2c 21 c0
       2.4531064 0.40714094 -0.031518616 -2.5183506
000100 89 ee 99 3d ae 66 59 40 72 08 27 bf c8 d5 d9 be
       0.075162 3.396892 -0.6524726 -0.42545915
000110 d8 28 8e 3d 5d cf 9d be 87 e4 c4 3e 30 24 f9 3e
       0.06941384 -0.30822268 0.38455603 0.4866042
000120 50 7f 7e bf 00 ee 5a 3e cc 9d 05 bf 93 ca d5 bb
       -0.99413013 0.21379852 -0.52193904 -0.006524393
000130 1e c8 0f 3d 73 c2 31 be 9f a8 c7 3d c7 ab cb 3f
       0.035102956 -0.17359333 0.09748959 1.5911797
000140 db 7b 7c bf d3 99 a3 3e 50 8b 00 3f b5 b4 20 be
       -0.9862649 0.31953296 0.50212574 -0.15693934
000150 d1 82 a5 bf 76 d3 f6 3e af 55 58 be d2 35 87 be
       -1.2930547 0.48208207 -0.21126436 -0.2640825
000160 78 76 06 bd 5c fa e5 3e 40 46 42 bf d0 67 51 3e
       -0.032827824 0.44917572 -0.75888443 0.20449758
000170 7c 60 87 bf 7d 4c ae 3e d9 dd 94 be ce 77 9e bd
       -1.057632 0.3404273 -0.29075506 -0.07737695
000180 0c b8 c0 be b1 6f af bd 87 9f 73 bf 6b 4a 52 bf
       -0.37640417 -0.08566225 -0.95165294 -0.821448
000190 98 86 85 be b7 90 db 3d 82 4a b1 be 14 c0 66 3f
       -0.2607925 0.107209615 -0.34627157 0.9013684
0001a0 80 db ab 3f 91 32 e1 bf 33 fb 0e 3e 40 c3 aa bf
       1.3426361 -1.7593557 0.13963012 -1.3340836
0001b0 d4 47 9e 3f 09 25 28 bf b1 48 11 be c6 2b 2f bf
       1.236567 -0.6568151 -0.14187886 -0.6842617
0001c0 17 9a 21 bd 92 19 f7 3e 38 fd d2 3d 9a 94 02 3f
       -0.039453592 0.48261696 0.10302204 0.51008
0001d0 6e 74 5b bf d5 be a9 be 7e 97 67 3c fd 0f dd 3c
       -0.8572453 -0.33153406 0.01413524 0.026985163
0001e0 8a 15 8f 3e ff 68 85 bc bc f8 cc 3d 07 35 37 3f
       0.2794612 -0.016285418 0.1000838 0.7156529
0001f0 59 24 ba be 93 3f b5 3e 50 9a 87 3f ba 95 a9 be
       -0.36355856 0.35400066 1.0593967 -0.33122045
000200 f4 70 91 bc c8 c0 85 bf 9c f9 fd bc a9 7e c0 bf
       -0.017754056 -1.0449457 -0.031002812 -1.5038654
000210 0b 0f 1d bf c4 9b 06 bf d6 66 1b 3e 95 6f 7d 3f
       -0.6135108 -0.5258143 0.15175948 0.98998386
000220 ef b0 b3 bf 0e 7b 0b 3f 66 24 99 be 34 34 f3 3d
       -1.4038371 0.5448464 -0.29910582 0.11875191
000230 4e c6 36 bf 8e 75 a6 be aa eb 88 3e 9a 39 34 bf
       -0.7139634 -0.32511562 0.26742297 -0.70400393
000240 3c 4b bf bd c5 6d 04 3f 53 6b 40 3f 91 66 48 bf
       -0.09340522 0.51729995 0.75163764 -0.78281504
000250 ac e9 3b bf 06 e1 7b 3f 91 f7 ee be bb 7d 4a 3f
       -0.7340343 0.98390234 -0.46673253 0.790981
000260 8d fe c8 be e7 0f 82 be 24 da 2a be 6d 92 29 3f
       -0.39256707 -0.25402758 -0.16684777 0.66239053
000270 cd 32 fc 3e 01 f9 70 be 3a 1f fb be 42 7d c0 3f
       0.49257508 -0.23532487 -0.4904726 1.5038226
000280 51 c7 74 3f b7 c9 84 3d 48 38 b8 bf f0 53 45 bc
       0.9561663 0.064837866 -1.4392176 -0.012043938
000290 0e 1a 30 c0 3f 82 3d 3f ba 16 1b 3f 12 c4 9a 3e
       -2.7515903 0.74026865 0.60581553 0.30227715
0002a0 2b fc d7 bf 90 4c 20 3f b2 8c df be 80 90 9e 3f
       -1.687383 0.62616825 -0.4366203 1.2387848
0002b0 f9 bd 0b be 4b 65 2c 3e 23 08 46 bf ef b8 17 3d
       -0.13646688 0.16835515 -0.77356166 0.0370416
0002c0 39 76 16 be 07 86 79 3c 14 a2 29 bd e4 30 b2 3e
       -0.14693536 0.0152297085 -0.041414335 0.34802926
0002d0 ea 01 a2 be f7 7a d9 3f 7e c4 41 bf ab e4 39 3e
       -0.31642085 1.6990651 -0.7569045 0.18153636
0002e0 53 6d 08 bf 1f dd d7 3e 59 7b 73 bd 7a 16 9c 3d
       -0.53291816 0.4216089 -0.059443805 0.076214746
0002f0 60 eb 72 bd f9 0c 9b 3c 8b e2 82 be 99 a4 5d 3f
       -0.059306502 0.018927084 -0.25563464 0.8657928
000300 21 a0 13 40 31 aa 6a bd ab f2 86 3d 76 2f 13 c0
       2.3066485 -0.057291213 0.06589254 -2.2997718
000310 04 dd 98 3c 33 80 12 bf 90 7c b1 3f 4f 0f 34 bf
       0.018660076 -0.57226866 1.3866138 -0.7033586
000320 b8 86 08 3f bc e9 b8 bf b5 59 f1 3f 49 6e 38 3e
       0.53330564 -1.444633 1.8855501 0.1801082
000330 d7 30 15 c0 a5 79 0a 3c cb fa 8c 3e 90 d2 5e bf
       -2.331106 0.008451854 0.2753509 -0.8704004
000340 60 13 0d 3e bb 73 03 3e 2b a9 73 3e e8 06 f8 be
       0.13776922 0.12837116 0.23795001 -0.4844277
000350 ab 58 13 bf 7c 64 81 be 31 9b a2 3f 2a 23 fc bf
       -0.5755717 -0.25271976 1.2703611 -1.9698231
000360 66 60 bd bf 81 d4 d5 bf a9 09 48 3d ea 46 5c bd
       -1.4795043 -1.6705476 0.048837338 -0.053778566
000370 0d 57 7d be 00 52 1c be 12 78 9a be fe 7d a9 be
       -0.24740238 -0.15265656 -0.3016973 -0.33103937
000380 e4 ab 0f be ea f4 cd 3e c8 bd 3d bd 54 01 ce bc
       -0.14030415 0.40225917 -0.046323568 -0.025147118
000390 e2 c3 aa be 00 90 3c 3c 10 5b 9d 3f 06 08 0a be
       -0.33352572 0.011508942 1.2293415 -0.13479623
0003a0 a7 ac 74 3f 41 c2 6d bf 80 d0 b5 3f 0b 5c 6d 3f
       0.95575947 -0.9287453 1.4204254 0.9271857
0003b0 3e 49 24 bf c9 06 a8 3f b8 2e 92 bf 3e ba b8 bf
       -0.6417426 1.3127071 -1.1420507 -1.4431837
0003c0 63 9b 43 3f 57 54 a3 bd 0d d2 9b bd e8 2c 90 bc
       0.76408976 -0.07975071 -0.076084234 -0.017599538
0003d0 6c 43 6b 3e 70 47 83 be af 52 0d 3f 64 93 22 c0
       0.22974938 -0.2564044 0.5520429 -2.540246
0003e0 ec cb 50 be b5 41 59 bf fd 4d 72 be 40 26 d4 3e
       -0.2039029 -0.84865886 -0.23662563 0.41435432
0003f0 a3 fa 57 3e 68 0d 6b be bb 66 0a 3b fb 4a d2 3c
       0.21091704 -0.22954333 0.002111836 0.02567052

fc1.bias f4 [128]
000000 3d ba 16 c0 b4 4a 13 c0 a2 0e 08 bf 45 4e 91 bf
       -2.355117 -2.3014345 -0.5314733 -1.1352011
000010 ae d8 d7 bf d5 26 16 c0 29 de a5 be 25 e3 e6 bf
       -1.6863 -2.34612 -0.32396057 -1.8038069
000020 70 d6 a3 be 24 6e 09 3c 7a 2c c2 be fc a1 94 bb
       -0.3199954 0.008388076 -0.37924558 -0.0045359116
000030 3a 1a 9f bf 99 2b 1c c0 ef ab e2 be 19 a6 b7 bf
       -1.2429879 -2.440161 -0.442718 -1.4347564
000040 57 89 e3 be 76 a9 af bf 0a 2f b7 bf 61 54 10 bf
       -0.4444072 -1.372359 -1.431123 -0.5637875
000050 a8 89 e9 bf 4d 30 0b c0 cd 35 ae bf 21 7e c0 be
       -1.8245134 -2.174823 -1.3610169 -0.3759623
000060 fb 18 f7 be 34 6d 18 c0 fc d1 76 bf 32 ff 5d bf
       -0.48261246 -2.3816652 -0.9641416 -0.8671752
000070 9f e6 76 3c eb df 9c bf 3f b1 8b bf ee 3d 66 bf
       0.015069633 -1.2255834 -1.0913466 -0.8993825
000080 96 89 17 c0 a6 4a 0a c0 34 04 b3 bf 8a ba 2f bf
       -2.3677726 -2.1608062 -1.3985658 -0.6864401
000090 be cf 3c 3f bd ee b2 bf 07 27 74 bf 4c ef 37 bf
       0.7375449 -1.3979107 -0.9537205 -0.71849513
0000a0 b3 56 59 3f e3 0d eb bf 9c 76 49 bf 1e 6c 72 bf
       0.8489792 -1.8363613 -0.7869661 -0.94696224
0000b0 4b c4 34 bf 92 61 c2 bf 0e c7 9c bf 87 d2 7f bf
       -0.7061202 -1.5186026 -1.2248247 -0.99930614
0000c0 72 34 af bf 49 df 89 bf 2e 7a a8 bf b2 f9 b1 bf
       -1.368788 -1.0771266 -1.3162286 -1.3904326
0000d0 e7 77 8e bf ca 23 3f 3e fe 29 10 bf 2a 0d a9 bf
       -1.1130341 0.18665996 -0.56314075 -1.3207142
0000e0 e0 b5 7a 3e 52 9d ff bf 87 ca 3b c0 88 b7 16 c0
       0.24483442 -1.9969885 -2.9342363 -2.3549519
0000f0 4b f3 a4 be 6f c8 1b 3e 2a 39 f5 3c 5a 8a 07 c0
       -0.32216868 0.15213178 0.029934485 -2.1178193
000100 c4 89 20 bf f9 00 9b bf 8f dd fd bf 52 cc 67 bf
       -0.62710214 -1.2109672 -1.9833239 -0.90546143
000110 16 21 80 bf 2f ac 57 bf 93 90 7b bf b8 51 ba bf
       -1.0010097 -0.84247106 -0.9826748 -1.4556189
000120 e9 39 b9 bf 6a ca f6 bf 94 4b dc bf c5 d4 1b c0
       -1.4470798 -1.9280522 -1.7210565 -2.4348614
000130 73 05 06 bf d0 e3 01 c0 07 65 e1 bc 6a 3e 04 40
       -0.52352065 -2.0295296 -0.027513994 2.0663095
000140 90 25 71 bd 26 73 e5 bf 4c 18 1f be 97 37 97 bf
       -0.058873713 -1.7925766 -0.15536612 -1.181384
000150 d3 12 44 be 90 9d 81 bf 3e 44 ae be a5 5c 35 c0
       -0.19147806 -1.0126209 -0.3403644 -2.8337796
000160 9a 2c f5 bf 0b 3a 9f bf 5b 61 69 bf 85 fa f2 bf
       -1.9154236 -1.2439588 -0.9116418 -1.8982702
000170 ae 69 bf be eb cc 88 3e 85 1c 1c c0 50 09 7e bd
       -0.37385315 0.2671884 -2.4392407 -0.0620206
000180 d2 6f d6 bf 63 b9 ed 3e 6a 30 91 be 81 0f 27 bf
       -1.6752875 0.464305 -0.2835725 -0.6525803
000190 8c 65 13 c0 1e a4 1d 3f 79 2a 35 bf cd c5 6f be
       -2.303073 0.6157855 -0.70767933 -0.23415299
0001a0 a0 b4 04 3f 88 5a f6 bf ca 6d 08 c0 d3 cf 6e bf
       0.5183811 -1.9246378 -2.131701 -0.93285865
0001b0 6a 9e fb be 62 0e c3 bf 82 b7 a4 bf ce 4b 08 3f
       -0.49144298 -1.5238764 -1.2868502 0.5324067
0001c0 8f 04 12 3e 27 25 c1 bf 49 a3 b9 bf 51 17 fb be
       0.14259551 -1.5089463 -1.4502956 -0.49041227
0001d0 84 f8 d9 bf 5b 99 97 bf 46 20 b0 bf 58 01 08 c0
       -1.7028966 -1.1843675 -1.3759849 -2.125082
0001e0 ca fb e9 bf 53 ff 56 bf fb 2f c3 bf 68 4a a1 bf
       -1.8279965 -0.83983344 -1.5249017 -1.2600832
0001f0 65 b2 03 c0 6e 83 09 c0 50 bc ea bf 28 ea 94 bf
       -2.0577633 -2.1486468 -1.8338718 -1.1633959

fc2.weight f4 [128, 132]
000000 ea d1 d1 bd dc 07 19 3f 9a d1 08 bf 6e e4 53 be
       -0.10245116 0.5977762 -0.53444827 -0.20692608
000010 84 e0 7b be d9 21 b2 3d cc e1 c6 be bc 30 27 3f
       -0.24597365 0.08697862 -0.38844144 0.6530874
000020 1b 25 c3 be 19 cb 2f bd 39 7d 03 3f 65 c3 17 bf
       -0.38114247 -0.0429183 0.5136295 -0.59282523
000030 11 e5 81 3f ba 61 a7 bc 2a 11 01 bf 08 4b 87 3f
       1.014803 -0.020432342 -0.50416815 1.0569773
000040 16 91 b2 3e 07 5e 9f 3e 4c 7d 84 bf 9f 89 86 be
       0.34876317 0.31126425 -1.0350738 -0.26276872
000050 08 f2 f2 3e 16 48 d2 bc cc 00 c5 3e ee e5 8a bf
       0.4745028 -0.025669139 0.3847717 -1.0851419
000060 b1 f4 0c 3f 5b bf b0 3d 03 ea 4f 3d 40 7f 5c bf
       0.5506087 0.08630248 0.05076028 -0.8613167
000070 07 5b 8a 3d e4 97 0e be 0d b0 42 bf c1 81 33 3e
       0.06755643 -0.13925129 -0.7604988 0.17529966
000080 f2 b0 87 be 7b e2 33 c0 69 a5 a3 be 56 70 73 be
       -0.26502186 -2.8106983 -0.31962135 -0.23773322
000090 de 70 43 3e 18 67 d8 bf 41 33 a8 bd 78 3c 3a 3d
       0.19086024 -1.6906462 -0.08212901 0.045467824
0000a0 98 88 ef bd 25 1b 88 be 09 2b 05 3f c5 47 5b be
       -0.11695975 -0.2658321 0.5201879 -0.21414097
0000b0 66 4f 11 bf 2e cb 1e bf b9 5e 03 be 33 fd 98 3e
       -0.5676178 -0.6202878 -0.12829103 0.29880676
0000c0 a2 aa 9c 3e 7f 8d 4c 3e de f1 63 be 4d 53 2b be
       0.30598933 0.19975851 -0.22260234 -0.16730995
0000d0 f9 23 4f be c7 af ad 3f c8 03 ff 3d 97 ff df 3c
       -0.20228566 1.3569268 0.12451893 0.027343554
0000e0 f7 38 e3 be f0 3e 06 3f d5 14 e9 3e 64 19 ac bf
       -0.44379398 0.52439785 0.45523706 -1.3445249
0000f0 21 05 bf be 06 89 81 bd 96 e3 46 bf 7f 05 be b8
       -0.373086 -0.06324963 -0.7769102 -9.06093e-05
000100 b1 96 42 3f ca ce 0e bf d2 42 0a be f4 97 20 3f
       0.76011187 -0.55784285 -0.13502052 0.6273186
000110 ce 66 e2 be 2d fd 80 3f 26 7c 15 be 2a 6d 8c be
       -0.4421906 1.0077263 -0.1459814 -0.27427036
000120 71 75 eb be 6c 76 94 bd 11 69 32 bf d9 71 35 3f
       -0.45988038 -0.0724915 -0.6969157 0.7087684
000130 07 4e 07 bf 1b 16 8c bf e7 e7 b4 be 6f e8 40 3e
       -0.52853435 -1.0944246 -0.35333177 0.18838666
000140 6e 1d 68 bf 52 55 9b bf 1f f2 2f 3f d3 99 b7 3e
       -0.90669906 -1.2135413 0.6872882 0.35859546
000150 bc 43 ff be fd cd 89 be 3a f4 52 bf 5c 6b a0 be
       -0.49856365 -0.2691497 -0.8240391 -0.3133191
000160 cd 84 0d 3e e3 94 5f c0 d4 b7 46 bf 00 37 95 be
       0.1382019 -3.4934623 -0.7762425 -0.29143524
000170 21 40 ac 3e 3d 09 70 bf 94 50 90 3f 2f ea 6f 3c
       0.33642676 -0.93764096 1.127459 0.014643236
000180 f0 b1 c6 3d d1 b6 de 3e 1a 36 33 3f a2 5b e5 be
       0.09701908 0.43498853 0.7000443 -0.44796473
000190 ed e0 b2 3e 4d a3 88 3e a8 1b f0 be a0 7f 2e 3e
       0.3493723 0.2668709 -0.468961 0.17040873
0001a0 a2 57 8e bf 40 3d 29 bf 65 91 59 bf b4 f5 13 bf
       -1.1120493 -0.66109085 -0.8498748 -0.5779679
0001b0 00 e5 24 3f fe 0e be be 27 b3 49 3f de fc 1f 3e
       0.64411926 -0.37120813 0.7878899 0.15623805
0001c0 65 95 f8 be cf 60 c2 be d4 23 1c 3f 64 a5 93 be
       -0.4855148 -0.37964484 0.6099217 -0.2883712
0001d0 8b c4 cc bf 88 eb 13 3f fa dd 7b be fd 13 02 bf
       -1.599748 0.5778127 -0.24596396 -0.5081175
0001e0 3d 0a 2b 3f 56 43 f5 3e bf 70 b0 be e0 cb 81 bf
       0.668125 0.47902936 -0.34461018 -1.0140343
0001f0 37 73 6b bf aa 30 55 bf f4 86 02 bf 22 04 46 bf
       -0.9197268 -0.8327738 -0.5098717 -0.77350056
000200 f0 60 48 bd 4f 5c 16 be 9a 77 28 bd 5a c7 0d be
       -0.04892057 -0.1468365 -0.041129686 -0.13845578
000210 05 a1 1f bf 35 e9 41 bf 11 97 a9 3e cc 2c 07 be
       -0.6235507 -0.7574647 0.33123067 -0.13200682
000220 37 6b 1b 3e 5e 00 5d bf 49 ae 38 bf f1 4d d8 bc
       0.15177618 -0.86328685 -0.7214094 -0.026404353
000230 5e c0 21 bf 8b 5a 14 bf 30 b7 17 bf f2 0d fc be
       -0.63184154 -0.5795066 -0.59263897 -0.4922939
000240 be f0 51 3f f3 4d ec be 94 cc 42 be 32 93 41 3f
       0.8200797 -0.4615322 -0.19023353 0.7561523
000250 1e e8 fe be d1 73 76 bf d0 a5 2b c0 e2 ec b4 3f
       -0.49786466 -0.9627047 -2.6819954 1.4134791
000260 2c 60 ab bf 77 9f 5b bd 63 9e 76 3f f0 51 67 3d
       -1.3388724 -0.053618874 0.9633543 0.056474626
000270 40 99 89 3e b8 2f 46 3f 19 f7 6b bf 6b 00 4e 3d
       0.26874733 0.77416563 -0.92173916 0.050293367
000280 f5 a5 01 3f 1a ff 92 bf d0 97 61 bf da 1f 0e be
       0.50643855 -1.1484101 -0.8812227 -0.13879338
000290 20 fa 0c bf 54 2f 3d 3f 9e 2a da 3e dc 8e 16 be
       -0.5506916 0.7390034 0.4261064 -0.14702934
0002a0 f4 3b d0 be 54 ee 46 bf f0 ae 4e be 89 a9 b6 bc
       -0.4067074 -0.7770741 -0.20183921 -0.022297638
0002b0 19 dd 9b 3e 02 4d 3e 3e 76 ea cb be a4 72 bb 3e
       0.30442122 0.18584064 -0.39827317 0.366109
0002c0 55 39 14 3e c3 1c 05 bf ba cd 3c 3c e0 06 21 3e
       0.14474995 -0.5199701 0.011523658 0.15725279
0002d0 6e 1b 23 bf ef 32 3d be 4d f0 c3 bf 45 cf f5 be
       -0.6371373 -0.18476461 -1.5307709 -0.48009697
0002e0 9c c0 39 bf 65 39 b9 bf 99 a0 04 bf 19 1d 2c bf
       -0.72559524 -1.447064 -0.5180755 -0.672319
0002f0 20 58 93 3d 96 49 ca bf 04 c7 88 be 76 bd c2 bf
       0.07194543 -1.5803707 -0.26714337 -1.5214069
000300 26 4d 83 bf 17 61 88 3e 18 ab b6 be cf dc f0 3e
       -1.0257919 0.26636574 -0.3567741 0.47043464
000310 1a cb 89 be 8e 3e 16 3e 66 4a e6 be b8 8c 84 be
       -0.26912767 0.146723 -0.44978637 -0.2588861
000320 35 48 44 bd 1b 7d d2 be d8 3d 6e be a6 17 eb 3e
       -0.047920424 -0.41111073 -0.23265779 0.4591648
000330 62 a3 bd be c9 df 4b bd d0 75 07 be 4b a4 b1 3d
       -0.37038714 -0.049773965 -0.13228536 0.086739145
000340 e5 a3 b7 bb cd 46 d0 bf 86 15 17 be 10 6c c7 be
       -0.0056042545 -1.6271607 -0.14754304 -0.38949633
000350 b5 90 99 3e 7b a0 f6 3e 70 6e ad 3e 77 db 5f 3e
       0.29993215 0.48169312 0.3387332 0.21861063
000360 e2 5c 14 be 89 1a 24 3f 75 70 51 3e 4d d9 c7 bf
       -0.14488557 0.6410299 0.20453055 -1.561319
000370 43 b6 76 3f cf 4d 76 be 92 23 a1 3e 8a aa a7 be
       0.9637186 -0.24053119 0.3147245 -0.32747298
000380 f7 ef 22 3f c3 82 8e be 03 53 f9 be f3 eb d3 3d
       0.6364741 -0.27834138 -0.48696145 0.10347738
000390 b8 ec 3a be 67 02 18 be 68 31 17 be d7 bc 8d bf
       -0.18254364 -0.14844666 -0.1476494 -1.1073254
0003a0 f0 4b 99 bf 8f 03 90 be 51 b3 37 3d 9c 78 56 3f
       -1.1976299 -0.28127715 0.044848744 0.83777785
0003b0 ac bd 3c 3f dd 27 dd 3e fc a3 3c 3f 5f c5 a1 3e
       0.73726916 0.43194476 0.7368772 0.31595895
0003c0 84 14 9e 3d 64 c1 2f bf 9f ca 1e bf bb cb 8f be
       0.07718757 -0.68654466 -0.62027925 -0.28085122
0003d0 22 fd 52 bd 99 46 83 bf a5 2b 20 be 0d 9f 96 3c
       -0.051510938 -1.025592 -0.15641649 0.018386388
0003e0 03 99 af 3e 29 83 b5 bd 2e 5b 98 bd 9e 88 2d bf
       0.34296426 -0.088629074 -0.07439266 -0.67786586
0003f0 0a 6d 33 c0 db 4b aa be 0e 4b 76 be 32 78 d6 be
       -2.8035302 -0.33260998 -0.24052069 -0.41888577

fc2.bias f4 [128]
000000 d9 a6 81 3f 63 51 a3 3e 15 06 27 3f 35 90 70 c0
       1.0129043 0.3189803 0.65243655 -3.7588017
000010 ef 33 89 c0 41 21 79 c0 24 43 a3 bf 27 c5 8f c0
       -4.2875896 -3.8926547 -1.2754865 -4.4928164
000020 ce 50 85 be 6f 60 05 bf ae 8d 18 bf f6 77 20 c0
       -0.26038212 -0.5210027 -0.59591186 -2.5073218
000030 8f a6 3c bf 31 c8 9a be 3e 8f 8a c0 f2 e9 4b c0
       -0.7369165 -0.3023086 -4.3299856 -3.186154
000040 0b 8c 3d c0 f5 5a 6c c0 46 ba 78 c0 72 13 6e c0
       -2.9616725 -3.6930516 -3.8863692 -3.7199368
000050 2f 4e 62 c0 15 0e 88 c0 11 a6 8b c0 7e 16 a6 bf
       -3.536022 -4.251719 -4.364022 -1.2975614
000060 b3 ed 43 bf 36 3d 76 3d d4 f3 17 c0 21 94 a1 bf
       -0.76534575 0.06011697 -2.374257 -1.262333
000070 13 73 0c be 57 2f 89 bf 9d 30 c2 3e 78 b1 29 c0
       -0.13715772 -1.0717572 0.37927714 -2.6514568
000080 29 77 d9 bf d8 10 17 c0 6f ba 1e bf a3 90 21 c0
       -1.698949 -2.360403 -0.62003225 -2.524453
000090 d8 98 51 c0 9f f2 80 3f 3a e8 e5 bf 41 bd 41 c0
       -3.2749538 1.0074042 -1.7961495 -3.0271761
0000a0 82 4d fe bd ae 73 c6 3f 09 48 b8 bf e2 e0 c9 3c
       -0.12417127 1.5504053 -1.4396983 0.024643365
0000b0 90 d0 b2 bf c1 91 20 c0 20 16 15 c0 9a 6a 81 bf
       -1.3969898 -2.508896 -2.3294754 -1.0110657
0000c0 4f 5c f2 bf 6e 8d c2 bf 54 05 20 bf a7 45 35 c0
       -1.893442 -1.5199411 -0.6250813 -2.8323762
0000d0 11 29 75 c0 02 ef 29 3f 92 82 3d be f0 cc 69 c0
       -3.8306315 0.6638032 -0.1850684 -3.6531334
0000e0 da 6b c2 bf 02 66 4d c0 d7 b9 04 c0 ba 88 25 c0
       -1.5189164 -3.209351 -2.0738428 -2.5864701
0000f0 c6 0c d6 bf 6e 46 af be 1a d1 68 c0 85 b9 bc be
       -1.6722648 -0.3423342 -3.6377625 -0.3686029
000100 8b cf c9 bd 03 52 ca bd ed ad 2f c0 c7 0c 7b bf
       -0.09854039 -0.09878924 -2.7449906 -0.9806637
000110 e2 ce 89 bf 05 32 34 c0 c5 6a 39 bf d8 c1 8d 3e
       -1.0766261 -2.815553 -0.7242854 0.27686954
000120 a5 d0 94 c0 84 e2 e8 be 2c b0 5f bf 89 7e 43 c0
       -4.6504693 -0.45485318 -0.8737819 -3.054598
000130 f3 ec 77 bf ee c3 61 be 95 58 06 c0 56 b2 7c bf
       -0.9684593 -0.22047397 -2.0991566 -0.9870962
000140 8e c3 23 bf 45 55 d6 be 13 05 7a bf 8f 40 59 bf
       -0.6397027 -0.4186193 -0.9766399 -0.84864134
000150 ad a0 58 c0 26 24 c4 3e 70 7f d0 bf ad ea a4 c0
       -3.3848069 0.3830883 -1.6288891 -5.153647
000160 6d 73 47 bf e6 db ad 3d 6b 8c 9d 3f 7f 0a ea bf
       -0.779105 0.08489208 1.2308477 -1.8284453
000170 82 0e 3c c0 23 de db 3f 5e b9 0a be 1d 64 92 c0
       -2.9383855 1.7177166 -0.13547274 -4.574721
000180 4f 48 f4 bf 0f 09 8a be 76 48 60 c0 96 7b 7f c0
       -1.9084567 -0.26960036 -3.5044227 -3.991918
000190 10 13 a2 bf 49 4d 2d c0 ce a5 60 3f d7 03 11 c0
       -1.2662067 -2.707842 0.87753 -2.2658594
0001a0 a5 2b 95 c0 f0 12 cc be 05 2d 79 c0 c8 c3 07 c0
       -4.6615777 -0.39858198 -3.8933728 -2.1213245
0001b0 6a a7 93 c0 a7 83 69 c0 e0 cc d3 be f2 4e fd bf
       -4.6141863 -3.6486604 -0.41367245 -1.9789717
0001c0 2b 64 2a c0 15 e5 ad bf 9e 30 a9 bf b0 8b aa 3e
       -2.6623638 -1.3585535 -1.3217962 0.33309698
0001d0 e8 35 97 c0 53 4a 5d be e6 b7 b4 bb 7c 05 f5 bd
       -4.7253304 -0.21610384 -0.0055150865 -0.11963937
0001e0 ed 5b 8b bf 9f 51 33 c0 a4 82 50 c0 83 70 46 c0
       -1.0887429 -2.8018568 -3.2579737 -3.1006172
0001f0 d5 d4 52 c0 d7 37 81 bf b7 96 8e 3e 00 31 6b c0
       -3.2942402 -1.0095166 0.2784936 -3.6748657

fc3.weight f4 [51, 128]
000000 c2 51 5e 3e 30 9d 6d bd 87 9e 0f bc 52 ba 1d 3d
       0.21710876 -0.058011234 -0.008765823 0.038507767
000010 ab a0 86 3a 42 fe 1a 3d 4e 07 80 3e e0 fd b5 3d
       0.0010271271 0.037840135 0.25005573 0.088863134
000020 84 6c 7e bd 18 a0 4f 3e e3 d1 81 3e fa 0e d4 bc
       -0.062115207 0.20275915 0.25355443 -0.025886048
000030 aa 58 7e bd 1c 28 e9 39 ed a9 79 bd 19 cb e0 bd
       -0.062096275 0.00044471107 -0.06095307 -0.10976238
000040 bb be 05 bd 62 f8 87 3e 46 2c 9a bd da 01 2b 3c
       -0.032652598 0.2655669 -0.07527976 0.010437453
000050 87 33 5b be 8d 3c 3e bb 15 52 79 bc d7 ae bd 3d
       -0.21406375 -0.002902779 -0.015217324 0.09261864
000060 ff 53 4d be 7a 7d d1 3d ba ac 9f bd be 72 ee bb
       -0.20051573 0.10229011 -0.07796617 -0.007276862
000070 76 5d 18 3d 03 34 74 3d 09 dd 2d 3e 49 ab ce be
       0.037198506 0.059619915 0.1697885 -0.40365055
000080 26 6e 2a bc 72 1d 8b 3e ee 34 a6 3d 36 82 b0 3d
       -0.010402238 0.27170902 0.08115564 0.08618586
000090 e1 e9 f2 3d 56 96 66 3d 3a 1a 97 3e 28 27 f1 3d
       0.11861015 0.056295715 0.29512197 0.117750466
0000a0 18 9e 49 3e 60 69 fd bd e4 82 17 3d ae 33 f1 3b
       0.19689214 -0.12373614 0.03699006 0.007360897
0000b0 7d 8d 0a be 74 26 28 be 53 3c 7f bd b7 37 7a 3e
       -0.13530536 -0.16420919 -0.06231339 0.24435316
0000c0 6e cf 1d 3d e2 10 cd 3c 91 b5 1c 3e ef 91 ff bd
       0.0385279 0.025032464 0.15303637 -0.124790065
0000d0 52 d0 22 3f 93 8b 55 3e 7d 79 4c be ec 92 2a be
       0.6359912 0.20854025 -0.19968219 -0.16657609
0000e0 9b 20 7f be 7e f4 6c bd 6f be c3 3e cb 5a 18 be
       -0.24914782 -0.057850353 0.38231227 -0.14878385
0000f0 dc a3 97 bd 82 05 f9 b9 57 c9 86 bd eb bc 68 bd
       -0.074043006 -0.00047497085 -0.06581371 -0.05682079
000100 dd ac 99 3d 33 9b c0 bd c5 62 46 3d f6 3a 34 be
       0.07503674 -0.09404602 0.048434038 -0.17600617
000110 ef 1a 8b 3c 36 2d ac 3e b6 ed eb 3d 4c 82 c6 bd
       0.016980616 0.33628243 0.11519949 -0.09692821
000120 59 5e 06 3e 0b 0d 2e 3d f9 9f 12 3e 0d 98 ec 3e
       0.13121928 0.042492907 0.14318837 0.46209756
000130 ac df b5 3d 89 26 c1 3d c9 ac a7 3d 51 df 82 3e
       0.08880553 0.09431178 0.08187253 0.25561002
000140 0c b2 63 bd bd f3 5d 3e 2c 21 5d 3e 9e 60 70 3e
       -0.05558972 0.2167501 0.21594685 0.23474357
000150 67 84 13 3e 2b 1a 37 bc 79 f5 0c be cb 38 0f 3e
       0.14405976 -0.0111756725 -0.13765515 0.13986509
000160 55 bd ae be e7 92 70 3e 95 dc 89 be cf 93 fa bd
       -0.34128824 0.23493539 -0.26926103 -0.122352235
000170 9e 04 26 3e 4f dd 9c bd d4 a5 98 be 70 0e 17 bd
       0.16212699 -0.07659399 -0.29814017 -0.036879003
000180 df 3c be 3d 91 0e f3 bd 81 7e 23 be 06 29 00 be
       0.09288954 -0.11868013 -0.15966226 -0.12515649
000190 02 a4 c2 bc 96 54 7d 3a 87 94 80 bd 5f 2c d5 bd
       -0.023759846 0.00096637884 -0.06278329 -0.10408854
0001a0 a2 b9 56 3e 59 14 c7 3e cd 65 80 3d a0 51 18 3e
       0.20969251 0.38882712 0.06269417 0.14874887
0001b0 ce 9e b3 3e 86 69 1b be 44 76 e4 bc 37 1b 5f 3d
       0.35082096 -0.15176973 -0.027888425 0.054469313
0001c0 9a 27 5a be 5f 71 12 bd ab 9b 09 be ce 3c 02 3d
       -0.2130417 -0.03575265 -0.13438289 0.03179627
0001d0 c6 0c 98 3d c7 ea 97 be 58 a1 1f 3d 3d d2 1b bd
       0.07424311 -0.29671308 0.03897223 -0.038042296
0001e0 de a1 b0 3e 7a a1 d1 3d 71 96 92 3d da de e4 bd
       0.34498495 0.10235877 0.07157601 -0.11175318
0001f0 da 10 c7 3d ef ee 1d 3e 9a 21 3d 3b c3 c7 eb bc
       0.09720011 0.15423177 0.002885914 -0.028781777
000200 38 ca 6e 3e 16 91 2c bd 89 98 63 3c 16 50 bb 3a
       0.23319328 -0.042130552 0.013891348 0.0014290835
000210 38 06 df 3c fd 79 39 3d f1 6b 80 3e c2 d6 81 3d
       0.027224645 0.045282353 0.25082353 0.0633979
000220 ab c9 dc 3b df 35 36 3e 4e 3e fa 3d 2e b7 87 3d
       0.006737908 0.17793988 0.12218915 0.06626736
000230 21 7b 44 bd 56 ca 0c bd a3 c1 10 3c 0c 71 d8 bc
       -0.047968987 -0.03437265 0.008835229 -0.026421092
000240 7a 27 fe 3b 2a 42 98 3e e4 07 0e 3b ad 9b 18 bd
       0.007756171 0.2973798 0.0021672184 -0.03725784
000250 7e 00 39 be 5c ce 19 bc 43 38 22 bc 28 30 d6 3d
       -0.18066594 -0.009387579 -0.009901109 0.10458404
000260 cf f2 64 be c1 3e 1a 3e f0 cc 53 bd 59 8c d1 bc
       -0.22358249 0.15063001 -0.051709116 -0.025579618
000270 55 02 46 3d 12 c7 ea 3c 6b b9 55 3e 70 0d b6 be
       0.048342068 0.028659377 0.20871513 -0.35557127
000280 a5 7e 07 bd 0e 3c a0 3e 17 cd 0d 3d 54 6a b2 3d
       -0.033079762 0.31295818 0.034619417 0.08711687
000290 f0 20 07 3e 35 1e af 3d b2 b7 af 3e c8 b9 10 3d
       0.13196158 0.085506834 0.34319836 0.035333425
0002a0 f1 c8 29 3e 85 1c af bd 9b 72 92 bd dc 96 88 bd
       0.1658056 -0.085503615 -0.071507655 -0.06669399
0002b0 c9 39 88 bd 90 16 2c be d0 02 2f be 7e 43 8e 3e
       -0.06651647 -0.16805482 -0.17090917 0.27785867
0002c0 39 eb 1b 3d 14 be b5 bd e9 e1 3d 3e 2f d0 f1 bd
       0.038066123 -0.08874145 0.18543209 -0.11807286
0002d0 ab 4c 13 3f c3 c3 e0 3d 6d 29 0c be 1c 5d 08 be
       0.5753886 0.109748386 -0.13687678 -0.13316768
0002e0 91 11 1d be 7c be 68 bd 60 a1 60 3e 93 53 22 be
       -0.15338732 -0.056822285 0.2193656 -0.15852194
0002f0 b0 3a 22 bd f6 08 4a 3d 1f 0c 66 bd fd eb 0f be
       -0.03960675 0.049324952 -0.056163903 -0.14054866
000300 22 81 ab 3d b5 3f f9 bd a0 f9 f0 3d ac 81 ee bd
       0.083742395 -0.12170354 0.11766362 -0.11645827
000310 f0 77 10 bd 07 48 ab 3e 52 ff 43 3e 75 99 fa bd
       -0.03527063 0.3345339 0.19140366 -0.12236301
000320 a4 b1 d6 3d f2 0e 54 3d 31 43 1c 3e ff e8 9b 3e
       0.10483101 0.051772065 0.15260006 0.304512
000330 ab 31 85 3d 4e 92 c2 3d c0 3f cc 3d 7f 97 93 3e
       0.06503614 0.09500562 0.09973097 0.2882652
000340 b9 0c ed 3a 36 23 81 3e 40 50 18 3e 2d 3f 67 3e
       0.0018085457 0.25222176 0.14874363 0.22582693
000350 4b 45 1f 3e 1c af 15 3c 26 83 e3 bd fc f9 1a 3e
       0.15553777 0.009135988 -0.11108999 0.15134424
000360 97 64 a9 be 16 e2 92 3e c9 07 5d be a7 7d 02 be
       -0.33084556 0.28688115 -0.21585001 -0.12743245
000370 8a 4f 51 3e 2e b6 1a bd d8 04 8d be 65 a1 ba bc
       0.20440498 -0.037771396 -0.27542758 -0.022782037
000380 14 7e 05 3d 74 2c c6 bd 1c b8 1f be 2e 6e 2f be
       0.03259094 -0.096764475 -0.15597576 -0.17131874
000390 f7 e8 12 3c 1c 14 4e bc 7d e5 21 bd 56 89 6d bd
       0.008966676 -0.012578037 -0.039525498 -0.057992302
0003a0 54 41 4c 3e 98 10 90 3e 6c 34 2a bd be 29 0c 3e
       0.19946796 0.2813766 -0.0415539 0.13687798
0003b0 32 2c b8 3e e8 3e 14 be 2f 34 36 bc 71 43 94 3d
       0.35971218 -0.14477122 -0.01112084 0.07239426
0003c0 7e 58 07 be 41 52 17 bc f4 e1 7b be b8 42 81 3d
       -0.13217351 -0.009235919 -0.24597913 0.06311554
0003d0 80 2f 97 3d d9 67 86 be bc 4a a8 3d 7b 5e 6f bc
       0.07382107 -0.26251104 0.082173795 -0.014609928
0003e0 6a 74 c6 3e 71 87 e9 3d bf 0f d2 3d 4b 22 4b bd
       0.38760692 0.114027865 0.102569096 -0.04959325
0003f0 c2 9f ed 3d 5b ba 2e 3e d7 eb 91 3c 34 c4 1a bd
       0.11602737 0.17063276 0.017812653 -0.03778477

fc3.bias f4 [51]
000000 36 31 9d 3f 17 df b1 3f fa e5 93 3f 95 64 35 3f
       1.2280643 1.3896207 1.1554558 0.708566
000010 15 fc 35 3e 10 b3 ba be a2 41 63 bf 24 ec b0 bf
       0.17771943 -0.3646474 -0.8877202 -1.3822064
000020 86 47 ed bf 66 9f 13 c0 27 23 2f c0 cc e9 48 c0
       -1.8537452 -2.306604 -2.7365205 -3.1392698
000030 03 bd 60 c0 28 ca 75 c0 4d e6 83 c0 16 e9 8a c0
       -3.5115364 -3.8404636 -4.121863 -4.340953
000040 c7 1e 90 c0 c1 43 94 c0 9a 74 97 c0 ea 59 9a c0
       -4.503757 -4.6332707 -4.7329836 -4.823476
000050 dc 08 9d c0 8c c7 9a c0 4a 58 99 c0 3a e6 96 c0
       -4.9073315 -4.8368587 -4.7920275 -4.715604
000060 e3 60 94 c0 b9 2e 92 c0 b0 02 90 c0 e9 2e 92 c0
       -4.636827 -4.5682034 -4.500328 -4.5682263
000070 cc c2 94 c0 c6 fa 96 c0 01 4b 98 c0 e2 a5 94 c0
       -4.648779 -4.718112 -4.7591558 -4.6452494
000080 0f 1d 91 c0 4e a3 90 c0 75 4c 96 c0 14 39 9a c0
       -4.534797 -4.5199347 -4.696833 -4.8194675
000090 eb b8 9d c0 d2 8a 9e c0 33 57 9c c0 01 ac 9c c0
       -4.928823 -4.954446 -4.8856444 -4.8959966
0000a0 e2 8d 9c c0 0e f0 96 c0 62 20 91 c0 f9 34 8e c0
       -4.8923197 -4.7168036 -4.535203 -4.4439664
0000b0 dd 3c 8c c0 77 ae 8d c0 b5 25 8b c0 a5 72 84 c0
       -4.3824296 -4.427547 -4.348353 -4.1389947
0000c0 da 00 84 c0 b7 17 97 c0 c2 bd 20 c1
       -4.125104 -4.721645 -10.046328
