checkpoints/checkpoint_critic_2_median_6.pth (torch, 87959 bytes, 5 tensors)

hidden1.weight f4 [128, 37]
0	0xbdb7b925	-0.089708604
1	0x3e8011be	0.25013536
2	0xbedef2cc	-0.43544614
3	0xbe614559	-0.2199911
4	0x3eb232a1	0.34804252
5	0x3f3df65b	0.74204034
6	0xbeed7d92	-0.46384865
7	0xbe58bc08	-0.21165478
8	0x3e93f41e	0.28897184
9	0xbe4b01c9	-0.198249
10	0x3e1e67da	0.15469304
11	0x3d43fec5	0.04785039
12	0xbe448ecb	-0.19195096
13	0xbe9de070	-0.30835295
14	0xbd8f0126	-0.06982641
15	0x3e430cbd	0.19047828
16	0xbe2dff8f	-0.16992019
17	0xbde12453	-0.109932564
18	0x3e816bb7	0.25277492
19	0xbe0521d9	-0.13001193
20	0x3cb003cc	0.021486185
21	0x3da2f957	0.07957714
22	0x3d35fdfd	0.044431675
23	0xbccf6c9c	-0.025320344
24	0x3d9a846b	0.07544788
25	0xbe672710	-0.22573495
26	0xbd4d7dec	-0.050168917
27	0x3f71fec2	0.94529355
28	0x3f408c51	0.75214106
29	0x3c2d4310	0.010575071
30	0xbf274035	-0.6533235
31	0xba888b00	-0.0010417402
32	0xbfe2adc9	-1.7709285
33	0xbd1d198a	-0.038354434
34	0xbde54c79	-0.111962266
35	0xbc698fce	-0.014255477
36	0x3e0def43	0.13860802
37	0xbea88502	-0.32913977
38	0xbebeb237	-0.37245342
39	0xbbe0ddb7	-0.006862368
40	0xbeda6174	-0.42652476
41	0xbe2211ec	-0.15827149
42	0x3eb5a93f	0.35480687
43	0xbdf11a6f	-0.1177262
44	0x3caba773	0.02095387
45	0xbe43e535	-0.19130404
46	0xbdd9e47b	-0.10639282
47	0xbe9c29f9	-0.30500773
48	0xbeae7cdc	-0.34079635
49	0x3c66be35	0.014083435
50	0xbd28ad23	-0.04118074
51	0xbe71175b	-0.23544066
52	0xbe17d3b6	-0.14826855
53	0x3da661d4	0.08124128
54	0xbee4e998	-0.44709468
55	0x3e8f37ac	0.27972162
56	0xbe2e0f5b	-0.16998045
57	0x3ebfd0f5	0.3746411
58	0xbe783337	-0.24238287
59	0xbd952af8	-0.07283586
60	0x3da1856f	0.078867786
61	0xbedeb1d5	-0.4349505
62	0xbdaca1f8	-0.084293306
63	0x3ec2a0e4	0.38013375
64	0x3f37bef5	0.7177575
65	0x3ea0e4a7	0.31424448
66	0xbc9d3bc0	-0.01919353
67	0xbf6b19df	-0.9183635
68	0x3d5534b0	0.0520522
69	0x4012d13d	2.294021
70	0x3e10629f	0.14100121
71	0xbe1a8887	-0.15091144
72	0x3e450596	0.19240412
73	0xbf1a0935	-0.601703
74	0xbe82b323	-0.25527295
75	0x3def377f	0.11680507
76	0xbecf7bcb	-0.40524134
77	0x3c6130b0	0.013744518
78	0x3eae3428	0.34024167
79	0x3dcedbe4	0.101005346
80	0xbe75abc6	-0.23991308
81	0x3e1fb6bb	0.1559705
82	0x3e17ed2a	0.14836565
83	0xbdfc72a8	-0.123265564
84	0x3dbe2e1e	0.0928614
85	0x3d69ca7a	0.057077862
86	0xbd53f8ec	-0.051751062
87	0x3c50d717	0.012746594
88	0x3e037dc8	0.1284095
89	0xbde9ef7f	-0.114226334
90	0xbee60ee5	-0.4493324
91	0xbe2eb83a	-0.17062464
92	0x3cf18e7f	0.029486893
93	0x3d6274f3	0.055287313
94	0xbdc6e0a7	-0.09710818
95	0xbe3d6c39	-0.18498315
96	0x3cebefe0	0.028800905
97	0xbe1d97a0	-0.15389872
98	0xbe1c74ce	-0.15278932
99	0xbd785bc3	-0.060634386
100	0xbf1e1e9e	-0.6176547
101	0x3e00b1f0	0.12567878
102	0x3d20b9e9	0.039239798
103	0xbd921da6	-0.07134561
104	0x3c417d80	0.011809707
105	0xbd16a764	-0.03678073
106	0xbfb77167	-1.4331483
107	0x3e371320	0.1787839
108	0xbdadf45d	-0.08493874
109	0x3c98290b	0.018574258
110	0x3e1572b0	0.14594531
111	0x3f338a9a	0.70133364
112	0x3d88ca16	0.0667917
113	0xbe258999	-0.1616577
114	0xbf07fd72	-0.531211
115	0xbee8f04a	-0.45495826
116	0x3f1cfd91	0.6132441
117	0xbe24e83c	-0.16104215
118	0xbe59cd38	-0.21269691
119	0x3dd4068c	0.10352811
120	0x3e3c293e	0.18375108
121	0x3ddd0e1b	0.10793706
122	0x3cb1575e	0.021648105
123	0x3de92c3a	0.11385389
124	0xbf88f237	-1.0698918
125	0x3ea425e2	0.32060152
126	0x3efce24c	0.493914
127	0xbe3cde26	-0.18444118
128	0xbe021704	-0.12704092
129	0xbec79df0	-0.38987684
130	0xbebcf4ab	-0.36905417
131	0x3d96b5ea	0.07358916
132	0xbe4cc7b2	-0.19998053
133	0x3dca8644	0.098888904
134	0xbdc5bdf2	-0.0965537
135	0x3cc5c3ce	0.024141219
136	0x3e724827	0.23660336
137	0x3e8bfbe8	0.27340627
138	0x3f52a095	0.8227628
139	0xbf1f10d0	-0.6213503
140	0xbdbaf218	-0.09128207
141	0xbf7ed1de	-0.9953898
142	0xbd3d380e	-0.046196036
143	0xbf5e555b	-0.8684899
144	0x3e24cca6	0.16093692
145	0x3e1ea92d	0.15494223
146	0x3ea5d9df	0.32392785
147	0x3e1032b6	0.14081845
148	0x3d54ed5a	0.05198417
149	0x3e65a046	0.2242442
150	0xbe07113f	-0.13190173
151	0xbe2f8d9e	-0.17143866
152	0x3c02582d	0.007955593
153	0x3be0e26c	0.006862929
154	0x3e885461	0.26626876
155	0x3e0ad3bc	0.13557333
156	0xbe77c8be	-0.24197671
157	0xbad9a284	-0.001660422
158	0x3e07a9eb	0.13248412
159	0xbda0325a	-0.07822104
160	0x3dcfa89e	0.10139583
161	0xbe28425a	-0.16431561
162	0x3caf2677	0.021380646
163	0x3db0956c	0.0862225
164	0x3d814035	0.06311075
165	0xbe11a3a6	-0.14222583
166	0x3f3e7495	0.7439664
167	0xbd682393	-0.05667455
168	0x3e6cf259	0.23139323
169	0x3e0920e0	0.13391447
170	0xbcfa5ea3	-0.030562704
171	0xbd9692cf	-0.0735222
172	0x3d898674	0.06715098
173	0xbd4392e5	-0.04774751
174	0x3bbb59f1	0.005717509
175	0x3e5a965d	0.21346422
176	0xbe87b1b2	-0.26502758
177	0x3c0e0610	0.008668438
178	0xbef1d99c	-0.47236335
179	0xbe116950	-0.1420033
180	0x40a54dcc	5.1657467
181	0xbcd45d5a	-0.02592342
182	0xbd6fa757	-0.058509197
183	0xbde68136	-0.11255114
184	0x3e1a6f3a	0.15081492
185	0x3f236415	0.6382459
186	0x3f3ca0a2	0.73682606
187	0x3f3e610d	0.7436684
188	0xbe9c5282	-0.30531698
189	0x3ec566c0	0.38554955
190	0xbd43bb37	-0.047785964
191	0xbe998942	-0.29987532
192	0xbe90d662	-0.2828856
193	0xbf11a17e	-0.5688704
194	0xbea9609c	-0.3308152
195	0x3e532d29	0.20622696
196	0xbe6ab310	-0.2291987
197	0xbdbead34	-0.093103796
198	0xbd6ae0bd	-0.057343233
199	0x3e8bb2f3	0.27284965
200	0xbe5d4dc4	-0.21611696
201	0x3e4c44ff	0.19948195
202	0xbde852b1	-0.11343897
203	0x3dfded94	0.1239883
204	0xbe0a6667	-0.13515626
205	0x3dc761b3	0.097354315
206	0xbe29bfd9	-0.1657709
207	0xbd857a5f	-0.06517481
208	0xbee1ac66	-0.44076842
209	0x3e06923f	0.13141726
210	0xbe43d1ce	-0.19123003
211	0xbe133f64	-0.1437965
212	0x3edbfa4b	0.42964396
213	0xbec149cd	-0.37751618
214	0x3d9e04f2	0.07715787
215	0xbf3302fa	-0.69926417
216	0x3e0cad47	0.13737975
217	0xc00c76f8	-2.1947613
218	0x3bd87f45	0.0066069686
219	0xbded605e	-0.11590646
220	0xbf518b1b	-0.81852883
221	0xbeb16158	-0.3464458
222	0x3f1cda5b	0.61270684
223	0x3f5665c3	0.83749026
224	0x3f014029	0.50488526
225	0xbf3f92e8	-0.74833536
226	0x3ece8dff	0.4034271
227	0xbe1648de	-0.14676234
228	0x3ea18bc1	0.31551936
229	0xbd40d8d1	-0.047081772
230	0x3d158de9	0.03651229
231	0xbf5d8bc8	-0.86541414
232	0xbe079130	-0.13238978
233	0x3ebaa13c	0.36451137
234	0x3d5b6a2e	0.053568058
235	0xbf1ba4ef	-0.60798544
236	0xbf163329	-0.58671814
237	0xbd6ef3fd	-0.058338154
238	0xbdd2c816	-0.102920696
239	0x3e261ffc	0.16223139
240	0xbe783787	-0.24239932
241	0xbe96a3bb	-0.2942179
242	0xbe548ec1	-0.20757581
243	0xbc9a2bf8	-0.018819794
244	0xbd53371c	-0.05156623
245	0xbe708b16	-0.23490557
246	0xbe179f5c	-0.14806885
247	0xbe4217b8	-0.1895436
248	0xbc1066ba	-0.008813554
249	0x3f88807c	1.066421
250	0xbe844d9a	-0.25840455
251	0xbe136072	-0.1439226
252	0xbf8dfef2	-1.1093428
253	0x3dc5c58e	0.09656821
254	0xbea5e311	-0.323998
255	0xbbeed546	-0.007288608

hidden1.bias f4 [128]
0	0xbf50edca	-0.8161284
1	0xbf5f81a4	-0.8730719
2	0xbe456023	-0.19274954
3	0xbf7ef39e	-0.9959048
4	0xbee60d86	-0.44932193
5	0xbede7623	-0.43449506
6	0xbf8a63ea	-1.0811741
7	0xbfa67838	-1.3005438
8	0xbf1cc0f5	-0.6123193
9	0xbe35a3ca	-0.17738262
10	0xbeb978c9	-0.36224964
11	0x3eb85348	0.3600104
12	0xbf083257	-0.5320181
13	0xbf2417ed	-0.6409901
14	0xbe94500f	-0.2896733
15	0xbf963766	-1.1735656
16	0xbfae0640	-1.3595657
17	0xbf806dd2	-1.0033514
18	0xbf85b421	-1.0445596
19	0xbf7f8ad3	-0.99821204
20	0xbf093bba	-0.5360676
21	0xbf4ad099	-0.79224545
22	0xbf4ae769	-0.79259354
23	0xbf39f579	-0.72640187
24	0x3f2f2362	0.68413365
25	0xbf1f8d02	-0.62324536
26	0xbf0f12ae	-0.5588788
27	0xbf4378c2	-0.76356137
28	0xbf93d87a	-1.1550438
29	0x3eb176c1	0.34660915
30	0xbf57a807	-0.84240764
31	0xbf1e0d12	-0.61738694
32	0xbe967710	-0.29387712
33	0xbf8a3962	-1.0798762
34	0xbf7537e4	-0.9578841
35	0xbf80767d	-1.003616
36	0xbf290946	-0.66029775
37	0xbf3776c2	-0.71665585
38	0xbf54eeab	-0.8317668
39	0xbf6c84e2	-0.92390263
40	0xbf1fd2ab	-0.6243083
41	0xbf621267	-0.8830933
42	0xbf86b0f6	-1.0522754
43	0xbf9b0a84	-1.2112584
44	0xbef8ad66	-0.48569793
45	0xbf629594	-0.8850949
46	0xbfa3425d	-1.2754627
47	0xbec75a46	-0.3893606
48	0xbf4eb909	-0.8075109
49	0xbf7766cd	-0.96641237
50	0xbf856d04	-1.0423894
51	0xbf8d9e97	-1.1064023
52	0xbf091540	-0.5354805
53	0xbf43a5e4	-0.76425004
54	0xbf96072d	-1.172094
55	0xbf7e38f7	-0.9930567
56	0xbf60a755	-0.8775533
57	0xbf5c6c39	-0.86102635
58	0xbf39c70a	-0.72569335
59	0xbf8c8e71	-1.098097
60	0xbe86ab74	-0.26302683
61	0xbf74844d	-0.95514375
62	0xbf314a32	-0.6925384
63	0xbf5d4c0e	-0.86444175
64	0xbf286ddd	-0.6579264
65	0xbe9b328c	-0.30312002
66	0xbf0f4cc7	-0.5597653
67	0xbf4666e0	-0.77500725
68	0xbe0ecd63	-0.13945536
69	0xbf0a0e9f	-0.5392856
70	0xbf0c46ee	-0.5479573
71	0xbf7efb86	-0.99602544
72	0xbf27fbee	-0.6561879
73	0xbf5785a5	-0.841883
74	0xbe4406ac	-0.1914317
75	0xbf872313	-1.0557579
76	0xbebb6b9f	-0.36605546
77	0xbf2a37d8	-0.6649146
78	0xbf2ffbe6	-0.6874374
79	0xbf8fabf8	-1.1224356
80	0xbee43a51	-0.44575742
81	0xbf68f835	-0.91003734
82	0xbf9e8b5a	-1.2386277
83	0xbf34de15	-0.7065137
84	0xbef6a6c3	-0.48174104
85	0xbf0e1a40	-0.55508804
86	0xbeb69353	-0.35659274
87	0xbf893f95	-1.0722529
88	0x3f859a3e	1.0437696
89	0xbef7505d	-0.483035
90	0xbfc1f8ef	-1.5154094
91	0xbf36aaf8	-0.7135463
92	0xbf098048	-0.53711367
93	0x3bb6556e	0.005564383
94	0xbf531c99	-0.8246551
95	0xbf0e84e8	-0.5567155
96	0xbf88f2f2	-1.0699141
97	0xbedbfce8	-0.4296639
98	0xbf421681	-0.7581559
99	0xbec35cc3	-0.3815671
100	0xbef4b4a1	-0.4779406
101	0xbf589deb	-0.84615964
102	0xbf89342f	-1.071905
103	0xbf36b66d	-0.7137211
104	0xbf96f063	-1.179211
105	0xbedeaf5f	-0.43493173
106	0xbf7e99a3	-0.9945318
107	0xbf2f9891	-0.6859217
108	0xbf000ee4	-0.5002272
109	0xbf3decb8	-0.7418933
110	0xbf230e88	-0.6369405
111	0xbf9e2b2e	-1.2356927
112	0xbf954595	-1.166186
113	0xbef97b38	-0.4872682
114	0xbf4a8108	-0.79103136
115	0xbea29064	-0.31750786
116	0x3f6e8466	0.93170774
117	0xbec6816c	-0.38770616
118	0xbf58af24	-0.84642243
119	0xbfa43c1a	-1.2830842
120	0xbf9b042a	-1.2110646
121	0xbf721c7a	-0.945747
122	0xbf70ac32	-0.9401275
123	0xbf790e2d	-0.97287256
124	0xbf49e773	-0.7886879
125	0xbf4f6c8b	-0.81025
126	0xbee1f502	-0.4413224
127	0xbf3d9dbc	-0.7406881

hidden2.weight f4 [128, 128]
0	0xbe1a1cdd	-0.15050073
1	0xbf37b4d5	-0.717603
2	0x3e1f67b0	0.15566897
3	0x3ebf4b1b	0.37361988
4	0x3b64227a	0.0034810589
5	0xbf548345	-0.830128
6	0x3c2bb9f5	0.010481347
7	0xbd3cd238	-0.046098918
8	0xbd3119d7	-0.043237533
9	0xc0053de6	-2.081903
10	0xbec69fcd	-0.38793793
11	0xbe640b7f	-0.2227001
12	0x3f040b0b	0.5157935
13	0xbe8e27c4	-0.27764714
14	0xbdb1bb34	-0.08678284
15	0x3e4b7832	0.1987007
16	0xbf2dfa66	-0.679602
17	0xbf12b3aa	-0.57305396
18	0x3ea6b8c9	0.32562855
19	0xbe087d46	-0.13329038
20	0xbf79f5ad	-0.97640496
21	0xbed1a039	-0.40942553
22	0xbdab2d4b	-0.08358248
23	0x3ebb0802	0.36529547
24	0xbe20938f	-0.15681289
25	0xbdb0d192	-0.08633722
26	0x3e2a1b73	0.16612034
27	0xbf6201e1	-0.88284117
28	0x3d5f9f83	0.05459548
29	0xbecb5d35	-0.3971955
30	0x3be9ee71	0.00713902
31	0x3c6ae519	0.014336848
32	0xbf168a5a	-0.5880486
33	0x3ea83091	0.32849553
34	0x3e801f15	0.25023714
35	0x3e1a7f3b	0.15087597
36	0xbd0296a8	-0.03188196
37	0xbe558db4	-0.20854837
38	0xbed319c6	-0.412306
39	0xbe4bab20	-0.19889498
40	0xbeaae61a	-0.3337868
41	0xbf1a1e0c	-0.602021
42	0xbf120de4	-0.57052445
43	0xbce3618c	-0.027756475
44	0xbe5b8aaf	-0.21439622
45	0xbef63975	-0.4809071
46	0x3e3274ec	0.17427415
47	0x3eae3bb4	0.34029925
48	0xbf3fd452	-0.7493335
49	0xbe13f3dd	-0.14448495
50	0xbe07042d	-0.13185187
51	0xbf26c303	-0.65141314
52	0x3da180bb	0.078858815
53	0xbe8f6431	-0.28006127
54	0xbeb7fbe6	-0.3593437
55	0x3d93515f	0.07193255
56	0x3f0f7b42	0.5604745
57	0x3e558f5a	0.20855466
58	0xbe7cc823	-0.24685721
59	0xbeff5e13	-0.4987646
60	0xbea80415	-0.32815614
61	0xbfb8e5e8	-1.4445162
62	0xbe89b536	-0.26896065
63	0xbf5bdeb5	-0.858867
64	0x3e49aa05	0.19693764
65	0xbeac6f40	-0.33678627
66	0x3ee6d6ec	0.45085847
67	0xbdd5ec07	-0.10445409
68	0xbf1af7af	-0.60534185
69	0x3ee9e3c8	0.45681596
70	0xbe4cf55c	-0.20015472
71	0xbf0e1489	-0.55500084
72	0xbf7893c7	-0.9710049
73	0x3ea7e950	0.3279519
74	0xbe05177e	-0.12997243
75	0x3ee45528	0.4459622
76	0x3e13fa84	0.14451033
77	0xbe3a3d43	-0.18187432
78	0x3b0141d8	0.0019723084
79	0xbe95166a	-0.29118663
80	0xbf6c9919	-0.9242111
81	0xbe610484	-0.21974379
82	0xbe78bf51	-0.24291731
83	0xbe81ea23	-0.25373945
84	0xbe561ced	-0.20909472
85	0x3eae596b	0.34052595
86	0xbf20d09a	-0.628183
87	0x3e0a3fe3	0.13500933
88	0xbeac6b80	-0.33675766
89	0xbf468f12	-0.7756206
90	0xbe14dc14	-0.14537078
91	0xbeeead65	-0.46616665
92	0x3ee1e148	0.44117188
93	0x3da64603	0.081188224
94	0x3da66cf9	0.08126254
95	0xbdd3d73d	-0.10343788
96	0xbe589c05	-0.21153267
97	0xbf9f58b8	-1.244895
98	0xbf0b2d4a	-0.5436598
99	0xbe91c056	-0.28467053
100	0xbe2cff40	-0.16894245
101	0xbd826f59	-0.06368894
102	0x3d9e8db0	0.077418685
103	0x3c6f162f	0.014592691
104	0x3f0a4dda	0.5402504
105	0xbec278ed	-0.37982884
106	0x3dd28aec	0.102804035
107	0x3d536344	0.05160834
108	0x3eaedb4a	0.3415168
109	0x3f18c6e1	0.59678465
110	0xbfb02b66	-1.3763244
111	0xbcca7017	-0.024711652
112	0x3e3eb68f	0.18624328
113	0xbee9eb41	-0.45687297
114	0xbfb57506	-1.4176338
115	0x3dca5113	0.09878745
116	0xbe757dac	-0.23973721
117	0x3ef6ffd9	0.4824207
118	0xbf80eedf	-1.0072898
119	0x3d9f306f	0.0777291
120	0x3daec5e7	0.085338406
121	0x3e9e9f42	0.3098088
122	0x3d91c1d1	0.07117046
123	0x3e598d38	0.21245277
124	0xbe095f72	-0.13415316
125	0xbde5a689	-0.11213405
126	0xbddeb4ae	-0.10874306
127	0x3f073882	0.528206
128	0xbd27148b	-0.040791076
129	0x3d5a858d	0.05335002
130	0xbe066514	-0.13124496
131	0xbdf403b6	-0.1191477
132	0xbb89a1ce	-0.004200197
133	0xbe568586	-0.20949373
134	0x3af601b0	0.0018768813
135	0x3d960cb5	0.073266424
136	0xbe41dbd5	-0.18931516
137	0xbe16d0f2	-0.14728144
138	0xbd9a9de6	-0.07549648
139	0xbb32ffe2	-0.0027313163
140	0xbd96d892	-0.07365526
141	0xbd318731	-0.04334182
142	0x3cc50cf0	0.02405402
143	0xbcb8d962	-0.022564594
144	0xbd8e6ee4	-0.069547445
145	0xbd83bc3a	-0.06432386
146	0xbdbfaa12	-0.0935861
147	0x3d10ac3f	0.035320517
148	0x3ceb8ed6	0.028754633
149	0xbd90018b	-0.07031544
150	0xbdb97aa9	-0.09056599
151	0xbc35e73f	-0.011102497
152	0xbd939366	-0.072058484
153	0xbdb5bbf0	-0.08873737
154	0x3c6fab1c	0.014628198
155	0xbdf5e637	-0.120068006
156	0xbd11c8ff	-0.035592075
157	0xbd0969cf	-0.033548173
158	0xbdd3390d	-0.10313616
159	0xbcc732a4	-0.02431614
160	0x3caa6cb6	0.02080379
161	0xbcc2502b	-0.023719868
162	0x3d394017	0.045227136
163	0x3b225400	0.0024769306
164	0xbbcfe43e	-0.0063443473
165	0x3d63745f	0.055530902
166	0xbd5d412d	-0.054017235
167	0xbd198e5c	-0.03748928
168	0x3daff475	0.08591548
169	0x3bbe204d	0.0058021904
170	0xbda841eb	-0.08215698
171	0xbd85d24c	-0.065342516
172	0xbdb6f0c1	-0.08932639
173	0x3b3d6f27	0.0028905363
174	0x3d7c370f	0.061575945
175	0xbd98975e	-0.07450746
176	0xbd3dbba6	-0.046321534
177	0x3d92fa33	0.07176628
178	0xbd18fd2d	-0.037350822
179	0xbdd94eae	-0.1061071
180	0xbd226259	-0.039644573
181	0xbd296fd1	-0.041366402
182	0xbe40fa33	-0.18845443
183	0xbdd1d4a6	-0.102456376
184	0xbd01dcd8	-0.031704754
185	0xbca24fc8	-0.019813433
186	0xbd7dddcc	-0.0619791
187	0x3b92e4bd	0.004482834
188	0xbd81c1b0	-0.06335771
189	0x3da0efab	0.07858213
190	0xbe0161f8	-0.12635028
191	0xbdcf1abf	-0.10112523
192	0xbe15c81c	-0.14627117
193	0xbc8e497f	-0.01736903
194	0x3dadb3e9	0.08481581
195	0xbccb2bc3	-0.02480114
196	0xbc76973d	-0.015050706
197	0xbcda32ad	-0.026635492
198	0xbd0c64c7	-0.034275796
199	0xbd855f26	-0.06512289
200	0xbdb841fb	-0.0899696
201	0xbd5a2771	-0.05326027
202	0xbdb3f30a	-0.087865904
203	0xbdde1e48	-0.108456194
204	0x3d2ceb6a	0.042216696
205	0xbd40c717	-0.047064867
206	0xbdfd6cb5	-0.1237425
207	0xbe204564	-0.1565147
208	0xbc16bc68	-0.009200193
209	0xbe10b82a	-0.14132753
210	0xbddf2058	-0.10894841
211	0xbd8d4d05	-0.06899456
212	0xbdc003d3	-0.093757294
213	0xbdcf896c	-0.10133633
214	0xbde39c03	-0.11113741
215	0x3d2bc961	0.041940097
216	0xbdfdfb6e	-0.12401472
217	0xbcf966bb	-0.030444494
218	0x3c8adc3f	0.016950725
219	0xbc71b14e	-0.014751745
220	0xbd5df6af	-0.054190334
221	0xbdb4925c	-0.08816978
222	0xbd9d818f	-0.07690727
223	0xbd1e4d60	-0.03864801
224	0xbdb3196b	-0.087450825
225	0xbdab2f99	-0.08358688
226	0xbd44c8dd	-0.04804312
227	0xbdab6ba6	-0.08370142
228	0x3caf3cb9	0.02139126
229	0xbc9d6ec4	-0.019217856
230	0xbcc89977	-0.02448724
231	0x3cc7593d	0.024334544
232	0xbc938fc9	-0.018012898
233	0xbd091ac4	-0.03347279
234	0xbe082638	-0.1329583
235	0xbe2abc16	-0.16673312
236	0xbd32a7c8	-0.04361704
237	0x3db6812d	0.08911357
238	0xbd779428	-0.060444027
239	0xbda52ef6	-0.08065598
240	0xbd8ca089	-0.06866557
241	0xbdbf9bf2	-0.09355916
242	0x3c9b59bb	0.018963685
243	0xbd342faa	-0.04399077
244	0xbd86c6f1	-0.06580914
245	0xbc639d73	-0.013892519
246	0xbdc6ec9d	-0.09713099
247	0xbd448c34	-0.04798527
248	0xbcd0e1da	-0.02549832
249	0x3e0b574a	0.13607517
250	0xbd4bb39e	-0.049731843
251	0xbc6bc034	-0.0143890865
252	0x3cd5626a	0.026047904
253	0xbd11e29a	-0.035616495
254	0x3cdb5709	0.0267749
255	0xbdabe4f0	-0.08393276

hidden2.bias f4 [128]
0	0xbe40f78e	-0.18844435
1	0x3c1b6528	0.009484567
2	0xbdedf043	-0.11618092
3	0xbe197337	-0.14985357
4	0x3c993bd6	0.01870529
5	0xbdb4bebb	-0.088254414
6	0xbe27478d	-0.16335888
7	0xbdb550dd	-0.08853314
8	0xbd8e973d	-0.0696244
9	0xbd9be6b5	-0.07612363
10	0xbd8667d0	-0.065627694
11	0xbd4ea88c	-0.050453708
12	0x3f303bae	0.68841064
13	0xbcf1a154	-0.029495873
14	0xbe2c0dad	-0.16802092
15	0x3fe89810	1.8171406
16	0xbce33585	-0.027735481
17	0x3c8b308a	0.016990919
18	0xbd971e40	-0.073788166
19	0xbab01d1b	-0.0013436408
20	0xbeabe416	-0.33572453
21	0xbf4483d9	-0.76763684
22	0xbdce7ae2	-0.10082032
23	0xbe0ccce4	-0.13750035
24	0xbe1ea3f1	-0.15492226
25	0xbcc9a3f9	-0.024614321
26	0xbdc37a8a	-0.09544857
27	0x3ac650b0	0.0015130248
28	0x3f508cb1	0.8146468
29	0xbdf3a7ba	-0.11897226
30	0xbe16d9bb	-0.14731495
31	0xbe1d823d	-0.15381713
32	0xbce17821	-0.027523102
33	0xbdcbe98a	-0.099566534
34	0xbe7423f7	-0.23841844
35	0xbdd9cc3b	-0.10634657
36	0x3f48f5c0	0.78499985
37	0xbce86d17	-0.02837233
38	0xbc5e606f	-0.013572796
39	0x3f8ccf05	1.1000677
40	0xbf4bcb52	-0.7960712
41	0xbdedf5bd	-0.116191365
42	0xbe177e32	-0.14794233
43	0xbe00d6e2	-0.12581971
44	0xbd0c84ce	-0.03430634
45	0x3f3b5976	0.7318338
46	0xbe0f3d15	-0.13988145
47	0x3fefd400	1.8736572
48	0xbdcfa718	-0.101392925
49	0x3ed98d5e	0.42490667
50	0xbc7b8381	-0.015351177
51	0xbcb012ca	-0.021493334
52	0xbe00b7ef	-0.12570165
53	0xbe190f73	-0.149473
54	0xbdb58427	-0.08863097
55	0xbde69129	-0.11258156
56	0xbdabb5ca	-0.08384283
57	0xbe14ef25	-0.14544351
58	0xbdd9253b	-0.10602804
59	0x3f393528	0.72346735
60	0xbd8b8cfa	-0.068139985
61	0xbeb5ee05	-0.35533157
62	0xbd938792	-0.07203592
63	0xbd7c6215	-0.061616976
64	0xbde84575	-0.11341373
65	0xbd866453	-0.06562104
66	0xbd7bab64	-0.061442748
67	0xbdf594c2	-0.11991264
68	0x3fd4f2c8	1.6636591
69	0xbde67776	-0.11253254
70	0xbddb8dbf	-0.10720395
71	0xbe4127d9	-0.18862857
72	0xbd0d2163	-0.03445567
73	0xbdd6fa5e	-0.104969725
74	0xbdcd969b	-0.10038491
75	0x3f3db8c0	0.7411003
76	0x3d636e00	0.055524826
77	0xbf48d4f2	-0.7844993
78	0x3f1a516a	0.6028048
79	0xbe00e6b6	-0.12588009
80	0xbdb76769	-0.08955271
81	0xbf5e2ff5	-0.86791927
82	0xb9e9adea	-0.000445708
83	0x3f33accc	0.7018554
84	0xbd3ad41f	-0.04561245
85	0xbe0500a8	-0.12988532
86	0x3bbe5c4d	0.005809343
87	0xbd8c2069	-0.06842119
88	0xbdfaf0d1	-0.12252963
89	0xbc196587	-0.009362585
90	0xbc05ac3d	-0.008158741
91	0xbd8ca2e9	-0.0686701
92	0xbde5aec1	-0.11214972
93	0xbcf13dab	-0.02944835
94	0xbe25b520	-0.16182375
95	0xbe1d846c	-0.15382546
96	0xbe0ddd8c	-0.13854045
97	0xbe0d2215	-0.13782533
98	0xbe226165	-0.15857466
99	0xbd98149d	-0.07425807
100	0x3cd3970b	0.025828859
101	0xbe1c8088	-0.15283406
102	0x3ca47cbf	0.020079015
103	0xbe0bbb6e	-0.13645718
104	0xbdb39861	-0.08769298
105	0xbdcac802	-0.0990143
106	0xbe09fd07	-0.13475429
107	0xbd990fe1	-0.07473732
108	0xbe41f018	-0.18939245
109	0xbcd7f785	-0.026363144
110	0x3ec0d536	0.37662667
111	0xbd8332e3	-0.0640619
112	0xbd88db76	-0.06682484
113	0xbdfc7324	-0.12326649
114	0xbcda8d6b	-0.026678761
115	0xbdd22a38	-0.10261959
116	0xbd387324	-0.04503168
117	0xbe14595e	-0.14487216
118	0xbe1515a5	-0.14559038
119	0xbda239da	-0.079211906
120	0xbb94ef3c	-0.0045451205
121	0xbf481224	-0.7815268
122	0x3b1493ad	0.002267103
123	0xbb9ed946	-0.0048476784
124	0x3c42ed79	0.011897438
125	0xbef33d57	-0.47507736
126	0x3d05f0f8	0.03270051
127	0xbd9d9411	-0.07694257

out.weight f4 [1, 128]
0	0xbc3d4928	-0.011553086
1	0xb9fbfcac	-0.00048062706
2	0x3bbb6e3c	0.005719928
3	0x3bb577bf	0.0055379565
4	0x39faab33	0.0004781127
5	0x3c1c739c	0.009549048
6	0x3c1d829d	0.00961366
7	0x3ccac764	0.02475328
8	0x3c33ccb9	0.010974103
9	0x3c63bc33	0.013899851
10	0xbb1a5f3e	-0.0023555304
11	0x3c756450	0.01497753
12	0x3b8d4299	0.0043109176
13	0xba4b3178	-0.0007751207
14	0xbd46e34a	-0.048556603
15	0x3d55f352	0.052234
16	0xbc24876c	-0.010042053
17	0x3b104934	0.0022016289
18	0x3c348f99	0.0110205645
19	0x3c4ae7ea	0.012384394
20	0x3cb50ef7	0.022101862
21	0xbd76f6fa	-0.06029413
22	0xbcd51265	-0.026009748
23	0x3ceb25cb	0.028704545
24	0xbc1806ec	-0.009278994
25	0xbc4f69a3	-0.012659463
26	0x3c6b72d0	0.014370635
27	0xbba64ced	-0.0050750882
28	0x3cee10dc	0.029060774
29	0x3ca1af90	0.019737035
30	0x3ccadad3	0.024762547
31	0x3b723d40	0.0036962777
32	0xbb267e79	-0.0025404973
33	0xbce253e0	-0.027627885
34	0xbd521dcd	-0.05129795
35	0xbc0f0c6a	-0.008730987
36	0x3caee972	0.02135155
37	0xbc030166	-0.007995939
38	0x3c58a878	0.01322376
39	0xbd3d159d	-0.04616319
40	0xbcd3c642	-0.025851373
41	0xbcbf7a68	-0.023373798
42	0x3bd76656	0.0065734787
43	0x3c647e3e	0.013946114
44	0xbc32f8a2	-0.0109235365
45	0x3ce13329	0.027490215
46	0xbac0bcf5	-0.0014704751
47	0x3d220958	0.039559692
48	0xbc6fcc28	-0.014636077
49	0xbb69c295	-0.0035668958
50	0xbc19a802	-0.009378435
51	0x3b9e544f	0.0048318277
52	0xbc22a9b5	-0.009928157
53	0xbcb5193e	-0.022106763
54	0x3bbf55e5	0.005839097
55	0xbc0376ee	-0.0080239605
56	0x3c9381ff	0.018006323
57	0xbaca6169	-0.0015440407
58	0xbd6087b1	-0.054816905
59	0xbd948b38	-0.07253116
60	0x3c612823	0.0137424795
61	0x3c95fb17	0.018308206
62	0xbca708e8	-0.020389989
63	0xbcad8ca0	-0.02118522
64	0xbca2eae9	-0.019887405
65	0xbc851c9e	-0.016248997
66	0x3c8394e0	0.0160622
67	0x3b1ad56d	0.0023625747
68	0x3ddcb00f	0.10775768
69	0x3cd6a7a5	0.026202986
70	0xbb8c7d32	-0.0042873854
71	0x3aa90340	0.0012894645
72	0xbc9c9607	-0.019114507
73	0xbcadffec	-0.021240197
74	0x3c0cfaa7	0.008604682
75	0xbd3e04b3	-0.0463912
76	0x3d1dc27d	0.038515557
77	0x3c44b123	0.012005123
78	0xbd949834	-0.07255593
79	0x3c72e980	0.014826179
80	0xbbbf9f4e	-0.005847848
81	0xbd576f14	-0.052596167
82	0x3c21f79d	0.009885696
83	0x3c055a94	0.008139271
84	0xbbfa2f38	-0.0076350234
85	0xbc43c476	-0.011948695
86	0xbbf29216	-0.0074026687
87	0xbc4675e7	-0.012113071
88	0x3cfcc661	0.030856313
89	0x3c1be5c1	0.009515227
90	0x3c829351	0.015939387
91	0xbc0cfb98	-0.0086049065
92	0xbbf4b76f	-0.007468156
93	0x3c63e4f4	0.013909567
94	0x39f3a9ca	0.00046475074
95	0xbb4c5dc3	-0.0031183816
96	0x3cbb6328	0.02287443
97	0xbc81ec26	-0.015859675
98	0xbc2ff450	-0.010739401
99	0x3cf9e6df	0.030505596
100	0xbc791679	-0.015203112
101	0x3c47e47e	0.012200473
102	0x3cca3c47	0.024686946
103	0x3c061d39	0.008185678
104	0x3cb9bde2	0.022673551
105	0x3c8220db	0.015884807
106	0x3a3e84b7	0.0007267701
107	0x3cfe477c	0.031039946
108	0xbcb8575a	-0.02250259
109	0xbb06d12a	-0.002057145
110	0xbc710bb0	-0.014712259
111	0x3cc77b33	0.024350738
112	0xbcdecfc5	-0.027198682
113	0x3c089efc	0.008338686
114	0x3c7b88a9	0.015352407
115	0xbbabb347	-0.0052398774
116	0x3d510f84	0.051040187
117	0x3887a582	6.46813e-05
118	0xbb83bb67	-0.004020143
119	0x3cd5796f	0.02605888
120	0x3ccd4cc9	0.025061028
121	0xbce39fbd	-0.02778613
122	0x3ca2e762	0.019885723
123	0xbc38c6da	-0.011277879
124	0x3b4b737c	0.0031044176
125	0xbd180766	-0.03711643
126	0x3d0a9786	0.03383591
127	0xbc70e3bc	-0.014702734
