checkpoints/checkpoint_critic_2_mean_4.pth (torch, 87959 bytes, 5 tensors)

hidden1.weight f4 [128, 37]
00000000: 766c 0b3f 389b 123f 825a d73e 5493 f1be
00000010: 411a 5dbc e080 553f 5d78 293b a682 0fbc
00000020: 88f2 3abe 57f6 82be ba20 98bc 9bff 803d
00000030: 4f4f b63d a83d 23bf f078 10bf a9c3 21bf
00000040: b690 4ebe 353f 77bc 13d0 9e3e 0f97 023e
00000050: dfa3 853c a3ef 04be 7162 f0bd 0135 ccbd
00000060: baf4 45be 9034 353b 012e 9f3e ba12 8e3e
00000070: fefb a63e 8f5e 003e 53e4 12bf cd48 21be
00000080: 7019 8a3e 9ce5 6cb9 46eb f2bd 53a5 bdbd
00000090: 659a 09be 7543 8c3d eac7 203e 3d0a 8ebe
000000a0: c510 33be f80e 613e 9132 66be 91b3 62be
000000b0: ed09 823d f01b a13c 3dac 62be 85c4 5cbe
000000c0: edf2 4f3e da53 76be ad56 923b b752 f43e
000000d0: dbe0 7e3e 3631 fa3d 3332 de3e a3af 8b3d
000000e0: 0ed4 7d3e 6ab3 83bd 6d07 693e 6b0b 0a3e
000000f0: a943 52bd e9f4 ecbd 381c 07bc da1e 9c3e
00000100: 46e9 293f 7d03 0fbe 2816 dcbc 77cd 34bf
00000110: 441c e3bd 98f8 2dc0 5231 ea3d a44f 5cbe
00000120: 16d6 153e 3888 1f3e f652 71be 172d 6ebd
00000130: 4441 a13d 9cc4 f03d 631d 543e 1bc3 193f
00000140: 5ba2 09be c2bf fb3d deb9 7d3e be2e ddbe
00000150: 30b7 24bd 2ed4 99be b6cb 183c 63a0 a03e
00000160: 18e3 7f3e 6a51 96bd c99b ce3e 5a68 a43d
00000170: 615d 063f 45d7 cdbe 6ef5 8dbd 1d0c cc3b
00000180: 88d6 1d3d 745b b4bd a190 0b3e 92dc 293e
00000190: e46a 56be 03e1 653e 201c a8bb eae9 ce3d
000001a0: ad4e 26bd b528 98bd 0fdb 8040 dc26 41be
000001b0: 0dd6 60be ccf5 6e3e f7f2 8ebe da2d 763e
000001c0: 215a 5e3e 338d a5be a2cb 25bf 9869 5e3f
000001d0: a5ab 843e 8f77 bebe 79d9 d03e b5fe 4f3f
000001e0: 2462 58bf 2b4a e9bd 3be7 403d 28de 4bbe
000001f0: eef0 3cbe 1bd6 693e 986b 933e 846a e9be
00000200: 75c8 d2be 55eb 243d 933c a8be 7caf c93d
00000210: ec3f c7bc 214f 07be 751a 863e ebb1 63be
00000220: 43de ad3e 9c38 0a3e 8ce3 a13f d597 b7bc
00000230: 78c1 513d eb93 93bf 8971 21be 973f 873f
00000240: db66 ea3e 0eb7 37bd e1e2 383f 6fc9 aebd
00000250: c712 113f aabe b43e d2b8 863e d1d1 1fbf
00000260: b40a 333f 1665 ff3d ec0d 07be 8a40 7b3a
00000270: 05e9 7fbe b2e6 75be 8bf2 8b3e b77c 003e
00000280: 02c1 c03e 40ae 58be c28d f73d a76a e53e
00000290: 0418 323f 2c39 943e 374a ca3d 5792 f53d
000002a0: 16d2 80be 9c7e 31bd fd7b 443e 7396 183d
000002b0: 2bba 3f3e c2c1 bc3e de19 423e 2431 433f
000002c0: 747e 92bd 8ce4 3a3d 7d54 5cbf 8a3b c53d
000002d0: 47c4 393e 33a7 5abf d797 e93d 9432 04bf
000002e0: 0787 e23d 0071 12be 539a b03d 6fea 96bd
000002f0: 549e 18bf 451b 24bd 4942 c8bd 1fc5 3bbe
00000300: 300e f13d ee01 78be 5943 fdbe eebc e33d
00000310: bf83 7f3d 4f0f 67bb dfe3 1f3f 62b8 c03e
00000320: cd59 133d def6 a83d 05e7 96be 8919 f63c
00000330: 4e61 48bc 6399 4f3e 5de1 853d ebd0 d4bd
00000340: 4147 d73e 8d69 89bd 832f 8c3e 9020 56be
00000350: 26a9 0d3f cc27 82be bcdf 04bd 303e 2fbf
00000360: 501e 87bc 7180 3e40 748b e0bd 431e bf3e
00000370: 0bcd 133e 5fc4 23be cbda 123f ee51 21bf
00000380: 4ee8 9bbe 6984 82be eebd b73d f812 1c3e
00000390: fdd6 273e ab06 283d 9c44 693b d8ef 14be
000003a0: e149 f8bc 698a 7fbd a93c 963d 30b8 69bf
000003b0: 1494 203f 5b29 153f ade4 64be 9fe8 70be
000003c0: 42d7 8fbd 85ec 313d a3a4 0e3e 5fb2 4f3d
000003d0: 3920 243e fe81 cebd 0f1d 2d3e e71b f53d
000003e0: df44 0b3f 540d d83e 455d d7be 87b8 f8bd
000003f0: 73d5 b5be 584c 383d 7064 97be d4bd 113d
0.54462373 0.57268095 0.4206124 -0.47182715 -0.013495029 0.8339977 0.0025859096 -0.008759176
-0.18256581 -0.25578567 -0.018570293 0.06298753 0.08901846 -0.63765955 -0.56434536 -0.6318918
-0.2017239 -0.015090753 0.31018123 0.12752937 0.016313491 -0.12982039 -0.11737526 -0.09971047
-0.19331637 0.0027649738 0.31089786 0.27748662 0.3261413 0.12536071 -0.57379645 -0.15750428
0.26972532 -0.0002259225 -0.11861281 -0.09260049 -0.13437803 0.06848804 0.15701261 -0.27742186
-0.17486866 0.21978366 -0.22480227 -0.22138812 0.063495494 0.019666642 -0.22136016 -0.21559341
0.20307513 -0.24055424 0.004465899 0.47719356 0.24890463 0.122164175 0.43397674 0.068206094
0.24787924 -0.06430705 0.22756739 0.13480918 -0.051334057 -0.115701504 -0.008246474 0.30492288
0.6637157 -0.13966174 -0.026866034 -0.70626014 -0.110893756 -2.718298 0.11435188 -0.21514755
0.14632449 0.15579307 -0.23566803 -0.05814847 0.078737766 0.1175625 0.20714335 0.6006333
-0.1344084 0.12292434 0.24777934 -0.43199724 -0.040213764 -0.30044693 0.009325912 0.31372365
0.24988973 -0.07339747 0.4035323 0.08027716 0.52486235 -0.402033 -0.069315776 0.00622703
0.03853467 -0.08806506 0.1362939 0.16588047 -0.20939213 0.22449116 -0.005130306 0.10103209
-0.040602375 -0.07429639 4.0267406 -0.1886248 -0.21956654 0.23335952 -0.27919742 0.24040928
0.21714069 -0.3233429 -0.64763844 0.86879873 0.25912204 -0.3720059 0.40790918 0.8124803
-0.8452475 -0.113910995 0.04709552 -0.19908965 -0.18451282 0.22835581 0.28793025 -0.45589077
-0.41168562 0.040263493 -0.32858714 0.09847924 -0.024322473 -0.13213779 0.2619206 -0.22235839
0.33958635 0.13498157 1.2647567 -0.022411266 0.051209897 -1.1529516 -0.15765966 1.0566281
0.45781597 -0.04485231 0.7222119 -0.08534514 0.56669277 0.35301715 0.26312882 -0.6242953
0.69938207 0.124704525 -0.13188905 0.0009584507 -0.24991234 -0.24013785 0.27333483 0.12547575
0.37647253 -0.21160221 0.12087585 0.44807932 0.69567895 0.2894987 0.098774366 0.11990803
-0.25160283 -0.043333635 0.19187923 0.037252855 0.18723361 0.36866575 0.1895518 0.7624686
-0.07153025 0.045628116 -0.8606642 0.09630497 0.1814128 -0.85411376 0.11405914 -0.51639676
0.11060911 -0.14300919 0.08623185 -0.073689334 -0.5961659 -0.04006507 -0.09778268 -0.18336914
0.11770284 -0.24219486 -0.49465445 0.1112002 0.062381502 -0.0035256927 0.6245708 0.37640673
0.035974313 0.08250211 -0.2947313 0.030041473 -0.0122302305 0.20273356 0.06537125 -0.103914104
0.4204655 -0.06709585 0.2738 -0.20910859 0.55336225 -0.25420988 -0.032439932 -0.68454266
-0.016493946 2.9765894 -0.109640986 0.37327775 0.14433686 -0.15992878 0.573651 -0.6301564
-0.30450672 -0.25491646 0.08971773 0.15241611 0.16390605 0.041021984 0.0035593873 -0.14544618
-0.030308666 -0.062387858 0.07335789 -0.9129667 0.6272595 0.5826623 -0.22352858 -0.23526238
-0.07023479 0.043438453 0.13929991 0.050707217 0.16027917 -0.10083388 0.16905616 0.119682126
0.54401964 0.4219767 -0.42063347 -0.12144571 -0.3551441 0.044994682 -0.29568815 0.035581425

hidden1.bias f4 [128]
00000000: 6218 e2be 6cea 0fbf 4b48 07be c011 a1bf
00000010: 750f 44bf 8e9e 2cbf f2b2 11bf 8574 883f
00000020: 6350 03bf b3ba 95bf d3a5 4cbf a3ed 46bf
00000030: e4b4 e13e 5eb1 0ebf f616 27bf d209 a2bf
00000040: 655d a6bd c983 90bf ba0f 72bf f9fb 57be
00000050: fd01 4fbf 3824 9abe 8228 9bbe b8d1 1abf
00000060: 8a68 6fbf 1e11 8cbf 0847 76bf 173f 1abf
00000070: 9a61 9bbf 6c16 043d 5cde f13d 287f 56bf
00000080: af00 963e 9b02 02bf 5658 a5be 773c 24bf
00000090: 4e46 77bf f16a 6ebe c772 8bbf e8f5 88bf
000000a0: 584a 33bf e454 4bbf 7842 95bf 66f4 1ebf
000000b0: ae33 68bf 22ca 8dbf bfd3 97bf 7e77 a7be
000000c0: e73f 03bf 6bc8 52bf 5a69 10bf d9c2 58bf
000000d0: 8fc4 33bf ade7 23bf 5106 90bf 541b 46bf
000000e0: 0b52 73bf aa42 96be c5c9 41bf 7caa 8abf
000000f0: ddd1 6abf 8b36 15bf deda ccbf 941c 59bf
00000100: 2f14 fabe 9a68 c0be fd59 46be 3b1f 0d3f
00000110: 9d45 2fbf ccd4 4f3f 0f92 66be 2b1f 7abf
00000120: 6ad0 5abf 233d 22bf 808a 7fbf 94af 5dbf
00000130: d81e 16be 21e6 7bbf acc6 a3bc 1bc8 8dbf
00000140: 4af9 5ebf 069e 7bbf 131b 13bf 4811 53bf
00000150: e464 c2bf 40ca 043f 43c9 8dbf 1887 6ebf
00000160: 0f94 33bf bb91 96bf c6c4 793d 5fef 59bf
00000170: 950a 68bf 9b29 52bf 81f3 ebbe 8b3c a5bd
00000180: d9e5 abbf a6cb 4cbf ee53 71bf b4f3 dabe
00000190: 6110 72bf f22a 48be 49fe 843f f412 b53d
000001a0: 7ae3 6dbf 00a8 73bf 1c98 5dbf e2b3 4dbf
000001b0: 05ef 06bf b93d 25bf a263 9dbf 04bd fabe
000001c0: 92a1 8fbf ae43 a0be 9276 87bf defb d2be
000001d0: c096 98bd 4c6b 3abf 878a 74bf 98bf 233f
000001e0: 64e2 09bf 2fc6 30bf fbec 41bf 2daa 36bf
000001f0: e3c3 adbe 3eb2 75bf a243 37bf 16b6 b9be
-0.44159228 -0.56217074 -0.13211171 -1.2583542 -0.76586086 -0.67429435 -0.56913674 1.0660559
-0.51294535 -1.1697601 -0.7994053 -0.77706355 0.4408332 -0.5573939 -0.6526941 -1.2659247
-0.08123282 -1.1290218 -0.94555247 -0.21092214 -0.8086241 -0.30105758 -0.30304343 -0.60476255
-0.9351889 -1.0942724 -0.96202135 -0.6025252 -1.2139161 0.032247946 0.1180999 -0.83787775
0.29297397 -0.50785226 -0.32293957 -0.6415476 -0.9659165 -0.23282982 -1.0894402 -1.0700045
-0.70035315 -0.7942641 -1.166091 -0.6209167 -0.90703857 -1.1077311 -1.1861495 -0.32708353
-0.5126938 -0.82337064 -0.56410754 -0.84672314 -0.702218 -0.64025384 -1.1251928 -0.7738545
-0.9504706 -0.29347736 -0.756985 -1.0833278 -0.91726476 -0.5828635 -1.6004293 -0.8480923
-0.48843524 -0.37579805 -0.19370265 0.5512578 -0.68465596 0.8118408 -0.22516654 -0.9770381
-0.85474265 -0.6337454 -0.9982071 -0.86596036 -0.14660203 -0.98398024 -0.019992195 -1.1076692
-0.87099135 -0.98288 -0.57463187 -0.82448244 -1.5187039 0.5187111 -1.1077045 -0.93174887
-0.70147794 -1.1763223 0.060978673 -0.85130876 -0.90641147 -0.82094735 -0.46084216 -0.08068188
-1.3429519 -0.7999824 -0.9426869 -0.42764056 -0.9455624 -0.19547632 1.0390102 0.08841506
-0.92925227 -0.9517822 -0.86560225 -0.80352604 -0.52708465 -0.64547306 -1.229603 -0.48972332
-1.1221182 -0.31301636 -1.058306 -0.41207784 -0.07450628 -0.7281997 -0.95523876 0.63964224
-0.5386107 -0.69052404 -0.7575223 -0.7135342 -0.33938512 -0.959751 -0.71587574 -0.36271733

hidden2.weight f4 [128, 128]
00000000: ec7a 77bd 42b6 003d 3e2c fdbd 8e1f 343c
00000010: 350b f5bb ecaf 71bd d11b debd b398 ffbd
00000020: dc15 b1bd 54dd 99bd dd98 e2bd 5694 cdbd
00000030: 298c 57bc 8dcc efbc 5f61 96bc 15d6 a63c
00000040: 6273 1d3d a5cb 72bd 0565 fdbd 37d5 cebd
00000050: 5535 adbd af84 fdbc 24af 53bc 4c77 2bbd
00000060: 57f0 88bc 6728 4fbd 309c 35bd c0b7 093d
00000070: 5613 0d3d 67c8 0e3d b56e 363d b4a7 ea3c
00000080: 9077 913d f975 f6bd 4537 f93c 9482 023d
00000090: bd3a 5cbd 8199 adbc e802 50bd 1355 a7bd
000000a0: 4f26 d53c 4a39 b83c 6ec9 b5bd e65c 47bd
000000b0: 562d 28bd ede2 86bd 3c27 033a 739f 6a3c
000000c0: 0156 3abe 5e38 0fbe 3836 77bc 665b adbc
000000d0: 4c5d b4bd ba43 f1bd 31ce e9bc 27ef 5ebd
000000e0: 7ec7 893c 7d4e 12be db09 cabd 8b2f 953d
000000f0: ee0b 94bc b283 7cbd 58f7 2cbc 124e 863c
00000100: e48d a7bd 4360 40bb ab3a dcbc 0803 a8bd
00000110: a778 99bd d99f a7bd 9dfd 25be c628 3f3c
00000120: 1824 2fbd fd48 57bd 6f69 a7bd 7100 b7bd
00000130: 8a16 92bd 09bc 11bd 3d6a 29bd 2a75 8abd
00000140: e75f 543d 262d bf3c 6d99 b63c 144a 873c
00000150: f629 f6bd 9fab 963d 1780 c0bd 0ddb 113d
00000160: be28 cabc aad4 9939 3a3a 423d 3c79 2b3d
00000170: 65ad f9bc c329 04be 7295 7ebd b5a9 143d
00000180: 5a66 aabd e813 c53c 65a1 10bd 62b0 e4bd
00000190: edc1 a0bd 5604 e3bd 2cb1 32bd 1614 ae3c
000001a0: 43b6 1fbe 16fa 73bc a1d3 0e3d 31ba e23b
000001b0: b622 2bbe 99cb 43bd 5eb3 db3c 09fb 2abe
000001c0: 7cda 563b d032 363d 2933 b5bd f08f 093d
000001d0: 9e48 c9bd d538 3bbc 6672 18be 07b3 84bd
000001e0: 55e3 70bd da62 8bbc 9f69 33bd 432a c4bc
000001f0: 9281 1cbd 9230 b43d f7da 4ebd 146c a7bd
00000200: 1012 93bd 0a27 983a e9b4 89bd eec5 acbd
00000210: 9613 f2bd 3b50 debd 028c 1ebd d401 3e3d
00000220: 5eb5 c5bc 057e 1fbc 834b a1bd a725 8d3d
00000230: 00da 22bd e1ce 793c cca9 7cbd 8778 06be
00000240: 2a4e aabd 0793 eabd 02d8 bfbd b7cf ea3c
00000250: e015 4c3d 56e0 f4bd 011b 89bd 61f3 c1bd
00000260: f257 ddbc f4a0 2c3d c5f3 99bd 2164 54bd
00000270: 1f45 0b3d 15d8 dcbd bb15 5f3d 6dff 0c3d
00000280: 0ec1 acbc ea67 38bd 0fd7 473b 7ee2 eabc
00000290: eb7e a33d 0f29 cdbd 9e8a 59bc af2d 27bc
000002a0: e37d 253d acf2 143d 24ba 8bbd ed64 4c3d
000002b0: 2c0e c5bd f769 f6bc 9b96 f2bd 06e7 e23c
000002c0: dbc1 973c a185 7c3c 75c8 4dbd 6dda 173d
000002d0: 9043 533d 7dfd c3bd 5538 91bd abe0 fbbc
000002e0: b741 443d b37d f3bc fc28 86bd d273 6e3d
000002f0: 63c3 f0bc bade 65bc 4397 03be 65f1 713d
00000300: 98cf bebd f9e6 28bd f0ba bbbd b36d cebd
00000310: 0b23 00bd 72d9 09be 0a79 87bd a3fb ef3a
00000320: bd4e 86bd 90e5 0cbe 64c6 b13c b2aa 06bd
00000330: 1967 ea3c b56b 0ebd fcbc dbbd 1c98 683d
00000340: a31e 013c 5757 59bd c719 81ba 59cd b23c
00000350: 034e a13c eea3 d9bd 81be 933d 9c93 013d
00000360: 1af5 c63c 7699 483b 9a84 963b 5c62 8fbd
00000370: 5c97 d4bd 4030 f4bc cd13 17bd 47d7 bcbd
00000380: 27c7 4dbe 5c46 65bd 1630 11bd 5aa0 83bd
00000390: 5cae d7bc 5cf6 efbd 6498 a2bd c559 d13c
000003a0: 0bd6 8cbd 29a0 debd 0653 68bd b736 82bd
000003b0: c04c 25be a56e ff3c 5341 76bd b1de cebd
000003c0: 5266 ebbc 6b33 b6bc 13ee 903d 319d 27bd
000003d0: 2c41 aa3b a621 ac39 b0e1 a7bd 235e 82bd
000003e0: 5f72 b2bd 3116 d83b 1fa9 f9bd 3c8f 93bb
000003f0: c63d db39 1c9d 14bc 2d16 d2bd 4aff 04bc
-0.06041996 0.031423815 -0.12361954 0.010993851 -0.0074781426 -0.059005663 -0.10845149 -0.12480297
-0.086467475 -0.07512918 -0.110643126 -0.100380585 -0.013155975 -0.029272342 -0.018356977 0.020365754
0.038440116 -0.05927624 -0.123727836 -0.10099261 -0.08457438 -0.030947058 -0.012920175 -0.041861817
-0.016716165 -0.05057564 -0.044338405 0.033622503 0.03444227 0.034859087 0.044539172 0.02864442
0.07102883 -0.1203422 0.030421862 0.03186281 -0.053766955 -0.02119136 -0.05078402 -0.081705235
0.026019244 0.022488255 -0.0887631 -0.04867258 -0.04105886 -0.065862514 0.00050031 0.014320242
-0.1819687 -0.13986346 -0.01508861 -0.021161746 -0.088068575 -0.11780496 -0.028540703 -0.054427292
0.016818758 -0.14287753 -0.09865161 0.07284459 -0.018072095 -0.061649032 -0.010557018 0.016394649
-0.0818136 -0.0029354251 -0.026883444 -0.08203703 -0.07493716 -0.081847854 -0.16210027 0.011667436
-0.04275903 -0.05255984 -0.08174407 -0.08935631 -0.07133205 -0.035579715 -0.041361082 -0.067606285
0.051849272 0.023336958 0.022289956 0.016514815 -0.12019722 0.07356953 -0.09399431 0.035609294
-0.02467763 0.0002934088 0.04741881 0.041863665 -0.030478189 -0.12906556 -0.06215424 0.036294658
-0.08320303 0.024057344 -0.035310168 -0.11166455 -0.078494884 -0.110848114 -0.043625996 0.021249812
-0.15596871 -0.014891168 0.034869794 0.0069191684 -0.1671246 -0.047801588 0.026818927 -0.16697325
0.0032784035 0.044482052 -0.08847649 0.033584535 -0.09828304 -0.011427124 -0.1488739 -0.06479459
-0.05881055 -0.01701491 -0.0438019 -0.023945933 -0.038209505 0.087983266 -0.05050179 -0.08174911
-0.071811795 0.0011608314 -0.06723959 -0.084361896 -0.11820142 -0.108551465 -0.03870774 0.046388462
-0.024134334 -0.009734635 -0.07875731 0.06891947 -0.039758682 0.015247078 -0.06168537 -0.13131915
-0.0831569 -0.114538245 -0.09367372 0.0286635 0.04982555 -0.11956851 -0.06694604 -0.09470249
-0.027019475 0.042145684 -0.075171985 -0.051853303 0.034001466 -0.10783402 0.054464083 0.03442328
-0.02108815 -0.045020975 0.0030493175 -0.028672453 0.07983192 -0.10017597 -0.013277678 -0.010203763
0.040403258 0.036364242 -0.06822613 0.049900938 -0.09621844 -0.030079825 -0.11845132 0.027698051
0.018525055 0.015412719 -0.05024 0.03707354 0.051578104 -0.095698334 -0.070908226 -0.030746778
0.047914233 -0.029723024 -0.06550786 0.058215924 -0.029390043 -0.014030153 -0.1285067 0.059068102
-0.09316939 -0.041235898 -0.09166515 -0.10079517 -0.03128342 -0.13461855 -0.06614883 0.0018309247
-0.06557987 -0.13759446 0.021701045 -0.03287763 0.028613614 -0.034770686 -0.10729405 0.056785688
0.0078808395 -0.05306181 -0.0009849601 0.021826433 0.01969052 -0.1062697 0.0721407 0.031634912
0.024286795 0.0030609048 0.004593444 -0.070011824 -0.10380432 -0.029808164 -0.036884118 -0.092207484
-0.20095502 -0.055975303 -0.03544625 -0.06427069 -0.026328258 -0.11716911 -0.079392225 0.0255555
-0.06876763 -0.10870392 -0.056719802 -0.06358092 -0.16142559 0.03118069 -0.06012089 -0.10101069
-0.028735314 -0.022241315 0.07076659 -0.040921394 0.0051957574 0.00032831467 -0.08197343 -0.063656114
-0.08713221 0.0065944423 -0.121904604 -0.004503159 0.0004181696 -0.009070661 -0.10258136 -0.008117506

hidden2.bias f4 [128]
00000000: 6f7d e33c 1cdb f63c 181b 26bd 8eb1 60bd
00000010: 2efb eabd 43cf acbd 36c3 8cbd ccba 99bd
00000020: 44c2 09bf bea9 ac3a 6e53 9bbd a1f0 d9bc
00000030: 1ca4 25be ecf2 c8bd 1c88 8f3c 7c43 023d
00000040: 9ad3 e8be 5e38 e63b 6842 9fbd 20c4 23be
00000050: f266 69bd 93ef 91bd 0b42 34be 4801 d5bd
00000060: 51c5 bcbd 729e 2dbc a510 c0ba 19e2 c5bd
00000070: 8330 55be cfc7 80bc b451 c23b d736 d3bd
00000080: bf2c 0ebe 0e13 bfbd 67de 6f3b b7b3 a3bc
00000090: 9208 8f3f 96bd 17bc 5dc2 0fbe f3a7 2fbd
000000a0: ed2e d0bd caee 1cbe 525c 0bbe 786b 2dbe
000000b0: 76b9 94be a265 96bd ae25 25be 56ff 6ebc
000000c0: 1028 cfbd 4445 2bbd 02d0 fcbd 6fb0 02be
000000d0: 6cee c33f cec6 e7bb 9957 a23b 1e04 9abd
000000e0: 423f d2bc e3d1 a8bd fd01 02be 57f7 cc3f
000000f0: 973e a9bc 268f 6bbb c9c7 12be bc8f 0bbe
00000100: 139a 1abe 3962 1ebe dd6b e6bd 573e e4bd
00000110: d908 51bc 8640 8ebd ed51 09bc 480c 70bd
00000120: 0820 5abc b704 8bbc f63b 2a3c 3977 bdbd
00000130: cbda 27bd f551 67bd f204 2f3c b112 1fbe
00000140: 6e3d a3bd 6323 28bc d9b0 863e 8dbb 0fbe
00000150: 9901 cfbd d1eb 0e3f 8636 03be 834c 29bd
00000160: b8de 0ebe 88a2 c7bd 594f 52bd b883 86bd
00000170: 983f 8cbd f4f1 9abc 6713 e63c 3474 8bbd
00000180: aa02 94bd 6356 5ebd 490c 6dbd 1b5f 6dbd
00000190: 2224 1cbe 95d8 29be 8eb6 f6bd 02c6 adbe
000001a0: b027 433c ed7d 01be 03a5 88bd bbe3 a7bd
000001b0: 4e4f febb 3199 c8bd 80cf ffbc 09eb c3bd
000001c0: 4575 97bd e19c ffbd 076a 0fbd 3be1 17be
000001d0: 436e b3bc 7fc6 b8bd 3559 a8bd 5e40 dbbd
000001e0: 18d5 98bd 0ea9 64bd 2165 c6bd c0e9 d8bc
000001f0: b3cf 953e 1a7e 1ebe 4f93 7abd a25a b1bd
0.027769772 0.030133776 -0.040553182 -0.05485683 -0.1147369 -0.084379695 -0.06873171 -0.07506332
-0.5381205 0.0013173146 -0.07584272 -0.026603999 -0.16175884 -0.09811959 0.017520957 0.03180264
-0.4547394 0.0070257625 -0.07776338 -0.15992785 -0.056982942 -0.07125773 -0.17603318 -0.10400635
-0.092173226 -0.010596858 -0.0014653398 -0.09662265 -0.20819287 -0.015720276 0.00593015 -0.10313194
-0.13884257 -0.09329806 0.0036601068 -0.019983156 1.117449 -0.009261509 -0.14038987 -0.04288478
-0.101652004 -0.15325466 -0.13609436 -0.16935527 -0.29047745 -0.07343604 -0.16127655 -0.014587244
-0.10115063 -0.041814104 -0.12344362 -0.12762617 1.5307136 -0.00707326 0.00495429 -0.075203165
-0.02566493 -0.08243158 -0.12696071 1.6012982 -0.020659728 -0.0035943477 -0.14334024 -0.13629049
-0.15097837 -0.15467156 -0.11251042 -0.11144703 -0.012758457 -0.069459006 -0.008381349 -0.058605462
-0.013313301 -0.016970022 0.010390272 -0.092512555 -0.04098014 -0.056474645 0.010682331 -0.15534474
-0.07970701 -0.010262343 0.263068 -0.14036389 -0.101077266 0.5582858 -0.12813768 -0.041332733
-0.13952148 -0.09747797 -0.051345203 -0.06568092 -0.06848067 -0.0189142 0.028085424 -0.06809273
-0.07227071 -0.054281604 -0.057873044 -0.057952028 -0.15248159 -0.16586526 -0.12046538 -0.3394013
0.011911318 -0.12645693 -0.066720985 -0.08197733 -0.0077609187 -0.09794844 -0.031226873 -0.09566314
-0.07395414 -0.12481094 -0.035013225 -0.14832012 -0.021903163 -0.09022235 -0.0822014 -0.107056364
-0.074625194 -0.055825286 -0.096872576 -0.026478648 0.29260024 -0.15477791 -0.06117564 -0.08659865

out.weight f4 [1, 128]
00000000: 3f92 95bb 515a 323b 45ad 52bc a1e0 41bc
00000010: 69a4 753c 2f7d 21bc 2cfd c2bc 57b8 df3c
00000020: 8fb5 eb3b 2897 843c 72b8 3d3c 0f2b e43c
00000030: bf83 8fbc 6c89 01bc b3a8 2ebc d7d0 f93c
00000040: 224d 84bc 11a5 94bb 58eb c2bb 9d11 9fbc
00000050: 6a71 053d 28e2 e5bb c8ad 6dbc e6d6 3fbc
00000060: 4453 00bd ca0e 543a 6fb7 67bb 28b4 01bc
00000070: 4abc f43b f327 213b 0676 5abc d347 c23c
00000080: a4b4 a93c 3cfa 03bc 5985 89bb 95c4 773c
00000090: e642 5a3d 1ee0 8b3c f3e8 cdbc 61a0 f23a
000000a0: 4a3a 973a b030 f5bb eeca d23b 9119 7abb
000000b0: 9f2a 1abd 5086 21bb fdc3 ef3c 5bee f33b
000000c0: fdc9 ccbc 0021 efbc 3d6a f5bb 7871 b4bc
000000d0: 1065 883d bf4e fe3c f942 473c 0ed7 b6bb
000000e0: cfc8 8c3c dfa3 a23b e4a6 9fbc f77a d33d
000000f0: 6946 d6bc 3a40 dfb9 a619 dc3b a585 f83b
00000100: f63c e7bc d547 c8bb 0614 95bc f1d5 c43b
00000110: d417 f13c db8f 1cbc b7c1 283c a358 68bc
00000120: cc77 a13c 0262 d43c f958 2fbc e427 133d
00000130: 4705 fa3a 75b4 043b 82e0 7dbc f5be b83b
00000140: 9a90 16bc 5ec7 0a3c 0a26 3f3c 89c5 113b
00000150: 59eb ac3c 04d4 483d 3c17 1d3c 95e9 6dbc
00000160: 0ae8 ce3b 78e7 24ba 6129 2a3b ee8b 943b
00000170: 71cb f2bb a58d 04bb 9064 f7bc 8698 adb9
00000180: d580 e4bc ba57 ab3c e1d7 003c 75ee 233a
00000190: 77b9 b7bc 96ae a3b8 c485 28ba fbda 2bbd
000001a0: 4ecb 6ebc ca43 1dbc 600e 9abc 2de1 2239
000001b0: 94dd 1a3d 009b ffbb 1c9b 1bbd 72da aa3c
000001c0: e76e 78bc 30b3 8bbc 2327 3d3c 6b45 96bc
000001d0: 3f39 373c b22b ee3c 7223 393c e391 debc
000001e0: b129 eb3b dffb 173c e911 a9bc 770a cb3b
000001f0: 6a95 68bc 7fb8 99bc 4f56 903c 74ac 94bc
-0.004564553 0.0027214477 -0.0128586935 -0.011833341 0.014992812 -0.009856506 -0.023802362 0.02730958
0.0071932743 0.016185358 0.01157962 0.027852563 -0.017518876 -0.007906299 -0.010660338 0.03049509
-0.016150061 -0.004536279 -0.0059484653 -0.019417578 0.032578863 -0.0070154853 -0.014506765 -0.011708951
-0.03132941 0.0008089362 -0.0035357138 -0.007916488 0.007468735 0.0024590462 -0.013333803 0.02371589
0.020716019 -0.008055266 -0.0041968045 0.015122552 0.053286456 0.01707464 -0.025135493 0.0018510931
0.0011537757 -0.0074826106 0.0064328825 -0.0038162211 -0.037638303 -0.0024646707 0.02926826 0.0074441857
-0.02499866 -0.02919054 -0.007489471 -0.022026762 0.06659901 0.031043408 0.012161964 -0.0055798357
0.017185597 0.0049633826 -0.01948876 0.10326188 -0.026156621 -0.00042581727 0.0067169247 0.007584291
-0.02822731 -0.0061120787 -0.018198024 0.006006949 0.029430307 -0.009555782 0.0103000915 -0.014181289
0.019710444 0.02592564 -0.010702365 0.035926715 0.0019075059 0.0020249162 -0.015495421 0.005637998
-0.009189749 0.008470384 0.011666784 0.0022242984 0.021108316 0.04903032 0.009588059 -0.014521022
0.0063142823 -0.0006290595 0.0025964605 0.0045332825 -0.007409506 -0.0020226028 -0.03019932 -0.0003311077
-0.027893463 0.020915855 0.00786397 0.00062534894 -0.022427304 -7.804965e-05 -0.0006428624 -0.041956883
-0.014574839 -0.009598682 -0.018805683 0.00015533408 0.03780897 -0.00780046 -0.03798972 0.020856116
-0.01516316 -0.017053217 0.011544975 -0.018343648 0.011183082 0.02907357 0.011299955 -0.027169174
0.007176601 0.009276359 -0.020638423 0.006196316 -0.014195779 -0.018764732 0.01761928 -0.018148638
