checkpoints/checkpoint_actor_5.pth (torch, 41803 bytes, 8 tensors)

fc1.weight f4 [256, 33]
000000 7b a1 47 3d 26 20 3c be ac 0b 2f 3e 13 80 8a bf
       0.048737984 -0.18371639 0.17094296 -1.0820335
000010 72 52 75 3f 97 44 1a bf c2 7d f5 3c 7b 58 90 3d
       0.95828927 -0.6026091 0.029967193 0.07048126
000020 89 bc 6a 3d b8 6e 83 be 74 67 f2 bc fc 9c c4 be
       0.057308707 -0.2567041 -0.029590346 -0.3840102
000030 45 c2 cd bd b1 8a 0e 3e 41 47 94 3d c5 7d aa bd
       -0.100468196 0.13920094 0.07240153 -0.0832477
000040 e8 92 77 be c0 b8 f4 be 4b 2e c7 be 7b 81 23 be
       -0.24177134 -0.47797203 -0.38902506 -0.15967362
000050 ae 32 a7 39 8e d2 ac bd 56 ef b9 be de 90 c1 3e
       0.00031890481 -0.084385976 -0.3631541 0.37805837
000060 09 50 c2 bd 93 0c 9e bd c8 62 4a bf 03 68 17 3f
       -0.09487922 -0.07717242 -0.7905698 0.59143084
000070 d9 1f 88 3d e0 10 b7 3c 46 9a 19 bf b0 cf 62 bd
       0.066466995 0.022346914 -0.6000103 -0.055373847
000080 fa 74 f2 3e 1c 18 b0 3e 76 96 17 3e 22 69 1d be
       0.4735487 0.34393394 0.1480349 -0.15372136
000090 5f 8b 18 bf df 3b 4a bf 27 29 c0 bf ca 48 86 3e
       -0.59587663 -0.78997606 -1.5012559 0.2622741
0000a0 0c 69 75 bd e5 8d 16 be 7e 87 01 3e 40 18 9c 3c
       -0.059914634 -0.14702566 0.12649342 0.019054532
0000b0 94 6c 83 3d c9 db a7 be bd 5a 47 3e b7 1f 8b 3e
       0.06417194 -0.3278487 0.19468208 0.27172634
0000c0 8c d4 87 3e 57 d2 ef 3e 28 5d 57 3e a4 6e b7 bf
       0.26529348 0.46840164 0.2103163 -1.433064
0000d0 0a 2a 83 3f 8d 40 b5 3e f1 bd 36 3d b0 cf f7 3d
       1.0247204 0.3540081 0.044614736 0.1210016
0000e0 cd b8 6d 3d a7 92 86 3e 60 db 7a 3c 72 2d 3b 3f
       0.058037568 0.26283762 0.015311092 0.7311622
0000f0 aa ab 4f 3d d0 92 93 be c4 95 51 3d 9c f6 1f be
       0.05070082 -0.28822947 0.05116822 -0.15621418
000100 82 88 3c 3d 60 74 44 3e 4a a8 1f bf c7 16 7f be
       0.04602862 0.19185019 -0.62366164 -0.24911033
000110 76 a4 82 bd 44 d9 0b c0 10 04 e9 3e 8e 47 cf 3c
       -0.06379025 -2.1851358 0.45510912 0.025302675
000120 dc 0d a1 3e 0e 5d 91 3d 8c d4 08 3e 87 3f b2 be
       0.31455886 0.07097827 0.1336233 -0.34814093
000130 4f 67 f7 bc 0f 3d 06 3e 04 89 ec bd c4 ea d4 be
       -0.030200629 0.1310923 -0.11549571 -0.41585362
000140 1a 91 a6 3c 9e 27 db 3c 1d 5e c8 bd c9 7b bf bd
       0.020332862 0.02675229 -0.09783576 -0.09349782
000150 4c b1 3c 3e ac 6a 56 3e 22 05 0d be 09 00 38 be
       0.18427008 0.2093913 -0.1377149 -0.17968763
000160 6a a2 cb 3d 10 43 a9 bc 11 7e 5a be 92 2f 57 be
       0.099430874 -0.02066186 -0.21337153 -0.2101424
000170 bd 42 ab bd 4b 31 97 be 6d f7 86 be a4 dd 16 bd
       -0.08362339 -0.29529795 -0.26360646 -0.036832467
000180 99 88 72 3e 3e 67 6c 3d 27 ac 96 bf c1 8e 28 3f
       0.2368492 0.057715647 -1.1771287 0.65842825
000190 0a 05 96 3e 2c 29 2f 3e 6f 66 3d 3f 26 89 00 3f
       0.2930072 0.1710555 0.73984426 0.5020927
0001a0 d6 13 b0 be a9 39 14 3f db 26 af 3c b3 69 32 3f
       -0.34390134 0.5790048 0.021380832 0.69692534
0001b0 e4 c8 dd bd 5a 15 5a 3e c7 eb 24 3c 5a f7 f4 bd
       -0.108293325 0.21297207 0.010065979 -0.11961241
0001c0 b9 44 94 3d d5 eb ca 3c 9f 67 f6 bc 13 5a d3 3d
       0.0723967 0.024770657 -0.030078707 0.10319915
0001d0 89 33 88 be df 61 05 3f a7 28 11 3f 98 69 6f 3d
       -0.26601818 0.52102464 0.56702656 0.05845031
0001e0 4c 3f 95 bd 74 ba 07 be 4e 9b cb bd 98 0b 59 be
       -0.072874635 -0.1325472 -0.099417314 -0.21195829
0001f0 2f c1 d8 3d 66 54 e0 bd 23 e9 69 3f e1 47 ec bd
       0.10583722 -0.10953598 0.91371363 -0.11537147
000200 88 61 0b 3c 33 b7 71 bf a2 23 20 3d 13 97 75 3f
       0.00850714 -0.94420165 0.039096482 0.95933646
000210 58 8e 72 3d e4 7a f1 3e fc c3 88 bc 17 99 4d 3e
       0.05921778 0.4716407 -0.016695015 0.2007793
000220 f8 d7 35 be 91 3e 9b 3e f3 14 dc 3e 03 18 05 3f
       -0.17758167 0.30321172 0.42984733 0.51989764
000230 ff 0a 52 3f a2 03 4a 3e da e7 59 bd 86 2d c0 be
       0.8204803 0.19727948 -0.053199627 -0.37534732
000240 c8 a3 d9 bd 7e 26 a4 3d 9a 02 0a 3f 5d f3 48 3e
       -0.10626942 0.08015154 0.5391022 0.19624086
000250 41 13 10 3d 02 de 30 be aa f7 df 3e a1 c0 0f 3f
       0.035174612 -0.1727219 0.4374364 0.56153303
000260 81 53 93 3c 03 fe 36 3e 2e 40 80 3d f1 b5 28 3d
       0.017984154 0.17870335 0.06262241 0.041189138
000270 58 e1 a6 3e cb af d0 3e e8 7f 81 3d 8e 83 f5 3e
       0.325938 0.4075912 0.06323224 0.4795193
000280 9b f0 1e 3e dc 5f 89 3c da 2d c9 be 96 b5 6b bd
       0.15521471 0.016769342 -0.39292794 -0.05754622
000290 b8 7f 02 3e 8e d8 34 bd 73 70 d3 3a d6 c2 03 3d
       0.12744033 -0.044151835 0.0016131535 0.032168232
0002a0 57 3d 58 3d ab 4c 7e be 8a 82 d0 be 4f d1 7c 3e
       0.052792873 -0.24833934 -0.40724593 0.2468922
0002b0 af 11 97 3b fb dc 9c bd 72 98 74 be d7 dc 0d be
       0.0046102623 -0.07659336 -0.23886278 -0.13853775
0002c0 71 99 d5 3d 6d fe 5a bd 2c 79 a7 3d f0 08 9f bd
       0.10429657 -0.053465296 0.081774086 -0.077653766
0002d0 d6 c7 f7 bd 4f 83 65 bc 04 37 6a bb 3c 0c 92 bd
       -0.120986626 -0.014008357 -0.0035738358 -0.0713124
0002e0 5f 4b bb 3e 25 eb 97 3d 42 3e 94 bd 17 c6 33 be
       0.3658094 0.07417897 -0.07238437 -0.17556034
0002f0 b1 75 08 be cc 76 14 3d ab fc 0d bd ac 2c 91 be
       -0.13326146 0.036246106 -0.03466479 -0.28354394
000300 fe 3f 45 3f f5 65 1b bf 70 89 f4 3b c4 ad 31 bf
       0.7705077 -0.6070245 0.007462673 -0.6940577
000310 cc cc 94 bc ef 99 5e 40 24 d5 eb 3d 69 b5 07 3d
       -0.018164061 3.4781454 0.11515263 0.03313199
000320 f5 99 1c 3e 5f e1 8f bf 5a 47 d1 be d3 6c ac be
       0.15293105 -1.1240653 -0.4087475 -0.33676776
000330 e3 82 23 bf 46 26 7b 3e 07 27 5c be e7 40 eb 3e
       -0.6387159 0.24526319 -0.21499263 0.45947954
000340 be 3d 05 3e d3 a4 fb bc bf 72 74 be ff 81 bd bd
       0.13011834 -0.030718243 -0.23871897 -0.092533104
000350 ed cb 92 3c 1f 8e ad 3d bf 65 8b bd 19 2a 27 bf
       0.017919505 0.08474373 -0.06806516 -0.6529861
000360 64 f7 14 3f 86 fa 8a be 44 a4 b2 3d bc 9c 85 3d
       0.5818999 -0.2714426 0.087227374 0.06524035
000370 90 8e 69 bb c9 16 a1 3e d4 cc 0c 3e 3b 9b 6a be
       -0.0035637952 0.31462696 0.1375001 -0.22910778
000380 e6 b3 aa 3e ad 1b 2f 3f 4a 49 02 3f 70 02 84 3b
       0.33340377 0.68401605 0.5089308 0.004028611
000390 2a a9 40 bf 18 ed 70 bd 84 a1 0c be e2 ef a7 3d
       -0.75258124 -0.05881986 -0.13733488 0.08200051
0003a0 92 c9 96 3d f5 4e f8 be a8 cc b9 3e ed 82 7a bd
       0.07362665 -0.4849774 0.36288953 -0.061160017
0003b0 1e 15 cb 3e 7c e6 f8 b8 dc 46 b7 bd 12 68 ff 3d
       0.3966455 -0.000118684926 -0.08949062 0.12471022
0003c0 40 23 22 be 89 05 18 be 5e 8c 22 3d fa 8e 09 3e
       -0.1583376 -0.14845861 0.039684646 0.13433447
0003d0 cc fb 94 be 2c d6 da 3e 08 e4 bf 3d a2 00 00 3f
       -0.29098356 0.42741525 0.093696654 0.50000966
0003e0 bc 7e 5c bf d3 69 69 3f 8d d8 4e bd df 66 83 3e
       -0.8613088 0.911771 -0.050499488 0.25664422
0003f0 39 15 72 be cc 98 98 be 95 74 42 bd 63 8d 3d 3d
       -0.23640908 -0.29804075 -0.047474463 0.046277415

fc1.bias f4 [256]
000000 61 6e 23 bf 56 8e 74 be 89 2c d5 3e 7d 89 75 bf
       -0.638403 -0.23882422 0.4163554 -0.95912915
000010 77 96 cd be ec e6 3d bf d6 d1 19 bf 72 fa 67 bf
       -0.40153858 -0.74180484 -0.6008581 -0.90616524
000020 a7 bd ae 3c e1 46 22 3e fe f0 01 bf de 9a d0 bf
       0.021330668 0.1584735 -0.5075835 -1.6297262
000030 6d e2 59 bf b3 a7 00 bf 8f 60 8f 3e ad 28 e1 be
       -0.85111123 -0.5025589 0.28003356 -0.43976346
000040 e0 12 75 bf 3a c6 49 be 16 19 5c bf 57 53 18 bf
       -0.95731926 -0.19704524 -0.8597578 -0.59502167
000050 b5 e1 ef be 66 e4 dd be ab 1c c6 be e8 6b 09 be
       -0.46851888 -0.43338317 -0.38693747 -0.13420069
000060 63 61 c7 be 0f 08 d1 be 2e 7f 29 3f 7a f7 91 3d
       -0.38941488 -0.4082646 0.66209686 0.071272805
000070 5b 7a 25 bf c7 92 10 bf 29 59 4f bf 52 28 7c bf
       -0.64639825 -0.56473964 -0.8099542 -0.98499024
000080 63 fa 87 be 0e 63 d4 bd 12 32 a4 be 0b d4 a2 be
       -0.26558217 -0.10370456 -0.3206945 -0.318024
000090 61 88 00 bf 45 6a 94 3e 42 34 04 3f 40 43 f0 be
       -0.502081 0.28987327 0.5164224 -0.46926308
0000a0 a9 38 14 bf 79 6f 57 bf 74 7b 84 bf 24 21 0c 3f
       -0.57898957 -0.8415447 -1.0350175 0.5473807
0000b0 50 80 9f bf 2e 2f 87 3e 9c ce d7 be d1 1c 5a 3e
       -1.2461033 0.26403183 -0.42149818 0.21300055
0000c0 e9 aa d8 3d 02 7c 07 3f 01 cb 7e bf 91 a5 92 be
       0.105794735 0.52923596 -0.9952851 -0.28641942
0000d0 47 95 d4 be b0 13 6e be 1b 7a 88 be 2c 4b 18 3f
       -0.4152014 -0.23249698 -0.2665566 0.59489703
0000e0 a7 6f 52 be d4 a1 81 bf 98 46 d9 be 6b c5 6c bf
       -0.20550404 -1.0127511 -0.4243667 -0.92488736
0000f0 88 13 de 3e c7 51 98 be 75 5d 2e bf 1b 79 67 be
       0.43374276 -0.2974989 -0.68111354 -0.22604792
000100 7e 59 4e 3f d0 14 52 bf 3a e5 8b be 0c 9d fe be
       0.80605304 -0.8206301 -0.27323323 -0.49729192
000110 cd ad 81 3e 90 2b 52 bf c4 9a 33 3f fe a2 8f 3e
       0.25327912 -0.8209772 0.7015803 0.2805404
000120 30 b6 78 be 6d d8 f3 3c 89 13 73 be 67 95 1e bf
       -0.24288249 0.029766286 -0.23737921 -0.6194672
000130 db c2 ca bd d2 ce 19 be 9f a9 22 3f 72 6b 67 bf
       -0.09900447 -0.15020302 0.6354007 -0.90398324
000140 4f ff 8a 3e 00 ec 73 bf 39 20 12 bf 90 e8 52 bf
       0.2714791 -0.9528198 -0.5708042 -0.8238611
000150 fd 6d 00 bf da 11 54 bf 65 12 9e be 2d 52 15 bf
       -0.5016783 -0.8283974 -0.3087341 -0.58328515
000160 1f 74 22 bf 79 9a 80 bf 5d 10 f9 be 91 58 1e bf
       -0.63458437 -1.0047141 -0.48645297 -0.6185389
000170 6d 0c 20 3f b8 ba c8 be ed fa 50 bf dc 72 e4 be
       0.6251896 -0.39204955 -0.8163288 -0.4461888
000180 6b 2b 66 bf 9f 45 3c bf 03 1e 4c 39 07 74 0e 3e
       -0.8991 -0.73543733 0.00019466136 0.13911448
000190 b2 cc 37 bf ca 79 93 be bd ff b4 bf 86 f9 2b bf
       -0.71796715 -0.28803855 -1.4140545 -0.6717762
0001a0 2c dd cf be 12 3d 9d bf df 76 1c bf c6 53 cc be
       -0.40598428 -1.2284262 -0.6111888 -0.39907664
0001b0 22 a3 39 bf da d9 6a be 92 57 d0 bd 45 cd 82 3e
       -0.72514546 -0.22934666 -0.10172953 0.25547233
0001c0 de 8c 93 bf 26 80 e8 be 7e 30 43 be 15 07 1b be
       -1.1527364 -0.4541027 -0.19061467 -0.1513942
0001d0 a6 34 07 bf ae 90 86 bd 49 e9 8f 3f 55 7f 8c be
       -0.5281471 -0.06570564 1.1243068 -0.27440897
0001e0 be cd 86 3e b0 e1 4c bf 1d f6 2d bf c7 b9 a7 be
       0.26328844 -0.8003187 -0.67953664 -0.32758924
0001f0 37 32 9d 3e 59 1f 5e be 53 c2 a4 3d cb c2 66 be
       0.30702373 -0.21691646 0.08044877 -0.22535245
000200 d8 16 2b bf 6f c1 6c 3e 82 3d 98 3b 3e e7 43 bf
       -0.6683173 0.23120664 0.004646004 -0.7652472
000210 20 b1 b6 3c d6 83 1b bf 09 c4 c6 be 7d 2e 1d bf
       0.022301257 -0.6074804 -0.38821438 -0.6139906
000220 fb bb cd be bd 8a 85 bf 9c 66 0e 3e 67 e1 72 3e
       -0.4018248 -1.0432965 0.1390633 0.23718797
000230 01 93 41 bf 46 c4 d2 3c 37 a8 c0 be 3e 8a 80 be
       -0.75614935 0.025728356 -0.37628338 -0.2510547
000240 5d 04 1d bf 14 7b c8 3e 92 bc 3f bf 94 37 d8 bd
       -0.6133478 0.391564 -0.7489711 -0.10557476
000250 c0 73 25 bf f4 e6 95 3e f1 11 d2 3a ce 6e ae be
       -0.64629745 0.29277766 0.0016027075 -0.34068912
000260 2c 57 8b 3e b5 42 e4 3e d4 c7 5b bf 9e 79 11 3f
       0.27214944 0.44582143 -0.8585179 0.568262
000270 3c 6a 8b bf a1 cc 63 be f4 c6 6c bf 95 63 33 bf
       -1.0891795 -0.22246028 -0.9249108 -0.70073825
000280 4b 39 6f 3d b7 c0 0e bf 08 b3 2c bf 39 a8 49 be
       0.05840425 -0.5576281 -0.6746068 -0.19693078
000290 30 a9 e0 be ac 28 c0 be 39 9d 7c bf fb 67 32 bf
       -0.4387908 -0.3753103 -0.986774 -0.6968991
0002a0 34 37 4b bf 2b 20 6e bd 8e 91 72 3e b2 f4 2d bc
       -0.7938111 -0.058136147 0.23688337 -0.010617422
0002b0 5b a7 76 bf de 0b 07 bc b2 28 d2 be 5c 77 0b bf
       -0.96349114 -0.008242575 -0.41046673 -0.54479
0002c0 66 75 28 3f 6c e8 1b be 0d 6d 2e 3f 0d f4 e1 3d
       0.65804136 -0.1522538 0.6813515 0.11032877
0002d0 7e 34 ee 3e 6d 59 bf be 33 32 b2 be 47 f4 19 3e
       0.46524423 -0.37372914 -0.34803924 0.1503459
0002e0 13 37 15 bf 04 c7 cb be 67 00 88 bf b4 c5 1b bf
       -0.5828716 -0.39800274 -1.0625123 -0.60848546
0002f0 44 fd bf bd 55 8a 74 3d d0 c2 7d 3e 15 e4 d7 3e
       -0.093744785 0.059702236 0.24781346 0.421662
000300 d4 c0 4e bf 7a ce 3c bf 71 4d 9f 3e 3d 7a 84 bf
       -0.8076298 -0.7375256 0.3111377 -1.0349804
000310 f6 16 85 3e 95 92 de be ed 27 f0 be 25 a2 33 bf
       0.2599408 -0.43471208 -0.4690546 -0.7016929
000320 b6 c1 36 bf c1 1a e7 3e 4d 42 71 be a6 8f 67 bf
       -0.7138933 0.451376 -0.23560448 -0.90453565
000330 1e df 2c bf 7a 8d 47 bf 98 ae 53 be 38 06 49 be
       -0.6752795 -0.7795025 -0.20672071 -0.19631279
000340 27 33 c4 bd c3 d8 5e bf 9a 0b 8c bf 3f d9 99 be
       -0.09580069 -0.870495 -1.094104 -0.30048558
000350 82 77 10 bf 9a 49 1f bf 20 39 68 bf 11 36 09 be
       -0.56432354 -0.6222168 -0.90712166 -0.13399531
000360 00 ec a1 3e 65 3c 23 bf 60 14 ff be 49 ae 5b bf
       0.31625366 -0.6376403 -0.49820232 -0.85812813
000370 3b 2c 0d be c1 5b 3a bf ce 3a d1 be 0e 1f 2c bf
       -0.13786404 -0.72796255 -0.40865177 -0.67234886
000380 af 8d 6d 3f 12 1b da be 22 4d 0a be f8 a0 9d be
       0.92794317 -0.42598778 -0.13505986 -0.30786872
000390 80 6c c6 be a5 db 85 bd 96 d4 5b bd 90 65 51 3d
       -0.38754654 -0.065360345 -0.053669535 0.05112225
0003a0 15 e1 9f 3e ee c9 2b bf c2 ff 3a bf ad 64 da be
       0.3122641 -0.67104995 -0.73046505 -0.42654935
0003b0 78 fe 31 be 36 1f 94 be 98 e5 82 3e d0 60 98 be
       -0.17382228 -0.28930062 0.2556579 -0.29761362
0003c0 ea a0 72 bf e3 fb 34 bd f6 a1 7d 3e 9f 3e 09 bf
       -0.94776785 -0.04418553 0.24768814 -0.5361118
0003d0 8b 2b 83 bf 60 d5 68 bf 6b 04 ea be 31 d3 2f bf
       -1.0247663 -0.90950584 -0.45706496 -0.6868163
0003e0 82 93 1f 3d 40 1e 14 3f e0 da 2a bf 4a 4e 80 bf
       0.038959034 0.5785866 -0.66740227 -1.0023892
0003f0 28 7f e0 be e0 f6 ec 3e 3b f1 96 3e 0d 36 db be
       -0.43847013 0.462821 0.2948092 -0.42814675

fc2.weight f4 [4, 256]
000000 5b 15 35 3d eb a9 e3 3e 15 9d 03 3f 6a 2f 2e bf
       0.04420982 0.44465575 0.51411563 -0.680411
000010 76 f6 cd 3e b0 6b cc bd 38 7c e0 3e bd 01 df 3e
       0.40227097 -0.09981477 0.4384477 0.43556014
000020 87 27 bc 3e 72 d7 ed 3d 27 df bd 3d be 26 c1 3f
       0.36748907 0.116133586 0.092710786 1.5089948
000030 80 a8 15 bf 6d e7 71 be 89 f4 21 3e c9 0a a9 3e
       -0.58460236 -0.23623438 0.15815939 0.3301604
000040 34 a2 cc be 21 77 26 bc 03 f5 28 3e c7 4e 97 3e
       -0.399675 -0.0101602385 0.16499715 0.2955229
000050 ba cd 4b 3f 41 a9 a1 3f 0d 4f 29 3e 7d 60 fc bd
       0.7961079 1.2629777 0.16534062 -0.12323091
000060 a7 06 6c 3e 89 79 7e bd 8d 7e 83 3e 40 e8 ca be
       0.23049413 -0.062127624 0.25682488 -0.39630318
000070 75 03 6f 3d 68 7c 49 be 61 88 88 be 40 19 87 3f
       0.058352906 -0.19676363 -0.2666655 1.0554581
000080 49 8d 3f 3f af 9b 9a 3e b4 ac 6a 3e 96 2e 2f bf
       0.7482496 0.30196902 0.22917444 -0.6843046
000090 87 69 96 bd ab 66 fd bd df 32 4d bc 3d ca 93 3d
       -0.073443465 -0.12373098 -0.012524336 0.07216308
0000a0 47 f6 37 bf 99 5e bf 3d 94 ea 46 bf 39 1a 65 3e
       -0.71860164 0.09344215 -0.7770169 0.22373284
0000b0 6f f4 0a bf a3 67 ab be 7f e5 0a 3f 9c 4a 39 3e
       -0.54279226 -0.33477506 0.54256433 0.18094867
0000c0 c3 4f 20 3f 21 4f d7 3e 3d b8 5c 3e 9a 9e 0e 3f
       0.62621707 0.42052558 0.21554656 0.55710757
0000d0 77 c8 77 3d e5 f1 f4 be 1a 06 d9 be e3 04 87 bd
       0.060493913 -0.478408 -0.42387468 -0.06592729
0000e0 29 97 d0 3e ce 3c 00 3e db 23 4a 3e f7 7f 16 3f
       0.40740326 0.12523195 0.1974024 0.5878901
0000f0 97 6f c2 3e 59 15 0f 3f 49 94 47 bf a9 9f e5 3e
       0.3797576 0.5589195 -0.7796064 0.44848374
000100 05 3c 24 3f 6c 1b 5a 3f e4 e5 44 be 65 2e 0a 3f
       0.6415408 0.8519809 -0.19228321 0.5397704
000110 05 f8 36 3e 3d 55 20 3c d2 db e3 3e 4f 13 39 3f
       0.1786805 0.009785947 0.44503647 0.7229509
000120 8b 90 35 3f df 10 c5 bd 39 9e 64 3e ad b4 9c 3e
       0.7092368 -0.096223585 0.22325982 0.30606595
000130 f5 c5 96 be 72 4f a8 3e 3b 82 fe bd 55 5a ce be
       -0.29447904 0.32873112 -0.12427183 -0.40303293
000140 a6 53 ff bd c2 fc 2c bf 4b a0 b2 3e c5 00 d3 be
       -0.124671265 -0.6757318 0.3488792 -0.41211525
000150 2d 59 6d 3e 64 86 43 3d 8f 20 10 bf f1 08 84 3d
       0.23178549 0.047735587 -0.5629968 0.06447018
000160 5c a6 83 3e c4 72 83 3e 9a 51 1b 3f 5d 45 9e bd
       0.2571286 0.25673497 0.6067139 -0.07728074
000170 6a 64 03 3f 7e 28 7c 3d bd 75 00 be 18 db 0e 3f
       0.51325095 0.061562054 -0.12544914 0.5580306
000180 48 79 d8 3f 05 fc 87 3e 94 f0 30 3e a4 c8 15 3f
       1.6912012 0.26559463 0.17279273 0.5850928
000190 3b c9 d8 3e e7 1c e9 3e ed 31 a9 3f 5f 5d bf be
       0.42341027 0.45529863 1.3218361 -0.37375924
0001a0 2f 89 8e 3e 6d 0d 79 3e 32 e3 26 be f7 f7 ae 3e
       0.27839038 0.24321528 -0.16297606 0.34173557
0001b0 c4 0a 7f 3f fc 61 64 be 59 ac 6c be 8f 46 1a 3e
       0.996258 -0.22303003 -0.2311262 0.15065978
0001c0 76 fb 00 bf 71 9a 36 bd d9 b4 43 3d 50 2f 1b bf
       -0.503837 -0.04458088 0.04777989 -0.6061907
0001d0 a1 ef 23 be 81 40 af 3e b3 77 a5 bd e0 a3 98 3d
       -0.1600938 0.342289 -0.080794714 0.07453132
0001e0 b3 48 14 be 7a a8 1f bf bd 72 6a 3e 80 57 78 3d
       -0.14480858 -0.6236645 0.22895332 0.06063032
0001f0 7b d1 76 3f 65 44 52 3f 15 47 dc 3e 51 c1 25 bf
       0.9641339 0.8213561 0.4302298 -0.647481
000200 0a e6 51 bf e1 71 f3 be 83 c9 02 3e b2 c7 02 bc
       -0.81991637 -0.4754782 0.12772183 -0.007982181
000210 25 6c 4f bd 8f 1a 15 bf f2 77 b2 be d4 45 be 3e
       -0.050640244 -0.5824365 -0.34857136 0.3716265
000220 f5 01 f9 3e 1f 87 59 3f 27 02 d4 3b 7f ca 1f 3f
       0.48634306 0.84971803 0.006469983 0.6241836
000230 81 66 d5 be fd 00 a5 3e fa 84 25 be 72 cb f2 3e
       -0.41679767 0.32227316 -0.16164008 0.4742084
000240 de 46 20 be 7b d9 5b be d7 9e 63 3f 5a 9d de 3d
       -0.15652034 -0.21469681 0.88914245 0.10869856
000250 3b 0a 26 bf 59 cf e7 bd 53 0b 07 3f 86 eb fb bd
       -0.6485936 -0.11318845 0.52751654 -0.12300782
000260 76 05 1c bf ab 0b 9e 3d e7 ea 89 bd 91 70 a1 3e
       -0.6094583 0.07717069 -0.06734257 0.31531194
000270 f6 56 25 3e 9b df 79 3e 6f bf 39 3f 33 65 c3 3e
       0.16146454 0.24401705 0.7255773 0.38163146
000280 3b 08 b9 3e b6 01 13 3e 0f 22 d7 be 36 c3 58 3e
       0.36139092 0.14356121 -0.42018172 0.21168217
000290 2f ac 94 3e d0 9e 54 3d a8 1e a9 bf f3 3d 86 3e
       0.29037616 0.051909268 -1.321248 0.26219139
0002a0 7d 7a 71 be 5f 7a 3a be c1 ff 1a 3f a2 ee e0 bd
       -0.23581882 -0.18210743 0.605465 -0.109830156
0002b0 f8 1e 48 bf 3f 2b 76 3e 17 fa c7 3e 74 82 f3 bc
       -0.78172255 0.24039935 0.3905799 -0.02972529
0002c0 3c e1 0b 3f 04 e8 52 3e 7a e2 10 3e 0e 9f 6d 3e
       0.54640555 0.2059632 0.14148894 0.23205206
0002d0 57 b6 bb bd 0b 32 d7 be 5f b4 e2 3e 10 bb 2f 3d
       -0.09165638 -0.42030367 0.44278237 0.042903006
0002e0 0d 7f 5f 3d 48 70 16 3f 35 50 22 3e 25 c4 c2 be
       0.054564524 0.5876508 0.15850909 -0.3804027
0002f0 50 ba 09 3f ad b5 a1 3e 1f 6d 2f 3f cf df 67 3e
       0.53799915 0.3158392 0.6852588 0.2264397
000300 15 6c de be c3 bd d1 bd e4 fc e9 bd cf 8f fe 3e
       -0.43441835 -0.10241272 -0.11425188 0.49719092
000310 9c 8a 8a 3e bb 80 90 3d 1e ee ca 3f 14 2b 8a be
       0.27058876 0.070558034 1.5853918 -0.2698599
000320 bf da 95 bd 2d 39 1f 3e e6 a1 7f 3e 74 fc 09 3f
       -0.07317113 0.15549155 0.24964103 0.5390084
000330 a8 2a 12 be a0 e7 97 3e f6 0f 86 be 1d b5 68 3e
       -0.14274085 0.29668903 -0.26184052 0.22725339
000340 23 b2 5b 3d dd 0d ef bc 7c f8 09 be 66 af 75 3e
       0.05363668 -0.029181415 -0.13473696 0.2399269
000350 10 ba d0 3e ad b5 9b be 5d 5c 80 bd e6 a3 f5 be
       0.40766954 -0.30412045 -0.06267617 -0.47976607
000360 72 a3 98 be a7 78 e4 bd 6e 67 0c 3f e9 47 18 40
       -0.298122 -0.11155825 0.5484532 2.379389
000370 71 f9 13 3c ad 29 83 3f cc fd f2 bd 9c 66 b9 bc
       0.009031639 1.0247093 -0.11864814 -0.022631936
000380 ca 63 c7 bc b6 6b b0 bf 63 69 9a bd d2 3c 0a be
       -0.024339575 -1.3782871 -0.07539632 -0.13499764
000390 02 75 ce 3d 0c 69 3d 3f b4 9c a1 3e b5 b6 c8 bc
       0.10080911 0.73988414 0.31564867 -0.024501184
0003a0 30 ea 28 3f 9c 86 15 bf d3 3a bc bc 22 97 c7 be
       0.6598234 -0.5840852 -0.022977268 -0.38982493
0003b0 25 ff e6 b9 76 01 08 3d e5 41 e3 3c b0 80 87 3d
       -0.00044059116 0.03320452 0.027741382 0.06616342
0003c0 d2 76 cf bd 64 47 66 bd d4 d6 a7 3d 26 de 62 3f
       -0.10130085 -0.056220427 0.08195272 0.8862022
0003d0 6e 3d 6d 3f 66 da 1f bf 39 67 81 3a 71 3a e2 be
       0.9267186 -0.62442625 0.0009872682 -0.44185212
0003e0 6c 23 17 3f 6a 23 b3 bd e0 3b 7f 3f fd 7c 1b 3f
       0.59038424 -0.08746989 0.99700737 0.6073759
0003f0 07 35 a2 be c9 62 e4 bd 0b 76 18 be cc 6e 1b 3f
       -0.31681082 -0.11151654 -0.1488878 0.6071594

fc2.bias f4 [4]
000000 4f 64 9b 3e a6 25 d1 be 01 86 69 bf f8 9e ba 3f
       0.30349967 -0.40849036 -0.912201 1.4579763

b2.weight f4 [4]
000000 cf ca 05 41 c2 b9 7f 41 2d 08 5c 41 9f 7c 6f 41
       8.362014 15.982851 13.751996 14.967925

b2.bias f4 [4]
000000 65 3f 22 41 29 f6 2b 40 3a c1 e1 c0 5e a8 cf 40
       10.140477 2.6868994 -7.054837 6.4893026

b2.running_mean f4 [4]
000000 ce 2b 50 42 8b 75 9e 41 24 f6 a2 3e ea 8d 42 42
       52.042778 19.807394 0.31828415 48.638588

b2.running_var f4 [4]
000000 6f 4f 6a 44 bf 08 68 43 d7 e7 00 41 17 64 b5 43
       937.24115 232.03416 8.056602 362.78195
