checkpoints/checkpoint_actor_mean_4.pth (torch, 87447 bytes, 6 tensors)

hidden1.weight f4 [128, 33]
00000000: f615 433d 4f0f 19be 53e8 cb3e 4dab 02be
00000010: 0368 8f3e 9a49 df3c 81ab 813c 3247 17be
00000020: 2252 debd 3466 873b b085 c53d 87be 963d
00000030: 1f1e ac3d c416 5ebe 8b61 32bd 5966 48be
00000040: 780b a4bc ce83 4fbe d85b 53bd cae7 5fbd
00000050: 82e5 2abe 4203 5ebd 9a69 053e 8285 c4bd
00000060: c162 463d e28f 843d 81f8 ce3d fa41 35be
00000070: 6abc 8abe dc11 cf3d c916 6f3d 38d1 1abd
00000080: 1b38 50bf 0af8 d73d ee02 0e3e b52f 583e
00000090: e39c 68be ff8c d13e 11eb 4a3e 1558 4b3e
000000a0: 9093 0b3b d649 0dbf dc78 c5be 3298 cebb
000000b0: 8faa 083e f77b 51be 5ee1 d13c 5611 f33e
000000c0: e0f4 ea3d 14ca 93bd e496 613d c90d 1cbe
000000d0: 0411 75be a1dc 88bd b6b0 27be e89f 033e
000000e0: 5116 1d3d 8473 b7bd aaf6 a5be c206 713c
000000f0: f466 1e3e e161 153e 3322 0bbe 8393 8abe
00000100: 6343 9dbd 543a 373e 5f52 b63e 7a0c 10be
00000110: 758a 66be 25da 643c 3226 b53e 8cce ffbd
00000120: ad15 41be 1556 6e3d d04c 103e 85d6 05bd
00000130: 68d4 8b3d 720c 2cbe e5c8 20be 097e dcbd
00000140: 3382 323e 022d 1f3d 30f3 71be 3355 d33d
00000150: add7 98be 04d5 b7bd ec7c 9c3d a65d 0d3e
00000160: 71b4 18bd 0147 febd 56d4 cf3d 3109 b43d
00000170: 27a6 06be 8fe6 333e 576c 33be 33d7 2abe
00000180: a202 1fbe 954a 97bd 4c97 d9be c4a3 ac3e
00000190: 930b f93e 6cc1 913e 8d91 1dbe d202 11bd
000001a0: c353 98be c7e2 a73e 4f48 6dbe 640f 8a3d
000001b0: fcef eabd 144f 883c 365a 013d e7ce 08be
000001c0: 3eb7 143e d6fb 2b3e 4cb2 2a3e 867f 753e
000001d0: 9330 9dbe ffab c4bd 003c c0bd d91d e2bc
000001e0: 3f1f e5bd 339c 26be 2d4a 0dbd df75 053d
000001f0: d260 3abe 2450 45bd 28f3 b2bd 7fe6 71bd
00000200: 80db 3b3d 84f2 09be 9c7b a23d e7d8 6e3f
00000210: afb8 18be 4cfe 5b3e c8e9 7dbc c91d e8bd
00000220: 74d7 82bd 3c55 eabe 849b 1fbe 37e0 353e
00000230: 0ccc b9bd 77f0 0dbe 2fdc 623e 0933 07bc
00000240: 65b7 723d 003c b03e a55d 553e 70b8 1abc
00000250: 0333 72bc 8604 2dbe 6c0d 16be e837 46bd
00000260: d9b2 f3bd 0503 96bd 7cd2 74be 8809 923e
00000270: 5177 b8bc 9a83 533e 5503 953d 6493 643e
00000280: de94 083d fc8f 3fbd eddc 8cbe d075 1e3e
00000290: 2da0 6e3f e935 f4bd e86a ea3d fb64 da3d
000002a0: 13f0 2fbd 355b 2dbd 0c82 813d 8bfc 85bb
000002b0: 644b b53c 10f3 42bc f33c 47bc d9ef d03b
000002c0: 57e8 0abe 15d5 e6bd dfd1 a33e 644f 083e
000002d0: f7ce 20bd 6b6e d9be 3567 e83d be4b 2e3e
000002e0: ef49 07bd 9c10 08be 21bb 4dbd f84f 823d
000002f0: a8b3 cc3d 6063 f9bd 2749 66bd f990 7cbe
00000300: a28e 1f3e 78f2 bd3d 383b 4b3d 666f c3bd
00000310: 00dc d53d 5eeb 4bbf f897 bc3e 32f8 b8be
00000320: 8dff 5fbe de30 043e fbbf a5bd 9929 1c3d
00000330: 0423 eebd bf49 933e 068e 78bd 0836 0c3d
00000340: b3d2 e63c 19b2 f2bd f968 993c f6cc c6be
00000350: 42a3 e83c 0763 983e 0c07 df3c 0158 99bc
00000360: e260 133d 811c 913d b84e bb3c 61f5 503e
00000370: a457 9bbd a5a4 86bc 2de0 223d e1bb 533d
00000380: 0a0e 803e 4662 b53b b197 4dbe 461e 51bd
00000390: 4bae 5f3e 60a8 f53d 2d6f 0c3e 0f44 48be
000003a0: 2f58 f8bd 7a92 3fbe 992e b3bc 4977 2b3e
000003b0: c121 5f3e 8785 85be d281 383e 0fac 9bbe
000003c0: 7ffe 1cbe 747a 933c 1cb3 8e3c 55a8 a93c
000003d0: 272b 543e f77e f63e 3652 69bd 2694 e2bc
000003e0: e3cb 773e c6fc a5bd 69f0 2cbc b869 373d
000003f0: c4bf 87bd 3b86 a63d af6e 203e adf5 943d
0.047628365 -0.14947246 0.39825687 -0.12760659 0.28009042 0.027256776 0.01582885 -0.14773253
-0.10855509 0.0041320566 0.096446395 0.07360559 0.08404183 -0.21688372 -0.043550055 -0.19570293
-0.020025 -0.20265123 -0.05160126 -0.05466441 -0.16689113 -0.054202326 0.13028565 -0.09595777
0.048434023 0.06472756 0.10105992 -0.1770095 -0.27096874 0.10110828 0.05837134 -0.037797183
-0.8133561 0.105453566 0.13868305 0.21111949 -0.22716098 0.40927884 0.19816233 0.1985782
0.002129767 -0.5519079 -0.3856877 -0.006304764 0.13346313 -0.20457445 0.025620159 0.47474164
0.114724874 -0.07216278 0.05507554 -0.15239634 -0.23932272 -0.066827066 -0.16376004 0.12853968
0.03835136 -0.0895758 -0.32414752 0.014711084 0.15468961 0.14588119 -0.13587265 -0.27065668
-0.076788686 0.17893344 0.3560972 -0.1406726 -0.22513755 0.013968025 0.35380703 -0.124905676
-0.18855925 0.058187563 0.14091802 -0.032675285 0.06827623 -0.16801623 -0.15701635 -0.10766227
0.1743248 0.038861282 -0.23627925 0.10318985 -0.29852048 -0.089761764 0.076410145 0.13805255
-0.037281457 -0.12415887 0.10147922 0.087908156 -0.1314932 0.1756842 -0.17521797 -0.16683654
-0.15528348 -0.07387272 -0.42498243 0.33718693 0.48641643 0.28467882 -0.15387554 -0.03540308
-0.29751405 0.32790205 -0.23172115 0.06741217 -0.11471555 0.01663927 0.031580172 -0.13360177
0.14523026 0.16795287 0.16669577 0.23974428 -0.30701122 -0.09603118 -0.09386444 -0.027602123
-0.111876 -0.16270523 -0.034494568 0.032583114 -0.18200997 -0.04817213 -0.087377846 -0.05905771
0.04586363 -0.13471419 0.07933733 0.93299717 -0.14914201 0.21483725 -0.015497632 -0.11333806
-0.06388751 -0.45768154 -0.15586668 0.17761312 -0.09072122 -0.13861261 0.22154306 -0.008251914
0.05925693 0.34420776 0.20836504 -0.009443387 -0.01478267 -0.16896257 -0.14653558 -0.04839316
-0.11899347 -0.07324795 -0.23908418 0.28522897 -0.022517832 0.20655671 0.07276026 0.2232185
0.033345096 -0.046768174 -0.27512303 0.1547463 0.9321316 -0.11924345 0.11446172 0.10663792
-0.042953562 -0.04232331 0.063236326 -0.0040889434 0.022130676 -0.011898771 -0.0121605275 0.0063762483
-0.13565193 -0.11271111 0.31996056 0.13311535 -0.039259877 -0.42467055 0.1134781 0.17021081
-0.033029493 -0.13287586 -0.05022729 0.06362909 0.09995204 -0.121771574 -0.056222107 -0.24664678
0.15581754 0.09274763 0.049617022 -0.09542732 0.10442352 -0.79656017 0.36834693 -0.36126858
-0.21874829 0.12909266 -0.08093258 0.038125608 -0.116277725 0.287672 -0.06068232 0.034231216
0.028176641 -0.11850376 0.018726813 -0.38828248 0.02839816 0.29763052 0.02722504 -0.018718721
0.035981067 0.07085515 0.022864684 0.20406105 -0.075850755 -0.01643593 0.039764572 0.051692847
0.2501071 0.0055353967 -0.20077397 -0.05105426 0.21843831 0.119950056 0.13714285 -0.19557212
-0.12126195 -0.1870822 -0.021872805 0.16744722 0.2179022 -0.26078436 0.18018273 -0.30404708
-0.15331458 0.018002726 0.01741939 0.02071015 0.20719586 0.4814374 -0.056963168 -0.027658533
0.2419887 -0.08104853 -0.010555365 0.044778556 -0.06628373 0.08131071 0.15667222 0.072734214

hidden1.bias f4 [128]
00000000: 9d3c 4c3e e543 d53b 63ac 203d 52f2 9f3d
00000010: fbdb 5cbd ce79 2dbe d6be 143e 3bfa 8f3e
00000020: be81 c2bd 21f6 80bd a6d0 ebbd b133 803d
00000030: 2d55 733e 6206 e13e 6d69 ae3d b5bc 423e
00000040: 142b 9c3e fd59 e53d d4c5 f9bb cb15 e8bd
00000050: 268a b8bd 5172 21be 598f 75bd e7c0 46be
00000060: 2aeb 113e c82a 8bbe f288 b13d 2547 01be
00000070: 955b 743d 2eeb 11bd 5ca7 653e 331e 533e
00000080: 4f39 9fbd b4aa 783e 4efc c5be ed0f 4e3e
00000090: f572 503d 655d 2abd dfa9 61bd db83 77be
000000a0: 8a0d 84be 48b2 453e d7a9 c7be 96f0 44be
000000b0: d4f0 9dbc 7dc6 1ebc 2314 b8bd ef70 ccbd
000000c0: 6dda cabd 1cdd b5bd 6fad 393d 3dd5 0a3c
000000d0: ed98 27bd dc86 18be fb74 943d 305d 503e
000000e0: 9950 10be c517 e2bd 2c09 113e b616 483e
000000f0: 3e2a c13d 1781 4abe 8a1f 3dbc a642 a0be
00000100: f54e c8bc 9077 38be 4f51 a9bd ffc0 7c3e
00000110: c2d8 8f3e 6c03 26be 98cc a6bd 23ed 233c
00000120: c373 8e3d d766 6bbd c9c1 5b3e 5e72 0fbe
00000130: 16ca a8be 95c4 9c3d eb9a 103e 7c89 283e
00000140: 65ef 573e 6d30 cabd cd4f c9bd d12f c7ba
00000150: 9fbf d0be 1e3f 65be f7ae 9bbb 8b3e acbe
00000160: 020a 23be 0cf8 0d3c 7355 403e 1b8c 3a3e
00000170: 58bf 82bd fb1f 573d 42d2 bcbd 1499 eebd
00000180: 13d0 b5bc c433 66bd 829a 5a3d 128c 013e
00000190: 1629 9fbe 50bb 443d 3bf3 68be 7cc8 683e
000001a0: 23cf 4bbe fcd1 08bd 7b25 bb3e 4024 29bd
000001b0: a6e1 69bd a0c6 8e3d 99f2 86be 58f9 9ebe
000001c0: eeb8 003e 439b 063e 225b a33d 707a 6ebd
000001d0: 6e68 d4bd 7964 3e3e 0106 fdbd 4244 07be
000001e0: c532 2b3c 91e6 813d 5b9b e43d 970a a5bc
000001f0: 63ee d93d 5dfb 28be 4629 5e3e 8a9e 083e
0.19944997 0.006508338 0.0392269 0.07809891 -0.053920727 -0.16940996 0.14525923 0.28120598
-0.094974026 -0.06296945 -0.11514406 0.06259859 0.2376296 0.43950182 0.08516202 0.19017299
0.30501616 0.111988045 -0.00762246 -0.11332282 -0.09010725 -0.15766264 -0.05995116 -0.19409524
0.14249864 -0.27181077 0.08668698 -0.12624796 0.059657652 -0.035624675 0.22427124 0.20616989
-0.077746026 0.24283868 -0.38669056 0.20123263 0.05089088 -0.041592974 -0.055093642 -0.24171393
-0.2579158 0.1930629 -0.38996765 -0.19232401 -0.019279875 -0.009690878 -0.08988216 -0.09982478
-0.09904943 -0.08880064 0.045331415 0.0084736915 -0.040917326 -0.14895195 0.07248875 0.20348048
-0.14093246 -0.1103969 0.14163655 0.19539914 0.09431885 -0.19775806 -0.011543164 -0.3130085
-0.024451712 -0.1801436 -0.082674615 0.24682997 0.2809506 -0.16212243 -0.08144492 0.010005268
0.069556735 -0.057471123 0.21460642 -0.14008471 -0.3296668 0.076546825 0.14121597 0.16458696
0.21087416 -0.09872518 -0.09829674 -0.0015196746 -0.40771195 -0.22387359 -0.004751082 -0.33641466
-0.15921786 0.008665096 0.18782596 0.18217508 -0.06384152 0.052520733 -0.09219791 -0.11650291
-0.022193944 -0.05620171 0.053370006 0.12651089 -0.31086034 0.048030198 -0.22749035 0.22732729
-0.19903235 -0.03340338 0.36552033 -0.041294336 -0.05709996 0.069714785 -0.26356962 -0.3104961
0.12570545 0.13145165 0.079763666 -0.058222234 -0.10371481 0.18593015 -0.12354661 -0.13209632
0.010449116 0.06342805 0.11162444 -0.020146651 0.10641172 -0.16502137 0.21695432 0.13341728

hidden2.weight f4 [128, 128]
00000000: f42a cebc 1bf9 0f3d edb9 84be cb47 6f3e
00000010: af5a 663e 3b3a 80be 7275 753d 3732 5dbe
00000020: 127b 62bd 7c88 083e d68a cdbe 645a 2a3e
00000030: 2fa9 99be 69e2 4f3e bb36 01bf bfbb e3bd
00000040: 45bf 573d 58d2 bf3d 708c afbd 2452 0d3e
00000050: 7a6a ebbd 55ba 1c3e c84c 803d 2bb8 1ebd
00000060: c92a 30bf 474e 343e 856a 9a3e 1c21 1a3b
00000070: b403 10be d0c3 4c3b bc94 06be 5683 5abe
00000080: 94da ab3e 3728 1bbf 99bf 70be 511e 53be
00000090: eec6 8abd 36db 4fbe e74a e4be 6ea3 b3bd
000000a0: 5aeb 81be e874 9f3e 4d8d 8a3e 0c26 8a3d
000000b0: 7d8e 3dbf 9320 90be 0750 853e fcbc e73d
000000c0: 3a07 b0bd f41a 02be 6a99 cabe f042 a5be
000000d0: e42b 873d 7abe 343e d975 033e bb37 b23d
000000e0: 0796 94bc 934f a93d 6051 21bd 9995 adbd
000000f0: 8a00 ad3d 5478 10b9 4a16 53bc 377b 17be
00000100: b3a1 373d 6169 2b3e 7329 fb3c 39e8 84be
00000110: 37dd 083d b1ea 7a3e 6d9c 033c 0d0a c03e
00000120: 85eb 81bd 5f8d 9dbe 6515 df3c c29a 853d
00000130: 87be 9e3c 35ad 2a3e 3bc6 3e3c 28cd b53d
00000140: 2e11 1b3e 298a 1cbd 0481 893e ba10 dd3d
00000150: 941f 1e3c ed63 413c 2055 153d c1cd 933c
00000160: 50a6 48bd b558 bd3d 9a27 113e ef0e 073c
00000170: fe55 963e b270 76be 45d5 f03d e4fe 393c
00000180: 5f84 003e 3df5 71be f790 8ebe 2141 98bc
00000190: 1b43 e6bd 174f 813d 8d6c 0e3c 6bd7 98be
000001a0: 1343 acbe 7567 8e3c 3d03 70be 4c8b c5be
000001b0: 8358 1e3e b0e1 243e 02d5 20be 3bf4 83be
000001c0: 95c5 16be 1eb9 1d3e 0c29 d53c ed0e 0bbf
000001d0: a0f6 bf3d 7193 9a3e 8d2a c2bb 11a1 adbc
000001e0: 60b4 c83d 2d8e 753e a162 33be 3cc0 593e
000001f0: b622 e9bd 2e70 a1be c4b8 6cbd a51a 9bbd
00000200: 2852 5abe 7199 443d e0d8 56bd 8d7d f83d
00000210: 78a6 863c f75e d63d 5224 c6be 62b8 6c3e
00000220: 415f d73d ade3 fdbd 2304 44bd 0a9b a8bd
00000230: 8322 67be 24cc f03d 8f39 6cbd e725 e2bd
00000240: deee edbd 4851 d83c d182 8abd 965b 3abe
00000250: b6f6 4f3e fdaa 843e 77cd 08bc 9c43 e4bd
00000260: c891 b03e 0346 473e 0c00 ec3d 1efc 41be
00000270: de6a 96be 5366 833c 7cee e33d cf00 afbe
00000280: a321 403e b20a b43e 15b5 7f3e a7f3 d8bc
00000290: 7839 59be 2eb7 66bc be60 3bbe 6919 0a3e
000002a0: f862 bf3d dd30 d3bd 3448 85bd 64af c8bd
000002b0: 401f e43c 8bb8 c2bc 93c0 15bd a0fd 28bd
000002c0: e12f 003e 2631 653d e2d1 f4bd 5a5a 84be
000002d0: 81d9 ce3d eb58 fe3c f141 8b3e e8e6 83bc
000002e0: fcc3 ffbd e592 243e 9866 ff3d 2935 7bbe
000002f0: 225a 8c3c 10ae f53d cbc3 123d c40a 843d
00000300: 3343 cdbb 086d 76be 392b ffbd 881f 5cbe
00000310: 6b9b 29bd c370 0c3d 60d9 6ebd eb55 f7b9
00000320: 1ba1 00be 9a84 f4bd bf67 353e db15 513e
00000330: af58 2fbe 8511 a53d b54f 4ebc 6f82 ccbd
00000340: 2df2 393d 0f7f 38bd 85a9 71be 0d77 c53d
00000350: 46ad 273d f4a3 40be 4471 28be 5204 01bd
00000360: 8735 f1bd d0da eabc c579 833e 8e9a 723d
00000370: e441 00be 5590 c1bc ceee 49bc 38b4 923c
00000380: 818c f1bd db8a 043e 4de9 09bd efd2 0f3e
00000390: d535 0bbd 8182 60be 608a 72be 9268 c03d
000003a0: 91a3 e93d 1534 5bbe 85ba dcbd 2461 a43d
000003b0: 722f 813e 9542 d13d 398f b43c 991c 69be
000003c0: 47e7 01bd a5d7 bcbc e2de c63e 1f0f 713e
000003d0: 94ea 82be 3a88 bfbc 1364 b3bd 8a45 5abe
000003e0: c4b2 a83b 2106 073e a152 46be 9696 9dbe
000003f0: cacb cfbe d99a 743d 7c12 2fbb 7dff 1f3e
-0.025166966 0.035149675 -0.259231 0.2336723 0.2249553 -0.25044426 0.059926458 -0.21601187
-0.05529315 0.13333315 -0.40144986 0.16636044 -0.3001189 0.20301212 -0.5047414 -0.11119794
0.052672643 0.09366292 -0.08571708 0.13800865 -0.11494918 0.15305455 0.06264645 -0.038749855
-0.68815285 0.17607985 0.30159393 0.002351827 -0.14063913 0.0031244643 -0.13142675 -0.21339163
0.335652 -0.6060824 -0.23510589 -0.20617034 -0.06776224 -0.20298466 -0.44588396 -0.08771406
-0.25374871 0.3114388 0.2706093 0.06745538 -0.74045545 -0.28149852 0.2603762 0.11315343
-0.08595128 -0.12705594 -0.3957017 -0.32277632 0.06600168 0.17650786 0.12837924 0.08702036
-0.018137945 0.08267131 -0.039384246 -0.08475799 0.084473684 -0.00013777736 -0.012883732 -0.14793096
0.044831943 0.16739418 0.030659413 -0.25958422 0.033414092 0.2450359 0.0080329 0.37507668
-0.0634375 -0.3077192 0.027231881 0.06523658 0.01937796 0.16667636 0.0116439415 0.08877021
0.15143272 -0.038217697 0.26856244 0.10794206 0.0096510835 0.011803609 0.036458135 0.018042447
-0.048986733 0.09245435 0.14175263 0.008243307 0.29362482 -0.24066427 0.11759428 0.011352275
0.12550496 -0.23628707 -0.27844974 -0.018585743 -0.11243268 0.06313913 0.008692873 -0.2985185
-0.33644924 0.017383317 -0.23438735 -0.38582838 0.15463452 0.16101718 -0.15706256 -0.2577227
-0.14723809 0.15402648 0.02602055 -0.5431965 0.09373212 0.30190614 -0.0059254826 -0.021194967
0.09800029 0.23980017 -0.17518093 0.21264738 -0.11383574 -0.315309 -0.057793394 -0.075734414
-0.21320403 0.047997896 -0.052452922 0.12133322 0.0164368 0.10467332 -0.38699585 0.23117211
0.10516215 -0.12396941 -0.047855508 -0.08232696 -0.22571759 0.11757687 -0.05767208 -0.110423855
-0.11617826 0.026405945 -0.067632325 -0.18199 0.20308957 0.25911704 -0.008349768 -0.11145708
0.34486222 0.19460301 0.115234464 -0.18943831 -0.29378408 0.016040003 0.11129472 -0.34180304
0.18762831 0.3516441 0.24971421 -0.02648337 -0.21213329 -0.014081759 -0.18298623 0.13486256
0.09345049 -0.10312054 -0.06507912 -0.09799078 0.027846932 -0.023769638 -0.036560606 -0.0412575
0.12518264 0.055955075 -0.119540945 -0.25850183 0.10100079 0.031048259 0.27198747 -0.016101316
-0.12488553 0.16071661 0.1247074 -0.24531998 0.017132822 0.119960904 0.035831254 0.06447366
-0.0062641143 -0.2406503 -0.12459416 -0.21496403 -0.041407984 0.034287225 -0.058312774 -0.00047175525
-0.12561457 -0.11939354 0.17715357 0.20418493 -0.17123674 0.08059982 -0.012592246 -0.09985816
0.045396972 -0.045043048 -0.23599823 0.09641848 0.04093673 -0.18812543 -0.16449457 -0.03149826
-0.11777788 -0.028668791 0.2567884 0.059229426 -0.12525135 -0.023628393 -0.012325002 0.0179082
-0.11794377 0.12943594 -0.03366976 0.14045309 -0.033986885 -0.21924783 -0.23685598 0.09394945
0.11408151 -0.21406586 -0.10777763 0.080263406 0.2523151 0.10217778 0.02204095 -0.22764815
-0.031714704 -0.023052046 0.3884192 0.23540924 -0.25569594 -0.023380388 -0.08759322 -0.2131559
0.0051482636 0.13185932 -0.19367458 -0.3077895 -0.40585166 0.059717987 -0.0026713898 0.15624805

hidden2.bias f4 [128]
00000000: 2ae7 913c cbc7 3ebd 0246 28be b47c e1bd
00000010: 8443 b63d 79ab 57bd eae8 75bc 816b 8fbd
00000020: 8f06 963d 9a03 083d a00b 163d a31b af3c
00000030: 6128 9fbd 3e45 1d3d bc2d fbbd c223 173c
00000040: 0a1e 943d 7a76 a83d fd83 423c 3fcf 39bd
00000050: 20fd 5ebe 5363 4e3e a94d 9cbd db6d ad3d
00000060: ba97 d8bd 8556 a5bd 4ccd c53c 764a 9f3c
00000070: f880 50bd 7431 a83c 0eed efbd a521 d93d
00000080: c3b4 1b3d 4b85 923d 68d5 ccbd 8418 793c
00000090: 04ef 4c3c 51f5 d3ba d265 08bd 95c2 e4bd
000000a0: f138 d4bd 5d8b 853d d8b6 bb3d ef67 2abd
000000b0: 2c34 9abc d558 073d 702d b83d ad63 2e3d
000000c0: c818 fa3c 4c29 0d3d dcf0 c23d e54a bdbd
000000d0: 57cf 5e3d 1f89 9bbd 200a 61bc efef cfbd
000000e0: 57a6 d9bd 84d9 823d 8ad6 95bd 4e32 9c3d
000000f0: a0c6 ba3c 707e cdbd a9fc dbbd be06 5b3d
00000100: d763 d83c db0a e93b 8ee4 4fbc 76a4 e53b
00000110: 9786 7d3d 4b4a 6fbd 7f0c a3bd c038 ecbd
00000120: 74c8 8c3d 2316 04bc 41b2 67bd eb70 2b3c
00000130: 3968 103e ff4f 77bd f0a6 223e 3b72 ee3d
00000140: 6b1e 23bd 6466 883d 76d1 f0bd dd85 dabd
00000150: 467e f03d 2ad4 2b3d ffb5 783d ec2e b43c
00000160: e65d 2dbe e630 f7bd 5d6e 11bd b062 9b3d
00000170: f192 00be ec53 0bbd 4948 a8bd 1284 853c
00000180: e8ad 983d 471c af3d b01e 223d eea1 1f3d
00000190: 9aaf 4b3d ef0b 03bd fe9c 12be 0ce9 c2bd
000001a0: 4226 79ba 3333 e8bd e214 ca3d 3229 06bd
000001b0: eb1a 063e 4fe2 5c3d 7c8c 10bc c504 913d
000001c0: c64b 74bc 024e cfbc cb7b bc3d a8cc 053d
000001d0: 09f5 153d 732c cfbd 386c cbbd 6ce5 0ebe
000001e0: 66e6 5e3e 0011 a7bd 6f93 2b3c ff18 763d
000001f0: 5cad dcbd ddb4 41bd 0b4d 16bd cab9 c53d
0.017810423 -0.046577256 -0.16432956 -0.11010113 0.08899596 -0.052653763 -0.015009144 -0.070029266
0.0732547 0.03320656 0.03663218 0.021375483 -0.077713735 0.038396113 -0.122645825 0.009224834
0.07232292 0.082257226 0.011872289 -0.04536366 -0.21776247 0.20155077 -0.07632 0.08468219
-0.105758145 -0.08073143 0.024145745 0.019444685 -0.050904244 0.020531394 -0.117151365 0.1060212
0.038014185 0.0715433 -0.100016415 0.015203599 0.012508158 -0.0016171132 -0.03330023 -0.11169926
-0.10362423 0.06520722 0.09165734 -0.041603025 -0.018823706 0.0330437 0.089930415 0.042575527
0.030529395 0.034463212 0.095185965 -0.092428006 0.054396953 -0.07594513 -0.013735324 -0.101531856
-0.1062743 0.06389144 -0.07316311 0.07626782 0.02279979 -0.10033882 -0.107415505 0.053473227
0.026414795 0.00711189 -0.012688769 0.0070081307 0.061895933 -0.05842046 -0.07961368 -0.11534262
0.06874171 -0.008061918 -0.05656648 0.010463933 0.14102258 -0.060379025 0.15883994 0.116428815
-0.03982393 0.066601545 -0.117587015 -0.10670064 0.11742835 0.041950382 0.06072044 0.02199503
-0.1693035 -0.120698735 -0.03550564 0.075871825 -0.12556054 -0.03401558 -0.08216912 0.016298328
0.07455045 0.08550315 0.039580047 0.038972788 0.049728014 -0.031993803 -0.143177 -0.095171064
-0.0009504297 -0.113378905 0.09867264 -0.03275413 0.13096206 0.053926762 -0.008822557 0.07080988
-0.014910644 -0.025305752 0.09203299 0.03266588 0.036610637 -0.101159 -0.099327505 -0.13954705
0.21767578 -0.08157539 0.010472163 0.060082432 -0.10775253 -0.047291625 -0.036694568 0.09654577

out.weight f4 [4, 128]
00000000: d77a 8ebb 4dc7 d23e af3b a3be 12bb 343e
00000010: 9e41 833d bf9c b6be e17f ef3d b700 a43e
00000020: c73a 433e 663e b83e 4825 c43e b716 d9bd
00000030: 3e8e c8be 16a3 973d 02cb ed3c c8b5 c3be
00000040: c7e0 123e 7dc9 8b3e 8e71 f9be f110 1bbe
00000050: ec9b e23e ab40 163e 49e7 57be f6ac 84bd
00000060: e253 42be 0956 d23c 9802 91be 3248 a1be
00000070: 7c5a fc3d f25d e13e 97ae db3d 9a7d 6f3e
00000080: 64ec 8ebe 0ba7 4fbd d729 67be fb2b 68bd
00000090: 61f2 2c3e 3cb9 acbb ebf0 5d3d 14fc a2be
000000a0: 8bb6 243e 8fa1 4e3e e493 cb3e 5d70 483c
000000b0: 28d8 6ebe 72c5 bd3c d332 cabd c24c 42be
000000c0: 2852 593e e891 d2bd bd4d 41bd 8039 963e
000000d0: e3a1 05be 19de c5be 44ca 413e 99ce 47bf
000000e0: a6cf 4abe 1457 9e3e 7ff6 61be 6a1d 0abe
000000f0: ce13 e33e d699 27be 0dd2 93bd 29d3 f43d
00000100: 0ae3 dbbd ee4d 163e d5ff ab3e 0549 4abe
00000110: 9475 abbd fad6 57be 4655 94be 968b f4bd
00000120: 625b bbbe f430 1bbe 786e 193f 1552 d5be
00000130: 908b 713e 3d7a 7a3e 4114 a73e 5188 f93d
00000140: 84ae 1ebe 67a0 ffbd 5fe5 e2be e525 06bf
00000150: bfb3 9d3d 52fc fbbe 7825 e8be 5d6c 07be
00000160: eb28 af3e 0b7d d73d 39a6 38bf 7929 a4be
00000170: bb43 9c3d 646e 023c 8c16 d43e cee8 37bf
00000180: 6231 05be 018e fd3d cefa 7dbe 4953 9bbd
00000190: 1d91 65be ca75 dabe cfe0 f3be 726f 003f
000001a0: 5c6d 00be a22b d0be b025 5ebe dcb4 5b3e
000001b0: 623f d93e 5ce4 82be a33b eebe b9dc 7cbe
000001c0: 202e 0abe 0940 dbbe 6971 ca3d 4e7f 5e3d
000001d0: 126a 1dbf 6f4a 983e 1da8 fa3d 6a5d 693e
000001e0: 2304 373e 75f0 493e e1cd 88be dfad 243e
000001f0: 31e8 0e3d da25 fabe 1a18 70be 811c 7e3e
00000200: 3d13 163f 3c00 823e 47c9 95be ba80 6e3c
00000210: b5a5 8ebd 8b55 61be 3986 073e 8418 ee3d
00000220: 868c 97bd 690e bdbe 9207 fabd 2e82 89be
00000230: 26b7 fc3e ba0f 41be 73ae 78bf da39 fcbc
00000240: 0e84 08be 54c7 c9bd cca1 3abd 8468 c53e
00000250: c0ba 32bf 62a3 89bd 116a 853f 1a31 cc3e
00000260: b7e8 a8be 55c9 eabe b78c 693e 838d f0be
00000270: 3377 ec3e 6dab 7f3e 4fa5 dfbd a2a1 82bd
00000280: 07bc cb3d b44b 84be c16c 22bf da3d 0c3e
00000290: e72d 843e be51 d53e b1e5 efbd 739e c0be
000002a0: f307 c13e c541 6cbe dd49 e03c ad43 cc3d
000002b0: 0306 cd3e aba4 b8be 0ae1 9dbe 70b2 273e
000002c0: d011 bcbc f7c7 5dbe 06fb 3d3d d13b aa3e
000002d0: 23b4 1e3f cf0f fabe 5ada 7dbd c311 82be
000002e0: 4ba4 d33e 40f0 0abe e4cd 35bf 193c 413e
000002f0: 9fdd 163f 0148 31be 0069 943e a015 133e
00000300: 1480 16bd c755 c8bd 3181 a83e afdb 0f3d
00000310: 6920 073e e1bd 2a3e 046b 543e 29f1 933e
00000320: d8fd a6be 2328 87be 48d5 143f 4e47 3bbf
00000330: 7bf3 d73e bc6c a83c 68e3 903e aeaa 0fbe
00000340: 94af 08bf c377 ccbd cf23 f2be eb50 75be
00000350: 618e 8fbd 2b56 ae3e a388 40be 40f3 bcbe
00000360: 6da0 96be 09ce a63d 270b 793d c610 83be
00000370: 09a8 80bc 03af e4be 7d29 f43d e38e f93d
00000380: 0aad f2bd e0b0 98be 466f c73e a640 c0bd
00000390: 586a a2be ae6d 343d d70a 933e 7c5c 493e
000003a0: c9d2 193f d182 cd3e aff6 1fbe 18fb d6be
000003b0: 989b f8be f5b6 c23e e217 9dbe f7c9 003f
000003c0: 8579 c83e 3f47 3e3e dd50 29be 839f cfbe
000003d0: b0e2 1f3f f672 70bf 05b4 c43e 68ed 933e
000003e0: 64d2 a03c 62d1 bebe b364 2b3f 9c6c 66be
000003f0: 81e5 4a3e 3b55 0cbf 2fc6 4c3f 19c2 253d
-0.0043481397 0.4116768 -0.31881472 0.17649487 0.06409 -0.35666463 0.11694313 0.32031795
0.1906539 0.35985106 0.38309693 -0.10600036 -0.39171022 0.07404153 0.029027466 -0.38224626
0.14343558 0.2730216 -0.48719448 -0.15143181 0.44259584 0.14673106 -0.21084322 -0.06478302
-0.18977311 0.02567579 -0.2832229 -0.31500393 0.12321946 0.44016987 0.1072666 0.23387757
-0.27914727 -0.050696414 -0.22574554 -0.056682568 0.16889335 -0.005271105 0.054184835 -0.31832945
0.1608526 0.20178817 0.3976127 0.012233821 -0.23324645 0.023165438 -0.09872975 -0.18974593
0.21222746 -0.10281736 -0.047193278 0.29340744 -0.13050036 -0.3864601 0.18924814 -0.7804962
-0.19805774 0.3092581 -0.22066687 -0.13487783 0.44351047 -0.16367278 -0.072177984 0.11954338
-0.10736664 0.14678165 0.33593622 -0.19754417 -0.083720356 -0.21078101 -0.28971308 -0.119406864
-0.36593157 -0.15155393 0.59934187 -0.41664186 0.23588395 0.24460693 0.3263264 0.121842034
-0.1549626 -0.12481766 -0.4431562 -0.5240157 0.077002995 -0.49215943 -0.45341086 -0.13224931
0.34210905 0.10521897 -0.72128636 -0.3206289 0.07630106 0.0079608895 0.41423452 -0.71839607
-0.1300712 0.12380601 -0.24802706 -0.07584245 -0.22418638 -0.4266799 -0.47632453 0.5017005
-0.12541717 -0.4065829 -0.21694064 0.21455711 0.4243117 -0.2556485 -0.46529874 -0.24693574
-0.13494158 -0.42822292 0.098849125 0.054320626 -0.61489975 0.29744288 0.12239096 0.22789541
0.17872672 0.19720633 -0.26719573 0.16081952 0.034889404 -0.48857003 -0.23446694 0.24815561
0.58623105 0.25390804 -0.29255125 0.014557058 -0.069652 -0.22005288 0.13234796 0.1162577
-0.073998496 -0.36925057 -0.12208475 -0.26857132 0.4935848 -0.18853655 -0.9714119 -0.030789305
-0.13331625 -0.09852472 -0.045564458 0.38556302 -0.6981621 -0.06720616 1.0422994 0.39881212
-0.32990047 -0.4585673 0.22807585 -0.46982965 0.46184692 0.24967737 -0.10920202 -0.06378485
0.09947973 -0.25839007 -0.63447195 0.1369547 0.2581627 0.41663927 -0.11713732 -0.37620887
0.37701377 -0.23071964 0.02737897 0.09973846 0.4004365 -0.36063132 -0.30835754 0.16376662
-0.022957712 -0.21658312 0.046381973 0.3324876 0.61993617 -0.48840186 -0.061975814 -0.25404176
0.41336283 -0.1356821 -0.7101729 0.18870582 0.58931917 -0.17312624 0.2898636 0.14363718
-0.03674324 -0.09781986 0.32911065 0.035121616 0.13195957 0.16673996 0.20743948 0.28894928
-0.32615542 -0.2639781 0.5813794 -0.7315568 0.42177948 0.020559661 0.28298497 -0.14029953
-0.5339291 -0.0998378 -0.47292945 -0.23956649 -0.070095785 0.34050116 -0.18802123 -0.36904335
-0.2941927 0.08144767 0.06080165 -0.25598735 -0.015705125 -0.44664773 0.11921976 0.121854566
-0.11849411 -0.29822445 0.38952082 -0.09387331 -0.3172176 0.04404991 0.28719208 0.19664186
0.6008726 0.40138867 -0.15621446 -0.41988444 -0.4855621 0.3803021 -0.30682284 0.50308174
0.39155212 0.18581866 -0.16534753 -0.40551385 0.6245527 -0.93925416 0.38418594 0.28892064
0.019631572 -0.3726912 0.6695053 -0.22502369 0.19814111 -0.5481755 0.79989904 0.04046831

out.bias f4 [4]
00000000: 500d 1b3e 8084 84bb 7d9b fabc d17e 533d
0.15141797 -0.0040441155 -0.03059172 0.051634613
