checkpoints/checkpoint_critic_1_2.pth (torch, 87959 bytes, 5 tensors)

hidden1.weight f4 [128, 37]
0	0xbe9d6e25	-0.30748096
1	0xbdcad202	-0.09903337
2	0xbdb62e91	-0.088956006
3	0x3e0c3b1a	0.1369442
4	0xbcc35944	-0.023846276
5	0x3d59e80d	0.053199816
6	0xbe94adc2	-0.29038817
7	0xbeff417f	-0.49854657
8	0x3e337525	0.17525156
9	0xbd47db33	-0.04879303
10	0x3d2cb3be	0.042163603
11	0x3d686d8d	0.0567451
12	0xbe19e2aa	-0.15027872
13	0xbdcefa97	-0.1010639
14	0x3e817717	0.2528617
15	0xbcf74245	-0.030182967
16	0x3d470eac	0.048597977
17	0x3d0d8329	0.034548912
18	0x3c0ce359	0.008599126
19	0xbcd12aa2	-0.025533024
20	0x3c3552a9	0.011067071
21	0x3e1bce28	0.15215361
22	0x3d01cdcb	0.0316904
23	0x3e22fc7b	0.15916626
24	0x3e0b1be1	0.13584854
25	0x3e1c09fc	0.15238184
26	0xbce870e3	-0.028374141
27	0x3db739d0	0.08946574
28	0xbe60e6cf	-0.21963046
29	0x3d6226a0	0.055212617
30	0xbdb9aa15	-0.09065644
31	0xbdaeec18	-0.08541125
32	0x3f4268ba	0.7594105
33	0xbd37b259	-0.04484782
34	0xbd58de94	-0.052946642
35	0xbf0a8f2f	-0.5412473
36	0x3ea78840	0.32721138
37	0x3dc4f4be	0.09616993
38	0x3eb9f60a	0.36320525
39	0x3e869fa8	0.26293683
40	0xbcad67a7	-0.02116759
41	0xbcb77f3b	-0.022399535
42	0xbe53edbe	-0.2069616
43	0xbed0616e	-0.40699333
44	0xbd77230c	-0.060336158
45	0xbe2e0220	-0.16992998
46	0x3d978e2f	0.07400166
47	0xbc63d7cc	-0.01390643
48	0x3dc9cf9f	0.09854054
49	0x3d46055c	0.048344955
50	0xbe829b8f	-0.25509307
51	0xbdd8401c	-0.10559103
52	0xbb2ad5ec	-0.0026067449
53	0xbe1e16ce	-0.15438387
54	0x3d861200	0.06546402
55	0xbdc9e701	-0.098585136
56	0x3d555c03	0.052089702
57	0x3dab4890	0.083634496
58	0x3d98b036	0.074554846
59	0xbe403bfa	-0.18772879
60	0xbde724a5	-0.11286286
61	0x3d3fb907	0.046807315
62	0x3e1398ff	0.14413832
63	0x3e73d582	0.23811916
64	0x3eaaffd5	0.3339831
65	0x3d2bc9b9	0.041940425
66	0xbd18258c	-0.037145182
67	0xbd4408f4	-0.0478601
68	0x3d9077aa	0.07054074
69	0x3fdb7f5a	1.714824
70	0xbe6f9d42	-0.23399833
71	0xbe30e344	-0.17274195
72	0x3d06a279	0.03286979
73	0xbe169406	-0.14704904
74	0xbd19ab7f	-0.037517067
75	0x3e9059d8	0.28193545
76	0x3d5a96b7	0.05336639
77	0xbee7d2fa	-0.4527815
78	0xbe55ddf0	-0.20885444
79	0xbd1ec12f	-0.038758453
80	0xbd87c14f	-0.066286676
81	0x3e0b25d4	0.13588649
82	0xbda268ba	-0.07930131
83	0xbebaaaff	-0.36458585
84	0xbe361a9d	-0.1778359
85	0xbd866b12	-0.06563391
86	0xbd87b55c	-0.066263884
87	0x3ddf58ec	0.109056324
88	0x3d651eb0	0.05593747
89	0x3ea84f3f	0.3287296
90	0x3ded749b	0.11594506
91	0x3cbc4ebb	0.02298676
92	0x3db0ca60	0.0863235
93	0xbe8269ff	-0.25471494
94	0x3d2cc337	0.04217836
95	0xbde38006	-0.11108403
96	0xbe9744e7	-0.29544756
97	0xbd7a787e	-0.061150067
98	0xbdf4f60c	-0.11960992
99	0xbcc9fd40	-0.024656892
100	0xbe554323	-0.20826392
101	0x3f119872	0.5687324
102	0xbe4b0825	-0.19827326
103	0x3e18f1ab	0.14935939
104	0xbf16f1f7	-0.5896296
105	0xbc1091d0	-0.008823827
106	0xbee042c6	-0.43800944
107	0xbe33c084	-0.17553908
108	0x3e608f3c	0.2192964
109	0x3e9aac3c	0.3020953
110	0x3e3d86e0	0.18508482
111	0x3dd467ee	0.103713855
112	0xbd0e897d	-0.034799088
113	0x3f15984a	0.584355
114	0xbe6037ad	-0.21896239
115	0xbeb002c4	-0.3437711
116	0xbca8316d	-0.02053138
117	0xbdd74c0c	-0.10512552
118	0xbe71e2d2	-0.23621681
119	0x3d138ae4	0.03602113
120	0x3e243b8b	0.16038339
121	0x3d64c3b1	0.05585069
122	0xbd04436c	-0.03229086
123	0x3eb46ea2	0.35240656
124	0xbd5b61cc	-0.053560063
125	0x3ee8dbc5	0.4548017
126	0x3d3d1151	0.046159092
127	0xbe08110f	-0.13287757
128	0xbd9e8723	-0.07740619
129	0x3dbd3824	0.092392236
130	0xbde2a306	-0.110662505
131	0x3d8ef717	0.069807224
132	0xbeaf6636	-0.34257668
133	0xbea7156e	-0.32633537
134	0x3cb1cf23	0.021705216
135	0x3e4dd3a4	0.20100266
136	0x3e5dd882	0.21664622
137	0x3db93220	0.09042764
138	0x3ea69c9b	0.32541355
139	0xbddf54ff	-0.109048836
140	0x3dc5690a	0.09639175
141	0xbe91cc6e	-0.2847628
142	0x3d2b63f4	0.04184337
143	0xbf3a0b98	-0.7267394
144	0xbef617d9	-0.4806507
145	0x3c59efca	0.013301799
146	0xbf206315	-0.6265119
147	0xbd0906e7	-0.03345385
148	0x3e56215b	0.20911162
149	0xbeb650bc	-0.3560847
150	0xbeae5132	-0.34046322
151	0x3dee44fa	0.1163425
152	0x3d5bbd7d	0.053647507
153	0x3e03f5e8	0.12886775
154	0x3bafd1ca	0.005365585
155	0xbc3d51a0	-0.011555105
156	0x3de915f2	0.11381139
157	0xbd8b4d97	-0.068019085
158	0xbe31c2ad	-0.17359419
159	0xbd96dff0	-0.073669314
160	0xbccb6126	-0.024826597
161	0x3d4573a9	0.048206005
162	0xbd65e0c3	-0.056122553
163	0x3e3eaf3c	0.18621534
164	0x3e22088b	0.15823571
165	0x3df343df	0.1187818
166	0x3e88b521	0.2670069
167	0x3d9608b5	0.073258795
168	0xbdb52faf	-0.088469855
169	0xbcc43c2a	-0.02395447
170	0x3e56d0e9	0.2097813
171	0xbe278a83	-0.16361432
172	0x3d99344b	0.07480677
173	0x3e1dd5c8	0.15413582
174	0xbded919d	-0.11600039
175	0xba34193e	-0.00068702165
176	0x3ebab606	0.36466998
177	0x3cf067c8	0.029346362
178	0xbd1a965e	-0.037741058
179	0x3d1c87d8	0.03821549
180	0x3f2f1169	0.6838594
181	0xbecbc324	-0.39797318
182	0x3d34d859	0.044151638
183	0xbe18aaa0	-0.14908838
184	0xbde0556b	-0.10953792
185	0xbeb33889	-0.3500407
186	0x3deb0b4c	0.11476764
187	0xbdac3523	-0.084085725
188	0xbe2fd6bf	-0.17171763
189	0x3e179ee4	0.14806706
190	0x3e3ae142	0.18249992
191	0x3d8c8bc3	0.06862595
192	0xbe1dfd36	-0.15428624
193	0x3cfddbc8	0.030988589
194	0xbd12e1fa	-0.03586004
195	0x3d4335e1	0.047658805
196	0xbe6c6ff9	-0.23089589
197	0xbe109b2f	-0.14121698
198	0x3d81ae47	0.06332069
199	0xbd0c870a	-0.03430847
200	0xbe8285a8	-0.25492597
201	0x3df6f121	0.120577104
202	0x3e130d2a	0.1436049
203	0xbe28050f	-0.1640818
204	0x3e0b1e7a	0.13585845
205	0xbd368b63	-0.044566523
206	0xbc94af10	-0.018149883
207	0x3e5126f2	0.20425013
208	0x3ea0c248	0.31398225
209	0x3e0354cb	0.12825315
210	0xbe5f2b50	-0.21793866
211	0x3dad355a	0.08457442
212	0x3e99cbd4	0.3003832
213	0x3d85ad06	0.06527142
214	0xbdd1b2f5	-0.102392115
215	0xbecfc77d	-0.40581885
216	0xbd65731e	-0.056017987
217	0x3f508e55	0.8146718
218	0x3ed70bbc	0.4200114
219	0x3d25376a	0.04033605
220	0xbe81945f	-0.2530851
221	0xbe73b0d1	-0.23797919
222	0xb9b507e7	-0.00034528898
223	0xbeb987e9	-0.36236504
224	0x3e8baf62	0.27282244
225	0xbde7436a	-0.11292155
226	0x3e9a9a0b	0.3019565
227	0x3d6464c4	0.05576016
228	0xbdf68e02	-0.120388046
229	0xbe387602	-0.18013766
230	0xbebbb14b	-0.366587
231	0x3cc9dfd0	0.024642855
232	0xbd0786db	-0.033087593
233	0x3b7187a7	0.0036854537
234	0xbe004284	-0.12525374
235	0xbdbe06f1	-0.09278668
236	0x3e7a0bce	0.24418566
237	0xbd521df5	-0.0512981
238	0xbd0e60e6	-0.03476038
239	0x3dc982d2	0.09839405
240	0xbdf46e31	-0.1193508
241	0x3dc8af17	0.09799021
242	0x3d1ccc19	0.03828058
243	0x3d96f01e	0.073700175
244	0xbdcef795	-0.10105816
245	0xbd8b1a37	-0.067921095
246	0x3dacef6c	0.084441036
247	0xbcd4b76e	-0.025966372
248	0xbc7ba9e4	-0.015360329
249	0x3db1d18c	0.08682546
250	0xbe6503e4	-0.22364765
251	0xbccde460	-0.025133312
252	0xbdeac86e	-0.1146401
253	0x3de8e68e	0.113721
254	0xbfdc8208	-1.7227182
255	0xbd875d1c	-0.06609556

hidden1.bias f4 [128]
0	0xbdb0eeb0	-0.08639276
1	0xbd199ad2	-0.037501164
2	0xbef0c4f1	-0.47025254
3	0xbeb76b19	-0.35823897
4	0x3d8f2cd4	0.06990972
5	0xbeab15da	-0.3341511
6	0xbe735c89	-0.23765768
7	0xbe070f05	-0.13189323
8	0x3df89338	0.12137455
9	0xbe33e44d	-0.17567559
10	0xbefdb00d	-0.4954838
11	0xbe20474a	-0.15652195
12	0xbedd6fcb	-0.43249354
13	0xbe45152b	-0.19246356
14	0x3e92e9cd	0.28694
15	0x3d10a3e0	0.035312533
16	0xbea818a4	-0.328313
17	0xbe87c36c	-0.26516283
18	0xbe1fe2a0	-0.15613794
19	0xbe4c6565	-0.19960554
20	0xbca35047	-0.01993574
21	0xbe3d23c9	-0.18470682
22	0xbe3e77ea	-0.18600431
23	0xbf10057c	-0.5625837
24	0xbf01203c	-0.5043981
25	0xbd4ea9e2	-0.05045498
26	0x3d19b2e6	0.037524126
27	0xbe38e56c	-0.18056267
28	0xbe562ac2	-0.20914748
29	0xbecf0647	-0.40434477
30	0xbd808005	-0.06274418
31	0xbe92ad29	-0.28647736
32	0xbf05d7dc	-0.522825
33	0xbecccebf	-0.40001485
34	0xbee48e3b	-0.44639763
35	0xbe0e3fde	-0.13891551
36	0x3d9cfdac	0.076655716
37	0xbeffce3b	-0.4996203
38	0x3e16a577	0.14711557
39	0xbe2be343	-0.16785912
40	0xbe009e74	-0.12560445
41	0xbeda640d	-0.42654458
42	0xbf05fe30	-0.52340984
43	0xbef85bc1	-0.48507503
44	0xbec6cead	-0.38829556
45	0xbea7b308	-0.32753778
46	0xbe9a3a7c	-0.30122745
47	0xbd3fa6d2	-0.04678995
48	0xbdef198c	-0.116747946
49	0xbeb0c9c9	-0.3452895
50	0xbee82148	-0.45337892
51	0xbedd6faa	-0.43249255
52	0xbeb0e232	-0.34547573
53	0xbec53676	-0.38518113
54	0xbed2a515	-0.41141573
55	0xbe9b19b1	-0.30293038
56	0xbf3b086f	-0.73059744
57	0xbdf94c48	-0.121727526
58	0xbe2b15cb	-0.16707532
59	0xbec5c390	-0.38625765
60	0xbefecdd0	-0.49766397
61	0xbcb6f999	-0.022335814
62	0xbd88bfc7	-0.066772036
63	0xbed91090	-0.4239545
64	0x3d924cb8	0.07143539
65	0xbed89811	-0.42303517
66	0xbda950de	-0.08267377
67	0xbc33f69f	-0.010984092
68	0xbe7410d4	-0.23834544
69	0xbea6d3e5	-0.32583538
70	0xbeb566cd	-0.35429993
71	0xbdaae91e	-0.08345245
72	0xbe27e78e	-0.16396925
73	0xbe02ed89	-0.12785925
74	0xbe5fa2a2	-0.21839383
75	0xbe4e9b82	-0.20176509
76	0xbee78332	-0.45217282
77	0xbd83177f	-0.06400966
78	0xbead260b	-0.33818087
79	0xbdf9590b	-0.12175187
80	0xbe15fa3d	-0.1464624
81	0x3e2d19cb	0.1690437
82	0x3d7ba12a	0.061432995
83	0x3e1d1a9a	0.15342179
84	0xbdf10cbf	-0.11770009
85	0xbec50886	-0.38483065
86	0xbeb1907b	-0.34680542
87	0xbe96acd6	-0.29428738
88	0xbe61ed5b	-0.220632
89	0xbe278cf2	-0.1636236
90	0xbce334c5	-0.027735123
91	0xbd92335f	-0.071387045
92	0xbdfc0709	-0.12306029
93	0xbea1efbe	-0.3162822
94	0xbdee1de9	-0.11626799
95	0xbeb169af	-0.34650943
96	0x3c032a7c	0.0080057345
97	0xbe9b2ce9	-0.303077
98	0x3d7fda22	0.062463887
99	0x3e8a4740	0.27007484
100	0xbe2da161	-0.16956092
101	0xbe695864	-0.22787625
102	0xbf08cee6	-0.534407
103	0x3e346e64	0.17620236
104	0xbedc23c2	-0.4299603
105	0xbdbc4d99	-0.09194488
106	0xbf2a7987	-0.66591686
107	0xbf0b7173	-0.54469985
108	0xbf0fd4bc	-0.5618398
109	0xbdf78c88	-0.12087351
110	0xbe91c3a0	-0.28469563
111	0xbccc8ea4	-0.02497036
112	0xbf160ecd	-0.58616334
113	0xbe8e1847	-0.27752897
114	0x3deef8a4	0.11668518
115	0xbe27b009	-0.16375746
116	0xbf149987	-0.58046764
117	0xbe0d676e	-0.13808987
118	0xbe6a86f3	-0.22903042
119	0xbe9976f9	-0.2997358
120	0xbe75cedf	-0.24004696
121	0xbf34f9f8	-0.7069392
122	0xbe96bee5	-0.29442516
123	0x3dfce894	0.12349048
124	0x3d9b3ee8	0.07580358
125	0xbe0e978d	-0.13925
126	0xbde027dd	-0.10945103
127	0x3c802fea	0.015647847

hidden2.weight f4 [128, 128]
0	0x3d18617e	0.03720235
1	0x3c8b1842	0.01697934
2	0xbd875507	-0.066080146
3	0x3d263b92	0.040584154
4	0xbc81d018	-0.015846297
5	0x3ce0de1b	0.027449658
6	0xba07e889	-0.0005184492
7	0xbd94d146	-0.07266478
8	0xbd8d8aef	-0.06911265
9	0xbd60b8a0	-0.054863572
10	0x3d8ef400	0.06980133
11	0xbdb70a7f	-0.08937549
12	0xbdce65d9	-0.1007802
13	0xbda54d6d	-0.080714084
14	0xbda16c22	-0.07881953
15	0xbdd4e20d	-0.10394678
16	0xbd399c36	-0.04531499
17	0x3d35b7b6	0.044364654
18	0xb97413b3	-0.00023276992
19	0xbdce2c96	-0.10067098
20	0xbd796a38	-0.060892314
21	0x3cb9517e	0.022621866
22	0x3c436507	0.011925942
23	0xbd1ce904	-0.03830816
24	0xbd26cfc2	-0.040725477
25	0x3c5f7424	0.01363853
26	0xbd9d0a05	-0.07667927
27	0xbdca50c0	-0.09878683
28	0xbd49ea78	-0.049295872
29	0x3bcc2895	0.0062304237
30	0xbd692848	-0.05692318
31	0xbc07a442	-0.008278908
32	0x3d076e14	0.033063963
33	0xbd8c5217	-0.06851595
34	0xbd9dabdb	-0.076987945
35	0xbe0b584b	-0.136079
36	0xbc9b5aab	-0.018964132
37	0xbe08efd1	-0.13372733
38	0xbc6ff9cd	-0.0146469595
39	0x3bc60217	0.0060427296
40	0x3a7780ae	0.0009441477
41	0xbd8ed3fc	-0.069740266
42	0xbcb6032c	-0.02221831
43	0xbd640964	-0.055673018
44	0x3d046212	0.03232009
45	0xbdb4dca4	-0.08831146
46	0x3ccf299f	0.025288401
47	0xbcead3df	-0.028665481
48	0xbce52c52	-0.027975235
49	0xbbdfbd17	-0.006827961
50	0xbd857793	-0.065169476
51	0xbc4ed713	-0.01262452
52	0xbd878f49	-0.06619126
53	0xbdd5f644	-0.10447362
54	0x3cb28633	0.021792507
55	0xbdd9f14c	-0.10641727
56	0x3d53cefa	0.05171106
57	0xbd00c874	-0.031441167
58	0x3cb125dc	0.021624498
59	0x3ca5c3bd	0.020234937
60	0x3beb2e4f	0.0071771513
61	0xbd9f3767	-0.07774239
62	0x3d0dd5fc	0.0346279
63	0x3d684ce6	0.05671396
64	0x3cbb8dc6	0.022894751
65	0x3ca2585e	0.019817527
66	0xbc0df52c	-0.008664411
67	0xbca3b1bc	-0.019982211
68	0x3d2ea5b5	0.0426385
69	0xbd4690dd	-0.048477996
70	0xbdb374a7	-0.08762484
71	0xbd800ad0	-0.06252062
72	0xbd9e51fb	-0.0773048
73	0xbdbf63f0	-0.093452334
74	0xbd51723c	-0.051134333
75	0x3bca0c96	0.006166051
76	0x3c809881	0.01569772
77	0xb9df6fbd	-0.00042617126
78	0xbde82690	-0.1133548
79	0xbd6c938c	-0.0577579
80	0xbd0da4e3	-0.034581076
81	0xbdd3e807	-0.1034699
82	0xbda770c6	-0.08175807
83	0x3d01629a	0.031588174
84	0xbd4be6d4	-0.04978068
85	0x3d030aeb	0.031992834
86	0xbcc56ad0	-0.024098784
87	0xbd0bbbaf	-0.034114536
88	0xbceebad7	-0.029141827
89	0x3cedc8ea	0.029026467
90	0xbdd7d150	-0.1053797
91	0x3c9ff66b	0.019526681
92	0xbd166c41	-0.036724333
93	0x3d2ce92b	0.042214554
94	0xbd40a4a4	-0.047032014
95	0xbcd1bf5e	-0.025603946
96	0xbce26b21	-0.027638974
97	0xbd076595	-0.03305586
98	0xbd679a2b	-0.05654351
99	0xbdb48fd4	-0.088164955
100	0xbdd0aa53	-0.10188737
101	0x3d2c34af	0.04204243
102	0xbda88da8	-0.08230144
103	0x3d5365cd	0.051610757
104	0xbd4c0ee1	-0.049818877
105	0xbd07fce0	-0.033200145
106	0xbc219729	-0.0098627
107	0xbd4c75a8	-0.049916893
108	0xbdf9fc24	-0.12206295
109	0xbacfb416	-0.0015846516
110	0xbd1394ba	-0.03603051
111	0x3ce83c77	0.028349144
112	0xbde2014b	-0.11035403
113	0xbdc952d7	-0.098302536
114	0xbded7d04	-0.115961105
115	0xbdc32948	-0.09529358
116	0xbdb5613e	-0.08856438
117	0xbd6d22db	-0.05789457
118	0xbc8bd1b4	-0.017067768
119	0x3ca339c2	0.019925002
120	0xbd31a19d	-0.043367017
121	0x3d9f65d2	0.077830926
122	0xbd8476cd	-0.06467972
123	0xbd38cfe9	-0.045120154
124	0xbdad15af	-0.084514014
125	0x3d5593e7	0.052143004
126	0xbd78235a	-0.06058059
127	0xbc8feccb	-0.017568966
128	0xbd8f20dc	-0.06988689
129	0xbd909a72	-0.07060708
130	0xbe3dd3a5	-0.18537767
131	0x3cf58652	0.029971275
132	0x3cf59a23	0.029980725
133	0xbddb3f05	-0.107053794
134	0x3acb8f1f	0.0015530324
135	0xbda67752	-0.08128227
136	0xbd5a94eb	-0.053364675
137	0xbccef213	-0.025261914
138	0x3cfbaa98	0.030720994
139	0xbde43f57	-0.111448936
140	0x3bc3585c	0.005961461
141	0xbd539004	-0.051651016
142	0x3d3a7ddb	0.04553018
143	0x3c064021	0.008194
144	0x3d489154	0.04896672
145	0xbdc28e9a	-0.09499855
146	0xbd24dea9	-0.040251408
147	0x3cf3cefa	0.02976178
148	0xbd06323b	-0.032762747
149	0xbce3349b	-0.027735045
150	0x3c80ebe0	0.015737474
151	0xbdfa5f0a	-0.122251585
152	0x3d2a5545	0.041585226
153	0x3d82c81a	0.063858226
154	0x3ced7736	0.028987508
155	0x3c90cf2c	0.017676912
156	0xbd2fefbb	-0.042953234
157	0x3ccb94f5	0.024851302
158	0x3cf3b216	0.029748004
159	0xbca00b80	-0.019536734
160	0xbdbea962	-0.09309651
161	0x3bc8087e	0.006104528
162	0x3d519dd4	0.051175907
163	0x3ade7e4d	0.0016974896
164	0x3b2079b2	0.0024486599
165	0xbe0a19a2	-0.1348634
166	0xbd20bdf7	-0.039243665
167	0xbddb39cf	-0.107043855
168	0xbd88b11c	-0.06674406
169	0xbcb06453	-0.021532213
170	0xbd05fc1d	-0.032711137
171	0xbe27202d	-0.16320868
172	0xbd9f6b57	-0.07784145
173	0x3d46674d	0.04843836
174	0xbc8e6619	-0.017382668
175	0x3ccac3b8	0.02475153
176	0xbc9c78d9	-0.019100593
177	0xbdf4e73f	-0.11958169
178	0xbd71c335	-0.059024055
179	0xbc8dc62c	-0.01730641
180	0xbd43ee17	-0.047834482
181	0xbc3ff7a4	-0.011716757
182	0xbb3b0dc6	-0.0028542145
183	0x3d08d9f8	0.033410996
184	0xbdc9c587	-0.098521285
185	0xbda9fa6e	-0.08299719
186	0xbcadab36	-0.021199804
187	0x3af37699	0.0018574774
188	0xbc78b1c0	-0.015179098
189	0xbca62775	-0.020282486
190	0xbd862e61	-0.06551815
191	0xbc7d4d8f	-0.015460386
192	0xbdca855b	-0.09888717
193	0xbdb0bec6	-0.08630137
194	0xbc9604bd	-0.018312806
195	0x3cc39ae4	0.023877569
196	0x3d120372	0.035647817
197	0xbc265afe	-0.01015353
198	0xbd116a02	-0.035501488
199	0xbd843410	-0.06455243
200	0xbcc4323c	-0.023949735
201	0xbc9c65f9	-0.019091593
202	0xbdd76409	-0.10517127
203	0xbd25d287	-0.040483978
204	0xbccd0090	-0.025024682
205	0xbb813cdc	-0.0039440226
206	0xbd2468f7	-0.040139165
207	0x3d62926f	0.05531543
208	0xbe3f5978	-0.18686473
209	0xbda6e1dd	-0.08148549
210	0x3a3f1ffe	0.0007290839
211	0xbd50007e	-0.05078172
212	0xbdc8160c	-0.0976983
213	0x3c1eaff6	0.009685507
214	0xbe3e042b	-0.18556277
215	0x3caab4fa	0.02083825
216	0xbdf91060	-0.121613264
217	0xbd52fd2d	-0.05151098
218	0xbceee802	-0.029163364
219	0xbd321f92	-0.04348714
220	0xbdf43e34	-0.11925927
221	0x3cd21cb1	0.025648447
222	0xbddb5da5	-0.10711221
223	0x3c9317fb	0.01795577
224	0xbd5fa82d	-0.054603744
225	0x3d3e7691	0.046499792
226	0xbd85ec37	-0.06539195
227	0x3d0b3e09	0.03399471
228	0xbd3ac85c	-0.045601234
229	0xbd3ea134	-0.046540454
230	0xbd505c86	-0.050869487
231	0xbe21852e	-0.1577346
232	0xbdd8cb58	-0.1058566
233	0xbd973963	-0.073839925
234	0xbd9c001a	-0.07617207
235	0x3c70fe48	0.014709063
236	0xbe0aa023	-0.1353765
237	0xbdfd56d2	-0.12370075
238	0xbe0295d8	-0.12752473
239	0x3c7a04f7	0.015259973
240	0xbd4a6933	-0.049416732
241	0x3c95b4ca	0.018274684
242	0xbe482ba2	-0.19547895
243	0xbce89322	-0.02839047
244	0x3d42301e	0.04740917
245	0x3d1d8fb5	0.038467128
246	0xbd9af828	-0.07566863
247	0x3a40ca1d	0.0007354336
248	0x3bc565d8	0.0060241036
249	0xbde4831a	-0.11157818
250	0xbd91f03d	-0.071259
251	0xbcb1a1fd	-0.021683687
252	0xbcbf6d36	-0.023367506
253	0xbd9be606	-0.07612233
254	0x3c7bc09b	0.015365745
255	0xbd98738d	-0.074439146

hidden2.bias f4 [128]
0	0xbdadea21	-0.08491922
1	0xbdf522af	-0.11969506
2	0xbdd48919	-0.10377712
3	0xbdbe27d0	-0.092849374
4	0xbdb6456b	-0.08899959
5	0xbdb373e7	-0.08762341
6	0x3ef15f50	0.4714303
7	0xbe2ca519	-0.16859855
8	0xbd7849ac	-0.060617134
9	0xbdc64108	-0.096803725
10	0x3e851c26	0.25998038
11	0xbd49cbad	-0.049266506
12	0xbd3960e8	-0.045258433
13	0xbca2136d	-0.019784654
14	0xbd7c2c0c	-0.061565444
15	0xbd771dce	-0.06033116
16	0xbde4cede	-0.11172269
17	0x3eea1839	0.45721605
18	0xbbe6a510	-0.00703872
19	0xbdcb042e	-0.099129066
20	0xbde9dec9	-0.11419446
21	0x3e33965d	0.17537828
22	0x3eda5a3a	0.42646962
23	0xbdaf9415	-0.08573166
24	0x3c077755	0.008268197
25	0xbdac0c82	-0.08400823
26	0xbc8beb20	-0.01707989
27	0xbc93a480	-0.018022776
28	0xbd2a92f6	-0.04164406
29	0xbe015ecc	-0.12633818
30	0xbcc2fe6b	-0.023802957
31	0x3e85edd0	0.26158
32	0xbe099686	-0.13436326
33	0xbda39f52	-0.07989372
34	0xbd55f967	-0.0522398
35	0xbd9f55a0	-0.077800035
36	0xbde41aec	-0.111379474
37	0xbd8034e4	-0.06260088
38	0xbd9a448c	-0.075326055
39	0xbdf7a787	-0.120925
40	0xbd544f3e	-0.051833384
41	0xbd74a2ea	-0.05972568
42	0xbd99ad4f	-0.07503759
43	0x3e4146df	0.18874691
44	0x3e977c2b	0.2958692
45	0xbe0f1953	-0.13974504
46	0xbd96e270	-0.07367408
47	0xbdbf6a4c	-0.093464464
48	0xbdbcb77a	-0.09214683
49	0xbd782b3a	-0.0605881
50	0xbd0e0711	-0.034674708
51	0xbd19b730	-0.037528217
52	0x3c84978f	0.01618555
53	0xbd7affcb	-0.0612791
54	0xbe119cd5	-0.14219983
55	0xbdd42162	-0.1035793
56	0xbd39c785	-0.045356292
57	0xbd5372a1	-0.05162299
58	0xbd9162cf	-0.07098924
59	0xbd2bf667	-0.041983034
60	0xbdc7448b	-0.097298704
61	0xbd53fafc	-0.05175303
62	0xbe749435	-0.23884661
63	0x3e8112d1	0.25209668
64	0xbd113484	-0.035450473
65	0xbd854ff3	-0.0650939
66	0x3e08edea	0.13372007
67	0x3f10ec79	0.5661083
68	0xbc4e7785	-0.012601738
69	0x3da251c4	0.07925752
70	0x3c822092	0.015884671
71	0xbd292ab9	-0.04130051
72	0x3dfcc344	0.123419315
73	0xbda05372	-0.07828416
74	0xbdd1c96f	-0.102434985
75	0xbd577129	-0.052598152
76	0xbdcade51	-0.09905685
77	0xbddfc975	-0.10927097
78	0x3c045758	0.008077465
79	0x3d7a18a0	0.06105864
80	0xbde584c7	-0.11206966
81	0xbce21fe9	-0.027603107
82	0xbe232742	-0.15932944
83	0xbd49e7db	-0.04929338
84	0xbd117c9b	-0.035519224
85	0xbd00557f	-0.031331535
86	0xbe20a679	-0.15688504
87	0xbd7c7fd6	-0.06164535
88	0xbc4326b1	-0.01191108
89	0x3cb609a7	0.0222214
90	0xbde29b80	-0.110648155
91	0xbd01e25e	-0.03171002
92	0xbae8454d	-0.0017720849
93	0xbd9525d7	-0.07282608
94	0xbb3e91fb	-0.002907871
95	0xbe0fb01f	-0.14032029
96	0xbde1022c	-0.109867424
97	0x3e77390f	0.2414286
98	0xbe06ba45	-0.13156994
99	0xbd9f5ae4	-0.07781008
100	0xbe1d717f	-0.15375327
101	0x3de66b21	0.11250902
102	0x3c8c2bae	0.017110672
103	0xbdbe5b2a	-0.09294732
104	0xbd71e902	-0.059060104
105	0xbdeba597	-0.11506193
106	0xbcd938c1	-0.02651632
107	0xbd3afa70	-0.045648992
108	0xbd5ce29c	-0.05392705
109	0xbdaa82b3	-0.0832571
110	0xbddab255	-0.106785454
111	0xbde266ec	-0.11054787
112	0xbd83379f	-0.06407093
113	0x3eb2c1c4	0.34913456
114	0xbcd1610a	-0.025558967
115	0xbe2f08ae	-0.17093155
116	0xbdf4cba5	-0.119529046
117	0x3ea0d78e	0.31414455
118	0xbd2ac068	-0.0416874
119	0xbd9415cc	-0.0723072
120	0x3991fc60	0.0002784459
121	0xbe1e78c9	-0.15475763
122	0x3bfab439	0.0076508787
123	0xbe00d687	-0.12581836
124	0x3d747bcf	0.059688386
125	0xbca91ff7	-0.020645125
126	0xbc442205	-0.0119710015
127	0xbe140d14	-0.14458114

out.weight f4 [1, 128]
0	0xbc2746cd	-0.010209751
1	0xbb5da9ec	-0.0033823205
2	0x3c84a1fa	0.016190518
3	0xbc392db6	-0.011302402
4	0xbc898901	-0.016788961
5	0xbbf4e889	-0.0074740094
6	0x3d41fec5	0.047362108
7	0xbcb91128	-0.022591189
8	0x3b318409	0.0027086756
9	0xbc36a4b6	-0.011147669
10	0x3ccbff38	0.024901971
11	0xbda53639	-0.08066983
12	0xbc8ef061	-0.017448606
13	0xbc106a9c	-0.00881448
14	0xbe1001c7	-0.14063178
15	0x3c2a2b5b	0.010386313
16	0x3c8b2582	0.016985659
17	0x3df44061	0.11926342
18	0xbc094770	-0.008378848
19	0xbda38ce4	-0.07985857
20	0xbcd84842	-0.026401643
21	0xbd050a68	-0.032480627
22	0xbd4e391b	-0.05034743
23	0xbcc3a9b2	-0.023884628
24	0xbca0a191	-0.01960829
25	0x3a45e471	0.0007548994
26	0xbca9cdba	-0.02072798
27	0x3c038f7e	0.008029817
28	0x3b858dac	0.0040757265
29	0x3ba294fb	0.0049616075
30	0x3ae12fed	0.0017180421
31	0x3d46d8f8	0.04854676
32	0x3ca641b9	0.02029501
33	0x3c3c49ae	0.011492176
34	0x3c80867a	0.015689123
35	0xbcc5735a	-0.024102855
36	0xbb1ac1dc	-0.0023614084
37	0x3b0b8f27	0.0021295042
38	0xbd3a2b01	-0.045451168
39	0xbca09d2e	-0.0196062
40	0xbcc8bb1d	-0.024503285
41	0x3bb64031	0.0055618514
42	0xb9b746dd	-0.00034957277
43	0x3d2798eb	0.04091732
44	0x3cd7be0e	0.026335742
45	0xbc7d40ce	-0.015457345
46	0xbb89995f	-0.0041991915
47	0xbb3cb2b3	-0.0028793036
48	0xbc699531	-0.014256761
49	0xbbe64e64	-0.007028388
50	0x3bae7526	0.005324024
51	0xbc44545e	-0.011983005
52	0x3bd72615	0.006565819
53	0xbc65e1d9	-0.014030897
54	0xbc3e67d9	-0.011621439
55	0x3cd31ec7	0.025771512
56	0xbd292fe7	-0.04130545
57	0x3c1f1107	0.0097086495
58	0x3bb7a2f8	0.005604144
59	0x3b5c0974	0.003357497
60	0x3ba6dd9a	0.005092335
61	0x3ce41d41	0.02784598
62	0x3ba4075d	0.0050057606
63	0xbd7da453	-0.06192429
64	0xbbd78c5e	-0.0065780124
65	0xbc216902	-0.009851696
66	0x3d17666b	0.036962908
67	0x3d95142a	0.072792366
68	0xbcd0e55e	-0.025499996
69	0xbd216923	-0.039406907
70	0xbdaa973f	-0.08329629
71	0xbc70f143	-0.014705959
72	0x3cdc3646	0.026881348
73	0x3c102d7e	0.008799909
74	0x3ac40b2b	0.0014956942
75	0xbc7c00d2	-0.015381055
76	0xbbfec773	-0.007775241
77	0xbc2082d1	-0.009796814
78	0x3c818e49	0.015814917
79	0x3a5078fb	0.0007952598
80	0xbb48f859	-0.0030665605
81	0x3cd4bafb	0.025968065
82	0xbc9eeb48	-0.0193993
83	0xbbaa9acc	-0.0052064415
84	0xbbf22ecb	-0.007390832
85	0xbc9681f0	-0.018372506
86	0xbc60e299	-0.0137259
87	0x3cb68c88	0.022283807
88	0x3be62f83	0.007024707
89	0x3d2e5148	0.042557985
90	0x3c6e9678	0.014562242
91	0xbc0031cc	-0.0078243725
92	0xbcce82de	-0.025208887
93	0xb7135120	-8.780771e-06
94	0xbc038812	-0.008028047
95	0xbca7cf34	-0.020484544
96	0x3c523520	0.012830049
97	0xbd9d9a51	-0.07695449
98	0xbc923791	-0.017848762
99	0xbc8ed3d0	-0.017434984
100	0xbb62814e	-0.0034561935
101	0xbd3cbb9c	-0.046077356
102	0xbccf0d33	-0.025274849
103	0xbc77e4d7	-0.015130243
104	0x3c3d5611	0.011556164
105	0xbcbad35f	-0.022805868
106	0x3bf6c60b	0.007530933
107	0x3c6158cc	0.013754081
108	0x3bcd48a4	0.006264763
109	0xbba2de47	-0.004970345
110	0xbc69b202	-0.014263632
111	0x3b8bfc98	0.004272055
112	0xbc75fea7	-0.015014327
113	0x3d6884e7	0.05676737
114	0xbcbc5ae2	-0.022992555
115	0xbc9fa9dc	-0.019490175
116	0x3c856c06	0.016286861
117	0x3d214641	0.03937364
118	0x3c7b57c2	0.015340747
119	0xbc5a1d62	-0.0133126695
120	0x3cd82965	0.026386926
121	0x3a02a8aa	0.00049842393
122	0x3a55e575	0.0008159497
123	0xbcab41de	-0.020905431
124	0xbd828d63	-0.063746236
125	0x396da199	0.00022662281
126	0xbc747fee	-0.014923079
127	0xbc8aab8b	-0.016927501
