checkpoints/checkpoint_critic_a2c_7.pth (torch, 155332 bytes, 10 tensors)

std f4 [1, 4]
0	0x3e01fb22	0.12693456
1	0x3d9ea408	0.0774613
2	0x3d68d2d0	0.05684167
3	0x3d636969	0.05552045

fc1.weight f4 [128, 33]
0	0x3e1c4403	0.1526032
1	0x3d80cd1f	0.06289124
2	0x3d7b4785	0.061347503
3	0xbd40cd58	-0.04707083
4	0xbc75f054	-0.015010912
5	0x3d0251ef	0.03181642
6	0xbd68c578	-0.056828946
7	0x3dc75143	0.09732296
8	0xba31773d	-0.0006769782
9	0xbdabe9fe	-0.0839424
10	0x3c628398	0.01382532
11	0xbc2185b4	-0.009858537
12	0x3d4936fc	0.049124703
13	0xbdbdef33	-0.09274139
14	0xbcabb6ed	-0.02096125
15	0xbc92a68b	-0.01790168
16	0x3c2cd7e0	0.0105495155
17	0xbba588bc	-0.0050517004
18	0xbb91ff4b	-0.004455482
19	0x3d6ab223	0.05729879
20	0xbd9a9fef	-0.07550036
21	0x3d8d5a64	0.06902006
22	0xbde4fdb9	-0.11181206
23	0xbd8396e4	-0.064252645
24	0x3d223537	0.03960153
25	0xbd9309bf	-0.07179593
26	0xbdc493f0	-0.09598529
27	0xbcdea276	-0.027177077
28	0xbda1cc4e	-0.07900296
29	0x3d1fc816	0.039009176
30	0x3d9b550b	0.0758458
31	0xbda202c2	-0.07910682
32	0x3e877237	0.26454327
33	0xbd2ab637	-0.04167768
34	0xbe0dcaa2	-0.1384683
35	0xbdadf02a	-0.08493073
36	0x3c2a4ad8	0.010393821
37	0x3cacff5f	0.021117864
38	0x3cbe8a49	0.023259299
39	0x3cb79362	0.022409145
40	0xbb760bb3	-0.0037543594
41	0x3dfe9b9a	0.124320224
42	0xbcb91e41	-0.022597434
43	0xbd5fe583	-0.05466224
44	0xbbb47e51	-0.005508222
45	0x3d0aecf7	0.033917394
46	0x3cdfeb31	0.027333828
47	0xbd2dbcc5	-0.042416353
48	0x3db91599	0.090373226
49	0xbc843246	-0.016137253
50	0xbd7ac425	-0.061222214
51	0xbd497ef4	-0.049193338
52	0x3ca5098b	0.020146152
53	0xbb8b40aa	-0.004249652
54	0x3daff53a	0.08591695
55	0xbc637003	-0.013881686
56	0xbcafef35	-0.021476367
57	0xbd795064	-0.060867682
58	0xbd00f222	-0.031480916
59	0x3d94f2a2	0.07272841
60	0xbc6ea536	-0.014565757
61	0xbe10268e	-0.14077207
62	0x3d88f29b	0.06686898
63	0xbd8a4829	-0.06752045
64	0x3c547b60	0.012968868
65	0xbe8cce63	-0.2750121
66	0xbdb7321b	-0.08945104
67	0xbc59157d	-0.013249752
68	0x3d80b177	0.06283849
69	0x3c46057a	0.012086267
70	0x3c8fbbfc	0.017545693
71	0xbc3a0c95	-0.011355539
72	0x3d8e2029	0.06939728
73	0x3cfed2fa	0.03110646
74	0xbd5322af	-0.05154675
75	0xbcfa0c77	-0.030523522
76	0xbd1184c1	-0.035526995
77	0xbc569fcb	-0.013099621
78	0x3d02154c	0.03175859
79	0xbdb8a75d	-0.09016297
80	0xbd866ac3	-0.06563332
81	0x3ae051ee	0.0017114261
82	0xbcb29940	-0.02180159
83	0xbcc76f08	-0.024344936
84	0x3d4b4917	0.04963025
85	0xbca4bd8e	-0.020109918
86	0x3d4aa04a	0.04946927
87	0x3dc0d81a	0.09416218
88	0x3c84e604	0.016222961
89	0x3d6b1f4a	0.057402886
90	0xbdab4e1a	-0.08364506
91	0xbc766fee	-0.015041335
92	0xbbd8d8cf	-0.0066176425
93	0xbc39bde1	-0.011336775
94	0xbdc5a895	-0.09651295
95	0x3d8103b9	0.06299538
96	0xbba9c106	-0.005180481
97	0x3d3779c6	0.044793867
98	0xbd970714	-0.07374397
99	0xbe01e173	-0.12683658
100	0xbde5935d	-0.11209748
101	0x3e035e87	0.12829028
102	0x3cb9d1ac	0.022682987
103	0x3d8f992b	0.07011636
104	0x3ca501a7	0.02014239
105	0xbcae5c4a	-0.021284241
106	0xbd1e72a4	-0.03868355
107	0x3caf3870	0.021389216
108	0xbd376e3d	-0.044782866
109	0xbd07f550	-0.033192933
110	0xbc10e2d0	-0.008843139
111	0xbd66c859	-0.05634341
112	0xbd616a95	-0.055033285
113	0xbcad8673	-0.021182274
114	0xbcf4062b	-0.029788097
115	0x3d0672e2	0.032824405
116	0xbbc48870	-0.00599771
117	0xbbef8534	-0.00730958
118	0x3b80f8fc	0.0039359313
119	0x3d54952f	0.051900085
120	0x3d41f6eb	0.04735462
121	0x3d43ce7b	0.047804337
122	0xbdba300a	-0.09091194
123	0xbcdbf272	-0.026849005
124	0x3d3a4424	0.04547514
125	0x3daeda0f	0.08537685
126	0x3b5080b9	0.0031815006
127	0xbe23223d	-0.1593103
128	0x3d9763cf	0.07392084
129	0x3e0119ac	0.1260745
130	0xbc152ca0	-0.009104878
131	0x3ea85f57	0.3288524
132	0x3d82c216	0.06384675
133	0x3d9e6809	0.07734687
134	0xbd23c887	-0.03998616
135	0xbd2f7f2b	-0.042845886
136	0xbd804f3e	-0.06265114
137	0x3c970e82	0.018439535
138	0x3c91d8a9	0.017803507
139	0x3e022c25	0.12712152
140	0x3dea26b8	0.11433166
141	0x3d209bfc	0.03921126
142	0xbd04239e	-0.03226053
143	0x3ccfa3e2	0.0253467
144	0xbc9e718b	-0.01934125
145	0x3c54d5cb	0.012990425
146	0x3cd2724e	0.02568927
147	0x3e104537	0.14088903
148	0x3c2dc753	0.010606605
149	0xbbe1b201	-0.006887675
150	0x3b73d177	0.0037203708
151	0x3b5b160a	0.0033429884
152	0x3d8a96a1	0.067670114
153	0x3d25ba7c	0.04046105
154	0xbd691443	-0.05690409
155	0x3d3d5e2c	0.046232387
156	0xbda98f04	-0.08279231
157	0x3ced512a	0.028969366
158	0x3db3a809	0.087722845
159	0x3d136a92	0.035990305
160	0x3ab2433c	0.001360036
161	0xbd054732	-0.0325386
162	0x3cec88f5	0.0288739
163	0xbbb22fc0	-0.005437821
164	0x3eed7015	0.46374574
165	0xbda3f440	-0.08005571
166	0xbc3cf204	-0.01153231
167	0xbd58ea63	-0.052957904
168	0xbd443fe3	-0.04791249
169	0xbc9735ac	-0.01845821
170	0xbc8b5fb1	-0.017013403
171	0xbc207275	-0.009792914
172	0x3da19dd4	0.078914315
173	0x3c8c6bc2	0.017141227
174	0xbcfc9cea	-0.030836541
175	0x3c3111c4	0.010807458
176	0x3d8eb5a3	0.06968238
177	0xbd5a910f	-0.053360995
178	0xbd1c7ae9	-0.038203154
179	0x3c13faee	0.009031994
180	0x3ccf946b	0.025339326
181	0x3d1a97f7	0.03774258
182	0xbc7660d2	-0.015037732
183	0xbd009bb6	-0.031398498
184	0x3cc02e35	0.023459533
185	0x3def0f63	0.11672857
186	0x3d67ea11	0.056619707
187	0xbdc6008a	-0.096680716
188	0x3d177ae3	0.03698243
189	0xbdfcc7d8	-0.12342805
190	0xbd15a9fd	-0.036539067
191	0xbd881bd7	-0.06645935
192	0xbd406211	-0.046968523
193	0xbb0438df	-0.00201755
194	0xbd80c102	-0.06286813
195	0x3d517516	0.051137052
196	0x3d0e62c4	0.03476216
197	0xbe89466f	-0.2681155
198	0xbca0c846	-0.019626748
199	0x3cc6bc80	0.024259806
200	0xbd055409	-0.032550845
201	0x3d553108	0.052048713
202	0xbdf58963	-0.11989095
203	0x3c4617e1	0.012090654
204	0xbd009750	-0.031394303
205	0x3a870731	0.0010301826
206	0x3cbd54bb	0.023111692
207	0xbd43daeb	-0.0478162
208	0xbd797297	-0.060900297
209	0x3d70246e	0.058628492
210	0xbc0844b5	-0.008317162
211	0xbd523e68	-0.051329046
212	0x3e3a0356	0.18165335
213	0x3d6cdf86	0.057830356
214	0xbc64e75f	-0.013971179
215	0x3bef582d	0.0073042125
216	0x3ce5d89b	0.028057387
217	0xba80b5a7	-0.0009819762
218	0xbd7a2f0e	-0.06108003
219	0xbcc0877a	-0.0235021
220	0xbdc0a461	-0.09406353
221	0x3da11f68	0.078673184
222	0x3df95bf5	0.121757425
223	0x3d691187	0.05690148
224	0xbd5c2b1f	-0.05375206
225	0xbdb5a8cf	-0.08870088
226	0x3dd7b1f7	0.10531991
227	0xbd1ff4da	-0.039051868
228	0x3c0cc242	0.008591237
229	0xbd3844dc	-0.044987544
230	0x3e570aa0	0.21000147
231	0xbcfee150	-0.031113297
232	0x3e81bb5f	0.25338265
233	0xbe096ffc	-0.13421625
234	0xbd851197	-0.064974956
235	0x3d258a44	0.040415064
236	0xbd4ab7e9	-0.049491797
237	0xbd50aac1	-0.050944094
238	0x3da6de3c	0.081478566
239	0xbca487c8	-0.020084277
240	0x3dcf6cc7	0.101281695
241	0x3ce53c3e	0.027982827
242	0x3d42e1b7	0.04757854
243	0x3cb32ad5	0.02187101
244	0xbd4a9e21	-0.04946721
245	0x3dd24119	0.10266323
246	0xbe3a251f	-0.18178223
247	0xbc275a54	-0.010214407
248	0x3cef5d94	0.029219426
249	0x3cada725	0.021197865
250	0xbca4816a	-0.02008124
251	0x3b9cad77	0.004781421
252	0xbcf84195	-0.03030471
253	0x3c336f00	0.010951757
254	0xbd3ec78e	-0.04657703
255	0xbd8dde5d	-0.06927178

fc1.bias f4 [128]
0	0xba4a4dd4	-0.0007717286
1	0x3d5d8e52	0.054090805
2	0xbde264c0	-0.11054373
3	0xbdb378d3	-0.0876328
4	0x3df5d5dd	0.12003682
5	0x3e27524f	0.16339992
6	0x3e04d801	0.12973024
7	0x3da69d1f	0.08135437
8	0x3d1cb037	0.03825399
9	0xbddcea5f	-0.1078689
10	0x3d4daa61	0.050211314
11	0xbe3ec228	-0.18628752
12	0x3dcb86f9	0.09937853
13	0xbe5e78ff	-0.21725844
14	0xbd800ce3	-0.06252458
15	0xbc3c2cc3	-0.011485281
16	0x3d53b40a	0.05168537
17	0x3c91a2dd	0.017777855
18	0xbd2f1d51	-0.042752568
19	0xbcebe0d6	-0.028793734
20	0xbe22e87a	-0.15908995
21	0xbcb2465f	-0.021762071
22	0xbe0f67ce	-0.14004442
23	0x3db0c934	0.086321265
24	0x3e42edf9	0.19036092
25	0xbd86cd3f	-0.06582116
26	0x3c0ad1ab	0.00847284
27	0x3e191222	0.14948323
28	0xbd732315	-0.05935963
29	0x3e235c36	0.15953144
30	0x3db3149c	0.08744165
31	0xbc927317	-0.017877145
32	0x3e013ea5	0.12621553
33	0x3d79e1ad	0.061006237
34	0xbcbd41e2	-0.023102704
35	0xbcfffb50	-0.031247765
36	0x3bff3ac0	0.007788986
37	0xbd82ded6	-0.06390159
38	0xba30e529	-0.0006748015
39	0x3d6cdefd	0.057829846
40	0x3d64256d	0.055699755
41	0xbe1a1330	-0.15046382
42	0x3d24cfbc	0.040237173
43	0x3d6ceb8a	0.057841815
44	0xbd8010a7	-0.06253176
45	0xbd0062f7	-0.03134438
46	0x3e4c3330	0.19941401
47	0xbd6dcf91	-0.05805928
48	0xbe0c614e	-0.13708994
49	0x3d794002	0.06085206
50	0xbb101708	-0.0021986384
51	0x3bc65af3	0.0060533225
52	0xbe031e57	-0.12804542
53	0x3e12707e	0.14300725
54	0x3e3809e4	0.17972523
55	0x3d58c902	0.05292607
56	0x3d3e7672	0.046499677
57	0x3dcacf1b	0.099027835
58	0x3d4987f3	0.049201917
59	0x3e281d43	0.16417412
60	0x3cc1478d	0.023593688
61	0x3d8acff5	0.06777946
62	0x3dd8e731	0.10590971
63	0xbdaa9a42	-0.083302036
64	0xbd407b8a	-0.046992816
65	0xbd162a6e	-0.036661558
66	0xbe07b7ab	-0.13253658
67	0xbde8fc49	-0.113762446
68	0xbe4371c8	-0.19086373
69	0xbca59cd0	-0.020216376
70	0xbcac92b9	-0.021066057
71	0x3decaffd	0.115570046
72	0x3db00b76	0.08595936
73	0xbdaeccb6	-0.08535139
74	0xbdb05575	-0.0861005
75	0x3cf1ef66	0.0295331
76	0x3d182da3	0.037152898
77	0xbd81bb8d	-0.063346006
78	0xbdc5e2fa	-0.09662433
79	0xbe2c6c80	-0.16838264
80	0xbdcb09e5	-0.099139966
81	0xbe0a79d2	-0.13523033
82	0xbdc8bb85	-0.098013915
83	0xbe336a79	-0.17521085
84	0xbde7c825	-0.113174714
85	0x3e13c166	0.14429244
86	0xbdb140e3	-0.08654954
87	0x3d11799b	0.035516363
88	0x3d4549a2	0.048165925
89	0xbc8c36db	-0.017116
90	0x3e1fae1d	0.15593763
91	0x3d845156	0.06460826
92	0x3e26b861	0.16281272
93	0xbd98e9d2	-0.07466473
94	0x3d25cea6	0.04048028
95	0x3d2eff8c	0.042724177
96	0xbdb97068	-0.09054643
97	0xbca93714	-0.020656146
98	0xbddcff71	-0.10790909
99	0x3e0d35d8	0.13790071
100	0x3e1ab707	0.15108882
101	0x3e06a23b	0.13147824
102	0x3e08c894	0.13357764
103	0xbd4e7bc9	-0.05041102
104	0xbe00e4c9	-0.12587275
105	0x3e03206a	0.12805334
106	0xbe35d117	-0.17755543
107	0xbc2912f1	-0.010319457
108	0xbdf03671	-0.11729134
109	0x3dc9a007	0.09844976
110	0x3c9a3b74	0.018827178
111	0x3df0ca43	0.11757328
112	0xbced3d01	-0.028959753
113	0xbdc41900	-0.09575081
114	0x3df2b05c	0.11850044
115	0x3dcfffd0	0.10156214
116	0x3e2e4d3f	0.17021655
117	0x3db0d9cb	0.08635291
118	0x3d63d118	0.05561933
119	0xbd8213d4	-0.06351438
120	0xbd5bcabb	-0.053660136
121	0x3e131933	0.14365081
122	0xbddf18f1	-0.10893429
123	0xbd1e0e30	-0.03858775
124	0xbcb1e5a0	-0.021715939
125	0xbe3f7c6c	-0.18699807
126	0x3b93f593	0.0045153587
127	0x3cdd42b3	0.027009344

actor_fc.weight f4 [128, 128]
0	0xbe1edfe2	-0.15515092
1	0x3ca394e9	0.019968467
2	0xbd9abb5a	-0.07555266
3	0x3e1d3281	0.15351297
4	0x3c2ff217	0.010738871
5	0xbc3d800c	-0.011566173
6	0x3dd9a190	0.10626519
7	0xbdd36bf5	-0.103233255
8	0x3cc4db3c	0.02403032
9	0x3e528ad0	0.20560765
10	0x3d2f7af5	0.04284187
11	0xbdd08d6f	-0.10183226
12	0x3d306527	0.043065216
13	0xbdc81622	-0.097698465
14	0x3e0d3c9f	0.13792656
15	0x3b50a98b	0.0031839337
16	0xbd640e59	-0.055677745
17	0x3c078f0d	0.008273852
18	0xbc890ac4	-0.016728766
19	0x397fbbaf	0.00024388613
20	0xbd635d86	-0.055509113
21	0xbd54e63d	-0.051977385
22	0x3e510611	0.2041247
23	0x3b9ee86b	0.0048494837
24	0x3e3330ee	0.17499134
25	0x3ceaf8f1	0.028683158
26	0xbb804b73	-0.0039152442
27	0x3dd9de79	0.106381364
28	0x3de3c283	0.111210845
29	0xbb28ca84	-0.0025755474
30	0xbe4926d9	-0.19643725
31	0x3e390cb7	0.18071257
32	0x3d7e6560	0.062108397
33	0x3d4eefd2	0.05052168
34	0xbe2bac77	-0.16765009
35	0x3db47676	0.08811657
36	0xbce69131	-0.028145405
37	0x3d8ed3f8	0.069740236
38	0xbd688e6a	-0.05677644
39	0x3e2df5f0	0.16988349
40	0xbda8b36d	-0.08237348
41	0xbd704717	-0.058661547
42	0xbc9b684c	-0.018970631
43	0x3d0da385	0.034579773
44	0xbcd448c9	-0.025913613
45	0x3d7e26f7	0.06204888
46	0x3ca6a360	0.020341575
47	0xbd6ed35a	-0.05830703
48	0xbdde6481	-0.10859013
49	0xbd20274e	-0.039099984
50	0x3d0ea3f8	0.03482434
51	0xb9823e74	-0.00024842063
52	0x3e370232	0.17871931
53	0x3e5c8177	0.21533762
54	0xbd8cdced	-0.06878076
55	0xbd0ae67c	-0.033911213
56	0x3df87ab1	0.121327765
57	0x3d3a8d11	0.045544688
58	0x3c853b6f	0.016263692
59	0xbd59247d	-0.053013314
60	0xbdffd55b	-0.12491866
61	0xbd9a7bf4	-0.075431734
62	0x3d00e47b	0.031467896
63	0xbd32737e	-0.043567173
64	0xbdf9dd28	-0.12200385
65	0x3e377320	0.1791501
66	0xbd092fa7	-0.03349271
67	0xbc0aa3d5	-0.008461912
68	0xbd83c9b1	-0.06434954
69	0x3d654d28	0.055981785
70	0xbdbfd5bf	-0.09366941
71	0x3e7419ae	0.23837921
72	0xbd026fb5	-0.031844813
73	0x3d1fbb16	0.03899678
74	0x3ddf027b	0.10889145
75	0xbde23f17	-0.1104719
76	0x3e0712aa	0.13190714
77	0x39d2da8d	0.00040217154
78	0xbe05b4ea	-0.13057294
79	0xbd3f9189	-0.046769653
80	0x3d907a23	0.07054546
81	0x3dc42aa9	0.09578449
82	0xbe4c200b	-0.19934098
83	0xbdbb821f	-0.09155678
84	0xbc3b193c	-0.011419591
85	0x3e28a8fc	0.16470712
86	0xbd8f38bf	-0.06993245
87	0x3e1a8fdd	0.15093942
88	0xbc6e9a86	-0.014563208
89	0xbc0f30c8	-0.008739658
90	0x3dd676d2	0.10471882
91	0xbda72130	-0.08160627
92	0x3da25d76	0.079279825
93	0x3e2c15f2	0.16805246
94	0xbdb07f89	-0.086180754
95	0x3dc1f9d6	0.094714805
96	0xbc019232	-0.007908391
97	0x3dbac06f	0.09118735
98	0xbd94da7a	-0.072682336
99	0x3d80b5fd	0.062847115
100	0x3ba641f1	0.005073779
101	0xbd1b6bd0	-0.037944615
102	0xbdc2ac08	-0.095054686
103	0xbcca98f9	-0.024731146
104	0xbd042f06	-0.032271408
105	0x3ba062d7	0.004894595
106	0xbd3af0e0	-0.045639873
107	0x3d8b6bbb	0.06807657
108	0xbb16c63f	-0.0023006347
109	0x3de98b9e	0.11403583
110	0xbe3aff48	-0.18261445
111	0xbd7fb23d	-0.06242584
112	0x3e8a6950	0.27033472
113	0xbe0e4e2d	-0.13897009
114	0xbc94581b	-0.018108418
115	0xbdc650ad	-0.096833564
116	0xbdee07f4	-0.11622611
117	0x3d9bfec2	0.076169506
118	0x3ce43d97	0.0278614
119	0x3bfe8384	0.0077671427
120	0xbdee75cb	-0.11643561
121	0x3ca9ebe6	0.020742368
122	0x3e218666	0.15773925
123	0xbe268c4e	-0.1626446
124	0x3cd3da49	0.025860922
125	0xbe625efd	-0.22106548
126	0x3d8f6a96	0.070027515
127	0xbd31a435	-0.04336949
128	0x3d6677fc	0.05626677
129	0x3b92843f	0.0044713314
130	0xbc33cc33	-0.010973978
131	0xbd21a5e1	-0.039464835
132	0x3dd34a3d	0.10316894
133	0xbdcde155	-0.10052744
134	0x3a4acf47	0.0007736575
135	0x3c9e6a47	0.019337786
136	0x3d9ce69a	0.07661171
137	0xbe198e16	-0.14995608
138	0x3d278795	0.040900785
139	0x3dd14ca6	0.10219698
140	0x3d145d34	0.036221698
141	0x3d0e7c70	0.03478664
142	0xbd005530	-0.03133124
143	0x3b78cddd	0.00379645
144	0xbdaab048	-0.08334404
145	0x3e1529a9	0.14566673
146	0xbdbabb1c	-0.091177195
147	0x3d879435	0.06620065
148	0xbe4c1218	-0.19928777
149	0xbda8f831	-0.08250464
150	0xbe423322	-0.18964818
151	0xbd90c84b	-0.07069453
152	0x3d7fd734	0.062461093
153	0x3c40b25b	0.011761273
154	0x3d8b4c6a	0.06801684
155	0xbd375889	-0.044762168
156	0x3d28cd71	0.04121155
157	0x3bdbba01	0.006705523
158	0x3c7b78ea	0.015348652
159	0x3de3052f	0.11084973
160	0x3d936541	0.07197047
161	0xbbc9577f	-0.0061444636
162	0xbd65b09f	-0.056076642
163	0xbe0402a5	-0.12891634
164	0xbc8cfbbe	-0.017209884
165	0xbde13ae9	-0.10997564
166	0x3d257278	0.04039237
167	0xbc90713a	-0.017632116
168	0xbd3b14eb	-0.045674246
169	0x3d31ff3b	0.043456297
170	0x3dd3c3d1	0.103400834
171	0xbda5a373	-0.08087816
172	0xbd0ddac3	-0.034632456
173	0xbe3973b7	-0.18110548
174	0xbd085746	-0.033286355
175	0xbc0fbca2	-0.008773001
176	0x3d149f99	0.036285017
177	0xbdfd4026	-0.12365751
178	0x3d150aa7	0.036387112
179	0x3d6e3e93	0.058165144
180	0xbc34014f	-0.01098664
181	0xbd9b454f	-0.07581579
182	0xbcc11c37	-0.023573024
183	0x3db355ec	0.08756623
184	0x3d406d81	0.04697943
185	0x3c98716a	0.018608768
186	0x3c8a89d7	0.01691143
187	0xbdd94d31	-0.10610426
188	0xbd49f3c8	-0.049304754
189	0x3cbe3f06	0.023223411
190	0x3e1823be	0.14857385
191	0x3d8ca413	0.06867232
192	0x3d947617	0.07249086
193	0x3ddd9677	0.108197145
194	0xbd700c42	-0.05860544
195	0x3d1529a0	0.03641665
196	0x3d28fccf	0.041256722
197	0xbd017873	-0.03160901
198	0x3d3bc9e8	0.04584685
199	0xbd88919f	-0.066684
200	0xbcc07e5a	-0.02349775
201	0xbcdf52d6	-0.027261179
202	0xbc891958	-0.016735718
203	0xbd0616b0	-0.03273648
204	0xbd3ae109	-0.045624766
205	0xbd9d10a4	-0.076691896
206	0x3e28f24d	0.1649868
207	0x3c64f037	0.013973287
208	0x3e070cdf	0.13188504
209	0x3dad2f22	0.084562555
210	0x3db87e85	0.09008507
211	0x3d152f44	0.03642203
212	0x3c635cac	0.013877075
213	0xbdca98a9	-0.09892399
214	0x3c05bba3	0.008162412
215	0xbdc8f6d2	-0.09812702
216	0x3e059055	0.1304334
217	0x3d569f97	0.05239829
218	0x3a73a8a6	0.0009294845
219	0x3dea7738	0.114485204
220	0xbdb66183	-0.08905318
221	0xbdc8dfbd	-0.098083
222	0xbc2206f8	-0.009889357
223	0xbd2bf540	-0.041981936
224	0x3e0f4c1a	0.13993874
225	0x3d7e0c58	0.06202349
226	0xbd61c20e	-0.055116706
227	0xbd6a3886	-0.05718281
228	0xbda7cf56	-0.08193843
229	0x3ce75627	0.028239323
230	0x3e246e44	0.16057688
231	0xbcaba635	-0.020953277
232	0xbe4d1103	-0.2002602
233	0x3de3f799	0.1113121
234	0x3d9f9ce3	0.07793596
235	0x3d9cc5c0	0.07654905
236	0xbce99a74	-0.028516032
237	0xbd9fcc2f	-0.07802617
238	0xbcd23df7	-0.025664313
239	0xbca80019	-0.020507859
240	0xbdf280da	-0.11840983
241	0x3d7366fa	0.059424378
242	0xbcc1e05d	-0.023666555
243	0xbc74514d	-0.014911962
244	0x389e0433	7.534809e-05
245	0xbca27b40	-0.01983416
246	0x3d24d5dd	0.04024302
247	0x3da24c53	0.07924714
248	0xbd745c49	-0.059658322
249	0xbd249a6d	-0.040186334
250	0x3dd16ef4	0.10226241
251	0x3be62534	0.007023478
252	0x3daff3e1	0.08591438
253	0x3d767ecf	0.060179528
254	0xbe0fdcb0	-0.1404903
255	0xbe0cfc0d	-0.13768025

actor_fc.bias f4 [128]
0	0x3c8a872c	0.016910158
1	0x3d17daaf	0.037073787
2	0x3d772c66	0.060345076
3	0x3dc47b2e	0.09593807
4	0x3cb97924	0.022640772
5	0xba9d667b	-0.0012008691
6	0x3ba7db8e	0.0051226085
7	0x3c87ddb6	0.016585212
8	0x3ca2a49c	0.019853882
9	0xbda134bd	-0.07871387
10	0xbd0887e7	-0.03333273
11	0xbdc64abc	-0.09682223
12	0x3d786efe	0.060652725
13	0x3d9f244a	0.077705935
14	0xbce19cb2	-0.027540538
15	0xbd963645	-0.0733457
16	0x3de7505f	0.112946264
17	0x3cf09125	0.029366085
18	0xb96fea7d	-0.0002288017
19	0xbbf890c7	-0.007585618
20	0xbcd3a993	-0.025837695
21	0x3dba9078	0.091095865
22	0x3c60afd2	0.013713794
23	0xbdd46b69	-0.10372049
24	0xbd132f9d	-0.03593408
25	0xbad2d310	-0.001608463
26	0xbd83d5d1	-0.064372666
27	0xbd747df8	-0.059690446
28	0x3e09b62e	0.13448402
29	0x3e0626b2	0.13100699
30	0x3d8f6905	0.07002453
31	0x3cd3bf8e	0.025848176
32	0x3ba67bfc	0.005080698
33	0xbd867b5a	-0.06566496
34	0x3b984d50	0.0046478882
35	0xbd07970e	-0.03310304
36	0x3cd0d0b0	0.025490135
37	0x3d8972f6	0.0671138
38	0xbd365681	-0.04451609
39	0xbcfced82	-0.030874971
40	0xbcec9cd7	-0.02888338
41	0x3dfc78a0	0.12327695
42	0x3c98ad67	0.018637372
43	0x3d202b60	0.039103866
44	0x3c92dc07	0.017927183
45	0x3db2cf11	0.08730901
46	0xbd4a48e8	-0.049385935
47	0x3bb3b065	0.0054836744
48	0xbd12dae4	-0.03585328
49	0x3cb6f930	0.022335619
50	0x3cedfb02	0.029050354
51	0x3d716317	0.05893239
52	0x3debdcf2	0.11516751
53	0x3d4b498b	0.049630683
54	0x3d254836	0.04035207
55	0x3cc389a3	0.023869341
56	0x3dd87a5a	0.10570212
57	0x3d21f058	0.03953585
58	0x3a5c82f4	0.00084118475
59	0x3db43f06	0.08801083
60	0xbce9edfd	-0.028555864
61	0xbd5b50e6	-0.053543948
62	0x3ceae30f	0.028672723
63	0xbcdd2bff	-0.026998518
64	0xbce55ffe	-0.027999874
65	0xbd0d13bd	-0.034442652
66	0xbd0d3784	-0.034476772
67	0xbd188858	-0.037239403
68	0x3c92c201	0.017914774
69	0x3d120c97	0.035656538
70	0xbbf01c0a	-0.0073275613
71	0xbc9a68cc	-0.0188488
72	0x3df3fd0a	0.11913498
73	0xbd57a2e2	-0.05264557
74	0xbb8db728	-0.0043248124
75	0x3b22e964	0.002485835
76	0xbdae7a7f	-0.08519458
77	0x3d2a852c	0.04163091
78	0xbdbb5763	-0.09147527
79	0x3dab026b	0.083500706
80	0xbd165fea	-0.036712565
81	0xbd7326a3	-0.05936302
82	0xbb1b8ce6	-0.0023735105
83	0x3e06cd34	0.13164216
84	0xbd1976d1	-0.037466828
85	0x3d95d434	0.07315865
86	0xbc9c2775	-0.019061783
87	0xbd2d2253	-0.042269062
88	0x3d2231fc	0.03959845
89	0xbc7f2135	-0.015571882
90	0x3d609ad8	0.05483517
91	0xbcdd6e55	-0.02703015
92	0x3c19757b	0.009366388
93	0x3d10a847	0.03531673
94	0x3c6e920f	0.01456119
95	0x3d3e4a6a	0.046457686
96	0x3d32e5ac	0.043676063
97	0x3cbc59dc	0.022992067
98	0x3bafc1c2	0.005363674
99	0x3d1a6218	0.037691206
100	0xbcc4edd1	-0.024039181
101	0x3d769b67	0.060206797
102	0x3cd55924	0.026043482
103	0xbc8a5ee1	-0.016890945
104	0x3da4d2af	0.08047997
105	0x3c7636e8	0.015027739
106	0x3d213ce3	0.039364707
107	0x3d28f68b	0.041250747
108	0x3c6658e9	0.014059284
109	0x3da45091	0.08023179
110	0x3db6856c	0.08912167
111	0x3cd58a25	0.026066849
112	0xbd979138	-0.07400745
113	0x3d3f6bfc	0.04673384
114	0x3c8ac128	0.016937807
115	0x3dddb43f	0.10825395
116	0xbd54b890	-0.051933825
117	0xbc0dfcaf	-0.0086662015
118	0x3c995b64	0.018720336
119	0x3ce229d8	0.027607843
120	0x3db013b9	0.08597512
121	0x3d9ee695	0.07758824
122	0xbcf8dfb3	-0.030380106
123	0xbd9bfa76	-0.07616131
124	0xbc8af801	-0.01696396
125	0x3affcce5	0.0019516019
126	0x3ce873fe	0.028375622
127	0x3b11cde0	0.0022247955

actor_out.weight f4 [4, 128]
0	0x3d6f9232	0.058489032
1	0x3d54fef3	0.05200095
2	0x3d43c452	0.047794648
3	0xbd0f53f1	-0.034992162
4	0x3c8794ad	0.016550386
5	0xbcce8452	-0.02520958
6	0xbc05a236	-0.00815635
7	0x3e6c1253	0.23053865
8	0x3cefe127	0.029282166
9	0x3cdbf611	0.026850732
10	0xbcc356c4	-0.023845084
11	0xbe10ee70	-0.14153457
12	0x3cde5889	0.027141826
13	0x3d961a70	0.07329261
14	0xbcefd473	-0.029276108
15	0x3c0f490c	0.008745443
16	0xbdab6976	-0.083697245
17	0xbd404fd2	-0.046951123
18	0x3dbc19bd	0.09184597
19	0x3d80d997	0.06291502
20	0x3de8a991	0.11360467
21	0xbd0aa93c	-0.0338528
22	0xbdbcb58d	-0.092143156
23	0xbe139240	-0.14411259
24	0xbdc5f7b9	-0.0966639
25	0x3d46a751	0.04849941
26	0xbd79613d	-0.06088375
27	0xbce6000f	-0.0280762
28	0xbcf4cd27	-0.02988298
29	0x3df25a6c	0.11833653
30	0x3e38b74a	0.18038669
31	0xbe864b59	-0.2622936
32	0xbd3ca1cf	-0.04605275
33	0xbd483a28	-0.048883587
34	0xbd8e8964	-0.06959799
35	0xbdd13b0f	-0.10216343
36	0x3dad2105	0.084535636
37	0x3e0c213c	0.13684553
38	0x3cd7bf15	0.026336232
39	0xbeb6b0b4	-0.3568169
40	0xbbc6f903	-0.006072165
41	0x3dffd86b	0.1249245
42	0x3cb6261e	0.022234973
43	0xbd028f8a	-0.03187517
44	0xbdc430f5	-0.0957965
45	0x3d2036d6	0.039114796
46	0xbd971029	-0.07376129
47	0x3d1b33c4	0.037891164
48	0x3dd6025e	0.1044967
49	0xbd948e71	-0.07253731
50	0x3d1d5bc2	0.038417585
51	0xbb91a677	-0.004444893
52	0x3db0c6b3	0.08631649
53	0xbc4a39f1	-0.012342916
54	0x3e0fd2ff	0.14045332
55	0x3d3b6589	0.04575113
56	0x3d976a14	0.0739328
57	0x3bf03279	0.0073302356
58	0xbcf3ea99	-0.02977495
59	0x3c8d45aa	0.017245132
60	0xbd5b9cb1	-0.05361623
61	0x3d8e76dc	0.069562644
62	0x3d5ba7eb	0.053626936
63	0x3e05dde8	0.13072932
64	0xba8c3560	-0.0010697059
65	0xbe189f82	-0.14904597
66	0xbd7da0ca	-0.06192092
67	0x3d46d996	0.04854735
68	0xbc988976	-0.018620234
69	0x3d95858f	0.07300865
70	0xbdf8143a	-0.12113233
71	0x3cc93e6b	0.024565896
72	0x3ca81658	0.020518467
73	0xbd1ec735	-0.038764197
74	0x3dc21abf	0.09477758
75	0xbe4890f7	-0.1958655
76	0xbddb07c5	-0.10694841
77	0x3dacb39b	0.084326945
78	0x3aac1050	0.001312742
79	0xbc038540	-0.008027375
80	0xbdc41487	-0.09574228
81	0xbddbfa7d	-0.10741136
82	0xba12d406	-0.0005601052
83	0x3d89ca08	0.067279875
84	0x3b07ba30	0.0020710342
85	0x3dd2bf3e	0.10290383
86	0x3d7627a0	0.060096383
87	0x3cb2fae3	0.021848148
88	0x3d369bbf	0.044582125
89	0x3d2d8736	0.042365275
90	0xbcd41f7e	-0.025893923
91	0xbc18f8cd	-0.0093366625
92	0xbe82fbcc	-0.2558273
93	0xbcdbf8dc	-0.026852064
94	0xbdb9eeaf	-0.090787284
95	0x3c7f57de	0.015584914
96	0xbe0f3d77	-0.1398829
97	0xbbe52d68	-0.0069939382
98	0xbaeb4060	-0.0017948262
99	0x3cfda129	0.030960636
100	0x3dbd27e2	0.09236123
101	0x3db53d33	0.088495634
102	0xbe56c359	-0.20972957
103	0x3cfc0b9b	0.030767253
104	0x3db3cc52	0.087792054
105	0x3d5ba514	0.053624228
106	0x3cad5c81	0.021162273
107	0x3dbe8de4	0.09304407
108	0x3b95ddc0	0.004573554
109	0x3d81d762	0.06339909
110	0x3e097496	0.1342338
111	0x3d43652a	0.0477039
112	0xbd3fe635	-0.046850402
113	0xbc51f2b6	-0.012814214
114	0x3e5896b0	0.21151233
115	0x3d600073	0.05468793
116	0xbe2d3295	-0.16913827
117	0x3d225d6c	0.039639875
118	0x3e312319	0.17298545
119	0x3db7f887	0.0898295
120	0x3d506ef2	0.050887056
121	0xbcfc8763	-0.030826276
122	0x3d2ecdfa	0.042676903
123	0x3d8a9cdf	0.06768202
124	0x3dbf99cb	0.093555056
125	0x3dd60da8	0.104518235
126	0x3d56687f	0.05234575
127	0x3d9e2ffb	0.07723995
128	0xbd0ed90d	-0.034874965
129	0x3dbe4007	0.09289556
130	0x3d786093	0.060638975
131	0xbdc8fedf	-0.09814238
132	0xbd0dde98	-0.03463611
133	0xbd1af3e7	-0.03783026
134	0x3d3a769e	0.04552328
135	0x3da4986b	0.08036884
136	0x3d65b58b	0.056081336
137	0x3c91e4ef	0.01780936
138	0x3ba62964	0.005070852
139	0xbd64b9ab	-0.05584113
140	0x3c6cb213	0.014446753
141	0xbcc70984	-0.02429653
142	0x3d3af7a7	0.045646336
143	0x3cddd85e	0.027080711
144	0xbe2b21a5	-0.16712053
145	0xbe159aa8	-0.14609778
146	0x3d00c5ed	0.031438757
147	0x3df03148	0.1172815
148	0x3d06dded	0.03292649
149	0xbc9b4f53	-0.018958723
150	0xbd9f5337	-0.07779544
151	0x3e797ac7	0.24363242
152	0xbbbfa6b2	-0.005848729
153	0xbdca4250	-0.09875929
154	0x3d76d850	0.060264885
155	0x3deb0de9	0.114772625
156	0xbc59b4da	-0.013287747
157	0x3ae1e79b	0.0017235162
158	0x3d2d6946	0.042336725
159	0xbe4a4b63	-0.1975532
160	0x3d77c94d	0.06049471
161	0xbd930edb	-0.07180568
162	0x3e66a2e9	0.22523083
163	0x3dd9ac32	0.10628547
164	0xbbb9bc03	-0.0056681647
165	0x3e05c857	0.13064705
166	0xbce5da48	-0.028058186
167	0xbe62310d	-0.22089024
168	0xbba6f697	-0.005095314
169	0xbd4f2b2b	-0.050578278
170	0xbb89c0f8	-0.004203912
171	0xbc993b31	-0.018704982
172	0xbd509b31	-0.050929252
173	0x3c1cc78d	0.009569061
174	0x3cb960be	0.022629138
175	0x3ced84bc	0.028993957
176	0xbcb1650f	-0.021654634
177	0x3e1414df	0.14461087
178	0x3d2cbdf2	0.042173333
179	0x3cbd0112	0.0230718
180	0x3d8270cb	0.0636917
181	0x3d90263f	0.07038545
182	0x3c04b943	0.00810081
183	0x3ace77ce	0.0015752257
184	0xbb5d7a12	-0.0033794683
185	0x3d5490d6	0.05189594
186	0xbd39bc70	-0.045345724
187	0x3cda3c51	0.02664009
188	0xbccee355	-0.025254885
189	0xbda52b57	-0.08064907
190	0xbc7dd752	-0.015493231
191	0x3d260073	0.040527772
192	0x3c963f65	0.018340776
193	0x3dd591ba	0.10428186
194	0xbca079cb	-0.019589325
195	0x3b0a72c1	0.0021125528
196	0xbda11fe4	-0.07867411
197	0x3c9723e7	0.018449737
198	0xbb32a9dc	-0.0027261889
199	0x3d736b0a	0.059428252
200	0x3cac0cf9	0.02100228
201	0x3cf12314	0.029435672
202	0xbba33b23	-0.004981415
203	0x3d842bf9	0.064536996
204	0x3d5bbd5e	0.05364739
205	0xbbcefe0d	-0.0063169063
206	0x3aa3619e	0.0012465005
207	0x3cfe917e	0.031075235
208	0xbe00ea60	-0.12589407
209	0xbc6baf55	-0.014385064
210	0x3c1c76e0	0.009549826
211	0xbd90c00b	-0.07067879
212	0xbc477995	-0.0121749835
213	0x3d3b1f50	0.04568416
214	0x3d313089	0.043259177
215	0x3ccead6d	0.02522918
216	0xbc8b7edf	-0.01702827
217	0x3e1505bd	0.1455297
218	0xbd8517de	-0.06498693
219	0xbcd4a87f	-0.025959251
220	0xbdcdb2d2	-0.10043873
221	0xbd8753aa	-0.066077545
222	0x3d958c97	0.07302206
223	0xbd95ee81	-0.07320882
224	0x3c553480	0.013013005
225	0x3ce24b24	0.02762372
226	0xbc35bddb	-0.011092628
227	0x3daf0b58	0.085470855
228	0xbd8d832d	-0.069097854
229	0x3d551a0d	0.052026797
230	0x3c15132a	0.009098807
231	0xbb992b22	-0.0046743313
232	0x3c8b0ca1	0.016973795
233	0x3ca7576b	0.020427426
234	0x3ce35d9d	0.0277546
235	0x3ceab848	0.028652325
236	0x3cb79c0d	0.022413278
237	0xbc6fff68	-0.014648296
238	0xbb9b2f39	-0.004735854
239	0xbcf2e324	-0.029649325
240	0xbd4cf817	-0.050041284
241	0x3b4c10a3	0.0031137846
242	0x3b985e56	0.0046499176
243	0x3d6b04ee	0.05737775
244	0x3d910ce5	0.070825376
245	0x3c03d036	0.008045247
246	0xbd6132e0	-0.05498016
247	0x3d182e57	0.037153568
248	0x3be8acff	0.007100701
249	0xbcde54ad	-0.027139986
250	0x3e475c89	0.19468893
251	0x3d4b0010	0.049560606
252	0xbca2e02b	-0.019882282
253	0xbdd2318d	-0.10263357
254	0xbb520d0e	-0.0032051238
255	0xbd557a6f	-0.052118715

actor_out.bias f4 [4]
0	0xbb41a575	-0.0029548083
1	0xbd8e6cc8	-0.06954342
2	0x3dd85d24	0.1056464
3	0x3d878961	0.06618

critic_fc.weight f4 [128, 128]
0	0x3ccb2a61	0.024800481
1	0x3d947049	0.07247979
2	0xbcf48c5b	-0.029852083
3	0xbd75cdc9	-0.060010705
4	0xbd81128b	-0.06302365
5	0xbd86ad2b	-0.06575998
6	0xbd59c50a	-0.053166427
7	0xbdcb06b9	-0.099133916
8	0x3d97b942	0.07408382
9	0xbd8eba0e	-0.06969081
10	0x3d9ef80c	0.07762155
11	0xbd6678f7	-0.056267705
12	0xbda36fce	-0.079803094
13	0xbdb322e7	-0.087468915
14	0xbe2d6ff8	-0.16937244
15	0x3c434b2f	0.011919781
16	0x3d87758e	0.06614219
17	0xbd896599	-0.06708831
18	0xbb49d3f9	-0.0030796512
19	0x3c5b49a4	0.0133842565
20	0x3d8940fa	0.067018464
21	0xbd4131bc	-0.04716657
22	0x3d38eda8	0.04514852
23	0xbda5b0d5	-0.08090369
24	0xbe563853	-0.20919923
25	0x3caafcc9	0.02087249
26	0x3bacaf09	0.0052698893
27	0xbd2af65b	-0.04173885
28	0xbcd5abd1	-0.026082905
29	0xbe1c54a8	-0.15266669
30	0x3c80778d	0.015682006
31	0xbe03ab24	-0.12858254
32	0xbd5b9bea	-0.053615488
33	0xbde09508	-0.109659255
34	0xbdb8154a	-0.089884356
35	0xbe0c05be	-0.13674065
36	0x3cb69196	0.022286218
37	0xbe0296cc	-0.12752837
38	0xbd82c5a3	-0.063853525
39	0xbddedb07	-0.1088162
40	0xbd18fcf3	-0.037350606
41	0xbc735e13	-0.014853972
42	0x3d855e63	0.065121435
43	0xbdcfd797	-0.101485424
44	0xbd3073b4	-0.043079093
45	0xbd1d12c7	-0.038347986
46	0xbd329a8e	-0.043604426
47	0x3da5faad	0.08104453
48	0xbd829d48	-0.06377655
49	0x3d78fa39	0.060785506
50	0xbe362980	-0.17789268
51	0xbc281ed6	-0.010261258
52	0xbe0667b5	-0.13125499
53	0xbe2cab49	-0.16862215
54	0xbd8a9a73	-0.0676774
55	0x3d00ed24	0.031476155
56	0xbd3f47c9	-0.04669932
57	0xbac294a6	-0.0014845326
58	0xbcff55ee	-0.031168904
59	0xbd567894	-0.052361086
60	0xbdcbadf6	-0.0994529
61	0xbd406841	-0.046974424
62	0xbd80d282	-0.06290151
63	0x3d5e9c9d	0.054348577
64	0x3d6cadec	0.057783052
65	0x3dc0d509	0.09415633
66	0x3d9d74f8	0.07688326
67	0x3d6b686d	0.057472635
68	0x3dad4c6e	0.084618434
69	0xbd307876	-0.04308363
70	0x3d6f0792	0.05835683
71	0xbd0ec65e	-0.034857146
72	0xbc5ad34c	-0.013356041
73	0xbcf37494	-0.029718675
74	0xbdbdb3dd	-0.09262822
75	0xbddc7602	-0.10764696
76	0xbd79353c	-0.060841784
77	0xbe1a84bd	-0.15089698
78	0xbd693710	-0.056937277
79	0x3cebc293	0.028779304
80	0xbccbab0c	-0.024861835
81	0x3b866518	0.004101407
82	0xbd8fdf18	-0.07024974
83	0xbd3a63c5	-0.045505304
84	0xbc423419	-0.011853241
85	0xbb44877e	-0.0029987986
86	0xbd048809	-0.032356296
87	0x3d3f3461	0.04668081
88	0x3d83d9e5	0.064380445
89	0x3d62e963	0.055398356
90	0xbd4157a4	-0.04720272
91	0xbd61298f	-0.054971274
92	0xbd82dff1	-0.0639037
93	0x3d132e0c	0.035932586
94	0xbdc672c1	-0.09689856
95	0xbd47e964	-0.048806563
96	0xbc29204c	-0.010322642
97	0xbd69c568	-0.057073027
98	0xbcfb1939	-0.030651676
99	0x3d3893d9	0.045062874
100	0x3d0243a0	0.031802773
101	0x3d5c5e49	0.053800855
102	0xbe0c58d0	-0.13705754
103	0xbd0b5ec3	-0.03402592
104	0xbe97056d	-0.29496327
105	0xbd2561c8	-0.040376455
106	0xbd0725dd	-0.032995094
107	0x3c189323	0.009312424
108	0xbd4b3145	-0.049607534
109	0xbca4ff10	-0.020141155
110	0xbde7ce1f	-0.11318611
111	0x3cd7fb89	0.026365058
112	0x3ca61360	0.02027291
113	0xbc4a1124	-0.012333188
114	0x3cc500df	0.024048267
115	0xbd86d02b	-0.06582674
116	0xbd908f20	-0.07058549
117	0xbd8fcc94	-0.07021442
118	0x3d0e1b4b	0.034693997
119	0x3d8b8168	0.06811792
120	0xbdac2ec7	-0.084073596
121	0xbd48e19b	-0.04904328
122	0x3d3094c7	0.043110635
123	0xbda313e0	-0.07962775
124	0x3d1263bd	0.03573965
125	0xbdc78c56	-0.09743564
126	0xbd6d2c32	-0.057903476
127	0xbe4064ef	-0.18788503
128	0xbdc47c0c	-0.095939726
129	0x3d3f0088	0.046631366
130	0xbd0da276	-0.034578763
131	0xbdbb0288	-0.09131342
132	0xbd0abb65	-0.03387012
133	0xbdab1e65	-0.08355407
134	0x3db8bae9	0.09020025
135	0x3e0f1f64	0.13976818
136	0xbb0e7926	-0.002173969
137	0xbea7ca43	-0.327715
138	0x3d871152	0.065951005
139	0x3ce7aaad	0.028279627
140	0x3db95c8f	0.09050857
141	0x3d68880e	0.056770377
142	0xbb6c3fa9	-0.0036048687
143	0xbd02c044	-0.03192164
144	0xbd1f89ee	-0.0389499
145	0x3c8c933d	0.017160052
146	0xbde89dfc	-0.11358258
147	0x3cc2c7b9	0.023776876
148	0xbd2d2bca	-0.04227809
149	0xbd9b47ff	-0.075820915
150	0xbb5951a7	-0.003316024
151	0xbc8957e3	-0.01676554
152	0xbc530e59	-0.012881839
153	0xbd4c7cb2	-0.049923606
154	0xbd637fef	-0.05554193
155	0x3e0238bb	0.12716953
156	0xbc9acb5c	-0.018895797
157	0xbd5dd466	-0.054157637
158	0xbd057f81	-0.0325923
159	0xbd8228bd	-0.063554265
160	0xbb196936	-0.0023408658
161	0xbd8323f7	-0.06403344
162	0xbcd8a373	-0.026445126
163	0xbd526117	-0.051362123
164	0xbd284864	-0.041084662
165	0xbe88f96d	-0.26752797
166	0x3b4c7065	0.0031194922
167	0x3d46de25	0.048551697
168	0x3d56ab1e	0.052409284
169	0xbdec94b7	-0.115518026
170	0xbda18a2a	-0.07887681
171	0x3cd5acd7	0.026083393
172	0x3d78426b	0.060610216
173	0x3db21d11	0.0869695
174	0x3dd1c2b9	0.102422185
175	0x3d7cfcae	0.06176441
176	0xbc7f27a0	-0.015573412
177	0xbe0db213	-0.13837461
178	0xbde9a4c8	-0.11408383
179	0x3dfac7b3	0.12245121
180	0xbe47b827	-0.19503842
181	0x3d2cbdac	0.042173073
182	0xbe88da51	-0.26729062
183	0x3dae46b6	0.08509581
184	0x3bc1ded0	0.005916454
185	0x3dd57374	0.104224116
186	0xbe4fdd17	-0.20299183
187	0xbdee012a	-0.11621316
188	0xbd05749a	-0.032581903
189	0xbe38677e	-0.18008229
190	0x3d2cdbc4	0.042201772
191	0x3d1ea3e6	0.038730524
192	0x3d0e842b	0.034794014
193	0x3c5c5508	0.013448007
194	0xbcb2fe75	-0.02184985
195	0x3d42c146	0.0475476
196	0x3cb66dae	0.022269096
197	0x3da536fc	0.08067128
198	0x3d55fba1	0.052241925
199	0xbd0714fd	-0.032979
200	0xbd4d5ac9	-0.050135408
201	0x3c70ae14	0.014689941
202	0x3d385528	0.045003086
203	0xbe205f7f	-0.15661429
204	0xbca0ef92	-0.019645486
205	0x3d300320	0.04297173
206	0xbd8cec16	-0.06880967
207	0x3d6cc9f4	0.057809785
208	0x3d043d78	0.032285184
209	0x3d9ec2b1	0.07751978
210	0x3c840354	0.016114868
211	0xbd216cb7	-0.03941032
212	0xbc662f8a	-0.01404942
213	0xbc07118e	-0.008243931
214	0xbe0c2d49	-0.1368915
215	0xbe2b3588	-0.1671964
216	0xbd1cb795	-0.038261015
217	0xbc50c56c	-0.012742382
218	0xbdd554c8	-0.10416561
219	0x3beec59f	0.007286742
220	0xbaf8c6c6	-0.0018980138
221	0xbe0ee7a4	-0.13955551
222	0xbe178e1a	-0.14800301
223	0x3d85cda2	0.06533362
224	0xbce79488	-0.028269067
225	0xbd063b28	-0.03277126
226	0xbd0a9179	-0.03383014
227	0xbcabb0d2	-0.020958338
228	0xbe0aa400	-0.13539124
229	0xbcd2b56f	-0.02572128
230	0x3d209a92	0.03920991
231	0xbcb9bf99	-0.022674369
232	0xbe161848	-0.146577
233	0xbd2a640e	-0.041599326
234	0xbd56e640	-0.052465677
235	0x3d0ffc3c	0.03515266
236	0x3c7799a0	0.015112311
237	0xbd2b64a1	-0.041844014
238	0xbe9db3a4	-0.30801117
239	0x3d40c739	0.047064994
240	0x3dd4f67e	0.10398577
241	0xbdd4e970	-0.10396087
242	0x3df8c40d	0.12146769
243	0x3ce73092	0.028221402
244	0x3d9e43fc	0.07727811
245	0xbc684a3e	-0.014177857
246	0x3e1678d3	0.14694528
247	0x3bce58fb	0.0062972284
248	0x3c81f1e4	0.015862413
249	0x3d425243	0.047441732
250	0x3ddb6976	0.107134745
251	0xbd894ee1	-0.06704498
252	0x3d93acd6	0.072107
253	0xbd9d12b2	-0.076695815
254	0xbdb17583	-0.08664992
255	0xbdc15ff8	-0.09442133

critic_fc.bias f4 [128]
0	0xbdb20b98	-0.086936176
1	0x3d11efac	0.03562896
2	0xbd9edecd	-0.077573396
3	0x3dd417b4	0.103560835
4	0x3e39f722	0.1816068
5	0xbd8050b8	-0.06265396
6	0x3d6ff198	0.05858001
7	0x3ce27562	0.027643863
8	0xbd90bc8f	-0.07067215
9	0x3c237181	0.009975792
10	0x3dedb116	0.11606042
11	0x3b4889fb	0.003059982
12	0xbc7c5f10	-0.015403524
13	0xbe01fa51	-0.12693144
14	0x3ddb005f	0.1069343
15	0x3d9d9725	0.07694844
16	0x3dbf38aa	0.0933698
17	0xbde7246b	-0.11286243
18	0x3d9af4ca	0.07566221
19	0xbcd4dc8a	-0.025984067
20	0x3b2221fe	0.00247395
21	0xbd9118d0	-0.07084811
22	0xbd46255d	-0.048375476
23	0xbd51e848	-0.05124691
24	0x3a3da778	0.00072347326
25	0x3c4717fd	0.012151715
26	0xbd38a0c8	-0.045075208
27	0xb9747397	-0.00023312714
28	0xbdccb2bc	-0.099950284
29	0x3db9f3e8	0.090797246
30	0xbd2d8ce7	-0.042370703
31	0xbcfa9c35	-0.030592063
32	0x3cf29839	0.029613601
33	0xbd94130f	-0.07230198
34	0x3db08f38	0.08621067
35	0x3dffadb0	0.124843
36	0xbcd01ed5	-0.025405327
37	0x3c62e2e3	0.013848039
38	0xbd84a1bc	-0.06476161
39	0x3db5e9f2	0.08882512
40	0xbd70fd90	-0.058835566
41	0x3c957cb7	0.018247945
42	0x3c88a0a5	0.016678164
43	0x3d90d3dd	0.0707166
44	0x3d8923f1	0.066963084
45	0x3d9fd12a	0.07803567
46	0x3ca53cf0	0.020170659
47	0x3cf56f8f	0.029960422
48	0x3c38efa8	0.011287607
49	0x3da6c0da	0.08142252
50	0xbd46a34c	-0.048495576
51	0xbccb8d90	-0.024847776
52	0xbbe3115d	-0.00692956
53	0xbbce608b	-0.00629813
54	0x3c4abd5e	0.01237425
55	0xbda9392f	-0.0826286
56	0x3d653c57	0.055965748
57	0x3d434a53	0.047678303
58	0xbc62eab6	-0.013849905
59	0xbd1d4f77	-0.03840586
60	0x3d871bf9	0.06597132
61	0x3d88502a	0.06655915
62	0xbd3397c5	-0.04384591
63	0xbd3d0fb9	-0.046157572
64	0xbdc3c6e7	-0.09559422
65	0xbc7eeb90	-0.015559092
66	0x3e153587	0.145712
67	0x3dbf4b5f	0.09340548
68	0xbd3b7ad4	-0.045771435
69	0x3d90b020	0.07064843
70	0xbdabad2f	-0.083826415
71	0x3953fc77	0.00020216579
72	0xbd571814	-0.052513197
73	0x3d89f922	0.067369714
74	0xbdb750f4	-0.089509875
75	0x3ce35bed	0.027753795
76	0xbc4d7cc6	-0.012541955
77	0xbd7d31b8	-0.061814994
78	0x3d880567	0.066416554
79	0xbd253beb	-0.040340345
80	0x3c91b523	0.017786568
81	0x3b5197f7	0.0031981447
82	0xbcf96a93	-0.030446326
83	0x3d33a1ad	0.043855358
84	0x3b19eaed	0.0023485974
85	0x3d1f6936	0.038918696
86	0x3d7473ac	0.059680626
87	0x3d7ea5d5	0.06216987
88	0x3b8c7b64	0.0042871702
89	0x3d3f9335	0.046771247
90	0xbc6f33b9	-0.014599734
91	0x3d8e0df8	0.06936258
92	0xbc79019e	-0.0151981395
93	0x3dde6a4a	0.10860117
94	0xba80562d	-0.0009791307
95	0x3d20f871	0.039299432
96	0x3e197059	0.14984263
97	0x3d76c821	0.06024945
98	0xbb39935f	-0.00283166
99	0x3d3e100f	0.046402033
100	0x3daf678d	0.085646726
101	0xbd1140de	-0.035462253
102	0xbd28feb4	-0.04125853
103	0xbc252800	-0.0100803375
104	0x3dc11058	0.094269454
105	0xbdd9ec7e	-0.106408104
106	0x3d1cb658	0.038259834
107	0xbd2eadf2	-0.042646356
108	0xbd7c60ed	-0.061615873
109	0xbb5d668e	-0.0033783051
110	0xbc8be2eb	-0.017075976
111	0x3e235471	0.1595018
112	0x3e14dec9	0.14538111
113	0x3a7eb361	0.00097160606
114	0xbcaf3eb2	-0.0213922
115	0x3d5231df	0.051317092
116	0x3d1f5505	0.03889944
117	0xbc94c2fc	-0.018159382
118	0x3d40e769	0.04709569
119	0x3d66f832	0.05638904
120	0x3dea583d	0.11442611
121	0xbc71635a	-0.01473316
122	0x3cbaddf0	0.022810906
123	0xbda2f51b	-0.079569064
124	0x3c95c64f	0.018283037
125	0x3d858cb1	0.065209754
126	0xbd9a5463	-0.07535627
127	0xbc8d06d1	-0.017215164

critic_out.weight f4 [1, 128]
0	0x3dbf5fe0	0.093444586
1	0x3da49648	0.080364764
2	0xbdc13c1b	-0.09435292
3	0x3dd29ae1	0.10283447
4	0x3d610f69	0.054946337
5	0x3e306fdf	0.17230175
6	0x3ce6f5a2	0.028193299
7	0xbe16a8e6	-0.14712867
8	0x3d8e8748	0.069593966
9	0xbd9458a4	-0.07243469
10	0x3d4fc791	0.05072743
11	0x3dc8db54	0.098074585
12	0x3de3ab4c	0.11116657
13	0xbde29915	-0.11064354
14	0x3d856da5	0.06515054
15	0x3d86ec54	0.06588045
16	0x3da1c821	0.078995
17	0xbde1325f	-0.10995936
18	0x3d5d6fad	0.05406158
19	0xbdd85a47	-0.10564094
20	0xbe1b5615	-0.15169556
21	0xbdb8cc79	-0.09023375
22	0x3e0ed05d	0.13946672
23	0xbddc0c04	-0.10744479
24	0x3d5648db	0.052315574
25	0x3b4f4d74	0.003163186
26	0x3d654730	0.055976093
27	0x3d985d10	0.07439625
28	0xbd4bcef6	-0.04975792
29	0x3d8a3fcc	0.067504495
30	0xbd253773	-0.040336084
31	0xbd805758	-0.062666595
32	0x3dc80d9c	0.09768221
33	0xbde26b45	-0.11055616
34	0x3d457cdb	0.048214775
35	0x3e199a43	0.15000252
36	0x3dfb8bb3	0.12282505
37	0xbdd0caaa	-0.10194905
38	0xbde61b9d	-0.112357356
39	0x3d3d72e5	0.04625215
40	0xbe10b01a	-0.14129677
41	0x3db7f0f3	0.08981504
42	0xbda2f1a5	-0.07956246
43	0x3d540625	0.051763672
44	0x3d5b6998	0.0535675
45	0x3dd3d58d	0.10343466
46	0x3c3f03a9	0.0116585875
47	0xbe56bd5b	-0.20970671
48	0xbdada546	-0.08478789
49	0x3dd4521d	0.10367224
50	0x3e09a755	0.13442738
51	0xbdf97153	-0.12179818
52	0x3d4d980f	0.050193843
53	0x3ced931a	0.029000808
54	0x3d6c3bdf	0.057674285
55	0xbe18f0e6	-0.14935645
56	0xbe315ea1	-0.17321254
57	0xbdbf77d0	-0.09349024
58	0x3dc19717	0.09452646
59	0xbd8555fd	-0.065105416
60	0x3d2217af	0.039573368
61	0x3dfe84cd	0.124276735
62	0xbd9e9060	-0.07742381
63	0xbd729bba	-0.059230544
64	0xbdc0f261	-0.0942123
65	0x3da9db16	0.082937405
66	0x3d51583c	0.051109537
67	0xbe051ad8	-0.12998521
68	0xbdf499a7	-0.11943369
69	0x3dc4fbcb	0.09618338
70	0xbd86cb21	-0.065817125
71	0x3d9fa33c	0.07794806
72	0x3d094aeb	0.033518713
73	0x3e251c01	0.16123964
74	0xbdf76651	-0.12080062
75	0x3d3ca88a	0.04605917
76	0xbdcb757e	-0.09934519
77	0x3d96b27d	0.07358263
78	0x3d73bc1d	0.05950557
79	0xbde5f11c	-0.112276286
80	0xbe1eb426	-0.15498409
81	0xbe33b713	-0.17550306
82	0x3d2fc440	0.042911768
83	0xbe3157fb	-0.17318718
84	0xbd927a92	-0.07152285
85	0x3d227765	0.039664645
86	0x3d12d73a	0.035849787
87	0x3de1225b	0.10992881
88	0x3d89867d	0.06715105
89	0xbe2a6f2c	-0.16643971
90	0x3e277ecc	0.16356963
91	0x3db32c49	0.08748681
92	0xbdd735d7	-0.10508316
93	0x3d4f4936	0.05060693
94	0x3cf3f780	0.029781103
95	0x3df82f0f	0.12118351
96	0x3dc0b078	0.09408659
97	0x3d1a8609	0.037725482
98	0xbdbbbc73	-0.09166803
99	0xbd15a5c3	-0.036535036
100	0x3d2458df	0.040123817
101	0xbd8c48a7	-0.06849795
102	0xbde2d6a1	-0.110760935
103	0x3e085876	0.13314995
104	0x3ccca8b5	0.02498279
105	0x3ad37e29	0.0016135621
106	0x3db89388	0.09012514
107	0xbd35ae5e	-0.044355743
108	0xbd4e4e4a	-0.05036763
109	0x3db1ee46	0.08688025
110	0x3d9d10b9	0.07669205
111	0x3d02afae	0.031905822
112	0x3d415d57	0.047208156
113	0x3d959ff3	0.073058985
114	0x3e1308b1	0.14358784
115	0x3cd28343	0.025697356
116	0x3dcb91e0	0.09939933
117	0x3d957afc	0.07298848
118	0x3db8a49d	0.090157725
119	0x3d890cd8	0.06691903
120	0x3d8ddca1	0.06926847
121	0xbdbd5c85	-0.09246162
122	0x3d838271	0.06421364
123	0xbe0961f1	-0.13416268
124	0xbdd98fc6	-0.10623126
125	0x3da8626c	0.082218975
126	0xbd93daf6	-0.07219498
127	0x3d947606	0.07249074
