checkpoints/checkpoint_critic_5.pth (torch, 114131 bytes, 7 tensors)

supports f4 [51]
00000000: 0000 0000 cdcc cc3d cdcc 4c3e 9a99 993e
00000010: cdcc cc3e 0000 003f 9a99 193f 3333 333f
00000020: cdcc 4c3f 6766 663f 0000 803f cdcc 8c3f
00000030: 9a99 993f 6666 a63f 3333 b33f 0000 c03f
00000040: cdcc cc3f 9a99 d93f 6766 e63f 3333 f33f
00000050: 0000 0040 6666 0640 cdcc 0c40 3333 1340
00000060: 9a99 1940 0000 2040 6766 2640 cdcc 2c40
00000070: 3433 3340 9a99 3940 0000 4040 6766 4640
00000080: cdcc 4c40 3333 5340 9a99 5940 0000 6040
00000090: 6766 6640 cdcc 6c40 3333 7340 9a99 7940
000000a0: 0000 8040 3333 8340 6666 8640 9a99 8940
000000b0: cdcc 8c40 0000 9040 3333 9340 6666 9640
000000c0: 9a99 9940 cdcc 9c40 0000 a040
0.0 0.1 0.2 0.3 0.4 0.5 0.6 0.7
0.8 0.90000004 1.0 1.1 1.2 1.3 1.4 1.5
1.6 1.7 1.8000001 1.9 2.0 2.1 2.2 2.3
2.4 2.5 2.6000001 2.7 2.8000002 2.9 3.0 3.1000001
3.2 3.3 3.4 3.5 3.6000001 3.7 3.8 3.9
4.0 4.1 4.2 4.3 4.4 4.5 4.6 4.7
4.8 4.9 5.0

fc1.weight f4 [128, 33]
00000000: ca72 33bf cf82 61bf 6a31 a6bf e245 b53f
00000010: 7db2 b3bf 94d1 b93f 6c90 3b3c aac6 ccbe
00000020: 0fa8 ba3f d75e ddbf e30a 923e 3913 02be
00000030: 71fb 3fbe 2183 8c3f 10cf 783e 021e 48c0
00000040: 311b 8fbe 074a 153e 0b2b a43f c15b fa3f
00000050: e0e7 b83e a33f 93bf 411c e43e 7b11 203e
00000060: 3a8e 273d 7f63 33bf 472a dcbf 6cbe 7e41
00000070: 9c25 39c0 3b1a 8fbd 40a6 80c1 e069 7dbc
00000080: 46bc 3240 ba8e 1ec0 15c5 65bf e213 5040
00000090: 1742 fcbd c982 33c0 a02c 3d3f 9bc2 793f
000000a0: fc7b 8ebf 362a 5bbf 030e eb3e b7f7 c53e
000000b0: 378e 873f 4954 0b40 5986 453f 9ee0 d03f
000000c0: cc6b 2e40 ddde 2abf 670e 34c0 e28b 96bf
000000d0: dcbc dd3f 3f89 8b3f e10d 873e f60c 06bf
000000e0: f009 a8be afd7 513f bb65 2a3e 3b3d 5bc0
000000f0: 46ee 8a41 e512 7ebf aa19 01bd 0775 8bc1
00000100: 89ee 993d 637c 0d41 e757 c93f 2dee 323f
00000110: 3547 d63f 7f12 7abb 387c 363f 1e7f f93f
00000120: a61f 81be a0f4 363d 529c 9fbf 4de0 26bf
00000130: 7c76 3bbf cf62 633e dd5c 02bf 54fc b63e
00000140: 4ea8 6b3e 3e55 6abf 8f5b 61bf 3670 0040
00000150: a18f 953f 6068 debf 4091 1fbe 3494 2dbc
00000160: c70c 1ebf a3a3 bebe 6096 13be 5286 053f
00000170: ddb7 2fc0 b497 4a41 bb3a ad40 ce77 9ebd
00000180: 9f2b 4bc1 b16f afbd 7b13 d440 f074 46bf
00000190: 435d e6be e206 d1be 5353 3cbf 0eb5 a5be
000001a0: 8071 28c0 120b dd3f 073f 0dbe 75d0 85be
000001b0: b824 003f e0ee 39be 1851 183f 7bc3 9bbe
000001c0: e80b 15bf bc34 193f bd77 1abf b517 823f
000001d0: 0afb 4a3f a801 e93d 5a41 6b3f 1e97 80bd
000001e0: e00e 0fbe ef10 593e 2d9c 81be 4971 55be
000001f0: 01b7 8fbe 468d 3a40 64ae 2041 176f 7040
00000200: f470 91bc 4e73 20c1 9cf9 fdbc 8cfd 2e41
00000210: 0dfe 72be b20c 1fbd 4650 3c40 3370 5740
00000220: a60a 243e 5205 413e 72c3 96bf 6162 8abf
00000230: ec6d d8bf 80f1 793f f846 b3be 1446 3e3e
00000240: 9712 61bf e4c0 96be 4316 5a3d 725a 1fbe
00000250: 386b f7be 942b 89bf aa7a 00c0 efc2 613f
00000260: b94a 163f 4e92 2f3f a87c 6f3e 0587 873e
00000270: c2e4 aa3f e693 b5bf 5243 4840 52ec 6441
00000280: b6d7 11c0 b7c9 843d ace3 63c1 f053 45bc
00000290: 547a 29c1 0f4d 1abf 1aca f4bf 5f78 4fc0
000002a0: c5a5 fdbf dd9d ecbf 301b d2be e034 aebf
000002b0: 90a8 cb3d 1d02 5dbf 8ba8 5e3d c8df ed3e
000002c0: 23f2 0ebf 9e3a 1dc0 33ed babf d1e8 4f3c
000002d0: 435f 7abf a060 d03c 2f63 883e 7e97 a0bf
000002e0: 66a6 8abe 87d7 14bf e417 663f 7abe 65bf
000002f0: 5249 233e 3eec dc3e a6fe 74be 5583 96c0
00000300: 536d 6241 e041 e340 abf2 863d 2551 62c1
00000310: 04dd 983c 4bbe ffbf bd5a 95bf cf34 2d40
00000320: 14c5 6f3f 2a94 aa3e ec96 a3bf d5fb 1e40
00000330: 309b e3be 86ac d0be 2f2a 303d 968e 153f
00000340: 5aba 04bc 32bc 303f 94b9 e13e 09bc fbbe
00000350: 0109 1e40 a301 693f 9047 29bf 0739 81be
00000360: 0642 eb3f 8982 d93e 716f 7e3f 0014 d6be
00000370: da19 3dbe c579 71bf c4d4 083f 6ad5 16bf
00000380: 3bee 1e40 53fc 8741 e9f9 3abf 5401 cebc
00000390: 7b6f 87c1 0090 3c3c 8aba ac40 6643 bcbe
000003a0: 532e ab3e 460f 1540 a5a6 4540 bf97 b43d
000003b0: 6927 a63d 7752 063f e813 52bf b90d 0640
000003c0: c770 dabe 891a 2ebf 9967 0e3f 94d4 a73f
000003d0: c1c1 81bf 1753 c43f 9944 2f3f eb81 afbe
000003e0: b0af 443f eba2 06bf 06d9 853f 6f7b 633f
000003f0: 10b0 223d 8d12 993e 64e2 f1be 2d1c 783e
-0.7009703 -0.88090223 -1.298383 1.4161952 -1.4038845 1.4517083 0.011448007 -0.3999532
1.4582537 -1.7294568 0.2852393 -0.12702645 -0.18748261 1.0977517 0.24297738 -3.1268315
-0.27950433 0.1457902 1.2825636 1.9559251 0.36114407 -1.1503795 0.44552806 0.15631668
0.040907122 -0.70073694 -1.7200402 15.92149 -2.8929205 -0.06987425 -16.081177 -0.015467137
2.7927413 -2.4774613 -0.8975385 3.2512136 -0.12317293 -2.8048575 0.7389622 0.9756257
-1.1131587 -0.85611284 0.45909128 0.38665554 1.0590276 2.1770194 0.77158123 1.6318548
2.7253294 -0.6674631 -2.813379 -1.1761439 1.732326 1.0901259 0.26377776 -0.52363527
-0.32820082 0.8196973 0.1664037 -3.4256122 17.366344 -0.9924758 -0.031518616 -17.432142
0.075162 8.842868 1.5729951 0.6989468 1.6740481 -0.0038157997 0.7128329 1.9491918
-0.25219458 0.044666886 -1.246958 -0.65186006 -0.7322767 0.22205661 -0.5092295 0.35739386
0.23013422 -0.9153632 -0.8803033 2.0068488 1.1684457 -1.7375603 -0.15582752 -0.010594416
-0.61738247 -0.3723422 -0.14412832 0.5215808 -2.7455971 12.662037 5.4134192 -0.07737695
-12.69815 -0.08566225 6.627378 -0.7752218 -0.44993028 -0.40825564 -0.7356464 -0.32364696
-2.6319275 1.7269003 -0.13793574 -0.26135603 0.5005603 -0.1815753 0.5949874 -0.30422577
-0.5822129 0.5984609 -0.60338956 1.0163485 0.79289305 0.11377269 0.91896594 -0.06278823
-0.13970518 0.21197866 -0.25314465 -0.20843996 -0.28069308 2.9148726 10.042576 3.7567804
-0.017754056 -10.028151 -0.031002812 10.936901 -0.23729725 -0.038830467 2.9423995 3.366223
0.16019687 0.18849686 -1.1778395 -1.0811273 -1.6908545 0.97634125 -0.35015082 0.1858142
-0.8791899 -0.2944404 0.053243887 -0.15561846 -0.4832399 -1.0716424 -2.0074868 0.8818807
0.5870777 0.6858262 0.23387396 0.264702 1.3351061 -1.418576 3.129109 14.307695
-2.278791 0.064837866 -14.243084 -0.012043938 -10.592365 -0.6027383 -1.9124177 -3.2417219
-1.9816214 -1.8485676 -0.41036367 -1.3609886 0.0994426 -0.8633135 0.054359954 0.46459794
-0.5583822 -2.4567027 -1.4603637 0.012689785 -0.9780161 0.0254367 0.2663817 -1.2546232
-0.27080077 -0.5814137 0.89880204 -0.8974377 0.15945938 0.43148988 -0.23925266 -4.7035317
14.1516905 7.1017914 0.06589254 -14.144811 0.018660076 -1.9979948 -1.1668316 2.7063482
0.9366009 0.33316165 -1.2780433 2.4841206 -0.44454336 -0.40756625 0.04300898 0.58420694
-0.00810107 0.69037163 0.44086897 -0.49166897 2.4692996 0.9101812 -0.6612482 -0.2523882
1.8379524 0.42482403 0.99388796 -0.41812134 -0.18466893 -0.9432643 0.53449655 -0.58919394
2.4832904 16.998205 -0.7303758 -0.025147118 -16.929434 0.011508942 5.397771 -0.3677017
0.3343378 2.3290572 3.0882962 0.08818006 0.08112986 0.5246958 -0.82061625 2.0945876
-0.42664167 -0.6800924 0.5562683 1.3111749 -1.0137254 1.5337857 0.68464047 -0.34278807
0.7683058 -0.52592343 1.0456855 0.8886022 0.039718688 0.29896966 -0.47243035 0.24229498

fc1.bias f4 [128]
00000000: 9c9b 7ec1 8db6 89c1 e2a6 4dc1 d7e4 21c1
00000010: 24d8 67c1 1e0f 63c1 f25b 87c1 9011 84c1
00000020: c643 52c1 c8f3 16c1 c59e f7c0 d868 cac0
00000030: 2337 39c1 e58a 0fc1 10d0 26c1 7bec 40c1
00000040: 23d9 7ac1 dfaa 87c1 f86f 44c1 47f0 00c1
00000050: d523 9bc1 2ee5 50c1 f91e 37c1 9d54 2ac1
00000060: 4a17 4fc1 fc01 79c1 fd1b 8a40 7489 7f40
00000070: 9aa1 39c1 eb90 83c1 8116 3cc1 c219 1fc1
00000080: 7883 52c1 612e 53c1 94b7 86c1 ba87 3ec1
00000090: 0df0 f040 c6ca 93c1 6143 46c1 71b1 13c1
000000a0: 5ada d940 ca97 82c1 5ca0 1f40 a710 8bc1
000000b0: 6211 09c1 8984 40c1 7f23 48c1 6767 57c1
000000c0: 99cd 78c1 04cd 08c1 07f4 4dc1 92fc 7ec1
000000d0: fa2a 69c1 6c9d cd40 7787 9f40 f21c 5ac1
000000e0: 901a 2ec1 af37 3cc1 da84 5bc1 0dc7 a3c1
000000f0: 0718 13c1 ab1a 5340 c9f2 273f 7590 81c1
00000100: d1b9 3dc0 f641 7b40 0b26 7fc1 57ed 2c40
00000110: f94c 76c1 eff5 62c1 6c95 82c1 c241 5dc1
00000120: 1b3a 86c1 32c5 46c1 05cf 10c1 a6ab 7fc1
00000130: 29ec 47c1 7b56 72c1 246e d9c0 39e6 9741
00000140: fad1 fe40 1208 6fc1 8dde f6c0 d988 23c1
00000150: 580b 8d40 cdba 51c1 6ff5 7ec0 316a 68c1
00000160: 1225 65c1 1228 2dc1 c0d9 90c1 281c 4ec1
00000170: 67f2 9f3f 3072 24c1 1bfd 8cc1 8462 2fc1
00000180: a907 40c1 9b3b 4a40 1bb4 3e40 3326 72c1
00000190: 545f 9fc1 33bf de40 a91f 60c1 f8bd 48c1
000001a0: 8a0e a540 7859 ad3f d884 80c1 f9ad 25c1
000001b0: 8b9e 1ac1 a793 93c1 3db0 e0c0 868f ce40
000001c0: afd2 3540 423c 6ec1 7870 2dc1 ddbd 1ec1
000001d0: c93d 27c1 62c8 22c1 af62 5dc1 1da5 50c1
000001e0: 4adf 7bc1 3606 4ac1 2db4 51c1 dc45 70c1
000001f0: 0521 4bc1 5472 66c1 5f0d 76c1 abc8 77c1
-15.912991 -17.214136 -12.853243 -10.118369 -14.490269 -14.191191 -16.919895 -16.508575
-13.141546 -9.434517 -7.738131 -6.3252983 -11.575961 -8.97141 -10.4257965 -12.0577345
-15.678012 -16.958433 -12.277336 -8.058661 -19.392496 -13.055952 -11.445062 -10.645658
-12.943186 -15.562984 4.3159165 3.9927645 -11.6019535 -16.44576 -11.755494 -9.943789
-13.157097 -13.198823 -16.839638 -11.908136 7.529303 -18.47401 -12.39145 -9.230821
6.8079042 -16.324116 2.4941626 -17.383131 -8.566744 -12.032357 -12.508666 -13.462745
-15.550195 -8.550053 -12.872077 -15.936663 -14.572992 6.4254665 4.985286 -13.632067
-10.881485 -11.763595 -13.719934 -20.472193 -9.193366 3.2985027 0.65604836 -16.195536
-2.9644663 3.925901 -15.946788 2.701986 -15.393792 -14.185042 -16.32296 -13.828554
-16.778372 -12.423143 -9.050542 -15.979406 -12.495156 -15.146113 -6.794695 18.987413
7.963132 -14.93947 -7.714667 -10.22091 4.4076347 -13.108106 -3.98373 -14.525926
-14.32155 -10.822283 -18.106323 -12.881874 1.249585 -10.277878 -17.623587 -10.961552
-12.00187 3.159888 2.9797428 -15.134326 -19.921547 6.9608397 -14.00773 -12.546379
5.158025 1.3542929 -16.064865 -10.354974 -9.663707 -18.447096 -7.0215135 6.45502
2.840984 -14.889711 -10.839958 -9.921353 -10.452584 -10.173922 -13.836593 -13.040311
-15.742014 -12.626516 -13.106488 -15.0170555 -12.695561 -14.402912 -15.378264 -15.486491

fc2.weight f4 [128, 132]
00000000: 60e3 f340 c933 d340 3ccc d540 f294 7540
00000010: 4321 b240 fcbd e440 0fcf e440 d201 8c40
00000020: e7ad d040 1f1b 8d40 acbe 8740 7259 7340
00000030: 3dd7 dc40 2328 9240 ae58 1e40 3d0e e240
00000040: 0d74 ca40 9e91 c040 cc25 9840 6c65 3940
00000050: 8849 f540 cb8e d440 d510 a240 8600 cb40
00000060: 649e cc40 f38b 8340 a08e 23c0 74a8 b1bf
00000070: 7516 c140 bf22 ba40 eb27 f040 bd7c 8840
00000080: f8d3 b840 8c2c b240 7df5 b040 8686 eb40
00000090: ae12 19c0 9d65 9440 ba16 f640 b1b3 9f40
000000a0: 1782 03c0 ada1 ec40 31a7 99bf 78ae ae40
000000b0: c8c0 c040 d1f1 d740 e90c 9640 3e90 d540
000000c0: 9e19 c940 dc8a c33f 00db e440 00e7 9240
000000d0: 82e5 0141 9afd 0dc0 4fa1 86bf 9263 a940
000000e0: 762b c340 853e d140 392b fa40 4718 0241
000000f0: 99f8 9640 a2e0 21c0 e855 c4be 7600 ef40
00000100: 2a02 953f fd7c 04c0 8fb6 c840 731d 34bf
00000110: b940 bf40 acd9 c940 773c a540 2f5e c840
00000120: 5f33 ed40 b2f7 b240 5c2e d440 c787 d840
00000130: 863d 6240 7b4c 9340 01cb 3c40 36d4 f0c0
00000140: 2242 7bc0 e257 b640 0747 e63f a9c0 8340
00000150: a56f e2bf 07c9 aa40 552e fb3f 9599 f240
00000160: 901a af40 16cb b040 4a90 c240 30c4 cd40
00000170: cecc 88bf e44a e340 1e09 ec40 1020 9a40
00000180: e378 ad40 f18f 14bf 2792 2ebf 270e a440
00000190: 73ad 1241 3652 2ec0 1782 af40 9c7d ba40
000001a0: eafd e7bf 409e c4be 1d31 d740 f3a8 a240
000001b0: e2dc 9940 82b6 e240 d174 0740 04e9 13c0
000001c0: 77ae e5bf 9eed cb40 2d68 ac40 3fe4 d440
000001d0: 5b89 a240 f78f a840 54d0 bb40 3333 c640
000001e0: c3ce e740 037f 8740 007c ac40 e543 c040
000001f0: 8c27 bc40 69e5 4240 3f33 a340 2fac bd40
00000200: 5929 b3c0 b01a 17be d398 b740 a6fb 79be
00000210: 0c24 3b40 c177 b540 6739 4d40 3ade 3340
00000220: b52d 2240 711f a940 675d b540 3bad 7440
00000230: feef 3340 6299 0140 1388 2b40 7f14 bf3f
00000240: 6c8c 9840 c3d1 3440 1d39 33c0 0d6a a240
00000250: 0486 ae40 74b7 2740 c490 d03f 4391 2d3f
00000260: 1432 7740 8e31 a740 a0fc 9940 a0c7 b340
00000270: 2fae 9540 3db3 9840 1710 eebf 7bcb 0cbf
00000280: 31e8 8240 83f6 1a40 1fb1 2c40 d7ac 1040
00000290: 7385 8d40 add7 b240 3dae 6c40 1788 8c40
000002a0: d4a3 01c0 246a 8240 d3cd c240 052b 7e40
000002b0: 0ed8 fcbf b101 8440 de17 c2bf 6303 a340
000002c0: 49f4 8140 78d6 a040 82ee 853f db8d 1640
000002d0: 12b8 9c40 49f4 0940 bcd7 a240 ea2a e33f
000002e0: fab9 9b40 4a8b 4cc0 44b4 04c0 0b71 a340
000002f0: 37cc d340 d0a9 5140 da27 7340 fe60 ba40
00000300: 93ee 3d40 bdec b4bf 0b11 0bbf 59e5 9140
00000310: 736e b7be 6180 2ac0 cb79 b33f 2d44 6ebf
00000320: 13b7 7b40 8854 5440 9124 7c40 c2f8 a740
00000330: 74d2 cc40 da0b 6f40 9948 6140 84f3 8c40
00000340: 7eb7 4540 4027 8d40 fc54 3e40 1065 bcc0
00000350: 75c8 c1bf ccb8 5a40 a6fd 913f bb68 a540
00000360: bcda 0fc0 a06a 5a40 ea73 5fbe f2ac bc40
00000370: 8feb 2240 a576 d83f 3564 1740 a29c b340
00000380: a987 c5be 59c4 cbbd 8edb b340 e138 9440
00000390: 150f b940 d1a2 ecbe 24f8 f1be 3141 5e40
000003a0: ee05 be40 f503 c9bf 2a8c cc40 fe11 b340
000003b0: 5f9c a6bf cfc6 afbe 1b88 8340 b7a6 a740
000003c0: 4b71 6040 469e 1f40 0b66 833f a59d d9bf
000003d0: 0eff 52bf 9039 9440 dc25 8340 56f5 8840
000003e0: 68c3 af40 9ffc 5540 1acd 833f bf6b 9b40
000003f0: 33fa 6840 5984 9340 3015 a040 e87b ce40
7.6215057 6.6000714 6.681181 3.837216 5.5665603 7.1481915 7.1502757 4.375222
6.5212283 4.4095607 4.2420254 3.8023343 6.901274 4.5673995 2.4741626 7.064238
6.3266664 6.0177755 4.754614 2.8968153 7.665226 6.642431 5.0645547 6.343814
6.394335 4.1108336 -2.5555801 -1.3879533 6.0339913 5.8167415 7.504873 4.265227
5.775875 5.567938 5.529967 7.3601713 -2.391765 4.637404 7.6902742 4.990685
-2.054815 7.394736 -1.2004148 5.4587975 6.023533 6.7482686 4.689076 6.6738577
6.284377 1.5276752 7.1517334 4.5906982 8.118532 -2.2186036 -1.0517977 5.2934046
6.0990553 6.538882 7.817776 8.130927 4.7178464 -2.5293355 -0.3834679 7.4688063
1.1641285 -2.0701287 6.272285 -0.70357436 5.9766507 6.3078213 5.163631 6.261497
7.412521 5.5927362 6.630659 6.7665744 3.535005 4.603086 2.9498904 -7.5259047
-3.9259114 5.698228 1.7990426 4.117268 -1.7690321 5.3370395 1.9623514 7.581248
5.4719925 5.524791 6.0801134 6.4301987 -1.0687501 7.102892 7.376113 4.816414
5.4210067 -0.5803214 -0.6819176 5.1267276 9.167346 -2.7237678 5.48463 5.827833
-1.8124363 -0.38401985 6.7247453 5.0831237 4.808213 7.084779 2.116505 -2.3110971
-1.7943867 6.372756 5.387717 6.652862 5.079267 5.267574 5.8691807 6.19375
7.2439895 4.2342544 5.3901367 6.008288 5.8798275 3.045252 5.1000056 5.9272685
-5.5987973 -0.14756274 5.7374053 -0.24412403 2.9240751 5.6708684 3.2066286 2.8104386
2.5340397 5.285088 5.6676517 3.8230731 2.811523 2.0249867 2.6801803 1.492813
4.7671413 2.8253028 -2.800361 5.0754457 5.4538593 2.620572 1.6294179 0.67799777
3.8624315 5.224799 4.812088 5.6181183 4.6775126 4.7718797 -1.859866 -0.54997987
4.0908437 2.421296 2.6983106 2.2605493 4.42254 5.5888276 3.6981347 4.3916125
-2.0256243 4.0754566 6.087625 3.9713757 -1.9753435 4.1252065 -1.5163534 5.0941634
4.06107 5.0261803 1.0463412 2.3524082 4.8974695 2.155535 5.088835 1.7747471
4.866452 -3.1960015 -2.0735025 5.107549 6.6186786 3.2759895 3.7993073 5.82434
2.9676864 -1.4134747 -0.5432288 4.5592465 -0.35826454 -2.6640856 1.4021543 -0.9307278
3.933049 3.3176594 3.9397318 5.249116 6.40069 3.7350984 3.520056 4.404726
3.0893245 4.4110413 2.973937 -5.8873367 -1.51393 3.417529 1.1405532 5.1690345
-2.2477255 3.4127579 -0.21821561 5.8961115 2.5456274 1.6911207 2.3654912 5.61287
-0.38580063 -0.0994956 5.620551 4.631943 5.783091 -0.4621797 -0.4725963 3.472729
5.938224 -1.5704333 6.39211 5.5959463 -1.3016471 -0.34331366 4.1103644 5.239101
3.5069149 2.4940352 1.0265516 -1.7001234 -0.8242043 4.6320267 4.0983715 4.279948
5.4926033 3.3435438 1.0296967 4.8569026 3.640271 4.6099057 5.0025864 6.4526253

fc2.bias f4 [128]
00000000: 8853 04c1 d151 11c1 d027 6cc0 44c2 57c1
00000010: a932 5ec1 0f56 f5c0 abbd 33c1 4694 59c1
00000020: 1d52 13c1 6cc7 e4c0 2f5c 1ec1 8801 56c1
00000030: 7046 edc0 847f 18c1 44d8 4fc1 ce67 68c1
00000040: fb4f 4ac1 68c1 45c1 96fc 6ac1 5a49 32c1
00000050: aea9 63c1 64e7 24c1 a177 6ac1 4eae 31c1
00000060: b5b7 23c1 f239 06c1 d9b0 1fc1 304f 38c1
00000070: 54be 11c1 f216 01c1 6480 adc0 2c57 59c1
00000080: d474 02c1 20d5 35c1 26d2 29c1 e10c 3fc1
00000090: a56a 3ec1 2e1d 05c1 8130 99c0 78bc 3bc1
000000a0: d46d 95c0 7cab 95c0 0933 3ec1 9ca3 d9c0
000000b0: 2761 09c1 3aed 38c1 87f8 dac0 e1c7 20c1
000000c0: a505 38c1 551e 3ec1 54f4 383d 8c3f a5c0
000000d0: a37d 5ec1 bac1 c4c0 2184 e0c0 873c fcc0
000000e0: 232f 36c1 54f4 3cc1 df44 33c1 893d 42c1
000000f0: 32ce 37c1 cd17 17c1 c3d9 64c1 36b5 f0c0
00000100: 8400 1fc1 aca3 8ec0 cccf 43c1 daf6 28c1
00000110: 795a 75c0 76d6 3bc1 633b 4ac0 2c6f 15c1
00000120: aa35 dfc0 945f 0bc1 ba93 29c1 7037 1ac1
00000130: b4da 31c1 9888 b8c0 52f5 4bc1 694c 1cc1
00000140: a03b 2dc1 11d9 19c1 14fe 23c1 da5b 34c1
00000150: 1a1b 0dc1 0be8 06c1 680c 32c1 0da3 6bc1
00000160: c693 34c1 368f 1cc1 ebdd 08c1 124b 9fc0
00000170: d304 3dc1 dc5f c8c0 81f7 25c1 313e 0ac1
00000180: 1c24 d0c0 1331 90c0 ccab 57c1 b17b 59c1
00000190: 8e07 eac0 272b 53c1 e9a8 16c1 51a8 47c1
000001a0: 0a0f 59c1 f8a0 1dc1 f909 3dc1 bc5b 2cc1
000001b0: 3bda 32c1 139c 42c1 349a 10c1 d424 4dc1
000001c0: 2f9d 33c1 ffe6 56c0 ba43 3dc1 b8cf c7c0
000001d0: 2fd5 7ec1 10ae fec0 4c36 0fc1 dd8b 55c0
000001e0: 0df5 3ac1 ad01 27c1 1dd5 23c1 9139 47c1
000001f0: c562 34c1 3f7a 81c0 0661 efc0 090b 1bc1
-8.270393 -9.082475 -3.68993 -13.484928 -13.887368 -7.666755 -11.233806 -13.5987
-9.207547 -7.1493435 -9.897506 -13.375374 -7.4148483 -9.531132 -12.990299 -14.525343
-12.6445265 -12.359718 -14.6866665 -11.142908 -14.228926 -10.306492 -14.654206 -11.105055
-10.23235 -8.389147 -9.980676 -11.519333 -9.108967 -8.068102 -5.4219227 -13.583782
-8.1535225 -11.364532 -10.613806 -11.940644 -11.901036 -8.319624 -4.787171 -11.733513
-4.6696568 -4.677183 -11.88746 -6.801222 -8.586219 -11.557917 -6.842838 -10.048799
-11.501378 -11.882405 0.045154884 -5.164007 -13.905673 -6.1486483 -7.016129 -7.8823886
-11.386508 -11.80965 -11.204314 -12.140023 -11.487841 -9.443311 -14.3031645 -7.5221205
-9.937626 -4.4574795 -12.238232 -10.5602665 -3.833647 -11.739859 -3.1598747 -9.339642
-6.975301 -8.7108345 -10.598566 -9.638535 -11.115894 -5.766674 -12.747393 -9.768655
-10.827057 -9.615495 -10.249531 -11.272425 -8.819117 -8.431651 -11.128029 -14.727307
-11.2860775 -9.784964 -8.554179 -4.977914 -11.813678 -6.2617016 -10.372926 -8.640183
-6.504408 -4.5059905 -13.479443 -13.592698 -7.313422 -13.198035 -9.416238 -12.478593
-13.566172 -9.851799 -11.814935 -10.772396 -11.178279 -12.163104 -9.037647 -12.821491
-11.225875 -3.357849 -11.829035 -6.2441063 -15.927047 -7.958748 -8.950756 -3.3366616
-11.684827 -10.437909 -10.23953 -12.451554 -11.274114 -4.0461726 -7.4805937 -9.690194

fc3.weight f4 [51, 128]
00000000: 0e2e ee3f d6fb 9fbe 1691 fa3e 3eaf 383e
00000010: de1e 973f 34c4 5740 1cb4 413f 3b23 0840
00000020: fdad a53e 56e5 1b40 11bd 8a3f da26 abbe
00000030: 3b38 3e40 6525 c13f 4689 983e 8163 09bd
00000040: bc19 86be 9ef7 87bd 6224 f8be 7be6 bdbe
00000050: 9a85 84be 05f0 5240 b332 cb3f 23d6 efbe
00000060: 4abe bd3f 774b 533f 3289 1240 8750 9e3f
00000070: 14a0 ab3f 5975 123f 9a1b 173f acd5 ae3f
00000080: f6a8 2040 c2b5 0140 2daa 9c3f 07ae 71bd
00000090: 56e6 2dbe 0aab 813e 11fe 5d40 c472 bd3e
000000a0: 8e1c 3940 7678 1340 1307 b63f d273 2340
000000b0: c093 2c40 8bd8 983e 4e06 2940 8664 ad3f
000000c0: 0cc8 d93e 6e4a 8b3f f726 e33e 22d2 3540
000000d0: 8709 ae3f a519 893f f324 8e3d 86fd 5340
000000e0: a622 7b3f 0a34 b23e 9ec7 48be 17bc 873f
000000f0: b0a5 cc3f 8b7a d93f 57ce bf3f 8d42 b83f
00000100: 0fea 34be c199 3640 e440 de3f ba08 ea3f
00000110: 3553 4540 326c 5d3f a62d 553f 4259 c93f
00000120: 5249 5940 cba0 0640 0319 243f 1a7d 8c3e
00000130: 3abf c93e e377 4b40 baa3 203e 64c6 643f
00000140: c6e3 6a3f 6209 0540 0ffc 0a40 1f88 c83d
00000150: e45a 4d40 3e03 693f 9255 f8bd f792 a63f
00000160: 9335 ccbe 4075 df3f 9fd8 d2be d64d 5e40
00000170: 40e8 9d3e 8f65 853f fca5 a23f f9ba 6a40
00000180: fc2f 3e40 a362 cd3e 4d98 0cbf 7a54 293f
00000190: 0917 e3bd 23b7 c83f 088c 693f b184 c53f
000001a0: 0d5b c13e c665 22be 2116 16bf e12b d23f
000001b0: 6f3e 7640 0cbd 0abf 17f2 c23f 7d7c a83f
000001c0: 3d47 9f3e a580 5340 328b cb3f 286e 8a3f
000001d0: 957c ea3f e4b4 cf3f bce0 ad3f f671 3840
000001e0: fa05 903e 6cfe f73d 9984 96be eb45 db3f
000001f0: 06c3 5f3f 6464 5540 7111 823f e0dd 5040
00000200: 730e f03f 132d 98be d558 fc3e c766 6e3e
00000210: 69a4 923f 4f5c 5940 41f0 483f 72a5 0840
00000220: 0c77 b13e e3b4 1b40 cc55 893f da8d 9fbe
00000230: 866d 3e40 edb3 bd3f 7d5a 9a3e 3a0b 043c
00000240: b339 5ebe b8e8 15bd 9f5f 15bf d285 b7be
00000250: a6fc 45be d62a 5340 e06f d03f a845 d1be
00000260: 6a7a b73f e5ab 4f3f 7b8c 1240 fc8c a03f
00000270: 2dd7 a83f f601 113f c95e 093f 9299 a93f
00000280: c3d8 2040 9b00 0140 b9f8 9a3f 7219 e5bd
00000290: 71b6 0cbe bbf7 4a3e 9239 5c40 d691 e63e
000002a0: eb95 3940 48c6 1340 e9bf b73f 0989 2340
000002b0: 3a77 2c40 6388 ac3e ec40 2940 e10a ae3f
000002c0: 3b25 e13e 4a59 903f 0bb7 ea3e 5acd 3440
000002d0: 27c9 ae3f 5f10 873f 2503 533d d4ee 5340
000002e0: 4589 7b3f 9203 b03e 7462 32be dc3d 883f
000002f0: a61e cc3f a6f6 d93f 82ab c03f da90 ad3f
00000300: 563d 19be a3a7 3640 81bd dd3f 35d7 e53f
00000310: 7123 4540 ca4b 683f 4545 593f 7f6f ca3f
00000320: 68e1 5840 af20 0640 9565 233f 2e0b a93e
00000330: 0289 c33e 7eca 4b40 b564 1d3e f1d9 5f3f
00000340: 6fc4 653f 964a 0540 7e75 0b40 282b cb3d
00000350: e921 4d40 d479 5b3f 4866 d4bd 9c87 a53f
00000360: b9e4 b5be fc1b e03f 3e85 dbbe b5e1 5e40
00000370: b93b a63e 47ea 793f c1ad a13f ffff 6a40
00000380: a7f6 3d40 3ef4 cf3e 021b 00bf 4d89 253f
00000390: 385e 14be 9f35 c13f fc59 693f 422c c03f
000003a0: e26a a83e 1111 11be 96ca 24bf a5f0 d33f
000003b0: feed 7740 8907 03bf 5d80 c03f 7899 ab3f
000003c0: 5a54 aa3e f217 5440 c1bf c73f 3492 8a3f
000003d0: 4784 e93f f4bc cf3f bf8a ad3f 1bf8 3740
000003e0: e1a7 a03e f6cb db3d 9606 a7be a157 dd3f
000003f0: 1bd4 633f 9ad2 5440 3e01 833f 9469 5040
1.8607805 -0.31246823 0.48938817 0.180356 1.1806295 3.3713503 0.7566545 2.1271503
0.32359305 2.4358726 1.0838948 -0.3342808 2.972182 1.5089537 0.2979223 -0.03354216
-0.2619151 -0.06639026 -0.48465258 -0.37089905 -0.2588318 3.2958996 1.5874847 -0.4684306
1.4823697 0.82537025 2.2896237 1.2368325 1.3408227 0.5721031 0.5902649 1.3658957
2.5103126 2.0267186 1.2239434 -0.059003856 -0.16982397 0.25325805 3.468632 0.37001622
2.8923678 2.3042274 1.4220909 2.553944 2.696518 0.2985271 2.6410098 1.3546302
0.42535436 1.0882089 0.44365665 2.8409505 1.3596658 1.0710951 0.06940641 3.3123488
0.98099744 0.34805328 -0.19607398 1.0604275 1.5988064 1.6990522 1.4984845 1.439531
-0.17667411 2.8531344 1.7363553 1.8283913 3.0832036 0.8649322 0.8327278 1.5730364
3.3951 2.103564 0.64100665 0.27439195 0.39403707 3.1791923 0.15687457 0.8936522
0.91753805 2.0786977 2.1716344 0.09791588 3.2086725 0.9102057 -0.12125696 1.30136
-0.39884624 1.7457657 -0.41180894 3.4735007 0.30841255 1.0421618 1.2706904 3.667662
2.9716787 0.40114316 -0.5491989 0.66144526 -0.11088378 1.5680889 0.91229296 1.5431119
0.3776478 -0.15859136 -0.58627516 1.6419641 3.8475606 -0.5419471 1.523013 1.3162991
0.31109038 3.3047268 1.5901854 1.0814867 1.831927 1.6227078 1.3584208 2.8819556
0.2812956 0.12109074 -0.2939804 1.7130712 0.8740696 3.3342524 1.0161573 3.2635422
1.875441 -0.2972189 0.49286523 0.23281394 1.1456424 3.396259 0.784916 2.135098
0.34661138 2.4329154 1.0729308 -0.31162912 2.9754348 1.4820534 0.30147162 0.008059317
-0.21701698 -0.03659889 -0.5834903 -0.35844284 -0.19334659 3.2994895 1.6284142 -0.40873456
1.4334233 0.81121665 2.2898242 1.2543025 1.3190666 0.5664362 0.53660256 1.3249991
2.51323 2.015662 1.2107154 -0.11186494 -0.13741471 0.19821064 3.4410138 0.4503314
2.8997753 2.3089771 1.4355441 2.555239 2.694777 0.33697805 2.6445875 1.359707
0.43973717 1.1277249 0.45842776 2.8250337 1.3655137 1.0551871 0.05151667 3.311452
0.9825633 0.34377724 -0.1742037 1.0643878 1.5946853 1.7028396 1.505234 1.355983
-0.14964804 2.8539817 1.7323457 1.7956301 3.0802882 0.90740645 0.8487132 1.5815276
3.3887577 2.0957448 0.63826877 0.33016342 0.38190466 3.1842341 0.15370448 0.8744193
0.8975286 2.0826774 2.1790462 0.09920341 3.2051947 0.8573277 -0.10371071 1.293201
-0.35526064 1.750854 -0.42875093 3.482526 0.3246744 0.97623104 1.263115 3.6718748
2.9681795 0.4061603 -0.5004121 0.6466263 -0.14489067 1.5094489 0.9115293 1.5013506
0.32894045 -0.14166667 -0.6437162 1.6557814 3.873901 -0.5118337 1.5039173 1.340621
0.3326748 3.3139615 1.5605394 1.0825868 1.8243493 1.6229539 1.3557967 2.8745182
0.3137808 0.10732262 -0.32622212 1.7292367 0.8899552 3.325354 1.0234754 3.256444

fc3.bias f4 [51]
00000000: b381 1540 e8b7 0440 2f45 ba3f 41ee 283f
00000010: 49c6 4abe 2b63 89bf 1151 00c0 33f6 3dc0
00000020: dd6d 7dc0 733a 9ec0 024a bdc0 e141 ddc0
00000030: b7f5 f9c0 91cd 0ac1 c8c8 15c1 7861 20c1
00000040: 50d2 24c1 7b15 31c1 8e7c 38c1 497f 3dc1
00000050: 2866 43c1 3da3 44c1 b24e 44c1 f1d3 43c1
00000060: 71d4 41c1 0e92 40c1 1b71 3ec1 162c 3ec1
00000070: fac1 3ec1 6251 40c1 ee6e 41c1 7d0c 41c1
00000080: ebb1 3fc1 60c5 3dc1 24e0 3ac1 c08a 39c1
00000090: f4b9 37c1 4ccd 33c1 0bfa 2dc1 02ec 25c1
000000a0: e478 1ec1 3e6f 13c1 6204 0cc1 9303 04c1
000000b0: b44c 00c1 7df8 eac0 87c6 d6c0 05d3 c5c0
000000c0: 072f 9bc0 511c 4ac0 551c d8c1
2.3360412 2.0737247 1.4552363 0.65988547 -0.19802202 -1.0733389 -2.004948 -2.9681518
-3.9598305 -4.944635 -5.915284 -6.914292 -7.8112445 -8.675187 -9.361519 -10.023796
-10.301346 -11.067744 -11.530409 -11.8435755 -12.2124405 -12.289853 -12.269213 -12.2392435
-12.114366 -12.035658 -11.902614 -11.885763 -11.922358 -12.019869 -12.089582 -12.065549
-11.980937 -11.860687 -11.679722 -11.5963745 -11.482899 -11.237621 -10.873546 -10.370119
-9.904514 -9.214659 -8.75107 -8.250873 -8.018726 -7.342833 -6.7117343 -6.182009
-4.8494906 -3.1579783 -27.013834
