checkpoints/checkpoint_actor_2.pth (torch, 87447 bytes, 6 tensors)

hidden1.weight f4 [128, 33]
000000 da 2a b6 be 23 9c 11 be 16 75 2a 3d b8 23 18 be
       -0.35579568 -0.14219718 0.041615568 -0.14857376
000010 bf 63 37 3d e0 32 5c bd da 62 05 3d b1 20 6a 3e
       0.04477286 -0.053759456 0.032564975 0.22864033
000020 d3 0c bc 3d c2 95 d7 bd 58 03 8c bc 77 b4 cf bc
       0.091821335 -0.10526611 -0.017091438 -0.025354607
000030 c4 13 12 be dd d4 39 3e 5e 6e 62 3b 55 eb 37 3e
       -0.14265352 0.18147607 0.0034550647 0.17960866
000040 47 0e 07 be 95 5a f8 3d d1 74 83 bd c3 d4 06 bd
       -0.1318904 0.12126652 -0.06418765 -0.03291775
000050 54 86 a4 bc a2 67 c9 3d f2 d7 99 3c 38 b0 25 bc
       -0.020083584 0.098342195 0.018779729 -0.010112815
000060 f9 d9 02 be fa 3b 96 bc 18 ff a1 be c2 bb bc 3d
       -0.12778462 -0.018339146 -0.31639934 0.092154995
000070 9e 1f 77 bd ea 4a 2b 3e 45 e8 ee bd c0 41 78 bc
       -0.060332887 0.16727796 -0.11665396 -0.015152395
000080 88 54 1b 3f 28 8d b2 3e fd 9b 22 be cb 64 22 3e
       0.6067586 0.3487332 -0.15879817 0.15858762
000090 3b 79 e4 bd de fe 1c bd b5 e7 8f 3d ad ab 65 be
       -0.111559354 -0.038328998 0.070266165 -0.2242877
0000a0 7a 03 60 bc 9d ed 0b bd 42 6c 7a 3e 89 33 20 3e
       -0.013672704 -0.034162153 0.2445536 0.15644659
0000b0 e7 2a 70 be 03 d8 9b 3b 22 69 78 be cd ef 3b be
       -0.23453866 0.004755975 -0.24258855 -0.18353195
0000c0 fd 43 ba bb 0e 0d 40 3b bd 39 8c bd 9d 64 51 3c
       -0.0056843744 0.0029304656 -0.0684695 0.012780336
0000d0 07 b9 40 3d 7b 5d 7d be 98 45 b0 3c 51 ed bb 3e
       0.047051456 -0.24742691 0.02151756 0.36704496
0000e0 af a3 f2 bc da fa a7 bd 0a 97 64 bd 0d e2 03 be
       -0.029619066 -0.08202143 -0.055808105 -0.128792
0000f0 1a 9e d8 3b 5d 9d 34 3e 60 a5 04 bd 94 f5 26 be
       0.006610644 0.17638154 -0.032384276 -0.16304618
000100 00 df 9e 3a b7 ea 86 3e c3 45 26 be 4a ef 20 bd
       0.0012120903 0.26350948 -0.1623755 -0.039290704
000110 4d e2 a4 be 61 52 0a bd 65 e9 b4 bd 47 38 69 3e
       -0.32203904 -0.03376997 -0.08833579 0.22775374
000120 93 35 1d be ba a3 3f bd 2c e2 5b 3d 82 df 12 be
       -0.15352468 -0.046787 0.05368249 -0.14343074
000130 5c bd 1f be 07 bb 3e bd 07 17 bc bd 67 29 a3 be
       -0.15599579 -0.046565082 -0.091840796 -0.31867525
000140 10 25 3b be 67 68 77 3d 17 99 94 3e d5 f9 47 3d
       -0.18275857 0.0604023 0.29023048 0.048822243
000150 66 65 81 3d ce 55 e0 3d f8 7d 0f 3e ee 52 6a 3e
       0.06318168 0.10953866 0.14012897 0.22883198
000160 cc 43 bd 3d 48 8d 37 be ff 7e eb bd 3e de 6c bc
       0.09241447 -0.17924988 -0.11498832 -0.014457284
000170 d4 3d 3e 3e fe a0 9e bc fa 50 3e 3d 6c 51 96 3d
       0.18578273 -0.019363876 0.046463944 0.07339749
000180 e5 90 02 be a0 d0 ce bc ae b6 20 3f 23 c5 1c be
       -0.12750585 -0.025245965 0.6277875 -0.15309577
000190 5c 4a 10 3d 13 17 ba 3e ce 45 ab bd 4a c4 b5 bd
       0.035227165 0.3634573 -0.083629236 -0.0887533
0001a0 a8 db 9a 3e ab 7b a0 3d 67 e5 a1 be 2d 95 dd bd
       0.3024571 0.07836088 -0.31620333 -0.10819469
0001b0 2f 75 ac 3d c9 4a c6 3d 12 44 ef bd ab f0 32 3c
       0.084207885 0.09682233 -0.11682905 0.0109216375
0001c0 37 78 52 bc 2e 33 3a be e6 89 e1 3d d6 3f cc 3d
       -0.012846044 -0.18183586 0.1101263 0.09973113
0001d0 34 ab 13 3d a9 ea 18 3e 7e d0 1f 3c 9e de e6 bd
       0.036051944 0.14933266 0.009754298 -0.112729296
0001e0 88 e5 2c 3d 43 df 0f 3e 60 42 1e 3e 7b 54 9c bc
       0.042211086 0.14050011 0.15455008 -0.019083252
0001f0 d8 a4 a6 3d 04 fd 10 be 21 1b 1e 3e a9 69 30 be
       0.0813691 -0.14159018 0.15440036 -0.17227806
000200 c0 21 7a bb 9c 64 19 be 98 38 d4 bc 28 4c 89 be
       -0.003816709 -0.14979786 -0.025905892 -0.26815915
000210 6e 45 be bc 0a 1d 38 be 08 ff 34 bd 2b 10 b1 3d
       -0.023226466 -0.17979828 -0.04418853 0.08645662
000220 21 98 f6 3c 40 1e ee 3d 96 16 5b 3d 08 65 c9 3d
       0.030101838 0.116268635 0.053488337 0.09833723
000230 f8 14 60 3e 47 2f 28 be 19 8f 49 bc e5 7b 85 bd
       0.21882999 -0.16424285 -0.012302184 -0.06517772
000240 b3 1a 28 3e a9 15 95 bc 69 95 a8 be cf b7 b6 3e
       0.16416435 -0.018198805 -0.3292649 0.3568711
000250 d7 09 df bd 49 d0 9e bd 35 03 af 3d 38 01 f7 bd
       -0.10890549 -0.07754571 0.085455336 -0.12060779
000260 5a 9a d6 bd ff 53 f5 3d 32 b7 b5 bd 84 d9 ae bd
       -0.10478659 0.119789116 -0.08872832 -0.085375816
000270 f3 1f a0 bd ba c3 b5 3d 67 b7 85 3d ff 3f d8 bc
       -0.07818594 0.088752225 0.06529122 -0.026397703
000280 45 96 4c be 0c 90 b7 bd c3 10 21 be 74 f8 0d 3e
       -0.19979198 -0.08963022 -0.1572905 0.13864309
000290 c8 ed 11 3f cd c5 d6 bd 60 e3 83 be e0 39 c0 bc
       0.5700345 -0.10486946 -0.2575941 -0.023465097
0002a0 43 05 5c bd 4a b2 8f bd 27 9c e0 bc eb f9 27 be
       -0.053715955 -0.07016428 -0.02741821 -0.1640393
0002b0 2d d5 8f bd 03 4b 81 3c b0 00 0c bd 95 85 cb 3c
       -0.07023082 0.015782839 -0.034180343 0.02484397
0002c0 8b 61 08 bd 67 80 80 bc 37 75 3d 3e ee 8d 94 be
       -0.03329615 -0.015686227 0.18501745 -0.29014534
0002d0 8b 7c 31 be 0f 4a 29 3e bc 08 cb 3d 14 70 33 bc
       -0.17332666 0.16532157 0.09913775 -0.0109520145
0002e0 02 9c cc 3b 76 a3 6b bc 32 65 53 3c 88 73 bf bc
       0.0062441835 -0.014382234 0.012902545 -0.02337052
0002f0 6f b3 a7 bd 7d 43 eb bd 51 8e 23 3e b6 43 d3 3c
       -0.08188521 -0.11487482 0.15972258 0.025789123
000300 b2 15 dd bc 3a 8a 88 3e c8 72 71 3d 9f 9f 4e 3d
       -0.026987884 0.26667958 0.058947355 0.050445195
000310 cf 7a df bd 6b 03 7a 3b a0 c0 00 3e 3f 04 50 bd
       -0.10912096 0.003814901 0.1257348 -0.0507853
000320 44 af 24 3d ad b0 15 bc 2c 68 7c bd d8 0c ab bc
       0.04020621 -0.009136361 -0.061622784 -0.020880148
000330 8c f5 2c 3d 37 de 1c 3e a4 bc 59 3e b5 23 c0 bd
       0.04222636 0.15319143 0.21263367 -0.093818106
000340 6f 20 d4 bc 23 b4 70 bd fd 1c 22 bb 8f 74 8e bd
       -0.025894372 -0.05876554 -0.0024736517 -0.069558255
000350 84 d1 b6 3e 53 81 b4 bd 69 24 39 bd a8 4e bd bd
       0.35706723 -0.08813729 -0.04520074 -0.09243518
000360 34 0e 81 3d f1 40 e9 3b 22 69 2a bd a1 1a b7 bd
       0.06301537 0.0071183373 -0.04160417 -0.08940626
000370 d1 ba b5 bd 98 8f 06 bd fe 20 06 3e 6d 86 81 be
       -0.08873523 -0.032851785 0.13098523 -0.2529787
000380 7d 99 8f 3d 2c b6 19 be c3 0a 59 be 9c aa 3c 3d
       0.070116974 -0.150109 -0.21195512 0.046061143
000390 e4 70 2f bd 68 f1 fd 3d 0b 0b 97 3e ab 37 64 be
       -0.04283227 0.1239956 0.29500613 -0.2228686
0003a0 38 86 98 bd b0 14 00 3e 1c 6b d6 bd 8e d5 4e bd
       -0.07447475 0.12507892 -0.10469648 -0.05049663
0003b0 7f f3 9d bd 76 d3 ef bd f5 c6 5b 3e c2 ee 89 be
       -0.07712459 -0.11710255 0.21462615 -0.2693997
0003c0 56 90 77 3e b6 62 e3 3d ee f4 98 3d f4 6f 7e bd
       0.24176154 0.11102812 0.07468592 -0.062118486
0003d0 02 6d e1 bd d0 c7 cb 3e 56 de 41 3d 12 16 34 be
       -0.1100712 0.39800882 0.047331177 -0.17586544
0003e0 18 c7 22 3c 92 d9 7b 3c 80 be cd 3d 8f ee af bc
       0.009935163 0.015371697 0.100461006 -0.021476058
0003f0 e3 0e b2 bd 73 d6 97 3e 2f 78 11 be ae 5e b9 3a
       -0.08694246 0.296558 -0.14206003 0.0014142597

hidden1.bias f4 [128]
000000 7f 5f 81 bd a7 96 f2 3d 15 bf 54 be 3b d0 85 be
       -0.063170426 0.11845141 -0.20776017 -0.2613543
000010 f6 17 b9 bc 1b f7 bc 3d a8 d5 af 3d b8 18 f9 bd
       -0.022594433 0.09226819 0.085856736 -0.12162918
000020 43 8e bb 3d 36 6f b6 bd cc 5b d0 bd c3 6e b7 3c
       0.09157994 -0.089079306 -0.10173759 0.022391682
000030 bb 42 c5 bd 5f 8c 4d bc 06 b2 b9 bd 50 8e 65 bd
       -0.096318685 -0.012545674 -0.090671584 -0.056043923
000040 56 07 01 be 68 26 a3 3d 3b e3 71 be 32 16 d7 bd
       -0.12600455 0.0796631 -0.23621838 -0.1050228
000050 28 70 8f 3e fd 1b 7c 3b 00 5c b3 3d 0b e8 86 be
       0.28015256 0.003846883 0.08757782 -0.2634891
000060 61 82 93 bc f3 9d bc 3d ac 21 19 3d 25 2e 46 be
       -0.018006505 0.09209814 0.037385628 -0.1935354
000070 13 f5 9c bc 2a dc 83 3d a9 31 54 3d f9 40 fa 3d
       -0.01915983 0.06438477 0.051805172 0.12219424
000080 9e f0 41 bd b4 de 18 3e 2e 8c 04 3d aa 3b 10 3d
       -0.04734861 0.14928705 0.03236025 0.03521315
000090 6c 6d e4 3c a2 43 5a 3e 1e 27 81 3b 95 87 d9 3d
       0.027884208 0.21314862 0.0039414307 0.10621563
0000a0 c7 e3 b5 bc e1 85 ef bd ce 3f 66 3d f8 c2 06 be
       -0.02220334 -0.11695457 0.056213193 -0.13160312
0000b0 b5 4d 94 bd d8 06 7b 3d bf 75 3a be a0 93 b7 ba
       -0.07241384 0.061285824 -0.18208979 -0.0014005788
0000c0 71 94 36 3e 73 53 d3 3d 95 28 16 be f1 a6 1c 3e
       0.17830063 0.10318651 -0.14663918 0.15298058
0000d0 4f 33 01 3e 4b 04 63 3d 36 44 e6 3c 4f dc c7 bd
       0.12617229 0.055424016 0.028108697 -0.097588174
0000e0 8d 27 3a be 86 86 b6 3c 44 70 ea bd 7b f8 7e 3e
       -0.1817915 0.022280943 -0.11447194 0.24899475
0000f0 96 02 9c bd 04 21 9f 3c 7b 39 6d 3d cd ae da bd
       -0.07617681 0.019424923 0.057916146 -0.10677872
000100 79 48 04 be cb 58 06 3e 95 14 85 3d 8d 4f 7e 3e
       -0.12918271 0.1311981 0.06498066 0.24835034
000110 85 29 a3 bc e9 5b 4a 3d d8 5f 4f 3d a9 23 32 bc
       -0.019917259 0.04940406 0.050628513 -0.01087276
000120 e7 87 7c 3e 0d d8 22 3b 4a ee 34 be 6f b1 27 be
       0.24661218 0.0024848015 -0.17669025 -0.1637628
000130 c9 a3 4e 3e 38 d3 e4 3d 55 3e ac 3d 40 b7 3b bd
       0.20179667 0.11173099 0.084103264 -0.045829058
000140 73 bd 21 3d f4 96 7e 3d 90 46 2b 3e f4 05 e3 3c
       0.039487313 0.06215568 0.16726136 0.0277128
000150 3f 41 93 3e ee 87 c6 bd 1d b2 f2 bb 67 08 18 3e
       0.28760716 -0.09693895 -0.0074064867 0.14846955
000160 31 95 18 bd 61 75 01 3e ed 8a 00 bd 40 5c 1f bd
       -0.037251655 0.12642433 -0.03138249 -0.038906336
000170 a0 5b 1a 3e 21 bf 12 3e f6 fd d9 3d 0d 70 47 bd
       0.15074015 0.14330722 0.10644142 -0.048690844
000180 57 2c 78 3e 19 0f 40 be 47 b6 71 be bc c8 ea bd
       0.24235664 -0.1875576 -0.2360469 -0.11464068
000190 1b 5e 30 3c 82 60 9f 3d 80 c0 75 3d 8a 25 f0 3d
       0.010764624 0.07782079 0.059998035 0.1172591
0001a0 5e cd 88 3e f4 e3 c8 3d 36 e2 c4 3d 89 6c 7c 3d
       0.26719183 0.098091036 0.09613459 0.061626945
0001b0 84 b4 91 bd c4 13 ba bc 90 47 5e 3e 4c 6b bc bd
       -0.07114509 -0.022714503 0.21706986 -0.09200153
0001c0 2c cd e5 3d 1e 24 41 3e 08 6b 43 3e f2 bc 96 3d
       0.11220774 0.18861434 0.19083798 0.07360257
0001d0 b8 e9 9c 3d 4b 53 f5 bd 08 b8 71 3e f0 9e 48 3e
       0.07661766 -0.119787775 0.23605359 0.1959188
0001e0 9a f6 c3 bd f7 71 c5 bd 2e b5 b3 3d 69 d7 02 3e
       -0.0956852 -0.09640878 0.08774792 0.12777485
0001f0 b6 ed ab 3d 8c 6f e6 bd 0b b1 03 be ff ac 46 be
       0.08394949 -0.11251745 -0.12860505 -0.1940193

hidden2.weight f4 [128, 128]
000000 94 fc 7d 3c 1c aa 2c be a9 17 4f be b2 b1 0d 3e
       0.015502114 -0.16861767 -0.2022387 0.13837317
000010 f3 fd f4 bc ed 4b ec 3d 8a 2b 17 3d f9 43 c6 bd
       -0.029906249 0.11537919 0.036906756 -0.096809335
000020 ed 18 87 3d ca ef 84 bd b8 ca 85 bb 04 2d 06 3d
       0.06596551 -0.06491049 -0.004083004 0.032757774
000030 fa 86 35 3e db 5a d6 3d 3d 35 51 3c 0c 31 52 bd
       0.1772727 0.10466548 0.012769041 -0.051316306
000040 ac ce fc 3d 87 9e 9a 3d 72 1d 6b be 64 c0 90 3c
       0.12344107 0.07549768 -0.22960451 0.017669864
000050 96 21 fa bd 32 3e 5c be d1 c6 26 be 39 51 2a be
       -0.12213437 -0.215081 -0.1628678 -0.16632546
000060 22 48 d7 bd 69 94 e3 bd 48 38 1a bd 83 bc c3 be
       -0.10511805 -0.11112291 -0.03765133 -0.3822976
000070 39 d1 c9 bd f4 55 3d be 53 62 f1 bd c7 19 e2 bd
       -0.09854359 -0.1848982 -0.11786332 -0.11040073
000080 f0 d8 5b be 0b 5b 82 bd 02 95 a3 bd ae 9a 22 be
       -0.21469474 -0.06365021 -0.07987405 -0.15879318
000090 b1 b7 8f bd e6 fb 05 be 5d 3e d0 bd 28 df cc 3c
       -0.07017458 -0.13084373 -0.10168145 0.025008753
0000a0 92 f5 8b 3e 9a f3 f6 3d 6a 3f 9d bb 35 3a 9c 3d
       0.27335793 0.12058182 -0.0047988193 0.076282896
0000b0 6b 72 84 3d c8 6d a3 3d 82 bf 88 3e a9 ba ef 3d
       0.06467136 0.079799235 0.2670861 0.117055245
0000c0 cb a1 97 3d 47 9f cb bc 62 7a de 3d 1c 81 0a 3e
       0.074039064 -0.024856223 0.108631864 0.13525814
0000d0 06 3c 46 bc f1 b6 0c be f2 01 0c be 55 0a 88 be
       -0.012099272 -0.13741662 -0.13672617 -0.26570383
0000e0 59 b4 4e be ba bb 39 bb 9a b4 b3 ba 88 82 c1 be
       -0.20185985 -0.0028340654 -0.001371044 -0.377949
0000f0 2b 4f e4 3d a8 bc f7 3c d5 d2 cc bc a4 21 bc 3b
       0.111479126 0.030241325 -0.025002876 0.005741315
000100 b2 11 0c bc da 33 36 bc 76 3d 95 bc fd 54 f4 bd
       -0.008549141 -0.011120761 -0.018217783 -0.11930273
000110 62 64 ef bc 6d 19 13 be 3f 65 08 be 21 9f 84 be
       -0.029222671 -0.14365168 -0.13319872 -0.25902656
000120 6d 7d 9a bd 08 85 a7 bc 03 30 6b 3d 0d 04 93 bc
       -0.07543454 -0.020449176 0.057418834 -0.017946268
000130 2f 99 af bd 74 ce f2 3d 96 77 f3 bc 8c 67 8d be
       -0.08574139 0.11855784 -0.029720109 -0.27618062
000140 cb c2 8e 3d 42 65 d6 3b df 00 30 be 9b 01 2c 3e
       0.069707476 0.0065428326 -0.17187832 0.16797487
000150 e1 29 14 3d f0 4a ce 3c 7e fe 1d bd 29 4c c4 3d
       0.03617275 0.025182217 -0.03857278 0.09584839
000160 e7 b7 83 bc 30 00 50 bd 0d da 13 be d5 55 8d 3d
       -0.016078902 -0.05078143 -0.14438649 0.06901137
000170 4b 01 08 be 9c 41 81 be 07 fb ad bd 6a ef 88 3d
       -0.13281743 -0.25245368 -0.08495145 0.066862896
000180 8d 99 f7 bd 6b a9 96 3d c5 b1 0d 3e ab 35 0e 3e
       -0.12089834 0.07356533 0.13837345 0.1388766
000190 b2 46 65 bd 01 47 11 be 12 5c 8a bd ae ba 3f 3d
       -0.055975623 -0.14187242 -0.06755842 0.04680889
0001a0 5a 5b 2b 3d de 15 cc bc 9e 74 a1 bd 10 a4 d6 bd
       0.041835167 -0.02491277 -0.07883571 -0.10480511
0001b0 7a de 2a be 55 22 c9 bd 28 86 e4 bd 0f e5 05 3c
       -0.1668643 -0.098210014 -0.11158401 0.008172288
0001c0 d3 cd 38 3e 4b 08 8d bd 2b 82 9e 3d 6a 39 26 be
       0.18047266 -0.068863474 0.07739671 -0.16232839
0001d0 32 ca cd 3d da 59 4c be fc 81 83 bd 1d 7d a7 bc
       0.10048331 -0.1995615 -0.06421277 -0.0204454
0001e0 e1 19 4b 3e 3e 35 36 3d d7 e5 c0 bc 23 d4 c8 bd
       0.19834091 0.04448437 -0.023547096 -0.09806087
0001f0 fd be 73 bd 40 84 0c be c5 1e 0d 3e da 83 31 be
       -0.059508312 -0.13722324 0.13781269 -0.17335454
000200 3d ae 8e 3d 7a 5f 8e bd 25 de 52 3e 6e 97 6e bd
       0.06966827 -0.069518045 0.20592554 -0.058249883
000210 65 b4 7c bd 03 6e f1 3d e5 07 15 be e8 9d 87 bd
       -0.061695475 0.11788561 -0.14553793 -0.06621915
000220 cb 01 31 3e 4a b1 a9 3c 37 d0 82 bd 47 61 a5 bd
       0.1728584 0.02071442 -0.0638737 -0.08075195
000230 69 cb 47 3e d4 08 41 be c5 66 a3 3d 69 e1 1d be
       0.19511189 -0.18851024 0.07978586 -0.15418018
000240 fe 65 ca 3d 53 7e c4 bc b2 43 db bd c3 1e c7 3c
       0.09882735 -0.023986017 -0.10706271 0.02430666
000250 07 55 1b bd 8a da 87 bd 76 ff 0d bd 05 a1 89 bc
       -0.037922885 -0.0663348 -0.034667455 -0.016800413
000260 1e 3d 0f be 9f ea 78 3d 4f 77 2b be ec f4 f2 bc
       -0.13988158 0.060770627 -0.16744731 -0.029657803
000270 e2 97 ba 3c bb 1c 1c 3d 96 9d b2 3d 6e a2 44 bd
       0.022777501 0.038113337 0.087214634 -0.048006468
000280 aa 44 69 bd d0 b8 4e be 0e d8 ba bd f8 e7 6d 3e
       -0.05695025 -0.20187688 -0.091232404 0.2323302
000290 4d a9 cc 3d fd 18 a9 bd 00 4b 19 be 89 c8 84 3d
       0.09993229 -0.08256719 -0.14970016 0.064835615
0002a0 b0 b2 a8 3d a8 7d 50 3d 86 ef a8 3c 3a 83 bc 3b
       0.08237207 0.050901085 0.020622026 0.005752948
0002b0 66 10 04 3e 71 4f 16 be 98 c3 d1 3a 70 32 68 3d
       0.1289688 -0.14678742 0.0016003726 0.056688726
0002c0 0f 32 77 be 71 01 2f be a4 0a 14 3e c0 38 d7 3c
       -0.2414019 -0.17090394 0.14457184 0.026272178
0002d0 a2 a7 b7 bd 96 10 ec 3d f9 4b 88 3d 7f 47 b9 bc
       -0.0896752 0.11526601 0.06655116 -0.0226171
0002e0 ec 28 d7 bd 9b 02 95 3d 2c 6d b5 bd 11 73 e7 be
       -0.10505852 0.072758876 -0.088587135 -0.45204976
0002f0 3a 57 ea 3d 94 8a 05 bc fb f7 df bd 19 be 6a 3d
       0.114424184 -0.008150715 -0.109359704 0.057310198
000300 8d b9 b8 3d 96 92 e0 bd b3 c1 4e be ad 5b 85 be
       0.09019766 -0.10965459 -0.20191078 -0.26046506
000310 a8 e3 e6 bd 9b a4 9a bd 44 8f e6 3d 05 3e 9c be
       -0.11273891 -0.07550927 0.112577945 -0.30516067
000320 9f 5f c7 3d aa c5 16 be 3a db b8 bd ab a8 0f be
       0.09735035 -0.1472384 -0.09026189 -0.14029185
000330 e1 71 9f 3d 2f 71 41 3b eb b1 67 bd 12 15 af bd
       0.077853926 0.0029516926 -0.05656616 -0.08548941
000340 a5 cd 29 3e 07 ea 70 be 51 62 8d bd d7 70 5d bd
       0.16582353 -0.23526774 -0.06903518 -0.05406269
000350 b0 c8 4d bc 03 bf 9e 3d fe ab 30 bd 47 18 eb 3c
       -0.012560055 0.07751276 -0.043132775 0.0286981
000360 2c e4 ae bd 9c d2 1c be 82 d8 a0 bc 14 70 24 bd
       -0.08539614 -0.15314716 -0.019634489 -0.04014595
000370 fb 80 39 bd b5 80 e7 3d 6b 0f 31 3d 5c 10 18 3e
       -0.04528902 0.11303846 0.043227594 0.1484999
000380 aa ff 99 be 87 0f 9d bd 6f a8 0d bd 98 71 69 3e
       -0.3007787 -0.07668977 -0.03458446 0.22797239
000390 63 67 14 3d 15 da 4e bd db 09 8b bd 15 b1 83 3d
       0.03623141 -0.050500948 -0.06788989 0.0643026
0003a0 5a 28 e1 3c 31 d6 52 3d 99 7a 6c bd 67 6b dd 3c
       0.027485061 0.0514738 -0.057734106 0.027028752
0003b0 dd bf 68 3e 02 3a b4 bc 33 85 9e bd af 02 bc 3d
       0.2272944 -0.022000317 -0.077402495 0.09180199
0003c0 5a ce 12 3e af 9c 07 3c a7 89 5e bd 2c 68 69 3e
       0.1433653 0.008277102 -0.054330494 0.22793645
0003d0 f2 73 56 3e d6 92 db bd 79 32 99 be 25 99 d0 bd
       0.20942667 -0.10721366 -0.2992132 -0.1018546
0003e0 92 2b 4e bd 0c c0 9e bd 83 94 e0 3b c2 0a dd bc
       -0.05033452 -0.07751474 0.0068536415 -0.026982669
0003f0 6a 1a d6 be a9 fa f0 bd e4 38 99 3d 52 0e d4 bd
       -0.41817027 -0.1176656 0.07481554 -0.10354294

hidden2.bias f4 [128]
000000 2c 2d c8 bd 53 91 83 bc 03 67 e3 3c 29 7f 15 3e
       -0.09774241 -0.016060507 0.02775908 0.14599289
000010 6a d7 3a bd c5 b6 39 bd 3b 88 19 3e 02 42 a3 bb
       -0.04561559 -0.04534032 0.14993374 -0.004982234
000020 ec 54 c1 3d 3f bb 1e 3d 75 47 08 bc 8e 4e 50 3c
       0.09440026 0.03875279 -0.008317818 0.012714041
000030 61 1d e0 bd e9 5c f8 bd d0 08 58 bd 41 27 57 bc
       -0.109431036 -0.12127096 -0.05274278 -0.013131917
000040 85 68 1f bd f9 c0 18 be 14 22 48 3c c1 0c 20 bd
       -0.038918037 -0.14917363 0.012215156 -0.039074663
000050 3e 73 8f 3d aa 52 2c 3d 4f 21 05 3e 79 35 8c 3c
       0.070044026 0.042071022 0.13000987 0.017115341
000060 67 fe 45 bc d5 1f 8f 3d 0e 4d 5f bd 1d dd eb bd
       -0.01208458 0.06988493 -0.054516844 -0.115167834
000070 04 52 ce 3c 0b 52 82 bd 57 b8 e7 bd a7 c9 7f bd
       0.025185592 -0.06363305 -0.11314457 -0.06244817
000080 c3 3b 29 bd d5 96 e3 bd 74 2b 35 bc b5 3b b7 bd
       -0.04131676 -0.11112753 -0.011057723 -0.08946935
000090 58 3b 84 3d d8 a3 c9 3d 53 f6 88 bd 51 a8 40 3d
       0.064566314 0.09845704 -0.066876076 0.04703552
0000a0 83 46 ee bd 53 83 c6 3d f9 60 e8 bc c0 e2 79 bd
       -0.11634543 0.09693017 -0.028366553 -0.06100726
0000b0 18 33 22 bd c7 84 0d 3e 87 9b 82 3c e9 bd f7 3d
       -0.039599508 0.13820182 0.015943302 0.12096769
0000c0 fa 74 15 3d 4c 70 64 3d 06 90 68 3d 55 4b 03 3d
       0.03648851 0.055771157 0.056777976 0.032054264
0000d0 38 44 48 bd ab 12 e4 3d 06 27 19 3d 1d 81 85 3c
       -0.048893183 0.11136373 0.03739073 0.016296918
0000e0 ed 0f 8b 3d b6 b9 02 bd 2f d8 f0 bd 07 bf f2 3c
       0.06790147 -0.03191539 -0.11759984 0.029632105
0000f0 54 a8 f3 3c e3 07 d1 bd e8 ae 19 3c f4 a0 19 bd
       0.029743351 -0.102065824 0.00938008 -0.037507012
000100 e0 d3 57 bd be 42 c7 bd e0 81 08 3c 21 94 58 3d
       -0.052692294 -0.09729527 0.008331746 0.05287564
000110 44 2c c9 3b 04 db a2 bd 17 28 8d bc f1 93 b1 bd
       0.00613931 -0.0795193 -0.01723103 -0.08670796
000120 56 a0 1f bd 97 69 6b 3d d2 0b f8 bc 68 16 3e 3d
       -0.038971268 0.057473745 -0.030279074 0.046408087
000130 5a 95 a0 3d d8 8c 3c bd 71 87 ca bd 50 01 4c bd
       0.078409865 -0.046032757 -0.09889115 -0.04980594
000140 d2 35 83 bd 55 fd b9 3c 8a d9 e5 bd bc 6f 82 bd
       -0.0640675 0.022703806 -0.11223133 -0.06368968
000150 5f 2c 56 bd ab 90 93 3d 20 df 2a bd 39 50 84 3d
       -0.05228841 0.072053276 -0.041716695 0.06460614
000160 da 4f 4f bd 08 d7 f8 3d db aa 50 bd ea 3b 94 bd
       -0.05061326 0.12150389 -0.05094419 -0.0723799
000170 dd 90 8d 3d 17 b9 1f bd b7 9e b1 3d a0 6c 57 3d
       0.06912396 -0.038994875 0.086728506 0.052593827
000180 42 82 44 3d 6b 53 33 bd e4 9f 2a bc da 7e 12 bd
       0.047975786 -0.043780725 -0.010414097 -0.035765506
000190 b4 9b b2 bd 48 c6 e4 bd bc 39 0a bd 77 03 9a 3c
       -0.08721104 -0.11170632 -0.033746466 0.01880048
0001a0 84 e7 a7 3d 1e d5 e2 39 a8 99 06 3e 95 ba 80 bc
       0.08198455 0.00043264864 0.13144553 -0.01571397
0001b0 41 65 89 bd 9a 5b 83 3c cd 36 ac 3d f3 6a ab 3d
       -0.06708766 0.01603489 0.0840889 0.08370008
0001c0 a3 e4 38 be 6d 66 e0 3d 07 4d ea 3c 87 83 ca bd
       -0.18055968 0.10957036 0.028601183 -0.09888368
0001d0 2e 3e 4a bd 7f 4b c7 bd eb a9 8d 3c 6a e4 f3 3b
       -0.049375705 -0.097311966 0.017292937 0.0074430006
0001e0 74 c9 d6 bb b9 21 66 3d 60 df b3 3d 42 e4 b5 bc
       -0.006554777 0.056184504 0.0878284 -0.022203568
0001f0 98 ca d9 3d e5 31 8c 3d 6d bb fb 3d 56 f9 f1 bc
       0.10634345 0.06845454 0.12291608 -0.029537838

out.weight f4 [4, 128]
000000 f8 0b 52 3c e1 3b 58 be 3b c7 7a 3c 37 10 5f 3d
       0.012820236 -0.21116592 0.015306289 0.054458823
000010 ec 64 61 be 29 f5 9e bd f5 cd fb bb a1 f4 1a 3d
       -0.22011155 -0.07761604 -0.007684464 0.037830953
000020 de ff 50 be 47 71 bc 3d 3e 3e d6 3e b5 af ac 3d
       -0.20410106 0.092012934 0.41844362 0.08431951
000030 c7 6d 45 be ee 5f cc bd 0d 1f 27 be a0 8d 20 3c
       -0.19280158 -0.09979235 -0.16320439 0.009799391
000040 8e 74 f9 bd 75 76 01 3e e8 6c 02 3d 02 41 8b 3e
       -0.12180434 0.12642844 0.031842142 0.27198035
000050 44 67 12 bc 07 2e fd bc 45 08 2d 3e e3 c1 b3 bd
       -0.008935753 -0.030905737 0.16897686 -0.08777215
000060 e0 6a 47 be 8d 7c a2 3e 88 1a 26 3e 49 be 88 3e
       -0.19474363 0.3173565 0.16221058 0.26707676
000070 92 63 84 bc 54 4d df 3e 46 ec 70 3c f1 5f b2 bd
       -0.01616076 0.43613684 0.0147047695 -0.087097056
000080 ce 0d d5 3e 9e 27 2c 3e e0 f6 18 be 34 41 03 be
       0.41612095 0.16811988 -0.14937925 -0.12817842
000090 8f 96 a1 bd 0b 20 b1 3e 01 80 d6 bd fb 47 a3 3e
       -0.07890045 0.3459476 -0.104736336 0.31890854
0000a0 46 cf 8b 3e c7 e4 04 be ec 69 04 3f bd 85 dd bd
       0.27306575 -0.12977897 0.51724124 -0.10816524
0000b0 a2 2d c8 3e f3 73 84 be 8c 85 60 3c e9 cc c5 bd
       0.39097315 -0.25869712 0.013703715 -0.09658224
0000c0 f7 46 68 3d 36 3a 39 be 1e 31 83 bc d9 4c 8e bd
       0.056708302 -0.18088612 -0.016014632 -0.06948251
0000d0 4f 43 a4 3d f0 ce 85 3e 99 d2 09 3e 51 b9 00 3d
       0.080206506 0.26134443 0.13459243 0.03142673
0000e0 93 d9 a1 3e 68 b5 a2 3e a7 b8 16 be b4 be 39 be
       0.31611308 0.31779027 -0.14718877 -0.18139154
0000f0 c8 db 60 3d 65 9c 46 3e e0 fe 8a bd 55 a8 0f bc
       0.0548971 0.19395597 -0.06786895 -0.008768161
000100 9b fe a4 bd 09 dd 5a 3e 6c 7f 43 3e f3 4d bc be
       -0.08056375 0.2137338 0.19091576 -0.3677822
000110 a5 7e 40 bd 1f 2e 77 bd 08 fb e1 bd 1d 20 0f be
       -0.046995778 -0.06034672 -0.110342085 -0.13977094
000120 ca c5 d2 3c 73 6a 29 3d 94 a8 f8 bd 80 23 c6 bd
       0.025729079 0.041361284 -0.12141529 -0.0967474
000130 54 d8 11 be ac fa 7c bd 81 e2 2f be ee 39 34 3e
       -0.14242679 -0.061762497 -0.17176248 0.17600223
000140 7a e8 8e 3e a9 4f ed bb 09 d6 0c bd 0e 4e 56 3d
       0.2791174 -0.0072421622 -0.034383807 0.052320533
000150 45 f6 4c 3d 67 38 db 3c 64 f6 6d be da 6d 69 be
       0.05003955 0.026760293 -0.23238522 -0.22795811
000160 8a 95 cd 3e 40 9a 59 bc a5 01 a8 3e 80 60 b5 3e
       0.40153152 -0.013281405 0.32813755 0.35425186
000170 0d ea 43 3e d7 4b 08 bd 24 7a 61 be 89 73 01 3e
       0.19132252 -0.03327545 -0.22019249 0.1264173
000180 34 63 e9 3c e2 62 00 3d 48 cb 9c be c0 5c 16 3c
       0.028489687 0.031344302 -0.3062384 0.009177387
000190 4a 9d 39 bd 8a 60 d7 3d 97 f0 90 3d 8b 79 da 3d
       -0.04531602 0.1051646 0.07077139 0.10667714
0001a0 a4 e0 06 be b9 0c 12 3e d8 85 06 3e 0f f0 df 3d
       -0.13171631 0.14262666 0.13136995 0.109344594
0001b0 c7 4f 76 bd 58 65 6a bd b3 e2 6f be 34 91 65 bd
       -0.060134675 -0.057225555 -0.23426323 -0.05604668
0001c0 41 98 1c 3e 4e 1c a9 be f9 16 4b 3d c3 55 a9 bd
       0.15292455 -0.33029407 0.049582455 -0.08268311
0001d0 5d d2 6a be bf c2 a3 bd dc f1 80 3e 38 48 16 3e
       -0.2293181 -0.07996129 0.25184524 0.14675987
0001e0 09 53 78 bd 48 d2 c3 bd 41 c6 b8 be 78 32 a3 bd
       -0.060626063 -0.09561592 -0.36088756 -0.079686105
0001f0 3f fe 12 be b6 0e 59 be d8 2c 47 be 8e e9 1b be
       -0.143548 -0.21197018 -0.194507 -0.15225813
000200 81 04 a2 be 2c 0c 3c 3e cb f8 f4 bd 9a 13 7e be
       -0.3164406 0.18364018 -0.11961516 -0.24812165
000210 7e 5c 70 be 74 c6 ee 3c 52 86 ba bd bb ae 26 3e
       -0.23472783 0.029147364 -0.09107651 0.16277592
000220 03 3a 8b 3e db 61 fc 3d 13 e0 6d bd 98 81 09 be
       0.27192697 0.12323352 -0.058075022 -0.13428342
000230 5e 1e 7a be d4 b2 06 be b0 64 3f 3e 01 5f cd bd
       -0.24425647 -0.13154155 0.18690753 -0.10027886
000240 99 d1 de 3e 03 a3 53 3e 36 58 ae be 00 58 02 3d
       0.43519285 0.20667653 -0.34051675 0.031822205
000250 37 d2 d5 bd 5a b9 f8 bd e7 b7 9b bd f7 41 cb 3c
       -0.10440486 -0.12144728 -0.07603436 0.024811728
000260 0d 63 37 be b1 1b 37 3e c1 84 41 be 9e 91 4e 3e
       -0.17908879 0.17881657 -0.18898298 0.20172736
000270 b6 ae b0 3e 04 1d 7b be 39 9a f2 3d 55 83 b0 3d
       0.34508294 -0.24522787 0.11845822 0.086187996
000280 bf 53 1e 3d 46 9b 0d be fc 68 45 3e 42 c9 9b 3e
       0.038654085 -0.13828763 0.1927833 0.30426985
000290 88 0c 27 be a6 a7 08 3d 08 0c 63 3e a8 4f 9a be
       -0.16313374 0.033363007 0.22172558 -0.30138898
0002a0 11 df 8a 3c a5 6e 25 be 09 ac a1 3d bb de 8c 3e
       0.01695207 -0.16155489 0.07894141 0.2751368
0002b0 f7 93 a2 bc d9 7e 81 bd 41 51 36 3e f5 80 59 be
       -0.019845946 -0.063230224 0.17804433 -0.212406
0002c0 23 fd e3 bd db c4 aa bd 71 7e 30 be 3d 82 44 bd
       -0.11132266 -0.083383285 -0.17235734 -0.047975767
0002d0 3c 4e 14 bd 90 eb fe 3d b9 76 05 3e 09 2e 9a 3e
       -0.036207423 0.12447274 0.1303357 0.30113247
0002e0 21 cb 30 3d fb b4 2e be f5 74 fd bd 8b 8e 95 3e
       0.04316247 -0.17061226 -0.123758234 0.29210314
0002f0 13 dc 07 3c 6d 1c d6 bd 9d 9a 09 3e 9a d5 01 3d
       0.008292216 -0.104546405 0.13437887 0.031697847
000300 b1 a4 f8 3c 1c 53 cc bc ff 4b 20 3d d7 1c 24 bd
       0.030351968 -0.024941973 0.039134976 -0.040066566
000310 82 ae c0 3e f7 3d c9 bd 8b ec cd bd cb 5a 84 be
       0.3763314 -0.09826272 -0.100548826 -0.2585052
000320 9b fe 0d be 9c cc 2f 3d 3a 37 9a bd ca 66 b3 bc
       -0.13866656 0.04291974 -0.07530065 -0.0218996
000330 33 68 a0 bd e1 23 7b 3e 37 b7 21 3e 5b 13 37 3e
       -0.078323744 0.24525405 0.15792547 0.17878477
000340 55 cd d1 bd ee ee 4d 3e 7e b5 ac 3e cc 8c 7f 3c
       -0.10244242 0.20110676 0.33732218 0.015597533
000350 38 dd 08 3e 50 7c bb bd 24 20 8b be 44 b9 db 3d
       0.13365638 -0.0915457 -0.2717296 0.10728696
000360 c3 f1 c2 3e 00 38 c2 bd cd a9 0d bd 08 cc bc 3d
       0.38075075 -0.094833374 -0.034585763 0.092186034
000370 24 f6 36 be 52 e3 1d 3c 28 f9 a5 bd 12 7e 96 bc
       -0.17867333 0.009636717 -0.081041634 -0.018370662
000380 6f 10 83 3e 06 cc 10 bd ff 67 e0 3d 36 62 04 be
       0.25598475 -0.035350822 0.10957336 -0.1292809
000390 6c 5b 2b 3d 9f ba ad 3e 07 8b 5d 3d 49 c4 87 3e
       0.041835234 0.33931443 0.054087665 0.2651694
0003a0 b4 92 57 3e 06 13 7c 3e a1 34 aa 3e c4 d2 e0 3c
       0.21052057 0.24616632 0.33243278 0.02744425
0003b0 e5 f8 6c bd 49 e9 c8 bc 4a eb 75 bd 87 da 3d bd
       -0.05785455 -0.024525302 -0.060038842 -0.046350982
0003c0 0c 1b 0f be f9 a8 4a be 42 f2 16 3e c0 5f bf 3d
       -0.13975161 -0.1979102 0.14740852 0.09344435
0003d0 84 86 04 be 45 40 65 bd e8 15 40 3b 13 3c e5 bd
       -0.12941939 -0.055969495 0.0029309932 -0.11193099
0003e0 cc c9 20 be 68 14 b7 3c df cf 92 3e 63 9d c2 be
       -0.1570198 0.022348598 0.28674218 -0.38010702
0003f0 f7 1e 7c 3c 58 4e f8 bd d6 b1 02 3e 78 5e e9 3d
       0.015388242 -0.12124318 0.12763152 0.113949716

out.bias f4 [4]
000000 fa 0d a0 bd 48 68 cb bc c5 fc 74 3c ba 1e e3 bc
       -0.07815166 -0.024829999 0.014952843 -0.027724613
