checkpoints/checkpoint_actor_5.pth (torch, 41803 bytes, 8 tensors)

fc1.weight f4 [256, 33]
00000000: 0c11 9ebe f8ab 3cbf 8a97 933e ccc6 2dbf
00000010: 001d bf3f 5c0e 853f 500f 37bf 7cf5 f4bd
00000020: 14e7 6e3a e7bf 9abf 72f9 a6be 7336 d03d
00000030: 4cb7 2a3f cdb7 973b ae0b 47be 8bc8 613f
00000040: eb5d 0a3f 9307 0bbf e4d7 2cbe f663 993e
00000050: c2eb 113f 2ce3 1dbf 2361 953e 2ce2 1b3f
00000060: b0ca 1e3f 5902 423e ac7a fabe 1162 7cbf
00000070: 874e a6be e010 b73c 7d2f 7a3f b0cf 62bd
00000080: 2806 17be 49ef 98bf 13fd 453f 158b f23e
00000090: d2b5 57bf 123f 353f c074 acbf ef69 6b3f
000000a0: aa1d cebe befa 753f a0ee 8abf c717 e3bd
000000b0: 6089 173f db59 27be 4478 3bbf cc4e ca3e
000000c0: c849 1c3f 9795 823e 643c 69bf 31d9 0bbf
000000d0: d8c4 7d3f 6851 383f 9fa7 5fbe 56df 01bf
000000e0: ba01 8cbd 5ec1 a83e 2f5e fe3e 3059 423f
000000f0: 8c4f 6240 14a2 30bf c495 513d 4010 69c0
00000100: 8288 3c3d 86fb 16be e80a b0be 82ed 1b3f
00000110: 4dda 93be debe 80be 0b4e 25bf 03d0 5bbf
00000120: 46c7 e2be dd66 bd3d 0f05 e7be bf0d b33e
00000130: dcf7 cd3c d69c 513e 1406 593d 123b 243d
00000140: d941 e53e b106 3dbf 7770 6cbd 14ac 03bc
00000150: d704 163f a66c 84be 5dca 54be 580c 93bc
00000160: f33e 943d 78a4 b43e 5c3f 473f deb4 73be
00000170: e1ba 4f3f 7ab3 3cbe d943 ee3e a4dd 16bd
00000180: e1d9 003e 3e67 6c3d 46c4 abc0 b0df 82be
00000190: e8c2 003f 5b94 3e3e 9c91 c23c 53b8 92bb
000001a0: 72b7 6e3f da59 433f 94cb ae3d a033 e23e
000001b0: 8fba 743e 1401 ddbd 133d abbe b6b1 79be
000001c0: 0741 c0be da2f 063f c7ed 02bf db37 2c3e
000001d0: 771f 2fbf 54a9 033f 9e49 c1bd 79c4 313e
000001e0: e5c1 8b3d ba91 1dbe f028 a3b9 92b6 f53d
000001f0: f7e9 183f 9c2d 9a3f 8648 4140 55d9 483e
00000200: 8861 0b3c 773c 43c0 a223 203d 9161 583f
00000210: b746 033d 31d9 70bc 8479 883f 9769 803d
00000220: 0b1d 363e 530e 4ebf 8632 583f 35a5 873e
00000230: f383 85be 1161 b5bd c1ec 14be 7927 6d3f
00000240: 6976 debe ea55 58be f78c 4a3f b8de f13e
00000250: 75c7 2cbd 8411 8f3e f738 313e 516a dbbe
00000260: c92d 413f 0e3c c5be 45b3 2abe 10cb 1ebf
00000270: 84ff 353f 6487 53bd 6d30 c43f 55e4 2e40
00000280: 0bb3 96bf dc5f 893c 3a59 29c0 96b5 6bbd
00000290: c24a 7b3f 463e 8d3e b796 db3e ae6f 123e
000002a0: 386f 343d 3b5f 0fbf b489 583e 9f72 90be
000002b0: f015 4dbd 6c70 08bf b97d 063d d42a 1c3d
000002c0: 70a8 8e3d f1c4 18bd c288 0a3f 5bb2 da3e
000002d0: 2fc7 abbc aef5 29bf 1307 f13d 30fc 58be
000002e0: 07df ef3e 38aa 0f3d ae83 53bd ec9a 54be
000002f0: 72b0 113e 4565 63bd 12aa fa3d 0247 253f
00000300: 58ee 5f40 155a 1b3f 7089 f43b be09 5bc0
00000310: cccc 94bc 7b1a c140 64e7 9e3e ea37 bb3e
00000320: 602d bf3e 1c48 b43c 8cab e8be dea2 003f
00000330: b470 2cbf c19d 5cbe 37bd 96bd dcda dd3e
00000340: ed5b 503d 1590 333e 755e 8bbd 4da7 21bf
00000350: 12d3 c73e 49a8 233e be76 21be 153a bcbe
00000360: 5ca7 e8bd f7c8 5f3e 74c3 393f 0162 853e
00000370: 1461 b03e f8bf 5c3e 1d4c 083f 0698 af3e
00000380: fd44 3b3f 97a1 4b40 e5e8 88bf 7002 843b
00000390: f804 50c0 18ed 70bd 7336 7e3f a8c6 b93d
000003a0: c616 bd3e 4978 00bf c8f7 143d e291 4bbd
000003b0: 3467 29bf d9b6 aabd 3db7 63bf 28cf e7be
000003c0: 4b5c 7d3b d86f e5bc 849c fd3d 29dc 3dbe
000003d0: 6060 7bbf 000e e6bb 5c07 103f 14c3 233e
000003e0: 48ad 8bbe 1a1f 413e f0c3 f63e 5ea7 073e
000003f0: bb44 9bbd 0ba1 0dbf 0113 9cbe 6ec4 e13e
-0.3087238 -0.73699903 0.28826553 -0.67881465 1.4930725 1.0395007 -0.7150774 -0.11960885
0.0009113413 -1.2089814 -0.32612187 0.10166635 0.6668594 0.004630065 -0.19438049 0.8819663
0.5404956 -0.5430843 -0.1687923 0.29959077 0.5700036 -0.6167476 0.29175672 0.60891986
0.62028027 0.18946208 -0.48921716 -0.9858714 -0.32481787 0.022346914 0.9772871 -0.055373847
-0.14748442 -1.1948024 0.77339286 0.47371736 -0.8426181 0.7079936 -1.3473129 0.91958517
-0.40257007 0.9608573 -1.0854073 -0.110885195 0.5919399 -0.16342871 -0.73230386 0.39513242
0.6105008 0.25504753 -0.91107774 -0.5462828 0.99128485 0.71999216 -0.21841286 -0.5073141
-0.06836267 0.32960027 0.4968123 0.7591734 3.5361052 -0.6899731 0.05116822 -3.6416168
0.04602862 -0.14744386 -0.3438332 0.60909283 -0.28877488 -0.2514562 -0.6457221 -0.85864276
-0.4429266 0.09248135 -0.45121047 0.34971425 0.025142603 0.20469984 0.052984312 0.040095396
0.447768 -0.73838335 -0.057724442 -0.008036632 0.58601135 -0.25864142 -0.2078032 -0.017950222
0.07238569 0.3528173 0.77831054 -0.23799464 0.8114453 -0.1842784 0.4653614 -0.036832467
0.12583114 0.057715647 -5.367709 -0.25561285 0.50297403 0.1861128 0.023751073 -0.0044775396
0.93248665 0.7630898 0.08534923 0.44180012 0.23899291 -0.10791221 -0.33445033 -0.24384198
-0.37549612 0.52416766 -0.5114407 0.16818182 -0.68407387 0.5143025 -0.094378695 0.17360105
0.06824092 -0.15387622 -0.00031120284 0.11997713 0.59732 1.2045169 3.0200515 0.19614156
0.00850714 -3.0505655 0.039096482 0.84523875 0.03204986 -0.01470022 1.0662084 0.0627014
0.17784517 -0.8049061 0.8445209 0.2649323 -0.26077232 -0.088564046 -0.1454344 0.92638355
-0.43449715 -0.21126524 0.79121345 0.47240233 -0.042182405 0.2794305 0.17306887 -0.4285455
0.7546049 -0.3852238 -0.16669948 -0.620286 0.7109301 -0.05164279 1.5327278 2.7326863
-1.177339 0.016769342 -2.646071 -0.05754622 0.98160946 0.27586573 0.42888424 0.14300415
0.04405138 -0.56004685 0.2114628 -0.2821245 -0.05006975 -0.5329654 0.032834742 0.03812678
0.06965721 -0.037297193 0.54114926 0.427142 -0.020969002 -0.663905 0.117689274 -0.21189952
0.46849844 0.035074443 -0.05163925 -0.20762223 0.14227465 -0.0555165 0.122394696 0.64561474
3.4989223 0.6068433 0.007462673 -3.4224696 -0.018164061 6.0344825 0.31035912 0.36566097
0.37339306 0.02200704 -0.4544338 0.50248516 -0.6735947 -0.21544553 -0.073603086 0.4333104
0.050868917 0.17535432 -0.068051256 -0.63145906 0.3902822 0.15982164 -0.15767953 -0.36763063
-0.11360046 0.21854006 0.7256386 0.26051334 0.34449065 0.21557605 0.5324114 0.34295672
0.7315214 3.1817377 -1.0696074 0.004028611 -3.2503033 -0.05881986 0.9930183 0.09071094
0.36931437 -0.5018354 0.036369115 -0.04969967 -0.661731 -0.08335657 -0.88951474 -0.45275235
0.0038659747 -0.028007433 0.123833686 -0.18541016 -0.9819393 -0.007020712 0.5626123 0.15992385
-0.2728064 0.1885952 0.48196363 0.1324744 -0.07581469 -0.5532386 -0.3048325 0.44095176

fc1.bias f4 [256]
00000000: 2f5c 703f 1359 6ec0 dc57 9c3e fe30 44c0
00000010: 3ae6 29c0 4518 5ec0 fe4f 46c0 8405 63c0
00000020: 5b43 94c0 08e5 8cbf c855 31c0 462d 51c0
00000030: 714c 6dc0 ee3b 30c0 58e8 023d 7a5d 21c0
00000040: ead3 d9be 4c7d a1be a76a 53be 134d a2bf
00000050: dc1b 25c0 b74c 37c0 9d65 dd3e 3774 0fc0
00000060: b235 f53f 26d1 30c0 2468 4ac0 5942 25c0
00000070: 86f9 61c0 da65 b3bf a3ba 76c0 f29f 4ec0
00000080: b028 44c0 8280 03c0 5224 4d40 00e8 81c0
00000090: 3775 31c0 249a 5e3e 9e4d 6bbe c36c 583f
000000a0: bcb9 d5bf 1ff8 30c0 d63f 39c0 d0b0 c941
000000b0: b7fd 57c0 5ebc 98c0 6e48 2bc0 ca7e 36bf
000000c0: 6aca d5bf b181 a03f 5bd9 44c0 fde7 29c0
000000d0: a092 18bf d20f 03c0 fa35 33c0 bcf9 8440
000000e0: f6b6 98bf 3866 ad3f 48ad 56c0 8ab7 63bf
000000f0: 08be c63f 60a6 2dc0 9fa5 2840 9aa8 64c0
00000100: 9f63 083f adb2 5ac0 768b ca3f 02e8 46bf
00000110: 5376 15c0 a63c 8fc0 d3db a141 2cb6 9fbf
00000120: 6850 47c0 4b25 1ec0 6619 36c0 5752 27c0
00000130: 7579 21c0 7bee 263f e852 0a40 8545 38bf
00000140: 54f8 1640 d527 38c0 2c77 9bbe 7143 3140
00000150: ed10 16c0 b0a2 69c0 9b0b 42c0 e39f d6bf
00000160: 6467 12c0 7bce 4fc0 f612 583d 6c4b 7fbf
00000170: 7cef de3f cb42 4ac0 5864 a1c0 5de4 8fc0
00000180: 937a 61c0 4b7a 4ec0 d507 563e 2fe9 a2be
00000190: deb9 79c0 3018 28c0 dfe2 45c0 3506 59c0
000001a0: 4ef6 82c0 1b07 a7bf 05f5 3dc0 7914 75c0
000001b0: afe4 04c0 6bfe 66bf 4d6c 2cc0 cb6e e6bf
000001c0: c590 70bf a74f 1fc0 16f7 33c0 07d8 34c0
000001d0: 6266 3fc0 2037 c1bf 7de7 8d40 dc20 31c0
000001e0: 3371 be41 1153 02c0 f566 48c0 cd60 4cc0
000001f0: 948b 89bf 3ce3 f5bf 399e 773f 3553 4ac0
00000200: 5deb 60c0 f68d 0fc0 9d7a 07c0 ac2e 74bf
00000210: 5e5f 51c0 3663 1fbf 932a cdbf 6869 29c0
00000220: 6b41 68be d09f 1cc0 0f1f 8fbe 609d 03c0
00000230: a301 43c0 707a 62be fafd 32c0 c5fd 64c0
00000240: fd34 07c0 8604 a8be c4cf 73c0 e091 0ac0
00000250: 41ed 87c0 967e 843f 4b84 57c0 da8a 17c0
00000260: a969 63c0 5ace 0142 dedb 80c0 6dc2 14c0
00000270: e397 d3bf adc9 50c0 981c 71bf ecf8 313f
00000280: 2bf5 a1bd b78b cbbe 8039 b5c0 c000 803e
00000290: 3005 41c0 1fbb 0f40 e68c 7dc0 f9f7 10c0
000002a0: 0a58 a7c0 84b6 47c0 e6d5 7dbf 142a ebbf
000002b0: d7cb 7ac0 5b4b 76c0 2c74 6dc0 8a2a 94c0
000002c0: f926 cebf 4920 7bbf 209e 53bf 1204 50c0
000002d0: ebcd cbbe 75a8 f9bf b19b 53be 1c98 2a40
000002e0: 6a60 28c0 79f7 49bf 9448 59c0 f432 7bc0
000002f0: 9e91 a83f b3d3 3dc0 c5ac 8e3f c4c5 7fbf
00000300: 4dec 5ec0 b8fa 7fc0 c9fa 48c0 4605 2740
00000310: 4583 793f de07 08bf f3b9 6bc0 9d42 543e
00000320: 5678 eebf fd38 09c0 06ad 1dc0 1fae a1bf
00000330: ace7 40c0 6e2c 81c0 7649 5ac0 db4b 1cbf
00000340: 5945 9fc0 2c13 1ac0 0e71 64bd 2990 3dc0
00000350: ced1 87c0 8f10 b1c0 9487 97c0 f1e8 52c0
00000360: e9c9 003f 012c b2bd 45b0 d23d 30df 47be
00000370: fb11 a5be 3e0b 86c0 3a47 a2c0 cebe 1bc0
00000380: b356 663f cfab 77c0 7538 6dc0 2772 4cc0
00000390: 968c 64c0 5639 debf f6e8 85bf dadb edbf
000003a0: 1c9d 4dc0 7f25 b0bf 88cc 32c0 b262 0cc0
000003b0: 83e3 41bf 0c42 6fc0 b1d5 b9bf 8725 2b3f
000003c0: 2cbd 36c0 5bd1 653e 55fe 083e 027e d8bf
000003d0: 8713 02c0 3dd1 6cbf 52ef ccbe 11e3 50c0
000003e0: a293 23c0 97dc a5c0 8f08 0bc0 bb63 01c0
000003f0: a291 c5bf 0e3a 4bc0 899d 7fbe 5ea3 3dc0
0.9389066 -3.7241867 0.3053578 -3.0654902 -2.654677 -3.4702313 -3.0986323 -3.5472116
-4.633222 -1.1007395 -2.7708607 -3.2683883 -3.7077906 -2.7536578 0.03195986 -2.5213304
-0.4254449 -0.31540906 -0.20646153 -1.2679771 -2.5798254 -2.8640573 0.43241587 -2.2414682
1.9157012 -2.7627654 -3.1626062 -2.5821745 -3.5308547 -1.4015458 -3.8551414 -3.2285123
-3.0649834 -2.0547185 3.2053418 -4.0595703 -2.7727792 0.21738487 -0.22978827 0.8454096
-1.6697307 -2.765144 -2.8945212 25.211334 -3.3748605 -4.772994 -2.6762958 -0.71287215
-1.6702397 1.2539579 -3.0757663 -2.6547844 -0.5959873 -2.0478406 -2.8001695 4.155485
-1.1930835 1.354682 -3.3543262 -0.88951933 1.5526743 -2.7132797 2.6351087 -3.5727906
0.5327701 -3.4171555 1.582381 -0.77697766 -2.335347 -4.4761534 20.232336 -1.247747
-3.1142826 -2.4710262 -2.8453002 -2.6144006 -2.5230381 0.6520764 2.1613102 -0.7198108
2.3589067 -2.8774312 -0.30364358 2.7697413 -2.344783 -3.6505547 -3.0319583 -1.6767544
-2.2875605 -3.2469776 0.052752458 -0.9972446 1.7416835 -3.1603267 -5.043499 -4.4966264
-3.5231063 -3.2262142 0.20901425 -0.3181853 -3.9019694 -2.6264763 -3.091972 -3.3910038
-4.0925665 -1.3049043 -2.9680798 -3.8293746 -2.0764577 -0.9023196 -2.6941102 -1.8002561
-0.939709 -2.4892366 -2.811956 -2.8256853 -2.990624 -1.5094948 4.434508 -2.7676306
23.805273 -2.03632 -3.131284 -3.1934083 -1.0745721 -1.9209971 0.96725804 -3.1613286
-3.5143654 -2.2430396 -2.1168587 -0.95383716 -3.2714458 -0.6226076 -1.6028618 -2.6470585
-0.22681205 -2.4472542 -0.27953383 -2.0564804 -3.046975 -0.22117019 -2.7967515 -3.5779889
-2.1126091 -0.3281595 -3.809556 -2.1651535 -4.2477117 1.0351131 -3.3674495 -2.3678498
-3.553324 32.451515 -4.0268393 -2.3243668 -1.6530727 -3.2623093 -0.94184256 0.6952045
-0.0790809 -0.3975503 -5.663269 0.25000572 -3.0159416 2.245796 -3.9617248 -2.265135
-5.229497 -3.1205149 -0.9915451 -1.8372216 -3.9186914 -3.8483493 -3.7102156 -4.6301928
-1.6105644 -0.9809614 -0.82663155 -3.2502484 -0.3980554 -1.9504534 -0.2066486 2.665534
-2.6308846 -0.7889324 -3.3950548 -3.924985 1.3169439 -2.966046 1.1146475 -0.9991114
-3.4831727 -3.9996777 -3.1403067 2.6096969 0.97465926 -0.53137004 -3.6832244 0.20728536
-1.8630474 -2.1441033 -2.4636855 -1.2631263 -3.0141401 -4.0366735 -3.4107337 -0.61053246
-4.9772153 -2.4074202 -0.05577188 -2.9619238 -4.244361 -5.5332713 -4.7353 -3.2954676
0.5030809 -0.08699799 0.10287527 -0.19518733 -0.3224028 -4.1888723 -5.0711946 -2.4335208
0.8997604 -3.8698614 -3.7065709 -3.1944673 -3.5710807 -1.7361248 -1.0461719 -1.8582718
-3.2127142 -1.3761443 -2.7937336 -2.193524 -0.7573778 -3.7384062 -1.4518338 0.6685414
-2.8552961 0.22443144 0.1337827 -1.6913455 -2.0324419 -0.9250677 -0.40026337 -3.263859
-2.5558858 -5.1831775 -2.1723974 -2.021712 -1.5435069 -3.1754184 -0.24962439 -2.9630961

fc2.weight f4 [4, 256]
00000000: 5c3a b7bd d204 8c3f 5891 c33f aedd dabe
00000010: d2b3 253f 3aad a0bf ea9c 80bf 7de0 573f
00000020: dfb2 a73f 9931 a63f 3478 ef3e 032f 14bf
00000030: aa0b 33c0 af61 5e3f b6af d93e 40dc 1140
00000040: d7a7 a03e a6b8 f8be 7e31 22bf 1cc7 24bf
00000050: 7016 8640 48b3 653f ab65 4abf 5618 9dbf
00000060: cd61 b9bd 029b 963c 4ae9 89bd a1f1 b63f
00000070: c724 d1be 64db 823f 890c 41be e693 363f
00000080: c98d ebbe 44e3 60bf 48ca 28bd 0499 843f
00000090: 889a 3a40 a7b1 383f fc12 39bf a171 83be
000000a0: 2a71 47bf a8fb 16be 647e 03bf 4b96 1940
000000b0: 5506 72bf e3e9 7b3f c569 c63f fce7 6fbc
000000c0: ff31 91bd 79c6 663f ea2b 84bf 9cc5 9d3e
000000d0: 91f7 0bbf a2ed 253f 5d62 61c0 05df b7bd
000000e0: ee43 f83f 5e17 a03e 910a e2bf 1784 863f
000000f0: 0026 f1bc 5e45 adbe b564 6f3f 56b8 bebf
00000100: 8d72 793f 8f42 bc40 6085 d2bd 15c3 c03e
00000110: 4caa 4f40 9609 2b3e 5152 0f40 de26 a840
00000120: 0a05 7d3e 0d76 1340 c5b6 563f e807 0c40
00000130: 6d78 0ac0 2310 f7be 3003 56bf b1ae 7a3f
00000140: e0b6 e3be 5626 89c0 e57d 753e 190b 2ebf
00000150: e086 993f 8a2d 9fbe 0252 2dc0 46f0 0140
00000160: 037e 84bf ce26 053f 23ae 193f 32a4 c8be
00000170: 0b23 293f e378 363f 0736 8abf b57c fdbe
00000180: 483f d1bf 5595 0b3f c71f fd3e 4472 173f
00000190: 3efc ca3f 27ce f0be 76f8 1a3e 332e e0be
000001a0: 28a4 7a3f d2c6 d1bf 25e7 2bbf a500 0a40
000001b0: 90b9 8c3f 6f47 733e f80d 0e3e 5fed 033f
000001c0: b091 83bd 077e 3040 f3d9 0b40 cef5 6d3f
000001d0: e2a4 9cbf f288 523e 2def 673f c153 32bf
000001e0: cc84 1840 0635 473f 7c85 1440 13e4 163f
000001f0: 92c3 ee3f 9c09 323f 7e65 a23f 6f1e c13f
00000200: f4c6 21be b8ae 123f faf3 8d3f b412 b4bf
00000210: 9b2d acbe 1148 b0bf c91a b7bf c46a 5c3f
00000220: 43b2 9f3e d4c8 f33f fd2b d63e 0080 35be
00000230: 8ce1 c13f 87b3 cf3e 4eb9 103f fcca f83f
00000240: 9a1c e53f 5626 4ebe 6e1a 003e 10de 75bf
00000250: d38d e2bf 16d4 d7bd a0b7 433f 9751 9c3f
00000260: 540b b3bf 96ac e83f ee8e 903e 749e a63f
00000270: 46a0 9bbe 3456 0e40 5ec0 0440 46ca 85be
00000280: 08a9 0fbf 478c dd3c f0f1 493d c863 a83f
00000290: 56cc 80be d935 3d3e 1b85 51c0 a516 05bf
000002a0: d603 b83f 7052 13bf 99b2 d9bd 52c9 d1bd
000002b0: 2aa7 acbf 1091 c7bd 0d85 0740 ee72 87bf
000002c0: 6928 2640 1f15 d73e 8218 a63f 36c3 79be
000002d0: 0401 c33f c9de d6be 3500 cf3f b666 903e
000002e0: 8d99 89bf 5fdc eabc 721b 2c40 e338 a13f
000002f0: 57d5 12bf e73f 8fbf 67d6 673e 7d09 693f
00000300: 8bb9 36be 17ea 01be e77e 95bf 6885 523e
00000310: cf5d 88be 25b8 1bc0 a205 0140 0e3b 61bf
00000320: 5198 fb3e 1ba1 373f c92b 913f 1147 0f40
00000330: 7895 08c0 933a 6abe 1d39 fe3f f5d6 9abe
00000340: 03ee b640 13c0 e13f b81e 5ebe a60a 6640
00000350: 9fc3 923f d284 e03e e085 59bf 8f1d 2bc0
00000360: 61d0 49bd 8790 97bc cb02 6b3f 4414 cb3e
00000370: b2d8 10bf 2135 d43f bc98 42c0 ec70 71bd
00000380: 232a a13d bff2 f2bf 68a8 273f faa6 333f
00000390: d8bb 013e 7d5f aa3f 78ff 9f3f 2288 8a3e
000003a0: ae48 e2be ceeb bcbf 6a80 02c0 799d 4c3f
000003b0: 74c4 4abe 4f63 d33f c8cf 1140 fe14 de3e
000003c0: 39e3 023f 0b42 573f 7170 02bf edc2 0e3e
000003d0: 3ab9 cebd f260 87bf d984 8fbf 6dc8 b7bf
000003e0: 87e3 41bf ad37 2f3f 4641 e23f a49f 0340
000003f0: acb1 163d ab09 dc3e 8c08 883f 537b d0bc
-0.08946678 1.0938971 1.527873 -0.42747253 0.6472751 -1.2552865 -1.0047886 0.84326917
1.3101462 1.2983886 0.46771395 -0.57884234 -2.797587 0.86867803 0.4251687 2.279068
0.31378052 -0.48578376 -0.6335677 -0.64366317 4.190239 0.89726686 -0.79061383 -1.2273052
-0.09051857 0.01838446 -0.067339495 1.4292489 -0.4084837 1.0223203 -0.18852438 0.71319425
-0.4600661 -0.8784678 -0.041208535 1.0359197 2.9156818 0.72146076 -0.7229459 -0.2567263
-0.7790705 -0.14744437 -0.5136473 2.3997982 -0.9454091 0.9840376 1.5501028 -0.014642712
-0.07089614 0.90146595 -1.0325902 0.30814826 -0.5467463 0.64815724 -3.5216286 -0.089780845
1.939573 0.31267828 -1.7659475 1.0509061 -0.029437065 -0.33841985 0.9351304 -1.4900005
0.97440416 5.883125 -0.102793455 0.37648836 3.244769 0.16702875 2.2393992 5.2547445
0.24708953 2.3040802 0.83872634 2.1879826 -2.1636002 -0.482545 -0.83598614 0.9792281
-0.4447546 -4.2859297 0.23973806 -0.67985684 1.1994286 -0.3108943 -2.7081304 2.0302901
-1.0350956 0.52012336 0.60031337 -0.3918777 0.66069096 0.7127821 -1.0797738 -0.49509206
-1.6347437 0.5452474 0.49438307 0.5915873 1.5858228 -0.47032282 0.15133843 -0.43785247
0.9790673 -1.63888 -0.67149574 2.1562893 1.0994129 0.23757719 0.13872516 0.51534075
-0.06424272 2.757692 2.1851776 0.92953193 -1.2237818 0.20560053 0.9059933 -0.6965905
2.3831053 0.7781528 2.3206472 0.58941764 1.8653433 0.6954591 1.2687223 1.5087413
-0.15798551 0.5729785 1.1090081 -1.4068208 -0.33628544 -1.3771993 -1.4305049 0.8610041
0.3119069 1.9045663 0.41830435 -0.1772461 1.5146956 0.40566656 0.5653275 1.9436946
1.7899354 -0.20131811 0.12510082 -0.96041965 -1.7699531 -0.10538499 0.76452065 1.2212399
-1.3987832 1.8177669 0.28234047 1.3017106 -0.30395716 2.2240114 2.0742412 -0.26130885
-0.56117296 0.027044429 0.049302995 1.3155451 -0.25155896 0.18477573 -3.273749 -0.5198768
1.4376171 -0.57547665 -0.10629768 -0.10243477 -1.3488514 -0.09744465 2.1174958 -1.0581949
2.5962164 0.42008302 1.2976229 -0.24390873 1.5234685 -0.41966847 1.6171938 0.28203362
-1.0749985 -0.028669534 2.6891751 1.2595485 -0.5735678 -1.1191376 0.22640382 0.910301
-0.17844217 -0.12686954 -1.1679353 0.20558703 -0.2663407 -2.4331143 2.0159688 -0.87980735
0.49139646 0.717302 1.1341487 2.2387125 -2.1341228 -0.22873907 1.986118 -0.30242124
5.716554 1.7636741 -0.21691406 3.5944 1.1465949 0.43851334 -0.849699 -2.673679
-0.04927099 -0.018501533 0.91801137 0.396639 -0.5658065 1.6578714 -3.0405722 -0.05894558
0.07869365 -1.898033 0.6549134 0.7017666 0.12669313 1.3310391 1.2499838 0.27056986
-0.44196075 -1.4759462 -2.0390878 0.79927784 -0.19801503 1.6514682 2.278307 0.4337539
0.51127964 0.8408515 -0.5095282 0.13941546 -0.10093923 -1.057646 -1.1212417 -1.435804
-0.75737804 0.6844433 1.767617 2.0566187 0.036790535 0.42976126 1.0627608 -0.02544943

fc2.bias f4 [4]
00000000: de0a d03f c7e8 d841 896f 363f 9905 8541
1.6253316 27.11366 0.7126394 16.627733

b2.weight f4 [4]
00000000: c6a2 f540 62af 1342 d463 6b41 c7d4 1242
7.67612 36.921272 14.711872 36.70779

b2.bias f4 [4]
00000000: 0394 8a41 2bee f640 d7f3 08c1 2537 b740
17.322271 7.716573 -8.559531 5.7254815

b2.running_mean f4 [4]
00000000: bf22 3844 6e1b 0644 ee2c 4341 b3d5 aa43
736.5429 536.4286 12.198469 341.66953

b2.running_var f4 [4]
00000000: 89a9 2947 c56a 0f45 84c6 c145 7ce5 8a44
43433.535 2294.673 6200.8145 1111.1714
