checkpoints/checkpoint_critic_2_2.pth (torch, 87959 bytes, 5 tensors)

hidden1.weight f4 [128, 37]
0	0xbef75c8a	-0.4831279
1	0xbb28e124	-0.002576896
2	0xbe3ce337	-0.1844605
3	0xbdbb3fa6	-0.09142999
4	0xbe2f62af	-0.17127489
5	0xbd3e118a	-0.046403445
6	0x3da9a2d5	0.08283011
7	0x3cb71eec	0.022353612
8	0x3d3ed4cb	0.046589654
9	0x3e0a3d6c	0.13499993
10	0xbd8de468	-0.06928331
11	0xbdb62e97	-0.08895605
12	0x3daa7fb2	0.08325137
13	0x3f13aae1	0.57682616
14	0x3d90b0d0	0.07064974
15	0x3ede7395	0.43447557
16	0xbe00a132	-0.12561491
17	0xbc572297	-0.013130805
18	0x3caee0ad	0.021347368
19	0xbcf512d3	-0.029916203
20	0xbc761bc4	-0.015021268
21	0x3bacb76f	0.0052708904
22	0xbd8230e3	-0.06356981
23	0x3e66ace2	0.22526887
24	0x3dbb9002	0.09158327
25	0x3e0cd7fc	0.13754267
26	0xbe7a91ab	-0.2446963
27	0x3dddbdbf	0.10827207
28	0xbe796f8a	-0.24358955
29	0xbdf4bb8a	-0.11949833
30	0xbe4a8f1e	-0.19781157
31	0xbd63068e	-0.055426173
32	0x3fa549f3	1.2913193
33	0xbe58fcf4	-0.21190244
34	0x3dc8caca	0.09804304
35	0x3e58cdc6	0.21172246
36	0xbe9ce119	-0.30640486
37	0x3d43d1e7	0.0478076
38	0x3de0abd0	0.10970271
39	0xbdc82a0e	-0.09773646
40	0xbca79d4f	-0.020460753
41	0x3e91c172	0.284679
42	0xbe738cbb	-0.23784153
43	0xbdc5e078	-0.09661955
44	0x3e62e51b	0.2215771
45	0x3e8d66e0	0.2761755
46	0xbe8c90a0	-0.2745409
47	0x3c2a8e79	0.010409945
48	0x3e29b793	0.16573934
49	0xbe2e86cb	-0.17043607
50	0x3eb74dc4	0.35801518
51	0x3f7e3388	0.9929738
52	0xbd65501c	-0.0559846
53	0xbe68fd50	-0.22752881
54	0xbc4a4e35	-0.012347748
55	0xbc2ab9c1	-0.010420264
56	0xbe2d91c0	-0.1695013
57	0x3e7f38a4	0.2492395
58	0x3e87bd31	0.2651153
59	0xbdf62d9c	-0.12020418
60	0xbd07f574	-0.033193067
61	0x3dc48ab0	0.09596765
62	0x3d07a0f8	0.033112496
63	0xbef42f18	-0.4769218
64	0x3e73ebc2	0.23820403
65	0x3e8134c6	0.25235575
66	0x3d9b26aa	0.07575734
67	0xbe4e84f5	-0.20167907
68	0x3d62fa84	0.05541469
69	0x3db05031	0.08609045
70	0xbe590863	-0.21194606
71	0x3e9dbe22	0.30809122
72	0x3ef53868	0.47894597
73	0x3cc70757	0.024295492
74	0x3e62e033	0.22155838
75	0x3ec340ce	0.3813538
76	0x3df662fd	0.12030599
77	0xbe49f628	-0.19722807
78	0x3ebefb6f	0.37301204
79	0xbea4192d	-0.32050458
80	0x3d875419	0.06607837
81	0xbdce27d6	-0.10066192
82	0x3db4d004	0.08828738
83	0x3d1060d8	0.035248607
84	0xbdd448b6	-0.10365431
85	0x3db2d962	0.08732869
86	0xbd919713	-0.07108893
87	0xbe80355e	-0.25040716
88	0x3e1ea6af	0.15493272
89	0xbf0e1056	-0.55493677
90	0xbe3759cf	-0.17905353
91	0x3d5ae56b	0.053441446
92	0x3de2788a	0.11058147
93	0x3dbd38c8	0.09239346
94	0xbd02950e	-0.03188043
95	0x3dc99fdd	0.098449446
96	0x3e497e76	0.19677147
97	0xbd68def1	-0.05685324
98	0x3d8d338d	0.06894598
99	0xbdcacfbf	-0.09902906
100	0x3e6c7b60	0.23093939
101	0x3e75ae93	0.23992376
102	0x3edd2e26	0.4319927
103	0x3e04232d	0.12904043
104	0xbdf59831	-0.11991919
105	0x3dda011e	0.10644744
106	0xbfa9c029	-1.3261768
107	0x3da61828	0.08110076
108	0xbd81e290	-0.063420415
109	0xbca4e102	-0.020126823
110	0x3e66dcc4	0.22545153
111	0x3eb40f15	0.35167757
112	0x3dd5f891	0.10447801
113	0x3e2a3811	0.1662295
114	0x3ccec342	0.02523959
115	0x3e809029	0.25109985
116	0xbf071ec2	-0.5278131
117	0x3e539a7c	0.206644
118	0xbe82ec50	-0.25570917
119	0x3cf7b488	0.030237451
120	0x3e042ca9	0.12907661
121	0xbe2aec1a	-0.16691628
122	0xbe4387b0	-0.1909473
123	0xbe8eb95e	-0.278758
124	0x3cbd6f59	0.023124384
125	0xbec6f6c7	-0.3886015
126	0xbdbcc724	-0.092176706
127	0x3e123492	0.14277866
128	0xbdd97939	-0.106188245
129	0xbd8f145e	-0.069863066
130	0x3da555d5	0.08073012
131	0xbe3c7151	-0.18402602
132	0xbeaa93d3	-0.33315906
133	0x3e6131d9	0.21991672
134	0x3e5eb5b2	0.21748999
135	0x3d169f10	0.036772788
136	0xbd5690c5	-0.052384157
137	0x3d688d2e	0.056775264
138	0x3f2503e2	0.6445905
139	0x3da2a9a0	0.0794251
140	0xbdce4fc1	-0.100738056
141	0xbf1d5037	-0.61450523
142	0x3d81d954	0.0634028
143	0xbf1923da	-0.5982033
144	0x3d1b64da	0.037937976
145	0xbe5f61f8	-0.21814716
146	0x3e93ff95	0.2890593
147	0xbe99fd42	-0.30076033
148	0xbcf8ca90	-0.030370027
149	0xbd9b8afa	-0.07594867
150	0x3efe776d	0.4970049
151	0xbe22bdc9	-0.1589271
152	0xbde305c6	-0.110850856
153	0xbeb0970e	-0.34490246
154	0x3d98b567	0.07456475
155	0xbd51b1be	-0.0511949
156	0x3e59e24a	0.21277729
157	0xbe095692	-0.1341193
158	0xbdad99a6	-0.08476572
159	0x3d42e38c	0.047580287
160	0xbd68275a	-0.056678154
161	0xbddf0b2b	-0.10890802
162	0x3ee4536b	0.44594893
163	0xbf3100ea	-0.6914202
164	0x3e48bc9f	0.19603203
165	0xbe0f5ead	-0.1400096
166	0xbdaa37b8	-0.08311409
167	0xbe0635d0	-0.13106465
168	0x3debd769	0.115156956
169	0x3cb4e2b7	0.022080762
170	0xbdb9dbaf	-0.090751044
171	0xbc927137	-0.01787625
172	0x3d8a7da7	0.067622475
173	0xbe0e1f90	-0.13879228
174	0x3b25b712	0.002528612
175	0x3d9b1db7	0.07574027
176	0x3eba0858	0.3633449
177	0xbc87baa0	-0.016568482
178	0xbe53483f	-0.20633028
179	0x3d8f7d96	0.070063755
180	0x3ebbde25	0.3669292
181	0xbdcc6594	-0.09980312
182	0xbe2b8f26	-0.16753826
183	0xbe8a6b3d	-0.2703494
184	0xbe9d73bd	-0.30752364
185	0xbe327e89	-0.17431082
186	0xbdf6e60d	-0.120555975
187	0xbec1e53c	-0.37870204
188	0xbdf13826	-0.117782876
189	0x3e0e2da8	0.13884604
190	0xbe96eefd	-0.2947921
191	0x3d047575	0.03233858
192	0xbe330f3f	-0.17486285
193	0xbe89b305	-0.26894394
194	0xbebc1a8b	-0.36739
195	0xbd2ce22e	-0.04220789
196	0x3d38ded8	0.045134395
197	0xbe87ab5b	-0.2649792
198	0x3ca3a3ec	0.019975625
199	0x3d9b7161	0.07589985
200	0x3da1c12c	0.07898173
201	0xbc5509ed	-0.013002855
202	0xbd9bd336	-0.07608645
203	0x3d110723	0.035407197
204	0x3b5ae458	0.0033400264
205	0xbc40ee3d	-0.01177555
206	0x3e451755	0.19247182
207	0x3c950623	0.018191403
208	0x3d96adf8	0.07357401
209	0xbe35102a	-0.17681947
210	0xbd897dab	-0.067134224
211	0x3ded413b	0.11584707
212	0x3eb30187	0.34962103
213	0xbe954920	-0.29157352
214	0xbe173ad4	-0.14768535
215	0xbe9849ee	-0.29743904
216	0xbde60028	-0.112304986
217	0xbfbc25fd	-1.4699093
218	0xbe334fef	-0.17510961
219	0x3c10cc4e	0.0088377725
220	0x3e114b4d	0.14188881
221	0xbe210405	-0.1572419
222	0xbd653e2d	-0.0559675
223	0xbd047d5c	-0.032346115
224	0x3e77d515	0.24202378
225	0x3e562fb5	0.20916636
226	0x3e89ed93	0.26939067
227	0x3d0cee4c	0.034406945
228	0x3d2a9567	0.041646387
229	0xbe68ac18	-0.22721899
230	0x3ebb5dfb	0.3659514
231	0x3e86897b	0.26276764
232	0x3df7015b	0.120608054
233	0x3e8aef9c	0.27135932
234	0x3ea30f3a	0.31847554
235	0xbd9d08b9	-0.07667679
236	0x3e420d6e	0.18950436
237	0x3e8b5351	0.27212003
238	0xbd1fe0b6	-0.03903266
239	0x3c4a5f0d	0.012351763
240	0x3eb98d08	0.3624041
241	0xbd927035	-0.07150308
242	0xbd30228f	-0.043001708
243	0x3d900d40	0.07033777
244	0xbe49998b	-0.19687478
245	0x3d43cd29	0.047803078
246	0x3dea9f82	0.11456205
247	0x3e98c0e8	0.29834676
248	0xbe0d67ec	-0.13809174
249	0x3ec14c5b	0.37753567
250	0xbe12b981	-0.14328577
251	0x3e14b4f9	0.1452216
252	0xbee3eb18	-0.445153
253	0x3d0353d0	0.03206235
254	0xbfb782c8	-1.4336786
255	0xbf02bae0	-0.510664

hidden1.bias f4 [128]
0	0xbda71109	-0.08157546
1	0xbe084698	-0.1330818
2	0xbe9e423a	-0.30909902
3	0xbf1435a1	-0.5789433
4	0x3d008af7	0.031382527
5	0xbee7d77a	-0.45281583
6	0xbf140c87	-0.57831615
7	0xbe75e6e3	-0.24013858
8	0x3cfa0e0c	0.030524276
9	0xbebe695d	-0.3718976
10	0xbef190bb	-0.47180733
11	0xbdc0fa1d	-0.09422705
12	0xbd3a59bd	-0.045495737
13	0xbe096750	-0.13418317
14	0xbdfe234c	-0.12409076
15	0xbe161732	-0.14657286
16	0x3d875b57	0.066092186
17	0xbeb49811	-0.35272267
18	0xbe2e5a51	-0.1702664
19	0xbc189732	-0.0093133915
20	0xbe762bac	-0.24040097
21	0xbd0e8902	-0.03479863
22	0xbe0a2fa8	-0.13494742
23	0xbe0f7964	-0.1401115
24	0xbee19037	-0.4405534
25	0x3e463625	0.19356592
26	0xbe475e41	-0.19469549
27	0xbe7057e4	-0.23471028
28	0x3e49dc37	0.19712912
29	0xbee6aa62	-0.45051867
30	0x3d43455f	0.04767358
31	0xbd85f534	-0.065409094
32	0x3da55cc0	0.08074331
33	0xbec68af1	-0.3877788
34	0xbec3d181	-0.38245776
35	0xbe6728dd	-0.22574182
36	0xbe24fbf7	-0.16111742
37	0xbe633eab	-0.22191875
38	0xbd7ae712	-0.061255522
39	0xbd5684bc	-0.05237268
40	0xbe1db321	-0.15400364
41	0xbed78721	-0.42095283
42	0xbe17323e	-0.1476526
43	0xbedb1084	-0.42786038
44	0xbd953e7d	-0.07287309
45	0xbdba907d	-0.0910959
46	0xbd82e130	-0.06390607
47	0x3e8c0357	0.27346298
48	0xbe53d92e	-0.20688316
49	0xbe709676	-0.23494896
50	0xbe2669fb	-0.16251366
51	0x3d02beaf	0.03192013
52	0xbee1e998	-0.4412353
53	0xbf01e0bf	-0.5073356
54	0xbe2713b3	-0.16316108
55	0xbef512c8	-0.4786589
56	0xbe8bf34b	-0.27334055
57	0xbe4832fa	-0.19550696
58	0x3eb2addd	0.34898272
59	0xbf03a1d6	-0.5141882
60	0xbda13f01	-0.07873345
61	0xbd8ccc9c	-0.06874964
62	0xbe352f36	-0.17693791
63	0xbe1d6833	-0.1537178
64	0xbed4dea6	-0.41576117
65	0xbe51fb8e	-0.20506117
66	0x3e3c2e29	0.18376984
67	0xbeb5c7ce	-0.35504
68	0xbed9487e	-0.4243812
69	0xbf0baee8	-0.5456376
70	0x3de29e82	0.11065389
71	0xbcc0c9ac	-0.023533665
72	0x3d7de37a	0.061984517
73	0xbe82f88a	-0.25580245
74	0x3ca4c0b7	0.020111425
75	0xbe49f7a5	-0.19723375
76	0xbea9c839	-0.3316057
77	0xbf2d8565	-0.6778167
78	0xbe0fee6d	-0.14055796
79	0xbf001484	-0.50031304
80	0xbe3f127b	-0.18659393
81	0xbec6ea8b	-0.38850817
82	0xbecc31fe	-0.3988189
83	0xbe271789	-0.16317572
84	0xbeabb45d	-0.33536044
85	0xbe1fef4d	-0.1561863
86	0xbe83483d	-0.2564105
87	0xbe622b9b	-0.22086947
88	0xbe37d9da	-0.17954198
89	0xbe3e3d37	-0.18578039
90	0xbd6184a6	-0.055058144
91	0xbed20c05	-0.41024795
92	0xbe991db3	-0.2990547
93	0x3c29e685	0.010369902
94	0xbdea3ff6	-0.11437981
95	0xbea9a296	-0.33131856
96	0x3c6bf9ad	0.014402789
97	0xbf1a5aff	-0.602951
98	0xbe9e9c4b	-0.30978617
99	0xbf01d7a3	-0.5071966
100	0xbf018af4	-0.5060265
101	0xbd912b1e	-0.07088302
102	0xbef9560a	-0.48698455
103	0xbe26cddb	-0.16289465
104	0x3d2dc8f6	0.04242798
105	0xbead0703	-0.33794412
106	0xbedc0874	-0.429752
107	0xbef53154	-0.47889197
108	0xbd9280e3	-0.071534894
109	0xbca819d7	-0.020520134
110	0xbed21531	-0.41031793
111	0xbedc184f	-0.42987296
112	0x3e510643	0.20412545
113	0xbe7526c9	-0.23940577
114	0xbf09ff8c	-0.5390556
115	0xbe3bc2e5	-0.18336065
116	0x3b92ae4f	0.0044763456
117	0xbe5c2770	-0.21499419
118	0xbf217c5a	-0.6308037
119	0x3e549f05	0.20763786
120	0x3a8e87fe	0.0010874269
121	0xbe04699e	-0.12930915
122	0xbe6fc1e3	-0.23413806
123	0xbf099b39	-0.53752476
124	0xbe96b572	-0.29435307
125	0xbea9245b	-0.3303555
126	0xbedaac68	-0.4270966
127	0xbed7f33a	-0.42177755

hidden2.weight f4 [128, 128]
0	0xbddb4224	-0.10705975
1	0xbc6cabe5	-0.01444528
2	0x39d050db	0.00039733094
3	0xbd0063c8	-0.03134516
4	0x3c0fd27a	0.008778209
5	0xbde33f8a	-0.110961035
6	0xbdb8a3ae	-0.090155944
7	0x3d6f3a79	0.058405373
8	0x3c95bb66	0.018277835
9	0xbdc08fa1	-0.09402395
10	0xbd4710ab	-0.04859988
11	0x3d85f9dd	0.06541798
12	0xbccbce76	-0.024878722
13	0xbc5f99c4	-0.0136475
14	0xbdc20e11	-0.09475339
15	0xbdc9c39e	-0.09851764
16	0x3d28ab01	0.041178707
17	0xbdc10a23	-0.094257616
18	0xbd674cb2	-0.056469627
19	0xbd74e024	-0.05978407
20	0xbd89b27a	-0.06723495
21	0x3c98f29e	0.018670376
22	0xbd72ed67	-0.059308436
23	0x3d87de32	0.06634177
24	0xbdee7f89	-0.11645419
25	0xbdb5d85d	-0.08879159
26	0xbda02594	-0.078196675
27	0x3d527355	0.05137952
28	0xbc7ccbfd	-0.015429494
29	0xbd73c3d0	-0.059512913
30	0x3d710252	0.058840103
31	0x3ceeff6c	0.029174529
32	0xbdc22013	-0.09478774
33	0x3a02afc7	0.00049852993
34	0xbd86723f	-0.065647595
35	0xbdf4b9e3	-0.119495176
36	0xbbb4c7b7	-0.005516972
37	0xbd6e4aae	-0.05817669
38	0xbdd933b4	-0.10605565
39	0x3c6156e5	0.013753627
40	0x3cbada01	0.02280903
41	0xbdc3b035	-0.09555093
42	0xbe0a35a3	-0.13497023
43	0xbde0c2fc	-0.1097469
44	0xbd3719b4	-0.044702247
45	0x3bf8a03f	0.007587462
46	0x3b83347a	0.0040040584
47	0x3bdc34fd	0.006720184
48	0xbcdcbc1c	-0.026945166
49	0xbcea7eca	-0.02862491
50	0xbbcb1168	-0.0061971433
51	0x3c9c4c24	0.019079275
52	0xbd0bfe60	-0.034178138
53	0xbe18d1b8	-0.14923751
54	0xbc7de0e9	-0.015495517
55	0xbdbb3799	-0.09141464
56	0xbde12809	-0.10993964
57	0xbd95ae10	-0.073085904
58	0xbdb4eba8	-0.0883401
59	0x3c3d39d5	0.011549433
60	0xbdb55702	-0.08854486
61	0xbd6d391e	-0.0579158
62	0xbc242298	-0.010018013
63	0xbd8eca53	-0.06972184
64	0xbd057c56	-0.03258928
65	0xbd196621	-0.037450913
66	0x3bf55b57	0.007487695
67	0xbde6186a	-0.11235125
68	0xbdc97cd2	-0.09838261
69	0xbdb67354	-0.08908716
70	0xbc479916	-0.012182495
71	0xbe02b61f	-0.12764786
72	0xbd2246a8	-0.039618164
73	0x3d5cf304	0.053942695
74	0xbcd23470	-0.02565977
75	0xbc8081ae	-0.015686836
76	0xbdeddd50	-0.11614478
77	0xbc712ca4	-0.014720116
78	0xbdc8835f	-0.09790682
79	0xbcede162	-0.029038135
80	0xbcab171c	-0.020885043
81	0x3c921d58	0.017836258
82	0xbd8bf1de	-0.06833242
83	0x3c3e1e2f	0.011603876
84	0x3c1138fa	0.008863682
85	0x3d497af5	0.049189527
86	0x3c27ba16	0.010237237
87	0x3d24b5e7	0.040212538
88	0xbd8ac485	-0.067757644
89	0xbcc8abb8	-0.024495944
90	0xbc72078a	-0.014772305
91	0x3d06e8e4	0.032936946
92	0xbc93d637	-0.018046482
93	0x3c220319	0.009888434
94	0x3c1f3a35	0.0097184675
95	0xbd1e9b3f	-0.038722273
96	0x38dac340	0.00010431418
97	0xbdb080a4	-0.08618286
98	0x3d79439c	0.060855493
99	0xbdad9ef7	-0.08477586
100	0xbd84af71	-0.06478775
101	0x3d26c26c	0.04071276
102	0xbdb3c5dd	-0.08777974
103	0xb97902a5	-0.00023747476
104	0xbe054f58	-0.13018548
105	0x3d2348d7	0.039864387
106	0xbd8a5088	-0.06753641
107	0xbc66d7ba	-0.014089519
108	0x3b8969f6	0.0041935397
109	0xbaf63544	-0.0018784185
110	0xbb94158c	-0.00451917
111	0x3bcd2c3d	0.006261377
112	0xbda0f296	-0.078587696
113	0xbd9102d6	-0.07080619
114	0x3d05117a	0.03248737
115	0xbd8b1b7e	-0.06792353
116	0xbc8ee6f0	-0.017444104
117	0xbc8c9a76	-0.017163496
118	0xbde725f1	-0.112865336
119	0x3d2e314e	0.04252749
120	0x3d234d58	0.039868683
121	0xbd8b1cd4	-0.06792608
122	0xbd213eb4	-0.03936644
123	0x3ba67a98	0.0050805323
124	0x3c5f9842	0.013647141
125	0xbcb03766	-0.021510791
126	0xbd56571a	-0.05232916
127	0xbcfcea0c	-0.030873321
128	0xbdf7e52c	-0.12104258
129	0xbc9d6286	-0.019212019
130	0xbe08f5b2	-0.13374975
131	0xbc4d7ade	-0.012541501
132	0x3d1cc531	0.038273994
133	0xbd4237d8	-0.047416538
134	0xbd7f02f4	-0.062258676
135	0xbdb036c2	-0.08604194
136	0x3c6a401a	0.01429751
137	0xbdd74860	-0.10511851
138	0x3d7a165f	0.06105649
139	0xbd79818e	-0.06091457
140	0x3d02ecc3	0.031964075
141	0xbc8dc135	-0.017304042
142	0xbdcd776e	-0.10032545
143	0xbd58a73a	-0.052893855
144	0xbdb71f8e	-0.089415655
145	0xbd8e9c41	-0.06963397
146	0x3d0a72ba	0.033800818
147	0x3c9acd2d	0.018896664
148	0xbdc11ecc	-0.09429702
149	0xbc651ab5	-0.013983418
150	0x3c42a04d	0.011879039
151	0xbcd61a9b	-0.026135733
152	0xbcfe553d	-0.031046504
153	0x3d07f7ca	0.033195294
154	0xbc7572c1	-0.014980973
155	0xbdbc0b2e	-0.0918182
156	0xbdbff355	-0.09372584
157	0x3adb174c	0.0016715317
158	0xbd0a3892	-0.033745356
159	0xbde91715	-0.11381356
160	0xbe30abef	-0.17253087
161	0xbdb41632	-0.08793296
162	0x3c49f307	0.012326009
163	0xbcdf3fde	-0.027252134
164	0xbd8a16bd	-0.06742618
165	0xbd4f8fee	-0.05067437
166	0x3a7182b8	0.0009212899
167	0xbd30ca2a	-0.04316155
168	0x3dd5c415	0.1043779
169	0x3ce18510	0.02752927
170	0xbc4023f6	-0.011727324
171	0x3d54f069	0.051987085
172	0x3c147ed3	0.00906344
173	0xbd18f147	-0.037339475
174	0x3c110b63	0.008852812
175	0xbd4febdf	-0.050762054
176	0xbdeb39b7	-0.114856176
177	0xbda0db16	-0.07854287
178	0xbd1419e1	-0.036157493
179	0xbdbe4673	-0.09290781
180	0xbc8cfe50	-0.01721111
181	0x3cf99682	0.030467276
182	0xbd9de8c0	-0.07710409
183	0x3b66af17	0.0035199577
184	0xbd14adf8	-0.036298722
185	0xbda1a649	-0.078930445
186	0xbe07c445	-0.13258465
187	0xbca6cc07	-0.02036096
188	0x3ccf6407	0.025316251
189	0x3a95b2e4	0.0011421111
190	0xbdf98217	-0.12183016
191	0x3ca27e81	0.019835712
192	0xbdbc44f9	-0.09192843
193	0xbdafb79e	-0.08579944
194	0xbd58cfdc	-0.052932605
195	0xbd2fd8d6	-0.0429314
196	0x3d927964	0.0715206
197	0xbc0d395c	-0.008619633
198	0xbda1e364	-0.079046994
199	0x3c132a0b	0.008982192
200	0x3bbc5968	0.0057479627
201	0x3caee104	0.02134753
202	0xbd6b6aa9	-0.057474766
203	0xbdbcd605	-0.092205085
204	0xbcb09f69	-0.021560388
205	0xbcfc4fc2	-0.03079975
206	0xbd85847e	-0.065194115
207	0xbe091d8e	-0.1339018
208	0xbd87edab	-0.066371284
209	0x3b687ef7	0.0035476068
210	0xbd80551a	-0.06266232
211	0xbc73a103	-0.014869931
212	0xbdb20d8b	-0.08693989
213	0xbd960f46	-0.07327132
214	0xbad20ec1	-0.0016026126
215	0x3a58b39f	0.0008266512
216	0xbdad783b	-0.08470198
217	0x3c06857a	0.008210534
218	0x3d0089d1	0.031381432
219	0xbc1805f8	-0.009278767
220	0xbd01a876	-0.031654797
221	0xbd580cdd	-0.052746642
222	0xbd70bdfa	-0.058774926
223	0xbdbbb9fa	-0.091663316
224	0xbdac202a	-0.08404572
225	0xbd091db4	-0.033475593
226	0x3cff24f7	0.031145556
227	0x3cac42db	0.021027973
228	0xbdbec68f	-0.09315216
229	0xbdcfb020	-0.10141015
230	0x3b345e9a	0.0027522207
231	0x3ce3adf4	0.027792908
232	0xbd4b5ff3	-0.04965205
233	0xbd7e5644	-0.062093988
234	0xbd1f7720	-0.038931966
235	0xbc3e6ea4	-0.0116230585
236	0xbd54384a	-0.051811494
237	0xbd840da0	-0.06447911
238	0x3d208269	0.03918687
239	0xbd0d5848	-0.03450802
240	0x3d0ffc19	0.03515253
241	0xbdae0832	-0.08497657
242	0xbd7b5469	-0.061359797
243	0xbda03bdd	-0.07823918
244	0x3d5acffc	0.053421006
245	0xbdf06863	-0.1173866
246	0xbddc4eee	-0.10757242
247	0xbe2377a9	-0.15963615
248	0xbda77d8e	-0.081782445
249	0xbcbc26fc	-0.022967808
250	0x3d22c13f	0.039735075
251	0xbc8c1328	-0.017098978
252	0x3d11cf0f	0.035597857
253	0xbcd24b7b	-0.025670758
254	0xbc67b99b	-0.014143373
255	0xbda55a3b	-0.08073851

hidden2.bias f4 [128]
0	0xbd5fe89c	-0.054665193
1	0xbbe8c159	-0.007103127
2	0xbe3a4ae3	-0.1819263
3	0xbd590dae	-0.05299156
4	0xbdbf5b12	-0.09343542
5	0xbd1e6e50	-0.03867942
6	0x3cf82afb	0.030293932
7	0x3d9a23d4	0.07526365
8	0xbe04a055	-0.12951787
9	0x3d0d34b9	0.03447411
10	0xbe1fe1d3	-0.15613489
11	0xbda328d8	-0.07966775
12	0xbc64a8d1	-0.013956265
13	0xbca49e7f	-0.020095108
14	0xbcc01bbf	-0.02345073
15	0x3ec602a7	0.386739
16	0xbd40fb62	-0.047114737
17	0xbe149294	-0.1450904
18	0xbd1dd0d8	-0.038529247
19	0xbc54e125	-0.012993132
20	0x3e90f904	0.28314984
21	0xbe21a474	-0.1578539
22	0xbe130005	-0.14355476
23	0xbe2a5274	-0.16633016
24	0xbe0d2e30	-0.1378715
25	0xbdb6f82e	-0.08934055
26	0xbdacf34e	-0.08444844
27	0xbdac060d	-0.083995916
28	0xbddc5bf5	-0.10759727
29	0x3dac89d7	0.08424728
30	0xbcc55954	-0.024090447
31	0x3cc4e3f6	0.024034481
32	0xbb13493c	-0.002247407
33	0xba8570de	-0.0010180732
34	0xbd69f67c	-0.05711983
35	0xbe141bc8	-0.14463723
36	0xbd09ef07	-0.03367522
37	0xbd95fe02	-0.07323839
38	0xbe08379a	-0.1330246
39	0xbd130bf9	-0.03590009
40	0xbdb67682	-0.08909322
41	0x3d0f5991	0.034997527
42	0xbca311c5	-0.019905934
43	0xbd8d8272	-0.06909646
44	0xbb570f43	-0.0032815493
45	0xbaef27a9	-0.0018246073
46	0xbcabda4f	-0.020978121
47	0xbbf988bc	-0.007615177
48	0x3d63ea56	0.055643402
49	0xbdeff3b4	-0.117164046
50	0xbda173d5	-0.07883421
51	0xb7589af8	-1.2910685e-05
52	0xbe170e7b	-0.14751618
53	0x3c9059f2	0.017621014
54	0xbe018fc4	-0.12652498
55	0xbd8263f0	-0.06366718
56	0xbdd78c6a	-0.10524829
57	0x3ce4588a	0.02787425
58	0xbdc47a67	-0.09593659
59	0x3d0ffe48	0.03515461
60	0xbe0487ef	-0.1294248
61	0xbdc2586d	-0.09489522
62	0x3e5cd85d	0.21566911
63	0xbdda227c	-0.106511086
64	0x3f1122de	0.5669383
65	0x3ebb756f	0.36613032
66	0xbdea56c9	-0.11442334
67	0xbda18627	-0.07886916
68	0xbdf324ce	-0.11872254
69	0x3d68b0bb	0.05680917
70	0xbe07ef6d	-0.13274927
71	0xbdd4eedb	-0.103971206
72	0x3dd83711	0.10557378
73	0xbbc9ab07	-0.0061544213
74	0xbca6a488	-0.020342126
75	0x3d531112	0.05152995
76	0xbdbebfe7	-0.09313946
77	0xbcdd27fe	-0.026996609
78	0xbda222c2	-0.07916786
79	0xbd190d5c	-0.037366256
80	0xbdd5f9ca	-0.10448034
81	0xbd05a8f0	-0.032631814
82	0xbe38567f	-0.18001746
83	0xbd6c1538	-0.057637423
84	0xbd851e6d	-0.06499944
85	0xbdff2846	-0.124588534
86	0xbadebcc4	-0.0016993512
87	0xbba6f9ea	-0.00509571
88	0xbdfa818c	-0.1223174
89	0xbd5b3afa	-0.05352304
90	0xbdd5217d	-0.10406778
91	0xbdca4760	-0.09876895
92	0x3c969d35	0.018385509
93	0x39a0abd6	0.00030645606
94	0xbc40268a	-0.011727938
95	0xbcb123fd	-0.021623606
96	0xbd5c23d2	-0.0537451
97	0x3eb86b15	0.36019197
98	0xbdd1bba9	-0.102408715
99	0xbcc90b0c	-0.0245414
100	0xbd455507	-0.04817679
101	0xbd48cf77	-0.04902598
102	0xbe083272	-0.13300493
103	0x3c0d28c6	0.008615678
104	0xbdecfa54	-0.11571184
105	0xbd85f8ce	-0.06541596
106	0xbd901223	-0.07034709
107	0xbdb06da6	-0.08614664
108	0xbcf30ee0	-0.029670179
109	0xbd831e2f	-0.064022414
110	0xbcd952c4	-0.026528724
111	0x3b10bf72	0.0022086767
112	0x3ec40803	0.38287362
113	0xbd3a3996	-0.045465074
114	0xbd8feb18	-0.070272624
115	0xbe0c9edd	-0.13732477
116	0xbda7ce78	-0.08193678
117	0xbd38f90e	-0.045159392
118	0x3cfc551f	0.030802308
119	0xbd0e3859	-0.034721706
120	0xbd7033a2	-0.05864299
121	0xbda6a8ca	-0.08137663
122	0xbd989895	-0.07450978
123	0xbd235d5c	-0.039883956
124	0xbcb30d93	-0.021857059
125	0xbde54375	-0.11194507
126	0x3ecf93b0	0.40542364
127	0xbda097fc	-0.07841489

out.weight f4 [1, 128]
0	0x3ce3afaa	0.027793724
1	0xbc03f5d6	-0.008054217
2	0xbc1c96ec	-0.009557467
3	0xbcca72b5	-0.0247129
4	0x3ccb7f8f	0.024841098
5	0x3c6619be	0.014044223
6	0xbc8499de	-0.01618665
7	0xbcfbf9ad	-0.030758703
8	0x3b5b9677	0.0033506432
9	0xbd74ead1	-0.05979425
10	0xbcc5b84c	-0.024135731
11	0xbcb08908	-0.021549717
12	0x3a390bf2	0.000705897
13	0xbafa1b77	-0.0019081671
14	0x3c303595	0.010754962
15	0x3d69d785	0.0570903
16	0x3ba38331	0.0049900045
17	0xbded2b86	-0.11580567
18	0x3c8719a8	0.016491726
19	0xbb155720	-0.0022787526
20	0x3d66e753	0.05637295
21	0x3c322218	0.010872386
22	0x3c8c4252	0.017121468
23	0xbcb56689	-0.02214362
24	0x3b101535	0.0021985297
25	0x3c8c2d23	0.017111367
26	0x3bf0b682	0.0073459754
27	0xbcbb3962	-0.02285451
28	0xbd86a100	-0.06573677
29	0xbd8f07ce	-0.069839105
30	0x3cd1e111	0.025620015
31	0xbd328433	-0.043583106
32	0x3c49254c	0.012276959
33	0x3c640eef	0.013919576
34	0x3bcbb3d5	0.006216506
35	0x3c7e2778	0.01551234
36	0xbcd39f56	-0.025832813
37	0xbcfc7a5e	-0.030820068
38	0xbd21ea4f	-0.039530095
39	0xbd040e26	-0.032240056
40	0xbc58e097	-0.01323714
41	0xbbdb4751	-0.006691851
42	0x3ca27d68	0.019835189
43	0xbb49e680	-0.0030807555
44	0xbc9b20ab	-0.018936476
45	0x3cd7b6df	0.026332317
46	0xbba7d528	-0.0051218458
47	0x3cb00707	0.021487726
48	0xbb22f0e3	-0.0024862818
49	0xbcda3761	-0.026637735
50	0xbcd88953	-0.026432669
51	0xbc9d7407	-0.019220365
52	0x3cc2a0f3	0.023758387
53	0xbca0cbdf	-0.019628463
54	0xbbc45587	-0.005991641
55	0x3b9ca345	0.0047802054
56	0xbbf33605	-0.007422211
57	0xbbc35383	-0.005960883
58	0xbb94da02	-0.00454259
59	0x3c1e4244	0.009659354
60	0xbbe9242b	-0.0071149073
61	0x3cfb989e	0.030712422
62	0x3d36bd20	0.044613957
63	0xbb85504f	-0.0040684114
64	0x3dafa2df	0.08575987
65	0xbd85e020	-0.06536889
66	0xbce64b61	-0.028112115
67	0xbba83279	-0.00513297
68	0x3c19fdaf	0.009398862
69	0xbbbc3213	-0.005743274
70	0x3c84e4f6	0.016222458
71	0xbc23b37c	-0.009991523
72	0x39a63e35	0.00031708335
73	0xbce0ae77	-0.027426941
74	0x3c937349	0.017999308
75	0x3c506f52	0.012721853
76	0xbde8a970	-0.11360443
77	0x392cf6f9	0.00016495203
78	0x3cd8b8b5	0.026455263
79	0xbcc16096	-0.023605626
80	0xbc7183f0	-0.014740929
81	0xbcea2eb6	-0.028586727
82	0x3b9ceb2c	0.004788777
83	0xbbaacdbd	-0.005212514
84	0x3ca635dc	0.020289354
85	0xbc9f71a8	-0.019463375
86	0x3aac077e	0.0013124791
87	0x3c50d3b1	0.012745784
88	0xbce53b30	-0.027982324
89	0xba097c66	-0.0005244672
90	0xbb5fe707	-0.0034164803
91	0xbc836943	-0.016041404
92	0x3cd0fb2d	0.025510395
93	0x3b655028	0.0034990404
94	0x3b4f97e1	0.003167622
95	0x3c1efd7a	0.009703988
96	0x3c56808e	0.013092173
97	0x3d671c5d	0.056423534
98	0xbb8ff7de	-0.0043935617
99	0xbcb7ed84	-0.022452123
100	0x3b26c98a	0.0025449716
101	0xbc59fdd6	-0.013305148
102	0x3cbbdd18	0.022932574
103	0xbca317d2	-0.01990882
104	0x3aa957b7	0.0012919818
105	0xbcf7d9cd	-0.030255223
106	0x3c10dcc1	0.008841694
107	0x388cb3ef	6.7092355e-05
108	0x3c13dc93	0.009024757
109	0x3ca50d55	0.020147959
110	0x3ca605de	0.02026647
111	0x3ccfc035	0.025360206
112	0x3df1fe34	0.118160635
113	0xbb059932	-0.00203855
114	0x3c8ac141	0.016937854
115	0x3a853346	0.0010162375
116	0x3ce01f58	0.027358696
117	0xbcb61404	-0.022226341
118	0x3bbe2945	0.0058032596
119	0x3cc4816c	0.023987494
120	0xbc0aba7d	-0.008467314
121	0x3af1315b	0.001840155
122	0x3c00f9d2	0.007872062
123	0xbccfc68d	-0.025363231
124	0x3c9f51e7	0.019448234
125	0x3c6d125f	0.014469712
126	0x3d24476f	0.040107187
127	0x3c07a23f	0.008278429
