checkpoints/checkpoint_critic_1.pth (torch, 170839 bytes, 5 tensors)

fcs1.weight f4 [256, 33]
000000 8e d9 9c bd 1c 0d ae bd c8 49 3d bd 7f 8f 8c 3c
       -0.07658683 -0.08498594 -0.04621294 0.017158268
000010 93 e9 17 bd 6d 5b 91 3c 88 b1 cf bb e2 46 ee 3b
       -0.037087988 0.01774379 -0.006338302 0.0072716335
000020 25 48 fa 3a 37 72 b6 bc a3 99 1e 3c 8a 52 91 bc
       0.0019094987 -0.022271259 0.009680185 -0.017739553
000030 fd a0 94 3c 0f 6f 9b 3d ad 72 ab 3d 48 4a 8f bb
       0.018143171 0.07589542 0.08371482 -0.0043728687
000040 5d ae 0a 3c c6 56 e1 3b dc 51 3f bd e9 4f ca 3c
       0.008464423 0.0068767993 -0.046708927 0.024696307
000050 2f de 6e 3c a9 d8 06 bd ff 68 02 3c d4 26 c2 3c
       0.01457934 -0.032921467 0.007959603 0.023700155
000060 4d 9d de 3b 98 17 1d bd 72 ff a9 3d 62 e4 f1 bc
       0.006793654 -0.03835258 0.083006755 -0.029527847
000070 95 cd 7f 3d 90 a7 9d bb 55 a2 61 3d 64 d7 69 bd
       0.062451918 -0.004811235 0.055086453 -0.057090178
000080 f0 33 1e bc 15 91 35 3c ed f3 87 bd 31 56 0e bd
       -0.009655938 0.0110819535 -0.06638322 -0.034750167
000090 0d e6 23 3d 21 3c db bc a9 33 5c bd 74 de 13 bc
       0.040014315 -0.02676207 -0.053760204 -0.009025205
0000a0 1e 77 04 bd a7 28 d8 bc fc cd ff 3c 0e 58 83 ba
       -0.03234016 -0.026386572 0.03122615 -0.0010020749
0000b0 f4 81 f6 bb 25 0f e4 3b 99 bf 0a be 6d bc be 3d
       -0.007522816 0.006959813 -0.13549651 0.09313283
0000c0 ba 1b ed 3c 96 29 2b 3a e2 f9 8b 3d 01 29 e5 3d
       0.028943885 0.0006529329 0.06834771 0.111894615
0000d0 27 20 23 3c 1b 35 b6 bb 5a 4f ec bc a3 07 28 bb
       0.009956396 -0.00556053 -0.028846432 -0.0025639317
0000e0 57 fa 0b bd d2 a1 07 3d 8d 1a 0d 3d c6 93 d2 3d
       -0.03417429 0.03311331 0.03444915 0.10282092
0000f0 91 7a 6d 3d 24 0c 4a 3d 82 67 14 bd b7 a2 8a bd
       0.057978217 0.049327984 -0.036231525 -0.06769317
000100 14 f9 fa bc 28 f6 03 3f ab 62 aa bc cd de f8 bc
       -0.030636348 0.5154748 -0.020799002 -0.030379677
000110 34 52 e3 3d cf f9 4c bd 75 73 1c bc 17 83 9a bd
       0.110996634 -0.050042924 -0.0095490115 -0.07544535
000120 3a 6a 58 3c 4c ad bc bc c9 a2 74 3d 84 1a a1 3d
       0.01320892 -0.023031853 0.059725557 0.078663856
000130 3f 38 9e ba 15 5d a0 3c 44 4f a9 3c 0d 1d 6c 3c
       -0.0012071206 0.019575635 0.02066768 0.014411223
000140 9b 40 f2 3c eb eb db bc d3 61 a9 bd 94 54 19 bc
       0.029571822 -0.026845893 -0.082706116 -0.009358544
000150 97 98 05 3c d3 ea 27 bd f2 01 1a ba 13 06 28 bd
       0.008154056 -0.04099543 -0.00058749237 -0.041021418
000160 95 cb bc bc 33 ab 80 3c 3c 31 91 bc f7 9a 2f 3c
       -0.023046294 0.015706634 -0.017723672 0.010718099
000170 26 55 99 3d 97 b1 32 3d 3f ec 80 bc 1c ad 40 3d
       0.07486944 0.043626394 -0.01573765 0.04704009
000180 c5 5b 2a 3b 3c b2 3c 3d 26 0b d8 3e d2 88 27 bb
       0.002599464 0.046068415 0.42196006 -0.002556373
000190 21 c1 5d 3c 92 35 47 3d 5b 3f 31 3b bd 72 00 3e
       0.013534815 0.048635073 0.002704582 0.12543769
0001a0 ff 64 83 bc 2b 63 03 3e 2e 03 20 bd f9 cc d6 bc
       -0.01603937 0.12830798 -0.039065532 -0.026220785
0001b0 14 7d e8 bc e2 01 ee 3b 11 41 0f bd ce 3f 19 bd
       -0.028379954 0.007263408 -0.03497416 -0.037414365
0001c0 44 06 75 3d 90 2e c6 3c a9 3e 50 bd 4d 77 33 3c
       0.05982043 0.024192125 -0.050841007 0.0109537365
0001d0 d1 9c 15 3d f2 cc fd 3c d2 c2 44 bd 3a 52 e4 bb
       0.036526505 0.030981515 -0.048037358 -0.00696781
0001e0 7a 4b f1 3c 84 37 16 bc cc d3 d5 bc f0 b2 3d 3d
       0.029454935 -0.009168509 -0.02610197 0.046313226
0001f0 75 64 7d 3c b0 64 01 bd c4 33 d3 38 d9 3f 3d 3d
       0.015465845 -0.031590164 0.00010070906 0.046203468
000200 26 80 61 bd 42 20 e0 3b c8 fc 21 bd 18 69 bd 3e
       -0.055053852 0.006839783 -0.03954771 0.36994243
000210 bf 03 9f bd 20 89 d0 3a 06 15 06 bd 20 ee 35 bd
       -0.077643864 0.0015910007 -0.032734893 -0.044416547
000220 af 7e 44 3c 53 6d 86 3b b7 ff 1f 3b 04 e1 e6 3c
       0.011993094 0.004102388 0.0024413893 0.028183468
000230 e6 6c 66 bd 17 5b bd bc 9b d4 8a bc 0f 2f f1 bb
       -0.056256197 -0.023114724 -0.016947081 -0.007360346
000240 bf f4 da bb c8 05 05 3e f5 71 d3 bb d3 8c 99 bc
       -0.006682008 0.12990487 -0.0064527937 -0.018743908
000250 64 33 96 3d 79 e9 50 bc b9 2e 0a 3d 57 10 be b9
       0.07334021 -0.012750977 0.033735964 -0.00036251798
000260 56 56 10 3c 9a d3 29 3c f2 c6 01 3c ec 6c 82 3c
       0.008809647 0.010365391 0.007920967 0.015921079
000270 2c 6d 3d bc 9d 8d a3 bc e6 a3 e2 bd fa 74 4a 3b
       -0.011561673 -0.019964987 -0.110664174 0.0030892477
000280 38 7d af 3c 80 83 71 3d 09 ce 45 bd 20 34 2b bb
       0.021422014 0.0589633 -0.048292194 -0.0026123598
000290 86 36 fc 3e 30 50 9c bd 01 00 a5 3a d5 7e 3e 3d
       0.49260348 -0.07632482 0.0012588502 0.046507675
0002a0 b0 37 fc 3a 4b 4d 9c bc 1f 6e 08 3e 6d 02 9e 3c
       0.001924267 -0.019079825 0.13323258 0.019288266
0002b0 9a df a7 bb e2 05 77 3d 2a bc 62 bc 6e 4e 0f bd
       -0.005123091 0.060308345 -0.013838807 -0.034986906
0002c0 da 60 60 bd aa 4d 04 3d 7a a8 c3 bc 42 92 3f 3d
       -0.054779865 0.03230063 -0.023884047 0.04677034
0002d0 48 1c 62 bd 6d 06 04 bc be 25 25 3c df 45 56 3d
       -0.055202752 -0.008058173 0.010079799 0.052312728
0002e0 d5 af c5 3b 3c 77 3f 3b a3 f5 12 3c 95 bd 2e 3b
       0.0060329237 0.0029215356 0.008969697 0.0026663293
0002f0 14 d3 a2 3d be 79 a9 3c 93 2e 58 3d 78 cb 1e 3d
       0.07950416 0.020687934 0.05277879 0.03876826
000300 86 e7 2b bd 6a 85 99 3d c2 7d 28 3d 50 5f a1 3d
       -0.041968845 0.0749615 0.041135557 0.078795075
000310 20 6c 6c bc 53 19 72 be ac aa 60 bd 30 58 dc bd
       -0.014430076 -0.23642473 -0.054850265 -0.10759008
000320 53 5e f2 3c 40 2b 10 3d c7 92 a5 3d 5d 10 ec bc
       0.029585993 0.035197496 0.08084636 -0.028816396
000330 02 e5 08 bc cc 29 ea 3b 93 4d 75 3d ca fd 0d bd
       -0.008355381 0.007146096 0.059888434 -0.03466586
000340 be 4d 15 bd 40 72 e1 bc 9a f1 de 3b 64 08 de bd
       -0.036451094 -0.027520299 0.0068037035 -0.10841444
000350 c0 a8 41 bc 01 d8 03 3d 4b 60 3a bd 5f 0f 4d 3d
       -0.011820018 0.03218842 -0.04550199 0.050063487
000360 80 31 91 bd f1 48 53 bd a2 82 c1 bc 24 d9 bd 3b
       -0.070895195 -0.051583234 -0.02362186 0.0057937074
000370 8a cf 30 3c 62 c5 41 bd 1c 4d 41 3c 19 40 90 bc
       0.010791669 -0.04730738 0.011798169 -0.01760869
000380 f6 e2 e6 bd 18 55 94 bc 82 b4 87 bd 1a 03 26 3d
       -0.11273758 -0.018106982 -0.06626226 0.0405303
000390 c2 03 0c 3a 10 ec 10 3d 56 23 81 3d f0 d5 0e 3c
       0.0005341136 0.035381377 0.06305568 0.008717999
0003a0 16 a8 53 bd 97 30 8e 3d 6c 61 dd 3c cc e0 a8 bc
       -0.05167397 0.069428615 0.027023993 -0.020615004
0003b0 ee d4 a6 3d 66 96 c6 bc 51 5e 44 bc b2 36 61 3d
       0.08146082 -0.024241637 -0.011985377 0.054983802
0003c0 e3 48 09 3d 47 b7 82 3c 3c 2e e1 3c 1f 91 dd 3c
       0.033516776 0.015956534 0.027487867 0.027046738
0003d0 5c 46 58 3b 0e f1 47 3d 2f 0b 3f bd 46 6a 89 3d
       0.0033000922 0.048813872 -0.046641525 0.06709723
0003e0 39 72 b1 3c f2 ed d7 3c 4c bd 18 bc de 1d ca 3c
       0.02166091 0.026358578 -0.009322476 0.024672445
0003f0 0f 12 45 3d ea 6a f1 ba 20 12 68 3c b5 48 3a bc
       0.048112925 -0.0018418704 0.014164478 -0.011369874

fcs1.bias f4 [256]
000000 c1 1e 74 bd 58 c0 20 be 4d 2d 39 3e 00 16 7e bd
       -0.05959964 -0.15698373 0.18083687 -0.0620327
000010 95 31 cc bc 05 6a 16 3d 0a 01 f2 3d 3f c0 50 ba
       -0.024925986 0.0367222 0.118166044 -0.0007963217
000020 c8 f3 bd bd 05 ef 20 3e ee 42 97 bd 8c d1 29 be
       -0.09275013 0.15716179 -0.07385813 -0.16583842
000030 e5 d2 8d 3c dc 6b 2c bc a4 40 c6 3c ac bd 93 bd
       0.017312476 -0.010523763 0.024200745 -0.072139114
000040 1e 50 b5 bd 2b 64 88 bb 6f 4f 4c be 40 cd f5 bd
       -0.08853172 -0.0041623316 -0.19952177 -0.12002039
000050 67 04 48 3c de 4f 59 3e 36 ce 26 3e 3e 5c 03 3d
       0.012208081 0.21221873 0.162896 0.03207039
000060 ee 40 af bd 9b d4 1a 3d 8b 5d fa bd a7 19 28 3e
       -0.08557306 0.037800413 -0.12224873 0.16416036
000070 b9 93 8f 3c f8 cc 6b be 04 96 b4 3d db a8 82 3d
       0.017526494 -0.23027408 0.08817676 0.06379863
000080 ef 41 28 3e 6b 9e fc 3d ac 97 02 bd b2 36 a1 3d
       0.16431402 0.12334903 -0.031882927 0.078717604
000090 37 88 2a 3e 0b 80 18 3c a8 19 bc bd df 9c d2 bd
       0.16653524 0.009307872 -0.09184581 -0.10283827
0000a0 dd e3 25 bd 31 18 95 b9 fa a2 37 bd 37 b0 9f bd
       -0.04050051 -0.0002843752 -0.04483316 -0.07797282
0000b0 07 e1 6d be 58 e2 4b bd f9 12 b6 bd f8 81 a3 3d
       -0.23230372 -0.049776405 -0.088903375 0.07983774
0000c0 df b4 f0 bb 97 79 d9 3d 9b 8a 36 bd 26 ec ac bc
       -0.0073457803 0.106188945 -0.04456578 -0.021108698
0000d0 9b 3f 47 be 52 73 86 3d a8 4c d7 bc f3 71 70 3d
       -0.19457857 0.06564964 -0.02628167 0.05870242
0000e0 ce c0 b7 3d 16 08 4e bd c1 2a 64 bc 4a 88 1a be
       0.089723215 -0.05030068 -0.013926209 -0.15091053
0000f0 42 5f 6a bd 33 94 23 3e 1e 87 81 bc e9 75 35 3d
       -0.05721975 0.15974502 -0.0158115 0.0443019
000100 66 8b 86 b9 53 4a 2a be 24 00 d2 bd fb 58 2f be
       -0.00025662332 -0.16629915 -0.10253933 -0.17123787
000110 c2 48 8b 3d 8d b4 1a be ee 9e da 3d 81 bb 86 bd
       0.06800987 -0.15107937 0.10674845 -0.06578732
000120 07 8e e9 3b 5a fe 40 3e c7 d1 7f 3c 01 a6 48 be
       0.0071275267 0.18847027 0.01561398 -0.19594575
000130 bd 6e 32 3e 14 af ed bd c6 23 f9 bd 7f 5e a2 bd
       0.17425056 -0.11605659 -0.12165026 -0.0792818
000140 70 20 83 3d 28 15 05 39 e7 f7 c4 bc 49 fd 11 3d
       0.06402671 0.0001269175 -0.02404399 0.035641942
000150 bd 79 81 3d b3 6f 5c 3e 5d 64 44 be f1 1a 2f 3e
       0.06322048 0.21526985 -0.1917891 0.17100121
000160 0f 08 9e bd 53 3f f9 bd 01 ab 28 be 46 6d 24 bd
       -0.07716381 -0.12170281 -0.16471483 -0.040143274
000170 84 65 8e 3d c1 fd 3e 3d 3d 51 a6 3d 68 75 72 3d
       0.06952956 0.046628717 0.08120964 0.059194
000180 65 05 16 3e 24 a4 ee bd 1d 5c ba bd 0e 02 28 be
       0.14650495 -0.11652401 -0.090996005 -0.16407034
000190 f5 9d 85 bd 93 3c c4 bd dc f2 b0 bd 10 2f a2 bd
       -0.065242685 -0.09581866 -0.08640072 -0.07919133
0001a0 e9 e7 0e be ce 6e f3 bd db 73 6e bc a8 87 12 3e
       -0.13955654 -0.11886369 -0.014553989 0.14309561
0001b0 cd 8a ff 3d 98 6f 44 be 2b c1 f3 3c 3c 12 8a bc
       0.12477646 -0.19183195 0.029755196 -0.016854398
0001c0 0d e1 6c be f2 b2 fd bd 7f f3 db ba e3 b3 8e bd
       -0.23132725 -0.12387647 -0.0016780942 -0.069679044
0001d0 93 9f de 3d be 92 7e bc 1c 7c 9c bd bb b4 59 3d
       0.1087028 -0.015537916 -0.076408595 0.053150874
0001e0 54 46 56 3d a1 fa 47 3d a8 9f 2c 3b a8 8c 9b bd
       0.052313164 0.048823003 0.002634028 -0.075951874
0001f0 14 d2 c7 bc 75 00 e6 bd 88 a7 62 be 84 2e c7 3d
       -0.024392165 -0.11230556 -0.2213422 0.09725669
000200 54 bb d4 bd 51 30 1b 3e fb ef 8a 3d a1 0f 19 be
       -0.103872925 0.1515515 0.06784054 -0.14947368
000210 ba 0c 07 be 52 fb ad bd ee 29 8e 3d ad 1f 26 3b
       -0.13188449 -0.08495201 0.06941591 0.002534847
000220 32 31 1c bd 8c 76 e7 bc be ee 15 bc 1c 46 7a bd
       -0.038132854 -0.02825477 -0.009151159 -0.061102018
000230 88 dc 29 be 1b cc 66 3d f5 b5 04 be 41 f7 19 bd
       -0.16588032 0.056346994 -0.12960036 -0.037589315
000240 c4 9f 4d be fe b4 b7 bd 18 f6 4e 3d 68 4e df 3c
       -0.20080477 -0.089700684 0.050527662 0.027259067
000250 88 b5 02 3d e4 b7 10 3d 06 80 37 be 29 71 7a 3d
       0.031911403 0.03533162 -0.17919931 0.061143074
000260 a5 8c fb bc 54 3f a3 3d 18 68 2d be 48 22 c6 3d
       -0.030706713 0.07971063 -0.1693424 0.096745074
000270 fe b2 c8 bd 79 86 49 3e 63 6a 67 bd 0c f8 c9 bc
       -0.09799765 0.19680203 -0.056497943 -0.02465441
000280 9e bf b2 3d 15 e4 93 3d 8c 8c 45 3c 1f b8 f2 bd
       0.08727954 0.072212376 0.012057435 -0.118515246
000290 ee c3 d0 bd f9 cf f5 3d fb b4 2f be 58 a6 22 be
       -0.101936206 0.12002558 -0.17158882 -0.15883768
0002a0 0e 54 c7 3d 64 34 9b 3d 96 c7 40 3d 82 29 e6 3d
       0.09732829 0.07578352 0.04706534 0.11238386
0002b0 67 fa 12 3e ad 51 07 be 66 75 42 bd 5b 11 ec 3d
       0.14353333 -0.1321475 -0.04747524 0.11526748
0002c0 e6 0c ad 3d 5d 64 47 be 20 ae 5b 3e df 25 24 be
       0.08449726 -0.1947188 0.21453142 -0.16030072
0002d0 45 06 20 bd 3a 95 26 3e 65 1d 19 be f7 63 16 be
       -0.03906848 0.16267863 -0.1495262 -0.14686571
0002e0 3c 1e a2 bc e4 a7 83 bd 4f 29 12 be e0 ee 5f 3d
       -0.019789807 -0.06428507 -0.1427357 0.05467117
0002f0 fc e1 11 3e 3f be f1 3d 38 ef 4f 37 75 60 61 3d
       0.14246362 0.11803865 1.2393859e-05 0.05502363
000300 05 0d cd bd 47 16 be 3d 58 8d d4 3d 1f ea 29 3d
       -0.10012249 0.09281593 0.10378522 0.04148304
000310 91 46 81 3d d1 87 87 bc ac 33 05 be b2 17 23 be
       0.063122876 -0.016544254 -0.13007993 -0.15927008
000320 c9 9f b6 3d f5 30 02 bd b1 30 51 bd 47 a7 21 3d
       0.08917195 -0.03178497 -0.051071826 0.03946617
000330 5a ae d0 3d 7f ca 20 be ab d6 6a bd bf 53 15 be
       0.10189505 -0.15702246 -0.05733363 -0.14582728
000340 58 fd da bc 51 ad 21 3d 42 0c fb bd 0a 4d 19 be
       -0.026732132 0.039471928 -0.12258197 -0.14970794
000350 ac 94 86 3d bf ea 84 bd 86 e5 31 be 38 47 40 bc
       0.06571326 -0.06490087 -0.17372712 -0.01173573
000360 6b 5d fc 3d 8e 2b 18 3b ff f7 32 3e ee 8f 6a bd
       0.123225056 0.002321932 0.17477416 -0.05726617
000370 4c 4c 64 3d d8 8c dd 3d 89 45 01 3d 72 79 ac bd
       0.055736825 0.108178794 0.031560455 -0.08421601
000380 04 a0 ad 3d 4e 71 04 3e fc a0 2d 3e 3a c7 8a bd
       0.08477786 0.12933847 0.16955942 -0.06776281
000390 8a e7 24 bd 2f 1a 8f 3c aa e5 41 bd 33 fa a3 bc
       -0.040259875 0.01746854 -0.047338165 -0.020016765
0003a0 a2 38 c7 bd 53 e5 0a 3c f4 ed 7a bc 01 77 5d bd
       -0.09727599 0.008477527 -0.0153155215 -0.05406857
0003b0 fe 48 27 3e c3 3f 9b 3c 22 67 17 3d cf 25 2c be
       0.16336438 0.018951302 0.03696359 -0.16811298
0003c0 66 f5 3b be bd 59 02 be bb ca 0a 3d 94 9d 0c 3e
       -0.18355331 -0.12729545 0.033884745 0.13731986
0003d0 f0 fd ed bd 1f e5 6a bd b4 99 b8 3d b2 53 d0 bc
       -0.116207 -0.057347413 0.090136915 -0.025430534
0003e0 2c 07 18 bd 46 65 34 3e 3a 6b 65 be 8d dd bf bd
       -0.037116215 0.17616758 -0.22404185 -0.09368429
0003f0 48 b3 03 be 5d ff dc 3d 9a ca 70 3d 7f e0 3b bd
       -0.12861359 0.10790894 0.058786966 -0.045868393

fc2.weight f4 [128, 260]
000000 b8 43 94 3d a7 5d 9b bd 42 62 fd bc f4 55 e5 bd
       0.07239479 -0.07586222 -0.030930642 -0.11198035
000010 f9 0b 8a bd 37 fe a8 3d 8f c4 e9 3c 27 12 9f bd
       -0.06740565 0.08251613 0.02853611 -0.07767134
000020 32 c2 82 3d 14 30 87 bd ea b3 c4 3d 42 4a b2 3c
       0.06384696 -0.06600967 0.096046284 0.021763925
000030 c1 e0 55 bb ed dc a5 bd 7d c2 a2 3d 0e 28 e7 bd
       -0.0032635184 -0.08098779 0.07947252 -0.11286937
000040 70 5b 13 be 3f 50 bf 3d e4 20 a9 3d a8 3a 5c be
       -0.1439035 0.093414776 0.082582265 -0.2150675
000050 08 4e 8e bc 28 91 05 ba 66 50 97 3c 87 d5 ac 3c
       -0.017371193 -0.00050951773 0.018470954 0.021097912
000060 22 b9 35 bd 77 9e 96 3d 05 24 19 bc bb ea 0c 3e
       -0.04436601 0.073544435 -0.009346967 0.13761418
000070 f4 92 2c 3d 3b af bb bb dc a6 d6 3d ec 84 a0 3d
       0.042132333 -0.005727676 0.10481045 0.07837853
000080 d4 74 b6 bd a5 a9 a6 3c 83 5c ee 3b 3d 80 28 3d
       -0.08909002 0.020344565 0.007274212 0.041137923
000090 aa bb f7 b9 f8 d2 ff bd 29 86 88 3d a6 42 fa ba
       -0.00047251332 -0.12491411 0.06666214 -0.0019093349
0000a0 81 04 55 3c a9 f7 34 3d 30 19 ba 3b ca a1 cc bd
       0.013001562 0.0441815 0.005679272 -0.09991796
0000b0 5d 57 c0 bc a7 5c 83 3c 1d 32 6a 3d 4b 42 8b bd
       -0.023479158 0.016035391 0.057176698 -0.06799754
0000c0 18 48 8c 3d 3d a6 ee bd 51 04 97 3d db 9b f4 bc
       0.06849688 -0.11652801 0.0737387 -0.029859474
0000d0 5e 83 7a 3d 1b 81 b9 bb b6 91 0a 3d 4c 62 2c bb
       0.061160438 -0.0056611425 0.033830367 -0.0026303707
0000e0 15 60 21 bd 30 71 37 3d 97 96 28 bd 04 82 80 3d
       -0.03939827 0.04478568 -0.04115924 0.062747985
0000f0 72 e3 8e 3d 0e ad fc 3c 45 9d fb 3c 46 d9 06 3c
       0.069769755 0.030844238 0.03071464 0.008230513
000100 3d 51 8f 3d bf fe 1f bd 1a 31 c5 bd 3e 0c 4c 3c
       0.06997917 -0.039061304 -0.09628506 0.012454091
000110 bc e5 d0 3d 8e 9c bf bc 62 75 42 3d 35 03 f2 bd
       0.10200068 -0.02339008 0.047475226 -0.11817018
000120 3e 0b 44 bd 47 2b 8f bd e6 9d b0 bb 55 06 45 bd
       -0.047862284 -0.069906764 -0.0053899167 -0.04810174
000130 3c 1d 47 bd 15 32 e0 bc db 8b 52 be f5 bf f2 bc
       -0.048611864 -0.027367631 -0.20561163 -0.029632548
000140 82 f3 cb bd a6 2c 13 bd 1a 96 c0 bd c9 93 fa 3c
       -0.09958555 -0.035931252 -0.094036296 0.030588048
000150 34 15 ab bd 95 e0 1a bc fd 68 95 bd 7b 22 8c bb
       -0.083536536 -0.009452959 -0.072954156 -0.0042765713
000160 27 74 d3 bb ac 85 26 3c 0d ce b4 ba 9f 9c 32 be
       -0.0064530554 0.010163706 -0.0013794318 -0.17442559
000170 dc cc b6 3d a4 2c ba bd 29 53 94 bd 59 6f dc bd
       0.089257926 -0.09090546 -0.07242424 -0.107634254
000180 c7 a3 c4 bc 9f d4 c4 3d e1 6e 4d bd 10 bf db 3d
       -0.024003876 0.09610867 -0.05015457 0.10729802
000190 e4 9e 1e bd 64 40 0e bc 7e 34 cd 3d fd ec 74 bd
       -0.03872575 -0.008682344 0.10019778 -0.059796322
0001a0 b0 a7 32 be 0c 23 f6 bc 0a fd 98 3d b2 69 38 3c
       -0.1744678 -0.030046009 0.07470138 0.0112556685
0001b0 03 6a b7 bd 99 1a 9a bd b5 f4 a9 3d 52 67 08 bc
       -0.08955767 -0.07524604 0.08298627 -0.008325415
0001c0 56 0c a0 bd d2 15 ef bc 09 35 5f 3d e6 51 8f bc
       -0.07814853 -0.02918521 0.054493938 -0.017495107
0001d0 f8 df 99 3d 89 28 1a 3d d4 b4 01 bd 5b c9 a8 bc
       0.07513422 0.037636314 -0.03166659 -0.020603826
0001e0 ce e0 98 3d 82 93 85 bd 19 9c 0d 3d d4 d8 71 bd
       0.07464753 -0.065222755 0.034572694 -0.059044674
0001f0 fd b6 a5 bc 19 9f 67 bd d7 dc 26 bd 7b c5 bd bc
       -0.020228857 -0.05654821 -0.040737953 -0.023165455
000200 cc 31 e7 3d b7 b3 91 bd 77 22 5c bd 6d 37 aa 3c
       0.11288795 -0.07114356 -0.053743806 0.020778382
000210 9f 0a 22 3d 4a 44 2c be 88 5c fe bc 2d 2b 5f 3d
       0.03956091 -0.16822925 -0.031049982 0.054484535
000220 52 af 94 bd e5 47 f1 bc 55 79 04 3e b3 ff 43 bd
       -0.07260002 -0.029453227 0.1293691 -0.047851276
000230 ba 5b e4 bd 90 56 9e bd 74 86 e0 bd bd c8 32 3d
       -0.11150308 -0.07731354 -0.10963145 0.04364847
000240 f5 fe fe bd 77 cb 53 bd 0c 6e b3 bc 17 ef ed 3d
       -0.12450973 -0.05170771 -0.02190306 0.116178684
000250 3f 4d dd 3d 67 77 b7 3d aa 78 66 bd 6a 1f 6a bd
       0.10805749 0.08958321 -0.056267418 -0.057158865
000260 73 08 77 bb 1f 6e 38 bd 13 6a dc ba 43 7e 56 3d
       -0.0037694245 -0.045026895 -0.001681628 0.052366506
000270 a9 a0 78 3d 5e a5 78 3d 47 8c dd 3d 0b e3 57 bc
       0.060700092 0.06070458 0.108177714 -0.01317669
000280 12 56 70 3d 2c 3d 3b be 91 b5 25 3d 25 a7 9f bc
       0.058675833 -0.18285054 0.04045636 -0.01948888
000290 2d 23 14 bd 48 c3 88 bc 1b 2f 98 3c 67 d0 1d bc
       -0.03616636 -0.01669468 0.01857715 -0.0096322065
0002a0 c1 68 92 bc 90 cd a0 3d 7f 84 cf 3d aa 5d d2 3d
       -0.017872216 0.07851708 0.101326935 0.10271771
0002b0 74 bd 01 bd 21 97 18 be 23 c7 3e 3d fb 55 24 3d
       -0.031674817 -0.14901401 0.04657663 0.04012106
0002c0 7b 85 dd bc 5a 8f 6b 3d 2f 59 bc bd ab b3 c0 bc
       -0.027041188 0.057509758 -0.09196698 -0.023523172
0002d0 46 60 85 bd 91 d1 22 be d3 6c e6 3d df 25 6e bc
       -0.06512503 -0.15900256 0.11251225 -0.014535396
0002e0 5f e6 12 bc 56 b6 a7 3d 13 39 18 3c 30 01 1c 3c
       -0.008966058 0.08189075 0.009290951 0.0095217675
0002f0 9f 99 85 bd b3 43 5f bd ed 5c de bd 0a ec db bc
       -0.065234415 -0.054507922 -0.10857568 -0.02684595
000300 0d 37 c4 bd 8e c9 0f 3d a5 37 58 3d 68 27 9e 3d
       -0.095808126 0.035104327 0.05278744 0.0772236
000310 ca 29 60 bd 20 13 c7 3d 82 d6 51 3d 21 f4 07 be
       -0.054727353 0.09720445 0.05122996 -0.13276722
000320 2d 45 c5 bd 9a 47 45 bd 12 01 4f 3d c8 99 a3 bd
       -0.09632335 -0.048163988 0.05053813 -0.07988316
000330 ac 0c 9e 3d e8 14 ad bc 51 ef 7a bd 0a 9c 65 bd
       0.07717261 -0.021128133 -0.061263386 -0.056057014
000340 06 b3 a5 3d 99 44 4d bb b5 57 62 bd ec a5 95 bc
       0.08090787 -0.0031321405 -0.055259425 -0.018267594
000350 13 8e bb 3c d8 ad 0b 3d 3d 22 8c 3c d0 6f c4 bd
       0.022894895 0.034101337 0.01710617 -0.09591639
000360 bd a7 af 3d 88 c4 8e bb 49 3b b9 bb 36 9e b8 3b
       0.085769154 -0.0043569244 -0.0056528193 0.0056340946
000370 19 1d fd ba 0a 19 b1 3c 8a 95 3b 3e 26 38 88 3b
       -0.001931104 0.021618385 0.18318763 0.004157084
000380 e3 ee 85 bd 0b 52 b9 3d c7 fc 23 3d c8 6c c4 bc
       -0.06539705 0.090488516 0.04003599 -0.023977652
000390 10 01 ff bc f3 68 be 3b 32 f7 a6 bd d9 1a 08 3e
       -0.031128436 0.0058108508 -0.081526175 0.13291492
0003a0 48 17 fc bc 6a 38 d0 3c 13 08 e8 3c 6b 74 76 3b
       -0.03077282 0.025417525 0.028324163 0.0037606012
0003b0 cd 4b 44 bd 84 ae dc bd 35 6a aa bc 6c 1c 16 3c
       -0.04792385 -0.10775474 -0.020802597 0.00916205
0003c0 6f 2c ad bd aa c1 65 bd 00 d6 50 bd ce 23 b6 3d
       -0.08455741 -0.056092896 -0.050985336 0.08893548
0003d0 1d e5 eb bb 0e 22 7d 3d 11 7c 82 3d 88 53 b9 3d
       -0.0071989433 0.061800055 0.0637132 0.090491354
0003e0 c9 a7 10 bd 38 eb a3 3d ff a6 f3 bd 0b ca 2a bc
       -0.035316262 0.08003849 -0.11897086 -0.010424147
0003f0 a8 a6 61 3d 08 38 38 bd 30 09 52 3d 01 2f 82 3d
       0.055090576 -0.04497531 0.051278293 0.063566215

fc2.bias f4 [128]
000000 bb 92 15 3d f5 58 da bc b0 b5 9b bd 85 e1 8f 3d
       0.036516886 -0.026653746 -0.076030135 0.07025436
000010 df 12 b2 bd 85 9a 02 3e 3b 73 8c 3c ec 96 90 3c
       -0.086950056 0.12754257 0.01714479 0.01765009
000020 f3 6c 03 bd 7f 7d 08 3d 65 3c f6 3c c8 4d 8e 3d
       -0.032086324 0.033322807 0.030058095 0.06948429
000030 ea ff eb 3d 0f c7 d6 3c ff 15 68 39 cc f5 0f 3e
       0.11523421 0.026217965 0.00022133438 0.14058608
000040 7f a4 06 3e ce c9 d3 3c cb 78 3a 3c 1c c7 80 3d
       0.13148688 0.025853064 0.011381338 0.06287977
000050 58 fc 7e 3d 8f d5 7c bb de 4e d1 bc f3 ca 3a bd
       0.062252373 -0.003857944 -0.025550302 -0.045603704
000060 ee 79 0c bd fe bf 13 3e 3c 4a fd 3d 81 aa 9d 3c
       -0.03429597 0.14428708 0.12367675 0.019246342
000070 44 ff 11 bc 71 cb 45 bd e0 20 a1 bd ed 3e a0 bc
       -0.008910958 -0.04828972 -0.078675985 -0.019561255
000080 6f 16 b5 ba 5c e7 64 3d c4 16 17 bd 0c 03 53 bc
       -0.001381589 0.055884704 -0.036886945 -0.012879144
000090 22 0f 8b 3c 24 79 0e ba e7 02 b3 bd 47 4a 3d 3e
       0.01697499 -0.00054349215 -0.08740788 0.18485366
0000a0 1f 9a 24 3e 87 2d 64 bd 9e 5b aa bd 99 2e d8 3d
       0.16074418 -0.05570748 -0.08318256 0.10555763
0000b0 bd 31 b7 3c 4a ba 3f bd 7a b0 66 3d cf d2 be bd
       0.022362584 -0.04680852 0.056320645 -0.09317552
0000c0 ef 47 2a ba c0 a1 9e bc fc 37 63 bc 4d cd 5d 3d
       -0.00064957043 -0.019364238 -0.013868328 0.05415087
0000d0 b3 73 bf 3d 12 aa 0f 3d d7 f1 d3 bd c9 ee d6 3d
       0.0934824 0.0350743 -0.10348862 0.104947634
0000e0 96 5c 49 bd 41 da 4e 3d dc 35 22 bc 1f 7a bd 39
       -0.049160562 0.050501112 -0.009900536 0.00036139876
0000f0 d5 fb 95 bd a7 cc 07 3d e0 0e 05 bd 77 11 60 3d
       -0.07323424 0.033154156 -0.03248489 0.054704156
000100 27 d7 9d 3d f3 a0 10 3c 16 c9 4b 3c a3 75 50 bd
       0.07707053 0.008827436 0.012438079 -0.050893437
000110 a1 8c 90 3c 27 10 8e 3d fa 0a ed 3d e8 73 97 bd
       0.017645182 0.069366746 0.11574359 -0.07395154
000120 16 84 c2 bd 56 08 83 bd a4 8e a1 3d 90 f5 7d bd
       -0.0949785 -0.06398074 0.07888535 -0.062001765
000130 0f 37 04 3d 0c 48 13 bc 88 ec be bd fe 6d a8 3c
       0.03227907 -0.008989345 -0.093224585 0.02056026
000140 dd 51 fd bc bf 60 06 3d 1c 4a 9e 3d c8 bf 10 bd
       -0.030922825 0.032807108 0.07728979 -0.035339147
000150 00 a5 0a 3e 80 be 7d bd 9a a3 61 bd b8 ad 91 3d
       0.13539505 -0.061949253 -0.055087663 0.07113212
000160 5b e4 cb bd 56 27 06 3d 1e fa 06 bd 8b 16 03 3a
       -0.09955665 0.032752357 -0.032953374 0.00050006126
000170 38 dc 38 bd 0c d2 41 bc fd 9d 18 3c 81 f6 e3 3c
       -0.045131892 -0.011829864 0.009315011 0.027827503
000180 88 c7 9a bd 8b 96 c4 3c a8 67 8b 3b d8 27 96 3d
       -0.07557589 0.023997566 0.0042543 0.07331818
000190 f9 c4 e7 3c a8 f9 aa bc e0 5a 91 bc f5 75 88 3c
       0.028292166 -0.020870999 -0.017743528 0.016657809
0001a0 6c b8 90 3d 21 30 b6 3d c7 eb b0 3d 27 a4 f1 3c
       0.07066426 0.088958986 0.08638721 0.02949722
0001b0 d5 dc f1 3c c2 1a bf bd 8c 2c f5 3b ef 6e a3 3d
       0.029524246 -0.093312755 0.007482117 0.07980143
0001c0 1c 2b 2c 3d 94 ba 47 3d 7d 82 56 3d 08 be 13 bc
       0.0420333 0.04876192 0.052370537 -0.009017475
0001d0 54 bd 61 3d a6 5c af 3c dc d0 03 3d 6d bc b7 3d
       0.055112198 0.021406483 0.032181606 0.08971486
0001e0 63 e7 b3 bb dc ba ca bc 04 53 0c 3e c7 a1 12 3d
       -0.00549023 -0.024747305 0.13703543 0.035798814
0001f0 48 50 50 bc 11 5e cb bd 4b 0a a1 3d 33 59 a8 bd
       -0.012714453 -0.09930051 0.07863291 -0.082201384

fc3.weight f4 [1, 128]
000000 f5 02 a0 3d 10 6f f8 bd dd ee 92 bd ad b8 f8 3d
       0.07813064 -0.121305585 -0.07174466 0.12144599
000010 f9 3b dc bd 84 91 99 3d c7 e8 d1 3d a8 45 d1 3d
       -0.107536264 0.07498458 0.10249477 0.10218364
000020 6c 01 05 be 5d ec 25 3e 99 41 84 3d 22 5b af 3d
       -0.12988824 0.16203447 0.06457824 0.08562304
000030 8a 22 ad 3d f9 30 c9 bd e0 68 9f bd 79 20 2a 3e
       0.084538534 -0.09823794 -0.07783675 0.1661395
000040 21 f4 1a 3e 7c 28 86 3d ee 65 ec bd 7d f0 dd 3d
       0.1513219 0.065506905 -0.11542879 0.10836885
000050 ec bc ae 3d d2 32 4a be e3 cb 94 be 54 94 38 be
       0.08532128 -0.19745949 -0.29061803 -0.18025333
000060 aa 64 cd bd 25 f6 1e 3e 48 a2 96 3d 70 08 32 3e
       -0.10028966 0.15523584 0.073551714 0.17386031
000070 19 49 25 be dc 58 9d bd 19 45 6b be 15 ed 91 bd
       -0.16141166 -0.07682964 -0.22975577 -0.07125298
000080 5f 8b f9 bd 14 e1 99 3d cb 10 82 3d 4e 13 89 3d
       -0.12184786 0.07513633 0.06350859 0.06693135
000090 16 fb d9 3d 1f 23 e5 bd e0 e4 36 be db 85 cc 3d
       0.10643594 -0.111883394 -0.17860746 0.099864684
0000a0 87 9e 96 3d 2d 82 32 3e 7c 85 5c be 33 0b dd 3d
       0.073544554 0.1743247 -0.21535295 0.10793152
0000b0 4d f3 10 3e 63 93 06 be f7 20 c7 3d 1a 77 fd bd
       0.14155312 -0.13142161 0.097230844 -0.123762324
0000c0 05 38 33 be 6c 4e 9e bd 7d 8b 60 3e dc de ca 3d
       -0.17501839 -0.077298015 0.2192821 0.09905788
0000d0 35 b2 9b 3d 9b 51 d1 3d 05 ad c0 bd f1 60 0d 3e
       0.0760235 0.10220643 -0.09408001 0.13806511
0000e0 81 e5 92 be e7 37 91 bd cb 51 12 3e 05 56 67 be
       -0.28690723 -0.07090741 0.14289014 -0.22591408
0000f0 4a 36 81 be 89 1e 9b be 8d 66 27 3e 6f 0b ad 3d
       -0.25236732 -0.30296734 0.16347714 0.084494464
000100 b4 76 99 3d 95 ae 03 be 65 0e b9 3d d0 ad 09 be
       0.07493344 -0.12859567 0.09035949 -0.1344521
000110 83 65 c7 3d f8 0e 9c 3d d4 0d c7 3d 15 88 fb bd
       0.09736159 0.076200426 0.097194344 -0.12281815
000120 30 81 49 be d4 29 78 be 64 d8 b0 3d dd 20 c4 bd
       -0.19678187 -0.24234706 0.08635023 -0.09576581
000130 b8 74 df 3d 65 a6 ea 3d 9b 13 59 be f7 27 94 3d
       0.10910934 0.114575185 -0.21198885 0.07234185
000140 fb 78 ce bd 34 5f b9 3d 06 9b 78 3d 4f f9 90 bd
       -0.10081669 0.09051362 0.060694717 -0.07078802
000150 69 8d 83 3d 6f d9 b9 bd 82 0a 64 be fd 66 cf 3d
       0.06423456 -0.09074675 -0.22269633 0.10127065
000160 13 1d 6c be 0a d9 6f be 10 fd 45 be 04 1d f1 bd
       -0.23057966 -0.23422638 -0.19334817 -0.117731124
000170 08 f2 74 bd 8c 51 3f be 96 0b 38 3e d2 88 b3 3d
       -0.05980113 -0.18683451 0.1797317 0.08766331
000180 c1 1c f1 bd 62 f9 64 3d 0f ee 53 be e1 ae a4 3d
       -0.117730625 0.055901892 -0.20696281 0.08041168
000190 5a d2 c3 3d a4 82 82 bd dd eb 32 be 80 95 97 bd
       0.09561606 -0.06372574 -0.17472787 -0.07401562
0001a0 2e a5 c5 3d 14 75 a7 3d 52 0c eb 3d 87 bd f5 3c
       0.09650646 0.08176628 0.11476959 0.0299976
0001b0 ab 0a a7 be 9f 83 0a be e1 0b ee 3d 0d 90 bc 3d
       -0.32625327 -0.13526772 0.116233595 0.09207163
0001c0 b8 ff 8a 3d 46 2c 79 3d 68 0e 24 3e 8f 96 9b 3d
       0.06787056 0.060833238 0.1602112 0.07597076
0001d0 57 d2 08 3e a1 b2 8d 3d 6f 05 8a 3d 65 09 a7 3d
       0.13361488 0.069188364 0.067393176 0.08156089
0001e0 a5 5f 89 be b1 fd cb bd 5f c3 c5 3d 76 eb 85 3d
       -0.26830783 -0.09960497 0.09656405 0.06539051
0001f0 85 67 4b be e9 55 41 be 4f 36 f5 3d 3a 0d 49 be
       -0.19863708 -0.18880428 0.11973249 -0.19633952
