checkpoints/checkpoint_critic_4_2.pth (torch, 87959 bytes, 5 tensors)

hidden1.weight f4 [128, 37]
00000000: 687d dcbd c3a0 5abe 2067 0dbe dd62 7dbc
00000010: c042 27be acf7 383e 5645 913e 3cc3 883d
00000020: 8be3 acbd 77da 783d ac1d 063e 1e5c 983d
00000030: e919 9fbb d54b e4bd 21b1 423e 474a 873e
00000040: d012 a93d df4b f03c a4d2 4fbd 1b93 023d
00000050: 7cf1 dabd 0b6f adbb 86ad 83be f66d 2a3e
00000060: fa01 e63c 7f5d 8f3d f240 923e 37b4 0d3e
00000070: 67e5 32be 6fd9 81bd 60d1 16be a8d2 ccbc
00000080: dcf7 0f40 6e4d 3cbc 59c4 3d3e 1f3f c73d
00000090: 17a9 babd 945d a0be 9981 ff3c d066 1cbe
000000a0: a933 383e 9a13 8fbe 5fbd ab3d 6313 5d3e
000000b0: 6006 293e 03aa edbe 5f6f 18be 7585 0dbd
000000c0: 7e28 833e bc0f 723d 88b9 423e 110c 26bc
000000d0: 9ac2 32bd 0b43 943e 4113 d83d ae76 a5be
000000e0: ea9d 733e 2078 ecbd daa3 babd ddfa cb3e
000000f0: 9477 a8bd e605 213d c631 a73d 043c 1b3e
00000100: c9ee 32bc d99f 3d3e fa86 ff3d 9921 793d
00000110: 9f8c c0bd 5c50 5d3d d111 3d3d 955b a4bc
00000120: 298f 80be 20c0 333f f2e5 bbbc f6ae 6d3e
00000130: a70f 553e eac8 3cbc 3e36 17bd df50 c33d
00000140: f6a6 343c 775e 44be 9550 c53e 594d 5b3e
00000150: a541 9abd 6a95 71be efcf 823e 1638 2fbd
00000160: ed3a ddbd 2eee 373e 4a5d 29be a9d1 31be
00000170: 41e1 e43d ab63 2cbd 4571 6b3d fb68 aebe
00000180: 4774 543e 2f08 623e 1226 99bd 4a87 d63d
00000190: 9855 f2bd 9400 dd3e e014 603c 6e19 9c3d
000001a0: 3767 9cbe 271a 1cbe 945e a8bf 7897 49be
000001b0: 959f f23d 86ac 0ebf 5c32 6bbe 80ca 383e
000001c0: ea0b b03e 4f6f b3be 8f7e 63bd e182 ddbd
000001d0: 4049 af3e 5566 b8bc 247e 1abe aa90 ebbc
000001e0: cd77 3ebd e884 5c3b fd8d bf3d c906 1fbd
000001f0: 1d7e 63be 82f1 73bd 94c7 2a3f 9905 bebd
00000200: 3996 753d f8a8 373e 86c0 67bc 43ba c8bb
00000210: 4795 02bd 125b 2ebc 8736 a5bb eadf a8bd
00000220: 9648 d53d 4c3d 603e 0b05 c83d 9fa8 d7be
00000230: 4ca6 cfbd f5fd 90be 04db 08be dfae 923f
00000240: 1b6d 3fbd 8ee1 46bc b6c9 f63d 7fe6 b4bc
00000250: e715 a6bc a6c8 193d 6423 23bf 41ff f73c
00000260: 8b95 e7bd c8f7 283e a8f4 213e 2504 783d
00000270: e592 b3bd 105c a2be 1c97 febc f262 373d
00000280: fd37 f43c 9e59 cc3c 5fc7 df3c 447e 043f
00000290: e830 8dbd 99cd 08be bfcd 2abe ed87 eabd
000002a0: 3326 ccbd c2f3 583b 5105 69bc 004a 1b3e
000002b0: 573f 973d 5e00 7e3e 4c40 983e b9be aa3e
000002c0: 80bb 81be e099 7d3c ad4e 12be 32c4 8d3d
000002d0: f630 423f c028 36be c59d d43b 8a16 bfbc
000002e0: 9b2e 59bd ba21 a9be 0729 bb3d 33f4 7a3e
000002f0: d01d 823d ee0f f63c 5aa8 18bf 968d 2d3c
00000300: 8f00 233d 9c4c ae3e 10b6 8b3d 3dcc 88bd
00000310: 6447 60be 847a b8bd fac9 103f b110 7dbe
00000320: 6e9b 51be 525e d13e e3a9 1bbe 31a6 143e
00000330: 0bf1 943e 330b d3be 888f fb3b a23f 553e
00000340: f615 ae3e a767 913d 2fe2 0f3e 5c56 93be
00000350: 7950 d43e be9f f83d d1ec fdbd 8150 ddbe
00000360: d2cd cc3d dec4 8f3f def7 26bb b4ee 5f3e
00000370: a978 8739 a2da 65be 7e90 5d3d 4ad7 9c3c
00000380: 055c aa3e 86e4 243d d025 2a3b 72ea 21be
00000390: a1ab 9fbc 85b3 ddbe 870c 0fbe 20a8 6bbd
000003a0: 2ea2 e73d 6e00 adbd 4abd 253e 5dcc 33be
000003b0: b12c a63e 0836 98bc bec9 ae3e 99a7 7e3d
000003c0: 1404 80be 5d1e 853d 9cb6 a7bd 403d 07be
000003d0: 1bc8 7cbe fa68 cdbe e8a6 5c3e 6acb 483e
000003e0: 49d5 00be 1bfe 903e 863a 37bd 5095 0f3c
000003f0: ffde 5dbe 3589 16be 8aae a9be 7721 78be
-0.10766107 -0.21350388 -0.1380887 -0.015465465 -0.16334057 0.1806323 0.28373212 0.06677863
-0.08441838 0.06075522 0.13097256 0.07439445 -0.0048553837 -0.11147276 0.19012882 0.26423857
0.08255541 0.029333053 -0.050737992 0.031878572 -0.10690591 -0.0052927784 -0.25718325 0.1664351
0.028077114 0.07000255 0.28565174 0.13838278 -0.17470323 -0.063403 -0.14728308 -0.025002792
2.2495031 -0.01149307 0.18531932 0.09728836 -0.091142826 -0.31321394 0.031189727 -0.15273595
0.17988457 -0.27944642 0.08385729 0.21589427 0.16506338 -0.4641877 -0.14886235 -0.034551103
0.2561683 0.059097037 0.19016087 -0.010134713 -0.043642618 0.289574 0.105505474 -0.32317108
0.23790708 -0.115463495 -0.091132835 0.3983983 -0.08225933 0.039312266 0.081637904 0.15159613
-0.010921189 0.18518008 0.124769166 0.060823057 -0.09401821 0.054031715 0.04615957 -0.020063201
-0.25109223 0.70215034 -0.022936795 0.23211274 0.20806752 -0.011522511 -0.036916964 0.09536909
0.011026135 -0.1917666 0.38538042 0.21416225 -0.07532052 -0.23592153 0.25549266 -0.042778097
-0.10802255 0.17961952 -0.16539493 -0.17365135 0.11175776 -0.04208724 0.05748107 -0.3406447
0.20747481 0.22073434 -0.074779645 0.10475023 -0.11832732 0.43164504 0.013676852 0.07622038
-0.30547497 -0.15244351 -1.3153863 -0.19686687 0.11846844 -0.55732 -0.2296843 0.18045998
0.3438409 -0.3504586 -0.055540618 -0.10815979 0.34235573 -0.022509733 -0.15087181 -0.028755505
-0.04650097 0.0033648554 0.09353254 -0.03882483 -0.22216077 -0.05955649 0.6671078 -0.092784114
0.059957717 0.1793555 -0.014145022 -0.0061257198 -0.031880643 -0.01064183 -0.0050419006 -0.08245833
0.10414235 0.21898383 0.09766587 -0.42120835 -0.101391405 -0.28318754 -0.13364798 1.1459616
-0.04673491 -0.012138737 0.12050192 -0.022082565 -0.020274116 0.03754487 -0.63725877 0.030273082
-0.1130782 0.16500771 0.15815985 0.060550828 -0.08768252 -0.31710863 -0.031077914 0.044772096
0.029811854 0.024945077 0.027316747 0.51755166 -0.06894094 -0.1335968 -0.16680048 -0.11451707
-0.099682234 0.0033104275 -0.014222459 0.15164948 0.07385128 0.24804828 0.29736555 0.33348635
-0.25338364 0.015478581 -0.14287825 0.06922187 0.7585596 -0.17788982 0.006488534 -0.023326177
-0.053022962 -0.33033544 0.09138685 0.24507217 0.063533425 0.030036893 -0.59631884 0.010592839
0.039795455 0.34042823 0.06821835 -0.0667958 -0.21902233 -0.09007743 0.5655819 -0.24713399
-0.20469448 0.40892273 -0.15201525 0.14516522 0.2909015 -0.41219482 0.0076770224 0.20825055
0.3400113 0.07099848 0.14051126 -0.28776824 0.41467646 0.121398434 -0.12398685 -0.43225482
0.100001946 1.1231954 -0.002547733 0.21868402 0.00025839105 -0.22446683 0.054092877 0.019145627
0.3327333 0.040257 0.002596248 -0.1581209 -0.019491019 -0.43301025 -0.13969623 -0.057533383
0.1131023 -0.084473476 0.1618549 -0.17558427 0.32455972 -0.018580452 0.34138292 0.062171552
-0.2500311 0.06499932 -0.08189127 -0.13206959 -0.24685709 -0.40119153 0.21548045 0.19608846
-0.12581362 0.28318867 -0.044733547 0.008763626 -0.21667098 -0.14700778 -0.33140975 -0.24231516

hidden1.bias f4 [128]
00000000: 15eb 37be 8240 1abd 0956 12be 362a 10be
00000010: e6cb 03bd ff19 cdbe 3516 b3be 4e64 aabe
00000020: 4536 79be 57df 7cbe b406 16be 1834 8abe
00000030: 8634 e8be f5a7 99bd 3992 82be f10c 99be
00000040: 7a6d 66be c4b0 05bf d74c 72be 6161 50be
00000050: eeac 8bbe 0494 72bd bd69 d8be 8c32 ecbd
00000060: 39ee bebe 4316 3bbe 102d 96be 05b5 68be
00000070: 7c30 98be a5e5 dfbd e2bf c8be 5265 2fbe
00000080: ec69 91be c901 2ebf 2233 a6be 5f4d abbd
00000090: bd29 4c3d a261 97be e80d 32bd 52cb 04be
000000a0: 2c6c e4be 5515 21be 7e50 f0be e3c6 d6be
000000b0: c46c 39be afe8 6ebe c7e5 93bd e7e7 783d
000000c0: b97c bdbd e317 18be 3833 44be dd80 c0be
000000d0: e7c6 25bf a932 c5be fa7d 0bbf 9797 bbbe
000000e0: 45c7 55be f1a9 33be 3aa9 e6be 8f32 8abe
000000f0: 1eae e0be 2306 d9be b918 46be 8c31 0ebf
00000100: 0b31 3c3e 419b 803e 36b9 ecbe 5f00 e4be
00000110: 0ab4 1cbf 2bb7 fcbd 54e6 12be e604 24bf
00000120: 67f9 fbbe 7a5e b9be f37a a1be b7dc 03bf
00000130: 59db ac3d 65f6 b13e 376e 06be 5d90 4fbe
00000140: ee0a 96be 99b0 01bc bf98 20bf c437 12be
00000150: e672 c93d 3b8e d4bd 8e01 5fbe be91 01bf
00000160: 8ead 5dbe e511 dbbe 5d9d b9be 935e 95be
00000170: 3fe5 92bc 8d37 5e3e 5a4c cfbd 12dd 0bbf
00000180: f75c dbbc 2bee 2dbe b705 1fbe 0017 e7bd
00000190: 9d09 2b3e cdc4 3f3e 47d9 a7be c7b3 76be
000001a0: c79d f73d 40ef 28bf e239 293c 59a5 583e
000001b0: 304d 76be e4e2 3c3e 2a53 b4be 7f80 a7be
000001c0: 265b 27be d7d4 4f3d 4bbc af3c 181d 5dbd
000001d0: 9fd7 9ebe 2f71 33be 7b27 e6be 8110 3d3e
000001e0: 739f 013e 48ed 78be 8f5a 22bf 33a0 943d
000001f0: a511 0ebe 34ec 6fbe 1c04 98bb e16f 30be
-0.1796077 -0.037659176 -0.14290632 -0.14078602 -0.032176875 -0.40058896 -0.3497788 -0.3327965
-0.24337108 -0.24694572 -0.14650995 -0.2699287 -0.45352572 -0.075027384 -0.25502184 -0.29892686
-0.225027 -0.5222285 -0.23662125 -0.20349647 -0.27280372 -0.05922319 -0.42268172 -0.115330786
-0.37291124 -0.18270211 -0.29331255 -0.22725303 -0.2972449 -0.10932473 -0.39208895 -0.17128494
-0.28401124 -0.67971474 -0.32460886 -0.08364367 0.049844492 -0.29566675 -0.043470293 -0.12968186
-0.4461378 -0.15730794 -0.4693641 -0.41948614 -0.18107897 -0.23330949 -0.07221561 0.060768034
-0.092523046 -0.14852862 -0.19160163 -0.37598315 -0.64756626 -0.38515213 -0.544891 -0.3663909
-0.20876797 -0.17545296 -0.45050985 -0.26991698 -0.4388284 -0.42387494 -0.19345368 -0.5554435
0.18378083 0.2511845 -0.46235055 -0.44531533 -0.6121222 -0.12339624 -0.14345676 -0.64069974
-0.49213716 -0.36204892 -0.31539115 -0.5150866 0.08440275 0.34758297 -0.13127981 -0.20269914
-0.29305214 -0.007915639 -0.6273307 -0.14279085 0.09836368 -0.10378691 -0.21777937 -0.5061301
-0.21648237 -0.4278709 -0.3625287 -0.29173717 -0.017931579 0.21700878 -0.10121985 -0.546342
-0.026777728 -0.16985385 -0.15529524 -0.11283684 0.16702886 0.18727417 -0.32782957 -0.24092017
0.120906405 -0.65990067 0.010328742 0.21156825 -0.24052882 0.18445927 -0.352197 -0.32715222
-0.16343364 0.05074009 0.02145209 -0.053982824 -0.3102388 -0.17523645 -0.44951996 0.18463327
0.12658481 -0.24309266 -0.6341943 0.07257118 -0.13873918 -0.23429948 -0.0046391618 -0.17230178

hidden2.weight f4 [128, 128]
00000000: 36e9 70bd 9c1d 86bc 5327 1bbd 0908 19bd
00000010: 9202 813c 6e48 51bd d1fb debc 5f5f e8bc
00000020: 6135 bebc 8ec6 e9bc 97b7 aebd 44e2 b7bd
00000030: f0db b3bd dae0 afbd 5124 52bc 5b21 89bd
00000040: 76df 59bd cb1c c23c a200 07bd a762 c23c
00000050: 4ded b6bc cbc3 c7bd 9005 203d 78e8 bebd
00000060: ba78 eabc 1746 c0bd 0bf4 1abd 518f aebc
00000070: 0000 64bd 38e2 1bbe 7a64 983d eea2 58bd
00000080: 76e9 0abd f43e c9bd 03a1 edbd cf7a 1f3c
00000090: b2ce c9bd b676 33bd abae dfbb 78fa e6bd
000000a0: f3b1 7fbd a00f 9cbd c9df f1bd 0597 923d
000000b0: 8851 2b3c 625d c2bd 137c adbb 44e2 97bd
000000c0: cd83 99bc 5634 a9bd e9de a5bd a311 2ebd
000000d0: 0444 d3bd 95b4 a93d eced 473d a41e bdbd
000000e0: 6221 88bd 8da5 9abd 0582 453d ee8a a0bd
000000f0: 6e44 0bbb dd40 59bd 7125 e6bd 73e4 12bd
00000100: 279e 4dbd 80a5 c9bc a769 38bd 39f2 bf3b
00000110: b36f 8ebc 3530 893d d3cc e43c 33cb 8b3d
00000120: daf1 85bc 36d1 c4bc 7c1b 96bd 1391 233d
00000130: 27b7 853c 2300 8abd f680 893c ca63 fcbd
00000140: a6aa f5bd 1eef cc3c 5de0 533d 4411 223b
00000150: 1436 eabc ee49 d5bd f241 79bd dd9d 6dbd
00000160: c5b8 403c d7de 5dbd e1cf d73c f479 01bd
00000170: c0b0 c6bc a391 df3c 4acc c5bd 0a8c 9dbb
00000180: 2f96 7bbc 50bc 50bd 9ee0 c1bd bc81 ee38
00000190: 0d5b 92bc 8e4d 55bd 0de8 913c d8ff e1bd
000001a0: 4132 78bd bace 2cbd 063e a5bd a3a3 b6bd
000001b0: ff58 a7bd c175 05bd 202d 6fbd 814a a5bd
000001c0: 1afe 363d 8723 c6bd 095f dbba c7ec 6d3d
000001d0: 12a8 3b3d 9e09 093c 433c f6bb 9946 c13c
000001e0: 5d76 56bb 01de 48bb c3a4 693d c08e d3bc
000001f0: 72e7 c5bd 1ea5 07be acb7 1b3d 5459 7dbd
00000200: a843 61bc 7705 f6bd 7322 cbbd bf9c 84bd
00000210: c2a2 1ebd 718a d3bd 7422 9cbd 563f 9b3d
00000220: 2e7c 87bd 6656 bb3c 5c45 1cbc e8af e039
00000230: b2b8 88bd ffb6 d13a 7809 93bd 0573 1dbd
00000240: 5700 dabd 6222 ed3c 23bf 523d 97fb 26bd
00000250: c96a ffbc e142 0dbd cabd 85bd b923 59bd
00000260: 3e7e a1bd 5de3 8ebd 8cfb 90bd 2f58 b0bd
00000270: b879 993d abd7 913c 0fd1 96bd a11c 9bbd
00000280: fff1 fbbd 5537 a03b 3d49 1abd deed 05bd
00000290: 7af5 adbd b931 113d e7bc 383d 5d9b 9abd
000002a0: 1084 a3bd 72a1 3bbd 3a7b debd bde9 ae3d
000002b0: e51f 24be 143f 2ebd e178 e2bc aec6 0dbe
000002c0: 9514 b3bd 0616 40bd f38b 6cbd 3678 bc3c
000002d0: 232a d2bd 345e f4bc 2400 38bd 8a34 2abd
000002e0: 7e2f 98bd da15 da3c ebf8 fd38 4f0f 423d
000002f0: 9068 10be 91ed 093b 4265 b3bd 6e8d edbd
00000300: d4c9 46bc 742a 51bd 0600 3dbe 3bca e7bc
00000310: 093e a1bc 2481 10bb 5d09 57bd a505 b4bd
00000320: 7034 15be 28a2 e3bd 5858 55bd f33d 6e3c
00000330: 5950 033c 4d2a 20bd aa37 22bc 21a0 983c
00000340: abf4 17bd 49a3 29bc db5c febb b328 56bd
00000350: 4bc2 b8bc 857e 81bc 8bb4 ddbb 5337 14be
00000360: 9810 60bd 6b1a eb3c 31ee 1cbd bd57 d3bd
00000370: b774 8ebd cd96 55bb 5f6e 26be 4c4e 92bc
00000380: f93f 1bbd 1bb4 093d b388 55bd 16ee f9bb
00000390: 4bb5 53bc 4da9 44bd 021a 36bd 52ad 95bd
000003a0: 34df 1fbd f248 733d fb4d bdbb 5892 76bc
000003b0: e9a8 04bd 67a6 e5bd 54c8 003d 0975 3dbb
000003c0: 4c39 7ebd 28cb 70bd e81f 15be a086 a03c
000003d0: 9f96 ab3d 9d21 853c d663 e9bb b2ca eabd
000003e0: 448c b6bd 6f41 a8bc 7fe4 dcbd 64f8 8ebb
000003f0: 0fc4 1abc d2b9 05be 0d94 a5b8 c751 b13b
-0.058816157 -0.01637154 -0.0378793 -0.03736118 0.015748296 -0.051094465 -0.027219685 -0.028365789
-0.023218812 -0.028537061 -0.08531111 -0.089787036 -0.08782184 -0.08587809 -0.012826041 -0.06695815
-0.053191625 0.02369537 -0.032959588 0.023728682 -0.02232995 -0.097541414 0.039067805 -0.09321684
-0.02862202 -0.093883686 -0.037830394 -0.021308573 -0.055664062 -0.15223014 0.074410394 -0.052889757
-0.033914052 -0.098264605 -0.11602976 0.00973387 -0.09853877 -0.043814383 -0.006826242 -0.11278242
-0.062425565 -0.07620168 -0.11810262 0.07157711 0.01045645 -0.094904676 -0.005294332 -0.074162036
-0.018739605 -0.082619354 -0.08099157 -0.04249729 -0.10315707 0.082863964 0.048810884 -0.0923436
-0.06646992 -0.075511076 0.0482197 -0.07838999 -0.0021250504 -0.053040374 -0.1123761 -0.035862397
-0.050199654 -0.02461505 -0.045022633 0.0058577326 -0.017387247 0.06698648 0.027929699 0.068258666
-0.016350675 -0.02402554 -0.07329461 0.039933275 0.016322685 -0.06738307 0.016785126 -0.12323721
-0.11995439 0.025016364 0.05172764 0.002472953 -0.02859024 -0.104144916 -0.060853906 -0.05801188
0.0117628025 -0.054167595 0.026344242 -0.031610444 -0.024254203 0.027291125 -0.09658106 -0.0048079537
-0.015355631 -0.05096084 -0.094666705 0.00011372889 -0.017865682 -0.052075915 0.017810846 -0.110351264
-0.0605948 -0.042189337 -0.08068471 -0.0891793 -0.081712715 -0.032583002 -0.058392644 -0.08070851
0.044675924 -0.09674745 -0.0016736697 0.058087137 0.04581458 0.008364109 -0.007514508 0.023593234
-0.0032724359 -0.0030649903 0.057041895 -0.025824904 -0.09663285 -0.13246581 0.03801696 -0.061852768
-0.013749041 -0.12012761 -0.0991868 -0.064752094 -0.038729437 -0.1032914 -0.07623759 0.0758044
-0.06615482 0.022868346 -0.009538021 0.0004285567 -0.06675853 0.0015999972 -0.071795404 -0.03843977
-0.10644596 0.028947059 0.051451813 -0.04076728 -0.031178849 -0.03448761 -0.0653034 -0.053012583
-0.07885407 -0.0697696 -0.07079229 -0.0861057 0.07493919 0.017803034 -0.073640935 -0.0757382
-0.123020165 0.0048894086 -0.0376675 -0.03269755 -0.084940866 0.03544781 0.045102026 -0.075491644
-0.07984173 -0.045808263 -0.10863347 0.08540676 -0.16027792 -0.042540625 -0.02764553 -0.13845322
-0.0874416 -0.046896003 -0.057750653 0.02300654 -0.10261943 -0.029830076 -0.04492201 -0.04155401
-0.074309334 0.026621748 0.00012110345 0.04737788 -0.14102387 0.0021046142 -0.08759548 -0.11599241
-0.0121330805 -0.051065877 -0.1845704 -0.028294673 -0.019682901 -0.002204963 -0.052499164 -0.08790139
-0.14570785 -0.11114913 -0.052086204 0.014541137 0.008014762 -0.03910284 -0.009900967 0.018631043
-0.037098568 -0.010353872 -0.007762534 -0.052284908 -0.022553584 -0.0158074 -0.006765907 -0.1447423
-0.054703325 0.02869912 -0.038313095 -0.10319469 -0.06955855 -0.0032591105 -0.1625304 -0.0178596
-0.037902806 0.033619028 -0.05213232 -0.007627259 -0.012921642 -0.04801302 -0.044458397 -0.07308449
-0.039031222 0.059395738 -0.0057771183 -0.0150495395 -0.032387648 -0.11213379 0.031441048 -0.002890887
-0.06206636 -0.058787495 -0.14562953 0.019595444 0.08378338 0.01625138 -0.007122497 -0.11464442
-0.08913472 -0.020539014 -0.1078577 -0.0043631066 -0.009446158 -0.13059166 -7.89539e-05 0.00541136

hidden2.bias f4 [128]
00000000: 444c b0bd 2857 aa3c b5f2 24be cc13 bbbd
00000010: 5080 573d 3e40 fa3e d3cf babd bae3 e63c
00000020: c00c 75bd 9550 dcbd 6856 a63e 42f7 253d
00000030: 4ff0 7ebd cf56 84bc 182a 23be ab89 b2bd
00000040: dc90 65bd bab0 30bc 9882 13be bb8a 13be
00000050: 5281 d5bd 0c5d 64bd 7019 d9bd b477 77bd
00000060: 0ff3 6bbd 101e 99bd d171 02be 225d c5bd
00000070: 89ae 003d 5694 f6bd 0c0e b8bd fa6d f83a
00000080: e393 993c bd45 99bd 088e e1bd 9bb1 4bbd
00000090: 5883 6cbd 4b27 12be 08af b0bd 95b8 823e
000000a0: 402e 74ba 60b2 04be 1e2e b63c cd9d 1abd
000000b0: 02fc 023f 8f13 6cbd 7c57 22be 4db1 cdbc
000000c0: cbb4 34be 1c43 7ebc 6e63 f4bc 609b 083d
000000d0: 0077 823e 8c83 a6bc b4ab 10be 1bee c83e
000000e0: cd9a acbd eb3c 5bbd 4feb bdbd 695f d4bd
000000f0: fd84 74bd 4560 cf3c 7ede c13c 9227 c1bc
00000100: 5b38 cabc 0a11 803c f489 9d3b ade5 0dbe
00000110: 253b 853c 0af3 46bc 9651 a5bd ccd7 efbd
00000120: acbc 953d e71b b2bc 1e33 a5bd 1533 dabd
00000130: a92e b7bd 8747 bfbd 9b3e 39bd 38c4 d0bc
00000140: 1e93 25bb a0bc 823e 29ba c3bd af18 4c3d
00000150: 6b28 db3e 81ab 9abc d667 c0bd 8677 d0bd
00000160: ba21 d3bc 00be 803e a204 b8bd faeb a7bd
00000170: 091f 4fbe 0da5 13be 459c 32be afa2 55bd
00000180: 8124 53bd 2760 ebbd 5f73 02be dc4c 3bbe
00000190: e736 87bd e5c1 1d3b 7afc 4f3b cc1c f83c
000001a0: b282 133e 7de9 a3bc 3e03 04be dd68 dd3b
000001b0: e7fe 17be 0b09 1fbd 388e 2cbe 2f59 2cbd
000001c0: cd28 6abd 9f6c 50bd 8fe0 503e 6e9a ea3c
000001d0: b928 cfbd 8209 ac3e dc0b a4bd 9d18 31be
000001e0: bd4e 6fbd 3f51 d6bd 55f6 2dbc e626 a63c
000001f0: d34b 85bd 0382 9dbd b1d9 2b3c 4141 d2bd
-0.086082965 0.020793512 -0.1610821 -0.09134635 0.052612603 0.48877138 -0.091216706 0.02818476
-0.059826612 -0.10757557 0.32487798 0.040519007 -0.062240895 -0.016154675 -0.15934026 -0.08717664
-0.05604635 -0.010784322 -0.14405286 -0.1440839 -0.104250565 -0.0557528 -0.10600555 -0.060416892
-0.057604846 -0.07476437 -0.1273873 -0.09636904 0.03141645 -0.120400116 -0.08987054 0.0018953674
0.018747276 -0.07484005 -0.110134184 -0.049729925 -0.057742447 -0.14272802 -0.086271346 0.2553145
-0.0009314753 -0.1295867 0.022238787 -0.037748147 0.51165783 -0.05763584 -0.15853685 -0.025108958
-0.17647092 -0.01551893 -0.029832568 0.033351302 0.25481415 -0.020326398 -0.14128 0.3924416
-0.084279634 -0.053524893 -0.09273397 -0.103697605 -0.05969714 0.02531446 0.023665663 -0.023578439
-0.024685076 0.015633125 0.004807705 -0.13857146 0.016263554 -0.012142906 -0.08072202 -0.11711082
0.07311377 -0.02174182 -0.080663905 -0.106542744 -0.089444466 -0.09339815 -0.04522572 -0.02548419
-0.002526469 0.25534534 -0.095569916 0.049828228 0.42804274 -0.018880608 -0.09394805 -0.10179047
-0.025772918 0.25144958 -0.08985259 -0.08199306 -0.20226683 -0.1441843 -0.17442425 -0.0521571
-0.051548485 -0.11492949 -0.12739323 -0.18291038 -0.06602269 0.002407187 0.003173618 0.030287169
0.14405325 -0.020008797 -0.12891862 0.0067568854 -0.14843331 -0.038826983 -0.16851127 -0.04207724
-0.057167817 -0.05088484 0.20398162 0.028638091 -0.10115189 0.33601004 -0.080100745 -0.17294545
-0.0584247 -0.10464715 -0.010617812 0.02028222 -0.06508603 -0.076908134 0.010488913 -0.102663524

out.weight f4 [1, 128]
00000000: 7d14 81bc ccd5 de3a c11c b9bc f5a7 b93c
00000010: db91 b2bd 42bb b43d fe2d 853b 41f4 91bc
00000020: cfc2 55bc 9186 a23b 37ba 3d3d d388 46bb
00000030: 3f36 ec3b 3c3b e93b 278c b83c 9253 cebc
00000040: 4de5 b53c 71a0 3abc e821 4cbc 6219 823c
00000050: d7b7 97ba 5ff0 993c 095b 0cbc 6ebb 113b
00000060: 13f7 f33a 7b1f a0bc 148c ec3a fcba 87bc
00000070: 3f4d 2a3b 931b 64bc 18d2 38bc bc42 333d
00000080: 46f0 a33c bbe0 59ba 3a2b d0bc cc16 48bc
00000090: d13c dcba 2101 f53b 249d b83c 6761 87bd
000000a0: 78ff 893b 35fa 463c e5af d33c 5856 9ebd
000000b0: 9b4f c23c be4b b1bb 8558 b53b 26bb a23c
000000c0: 8644 10bb 1371 a33c 7362 76bc c72d 3dbd
000000d0: 0aaa 17bd 9019 a7bc d155 b0ba cfa4 2e3d
000000e0: de65 20bd 4e5d bbbc 0475 e33c 8f95 c13c
000000f0: 744a 2bbb f04c 6dbd e10e 993a e8bd e8bb
00000100: 6507 c83c e9dd 553c 4758 e73b 1e6d 07bc
00000110: 8b3e e5bc 7e84 cc3c 8582 f43a 4d85 873c
00000120: 8a2c e2bc 4b26 deba 78ff 5fbc 174f 263c
00000130: 2323 513c e3de 76bc d9be 9dbc b7ea 393c
00000140: a6a7 dabc eb51 cb3c 2b04 173b d942 213d
00000150: 2173 553d f09b 30bb 88fc 8c3c ec6f 82bc
00000160: ec19 32bb 663d 363d 6f9e a63b 3c67 10bc
00000170: 9194 73bc 397d c73c ca7f f1bc a28d 12bb
00000180: d7b6 1abb 2465 97bc 3453 173c 6525 dab8
00000190: d7da 98bc 9803 423a 6960 aebb b8ed aeba
000001a0: bf2e 9f3c 7aa2 173c 2cfd 9d3c cf61 2bbb
000001b0: 7309 45bc 1261 253c 3ea9 60bb 665c f6bc
000001c0: 4341 ba3c 5b87 f23c 1b6d 073c 0f87 8dbd
000001d0: 5456 0a39 f440 913d 00a8 cf3a e00c e43c
000001e0: d614 2abc bc26 e93b d869 f33c 1c00 7a3b
000001f0: 1d99 933c c4cb 4bba 75e0 acbc 602a 1a3d
-0.01575684 0.0017000972 -0.022596719 0.022663096 -0.08719226 0.08824779 0.0040643206 -0.017816665
-0.013046934 0.004959889 0.046320166 -0.0030293956 0.007208615 0.007117657 0.022527767 -0.025186334
0.022204066 -0.011390791 -0.012459256 0.015881244 -0.0011575174 0.018791376 -0.008566626 0.002223696
0.0018613063 -0.019546261 0.0018047118 -0.016568653 0.0025985984 -0.01392259 -0.011280559 0.043764815
0.020012032 -0.00083113805 -0.025411237 -0.012212466 -0.0016802793 0.007476941 0.022535868 -0.06610375
0.0042113625 0.012144615 0.025840709 -0.077313125 0.0237196 -0.0054106405 0.005534234 0.01986463
-0.00220135 0.019951379 -0.015038121 -0.046186235 -0.037027396 -0.020397931 -0.001345331 0.042637642
-0.039159648 -0.02287164 0.027765758 0.023630885 -0.0026136907 -0.0579347 0.0011677408 -0.0071027167
0.024417588 0.013053396 0.007060084 -0.008265762 -0.027983924 0.024965521 0.001865462 0.016543055
-0.027609129 -0.0016948668 -0.013671748 0.010150692 0.012764725 -0.015067789 -0.019256042 0.011347464
-0.02669127 0.024819335 0.0023043256 0.03937039 0.05211175 -0.0026948415 0.01721026 -0.01592251
-0.0027176095 0.044492148 0.0050848047 -0.0088136755 -0.014866964 0.024351703 -0.02947988 -0.0022362252
-0.0023607516 -0.018480845 0.009236146 -0.00010402015 -0.018659038 0.0007401048 -0.0053215516 -0.0013345992
0.01943147 0.009255046 0.01928576 -0.0026150828 -0.012026179 0.010093944 -0.0034280564 -0.030073356
0.022736197 0.029605558 0.008265759 -0.06910526 0.00013192865 0.07092467 0.0015842915 0.02783817
-0.010380944 0.007115213 0.029713556 0.0038147038 0.018017346 -0.0007774199 -0.021103123 0.03763807
