checkpoints/checkpoint_critic_1_3.pth (torch, 87959 bytes, 5 tensors)

hidden1.weight f4 [128, 37]
0	0xbe754219	-0.23950996
1	0xbeff316a	-0.49842387
2	0xbe217d01	-0.15770341
3	0x3f078c16	0.5294813
4	0xbe3e8637	-0.18605886
5	0x3f441556	0.76595056
6	0x3dfecc6f	0.12441336
7	0x3c08de96	0.00835385
8	0xbe73422f	-0.23755716
9	0xbd88a33b	-0.06671759
10	0xbc73f92b	-0.014890949
11	0x3c848700	0.016177654
12	0x3dd25051	0.102692254
13	0x3dfce69f	0.12348675
14	0x3e59902c	0.21246403
15	0x3ddbef56	0.10739009
16	0x3dc56e9d	0.096402384
17	0xbdcfb9a9	-0.10142834
18	0xbd77c505	-0.060490627
19	0xbd8421f0	-0.064517856
20	0xbc5579b0	-0.013029501
21	0xbde79a5a	-0.11308737
22	0xbc902f3b	-0.017600646
23	0x3d996d6e	0.07491575
24	0x3dd5ad1d	0.10433409
25	0x3e17443f	0.14772128
26	0x3ef88bd7	0.4854419
27	0xbf0d0b81	-0.5509568
28	0x3ea1b2dc	0.3158177
29	0xbc930b10	-0.017949611
30	0x3f2b82ba	0.6699635
31	0xbdb8386d	-0.08995137
32	0x3f8fccd5	1.1234385
33	0xbe14715b	-0.14496367
34	0x3d8dd448	0.06925255
35	0xbcaf113a	-0.021370519
36	0xbc8cd099	-0.01718931
37	0xbed3662b	-0.41288885
38	0x3ed63bb4	0.41842425
39	0x3ecc0f19	0.3985527
40	0xbdb27fbb	-0.08715769
41	0xbd866807	-0.065628104
42	0xbf23ed1e	-0.6403369
43	0x3dbfc57a	0.093638375
44	0x3d87c628	0.06629592
45	0x3ed9c7fb	0.42535385
46	0x3b2c5b9f	0.0026299728
47	0x3cfbed59	0.030752825
48	0x3cfe91d6	0.0310754
49	0x3d6638cb	0.056206506
50	0x3f1fdc0c	0.6244514
51	0xbe19fa81	-0.15036966
52	0xbf03770e	-0.5135354
53	0x3eb6c6d3	0.35698566
54	0xbda6f026	-0.081512734
55	0xbee04b55	-0.43807474
56	0xbe155f30	-0.14587092
57	0xbd9b1997	-0.0757324
58	0x3ceb5170	0.028725356
59	0xbba9d72b	-0.0051831207
60	0x3e98f435	0.29873815
61	0xbd53d747	-0.051718976
62	0xbd6d9612	-0.058004446
63	0xbe918710	-0.28423357
64	0x3eb4a188	0.3527949
65	0x3efa0a30	0.48835897
66	0x3d8faa88	0.07014948
67	0xbe78ebf9	-0.24308766
68	0x3d0c4570	0.03424591
69	0xbff9b1db	-1.9507402
70	0x3a5c458c	0.0008402697
71	0x3e3add51	0.18248488
72	0xbe7da0ba	-0.24768344
73	0xbe5bdf71	-0.21471955
74	0x3eee1180	0.46497726
75	0x3ec8f58d	0.3924984
76	0x3e8e0cc0	0.27744102
77	0xbeb0dfea	-0.34545833
78	0xbeaec6ac	-0.3413595
79	0x3f5abb70	0.85442257
80	0xbe51ec5c	-0.2050032
81	0x3e5418eb	0.2071263
82	0x3eb609f4	0.3555447
83	0xbd89fa93	-0.06737246
84	0x3e506b80	0.20353508
85	0xbdb5427d	-0.08850572
86	0x3de238e9	0.11046011
87	0xbf07e299	-0.53080136
88	0x3e91a2e7	0.28444597
89	0xbe18f708	-0.14937985
90	0xbe775120	-0.2415204
91	0xbc190e4b	-0.009341787
92	0xbecee0b0	-0.40405798
93	0xbe48cd6b	-0.1960961
94	0xbd9d1aad	-0.076711036
95	0xbe684c64	-0.2268539
96	0xbe68e0c1	-0.22741987
97	0x3d6f6c2c	0.05845277
98	0xbe26a0fa	-0.16272345
99	0x3e52a01e	0.20568892
100	0x3ec4e58e	0.38456386
101	0x3e59ee2d	0.21282263
102	0x3dfb295d	0.12263749
103	0x3d294c1c	0.04133235
104	0xbe39a50c	-0.18129367
105	0xbb760500	-0.0037539601
106	0x3fa4c34e	1.2872102
107	0xbe94f634	-0.29094088
108	0xbcf2aae6	-0.029622506
109	0xbea31f05	-0.31859604
110	0x3e4ee037	0.20202719
111	0x3e3752dd	0.17902704
112	0xbdb15198	-0.08658141
113	0x3e02939f	0.12751625
114	0xbe86e679	-0.26347712
115	0x3e81dab5	0.25362173
116	0xbee52107	-0.4475176
117	0x3d4c14f9	0.04982469
118	0x3e87ffea	0.26562434
119	0xbed3d24d	-0.41371384
120	0xbf02a3d5	-0.5103124
121	0xbead3a41	-0.33833507
122	0x3c82d464	0.015970416
123	0x3e8ee288	0.27907205
124	0xbf1ea0cf	-0.61964124
125	0x3fa51051	1.2895604
126	0x3e152eb7	0.14568602
127	0xbe35175d	-0.17684694
128	0xbe33ea3d	-0.17569824
129	0x3ee57760	0.44817638
130	0xbd887360	-0.06662631
131	0x39ec744b	0.00045100073
132	0xbc9ec579	-0.019381272
133	0x3c057ac1	0.008146943
134	0xbe644d33	-0.22295074
135	0x3ea36e9d	0.3192033
136	0xbc3afe6b	-0.011413197
137	0x3e866023	0.26245221
138	0x3df710f9	0.12063784
139	0xbd74bca6	-0.05975022
140	0xbdefd995	-0.11711422
141	0xbe9d6fac	-0.3074926
142	0xbd86cc11	-0.06581891
143	0x3f19ede0	0.60128593
144	0xbe95e1bc	-0.29273784
145	0xbef0f283	-0.47060022
146	0xbe7eb7b8	-0.2487477
147	0xbf0be502	-0.54646313
148	0xbe64dabf	-0.2234907
149	0x3f51022b	0.81643933
150	0xbcb76e2b	-0.0223914
151	0xbe396e11	-0.18108393
152	0xbe9a8702	-0.30181128
153	0x3f819ded	1.012632
154	0xbd051edd	-0.032500137
155	0xbe13b058	-0.14422739
156	0xbefdace1	-0.4954596
157	0xbd6ea2bd	-0.058260668
158	0xbe104ed6	-0.14092574
159	0x3f19efba	0.6013142
160	0xbdb45b0d	-0.08806429
161	0xbdad036c	-0.08447918
162	0x3f063389	0.52422386
163	0x3db90cb6	0.090356275
164	0x3e1a70ed	0.1508214
165	0xbe08a267	-0.13343202
166	0x3e51b56a	0.2047936
167	0x3db6b573	0.089213274
168	0xbf1cea46	-0.6129497
169	0x3cb7017b	0.022339573
170	0xbd8c8057	-0.068604164
171	0xbd6eaf11	-0.058272425
172	0x3ebd853a	0.37015706
173	0xbe94ae96	-0.29039448
174	0xbd18154b	-0.03712968
175	0x3e385c10	0.18003869
176	0x3db16e27	0.08663588
177	0xbddff170	-0.109347224
178	0xbee46df7	-0.44615147
179	0xbdd7d514	-0.10538688
180	0xbe2ecd91	-0.17070605
181	0x3e3732e7	0.17890511
182	0x3ea19be1	0.3156424
183	0x3dd71e89	0.10503871
184	0x3f2f4afd	0.684738
185	0xbe5892e3	-0.21149783
186	0x3efed24d	0.49769822
187	0x3e475f2b	0.19469897
188	0xbe1e11ad	-0.1543643
189	0x3dbcd449	0.09220178
190	0xbecd083a	-0.4004534
191	0xbb773cbf	-0.0037725416
192	0x3e2af929	0.1669661
193	0xbe6268a0	-0.22110224
194	0xbe991dea	-0.29905635
195	0xbe2ec737	-0.17068182
196	0x3d4c3465	0.049854655
197	0x3e41a216	0.18909487
198	0x3eaa7c78	0.33298087
199	0xbf3cd41f	-0.7376117
200	0xbf126da4	-0.5719855
201	0x3e7f24b9	0.24916352
202	0x3d4efa56	0.050531708
203	0xbe9435fa	-0.2894743
204	0x3d8606cd	0.06544266
205	0x3ded3fbd	0.11584423
206	0x3df47419	0.11936206
207	0x3d51b022	0.051193364
208	0x3ddfef37	0.109342985
209	0xbd5b8306	-0.05359175
210	0xbdde4b48	-0.108542025
211	0xbe327bc8	-0.17430031
212	0x3ed813a7	0.42202494
213	0x3ec28239	0.37989977
214	0xbdb27b5c	-0.08714935
215	0xbefd8e25	-0.4952251
216	0xbdebf9c6	-0.1152225
217	0xbd2589b0	-0.040414512
218	0xbdbfc4c7	-0.09363704
219	0xbd58a820	-0.05289471
220	0xbdd32ed6	-0.103116676
221	0xbd8fb463	-0.07016828
222	0xbf3090dc	-0.6897104
223	0x3eecfca2	0.46286494
224	0x3c35de6b	0.011100392
225	0xbe01da75	-0.12680991
226	0xbd97b181	-0.07406903
227	0xbf5569d3	-0.833646
228	0x3d53aa21	0.05167592
229	0x3dab7b0d	0.083730794
230	0x3cbf6c90	0.023367196
231	0x3ec80d1d	0.39072505
232	0x3c354aa5	0.01106516
233	0xbd41d039	-0.047317717
234	0xbdba2f48	-0.090910494
235	0x3f618206	0.88089025
236	0xbdfd3938	-0.12364429
237	0xbe0e5e83	-0.13903241
238	0x3e49fdfb	0.19725792
239	0xbe1f27d9	-0.15542544
240	0x3c30e330	0.010796353
241	0xbd0148e0	-0.03156364
242	0xbd82bb2f	-0.06383359
243	0xbda0a249	-0.078434534
244	0x3e37294f	0.17886852
245	0x3e967f3a	0.2939394
246	0xbd272721	-0.0408088
247	0xbcf8b2cc	-0.030358694
248	0xbf04e786	-0.51915777
249	0x3ee3ac1c	0.44467247
250	0xbd238edf	-0.039931174
251	0xbd3f0e0e	-0.046644263
252	0xbe1bbc85	-0.15208633
253	0xbdd111a2	-0.10208441
254	0x3fc447db	1.5334429
255	0x3d4d80a1	0.0501715

hidden1.bias f4 [128]
0	0x3f016a03	0.50552386
1	0xbed0a66f	-0.4075198
2	0xbe611a18	-0.2198261
3	0xbe844275	-0.25831953
4	0xbe47ac15	-0.19499238
5	0xbf0f2817	-0.5592055
6	0xbea15b94	-0.3151518
7	0xbe8b7bd7	-0.2724292
8	0xbf1c59d8	-0.6107459
9	0xbf640675	-0.8907235
10	0xbf046e51	-0.5173083
11	0xbf5bf8d3	-0.8592655
12	0xbf62f40d	-0.8865364
13	0x3eff529d	0.49867716
14	0xbf61c4b5	-0.88190776
15	0xbb9dbcf8	-0.0048137866
16	0xbeaaeacd	-0.33382264
17	0xbe8f5e93	-0.28001842
18	0xbefb3ce3	-0.4906989
19	0xbf34f2ed	-0.70683175
20	0xbe99748c	-0.2997173
21	0x3db0bdcd	0.086299516
22	0xbf29eb46	-0.66374624
23	0xbf2d23eb	-0.6763293
24	0xbe5ef507	-0.21773158
25	0xbf0052f3	-0.5012657
26	0xbc453a0c	-0.012037765
27	0xbf6b434a	-0.9189955
28	0xbf5e2bfd	-0.8678587
29	0xbec4f45d	-0.38467684
30	0xbf1d76bc	-0.615093
31	0xbed30c2a	-0.41220218
32	0xbea76895	-0.32696977
33	0x3e08f050	0.13372922
34	0xbf12410f	-0.5713052
35	0xbf27ca8f	-0.65543455
36	0xbf359bcd	-0.7094086
37	0xbefa6f71	-0.48913148
38	0xbee54379	-0.4477804
39	0x3d28cb9d	0.041209806
40	0xbeb96cd9	-0.36215857
41	0xbec9c8b0	-0.39410925
42	0xbf0a6187	-0.54055065
43	0xbecaa5d7	-0.3957965
44	0xbf0fc9fa	-0.56167567
45	0xbf3610e2	-0.7111951
46	0xbce08a22	-0.027409617
47	0x3e7ffe35	0.24999316
48	0xbf0b4bf0	-0.54412746
49	0x3ea54ade	0.32283682
50	0xbf1b4a2f	-0.6066007
51	0xbed5ac38	-0.41732955
52	0xbe389a73	-0.18027668
53	0xbf3a53dc	-0.7278421
54	0xbf0769e1	-0.52895933
55	0xbe1206f3	-0.14260463
56	0xbf487093	-0.78296775
57	0xbf74a484	-0.9556353
58	0xbe6bd6cb	-0.23031156
59	0xbe4fbfda	-0.2028803
60	0x3e87d869	0.26532295
61	0xbead3894	-0.33832228
62	0xbebc0a9e	-0.3672685
63	0xbefc58de	-0.4928655
64	0xbef5c4f1	-0.48001817
65	0x3e350be9	0.17680325
66	0xbeea9999	-0.4582031
67	0xbe807427	-0.25088617
68	0x3eea546a	0.45767528
69	0xbdfd7cb8	-0.12377304
70	0xbe78dcc4	-0.24302965
71	0xbeecaa99	-0.46223906
72	0xbe5c8977	-0.21536814
73	0xbeae343d	-0.3402423
74	0xbf8aa0e6	-1.0830352
75	0xbf616899	-0.8805023
76	0xbf2b673f	-0.66954416
77	0xbf251c09	-0.64495903
78	0xbf5e07ee	-0.8673085
79	0xbf41ce16	-0.7570509
80	0xbd1d0dea	-0.038343348
81	0xbecf538c	-0.4049343
82	0xbeff644d	-0.4988121
83	0xbf01a684	-0.5064471
84	0xbe1480be	-0.14502236
85	0xbf26ab38	-0.6510501
86	0xbecd048e	-0.40042537
87	0x3c887355	0.016656557
88	0xbf2060aa	-0.626475
89	0xbf26af9b	-0.651117
90	0xbebfa43f	-0.37429997
91	0xbf57906f	-0.84204763
92	0xbf8d7f12	-1.1054404
93	0xbf1ade62	-0.6049558
94	0xbf642173	-0.8911354
95	0x3e670fde	0.22564647
96	0xbe6e2426	-0.23255977
97	0xbe7b3207	-0.24530803
98	0xbf198f6d	-0.59984475
99	0xbea26afc	-0.31722248
100	0xbe526428	-0.20546019
101	0xbf20095a	-0.6251427
102	0xbe62bdeb	-0.2214276
103	0xbee21af3	-0.44161186
104	0xbf8f04f6	-1.1173389
105	0xbf39b927	-0.72548145
106	0xbf8319f2	-1.0242293
107	0xbe9bc5de	-0.30424398
108	0xbdcef71e	-0.101057276
109	0xbf7c6af7	-0.98600715
110	0xbe63d182	-0.2224789
111	0xbe90543d	-0.2818927
112	0xbf4d5e2b	-0.80221814
113	0xbeab033d	-0.33400908
114	0xbed3b2a1	-0.4134722
115	0xbe43082b	-0.19046085
116	0x3ec2540e	0.37954754
117	0xbcc1d892	-0.02366284
118	0xbe81bcc0	-0.25339317
119	0xbece663e	-0.4031238
120	0x3f790da2	0.9728643
121	0xbf1fbd72	-0.62398446
122	0xbd31d350	-0.043414414
123	0xbe438c11	-0.190964
124	0xbf4d4f17	-0.80198807
125	0xbf1acf17	-0.60472244
126	0xbedcb676	-0.43107957
127	0xbf2529a4	-0.64516664

hidden2.weight f4 [128, 128]
0	0xbd913032	-0.07089271
1	0xbda16401	-0.07880402
2	0xbdafd4c4	-0.08585504
3	0xbc928682	-0.017886404
4	0x3c26cc5d	0.01018056
5	0xbcf52486	-0.029924642
6	0xbd009fd3	-0.03140242
7	0xbd63e9d0	-0.055642903
8	0x3d4c006e	0.049805097
9	0xbe05ed84	-0.13078886
10	0xbdc34721	-0.09535051
11	0x3b1cf287	0.0023948268
12	0x3cec7775	0.028865555
13	0xbd8f6aff	-0.0700283
14	0x3c90e788	0.017688528
15	0xbe14f964	-0.1454826
16	0x3be851bf	0.007089823
17	0x3cd53759	0.026027368
18	0x3cd24118	0.025665805
19	0xbc10d3e4	-0.008839581
20	0x3db14af8	0.08656877
21	0x3ca2e6d1	0.019885452
22	0xbda645ce	-0.08118783
23	0x3b24d917	0.002515381
24	0xbd81e7f9	-0.063430734
25	0xbccd6638	-0.025073156
26	0xbd9eb2cb	-0.07748946
27	0xbd71749e	-0.058949105
28	0x3ca6ccd6	0.020361345
29	0xbc584578	-0.013200156
30	0x3baa3733	0.0051945685
31	0x3d1c642c	0.03818147
32	0xbdc21d3e	-0.09478234
33	0xbcd78107	-0.026306642
34	0x3b6b1081	0.0035867991
35	0xbd807215	-0.062717594
36	0xba77ae33	-0.000944826
37	0xbdba15b0	-0.09086168
38	0x3a0bb47c	0.00053293235
39	0xbe19a5cb	-0.15004651
40	0xbce37871	-0.027767392
41	0xbd8a2a3c	-0.06746337
42	0x3c4241a4	0.01185647
43	0xbc33b22c	-0.010967772
44	0xbb976b01	-0.00462091
45	0x3cc7e2de	0.02440017
46	0xbc8f32ee	-0.01748034
47	0xbdd310d5	-0.10305945
48	0x3b3c982b	0.0028777223
49	0xbd8c12fe	-0.0683956
50	0xbd85ab6f	-0.06526839
51	0xbdf2c819	-0.11854572
52	0xbe047a79	-0.12937345
53	0xbd060458	-0.032718986
54	0xbdbca6b1	-0.09211481
55	0xbcc139e7	-0.02358718
56	0xbd69e933	-0.05710716
57	0xbdcea9c0	-0.10090971
58	0x3ccb25fd	0.024798388
59	0x3cc51512	0.024057899
60	0xbd185150	-0.03718692
61	0xbd59ad1a	-0.0531436
62	0xbda9f0be	-0.08297871
63	0xbd50191a	-0.05080519
64	0x3c929547	0.017893447
65	0xbd857813	-0.06517043
66	0x3a84da8c	0.0010135933
67	0x3d0766c7	0.033057
68	0xb9ed18cf	-0.00045222646
69	0xbdd2e741	-0.102980144
70	0xbd2a74c7	-0.041615274
71	0xbdd6b690	-0.1048404
72	0x3d015010	0.031570494
73	0xbd11d6fe	-0.035605423
74	0xbc1a275b	-0.009408797
75	0xbd0723c6	-0.0329931
76	0xbcb67ea6	-0.022277188
77	0xbd13c5e3	-0.03607739
78	0xbdb21f9e	-0.08697437
79	0xbdd6f026	-0.104950234
80	0xbe054db2	-0.1301792
81	0x3d0b43cc	0.034000203
82	0xbd38703f	-0.04502892
83	0xbd46132c	-0.048358127
84	0x3d179f42	0.037017114
85	0xbdaf827b	-0.08569809
86	0xbd887678	-0.06663221
87	0xbd2bbcec	-0.041928217
88	0xbdac1853	-0.08403077
89	0xbda9b314	-0.082861096
90	0xbd5d565c	-0.054037437
91	0x3ce2f348	0.027703896
92	0xbd3a1343	-0.045428526
93	0xbe2ab70f	-0.16671394
94	0x3cf9ca6a	0.030492026
95	0x3c5cd98a	0.0134796
96	0x3d52fea7	0.051512387
97	0xbd331ceb	-0.04372875
98	0x3d428a5f	0.047495242
99	0x3c078fb4	0.008274008
100	0xbcbb8083	-0.022888428
101	0xbe0e1b17	-0.13877521
102	0x3caf65b9	0.02141081
103	0xbd312fef	-0.043258604
104	0xbdb8cd99	-0.0902359
105	0x3d3e350e	0.046437316
106	0xbb10b746	-0.0022081896
107	0x3be5ca94	0.0070126746
108	0x3c901e37	0.017592533
109	0xbcc2f319	-0.023797559
110	0xbd15ff91	-0.03662068
111	0xbd56dbcd	-0.052455712
112	0xbd50ac2d	-0.05094545
113	0xbd6cc8c4	-0.057808653
114	0xbd8bc8e5	-0.06825427
115	0xbcfd3252	-0.030907784
116	0xbc92855a	-0.017885853
117	0xbdc5afa7	-0.09652644
118	0x3b89e55d	0.0042082504
119	0xbd93c4f2	-0.07215299
120	0xbe16b89f	-0.14718865
121	0xbc679ffa	-0.0141372625
122	0xbdbe2d9d	-0.09286044
123	0x3b85f5cb	0.0040881387
124	0x3cb03758	0.021510765
125	0xbd5b9ed1	-0.053618256
126	0xbd0575a5	-0.032582898
127	0xbdc46f71	-0.09591568
128	0xbdc78eda	-0.09744044
129	0xbdb335a2	-0.08750464
130	0x396ee729	0.00022783563
131	0xbe092d70	-0.1339624
132	0x3d853d26	0.06505804
133	0xbd61c8c4	-0.055123106
134	0x3bda56d3	0.0066631823
135	0xbd6dfa79	-0.058100197
136	0xbd7820b3	-0.06057806
137	0xbd6410a0	-0.055679917
138	0xbdcc2c05	-0.099693336
139	0x3d892e2a	0.06698258
140	0xbd89e5e5	-0.06733302
141	0xbce57e6b	-0.028014382
142	0xbc7c6035	-0.015403797
143	0x3b5deffb	0.0033864963
144	0xbd261c1d	-0.040554155
145	0x3cd94a7e	0.026524778
146	0x3d161107	0.036637332
147	0x3cb19769	0.021678643
148	0xbc834ce7	-0.01602788
149	0xbd914364	-0.07092932
150	0xbdc47f03	-0.09594538
151	0xbd1e3dd5	-0.038633186
152	0xbe32ab3d	-0.17448135
153	0xbda0012c	-0.078127235
154	0xbceeb33c	-0.0291382
155	0xbd1844ee	-0.03717511
156	0xbdacafbc	-0.08431956
157	0xbcbd7cb2	-0.023130748
158	0xbd7c6668	-0.0616211
159	0xbdbdcf3d	-0.09268043
160	0xbdc43e7f	-0.09582233
161	0xbde9a6e0	-0.11408782
162	0x3d57c5d5	0.0526789
163	0x3d2a0c1f	0.041515466
164	0xbcd6b468	-0.026209071
165	0xbdf1c920	-0.1180594
166	0xbd295c3f	-0.04134774
167	0xbb82ab41	-0.0039877
168	0xbd10b1f7	-0.03532597
169	0xbdf29682	-0.11845113
170	0xbd4a3136	-0.049363337
171	0x3de29294	0.11063114
172	0xbdc8c43c	-0.09803054
173	0xbdfabf74	-0.12243548
174	0xbd269229	-0.040666733
175	0xbda2063c	-0.07911345
176	0xbdc33961	-0.095324285
177	0xbe0b8134	-0.13623506
178	0xbd9e0a2f	-0.07716786
179	0xbdb00876	-0.08595364
180	0x3d425975	0.047448594
181	0xbd83ee8e	-0.06441985
182	0x3b533f3e	0.003223374
183	0xbd8e6a05	-0.06953815
184	0xbe027c13	-0.12742643
185	0xbd8d0926	-0.068865106
186	0xbcd1307b	-0.025535813
187	0xbcecbe13	-0.028899228
188	0xbda64be4	-0.08119944
189	0xbcc06ce1	-0.023489418
190	0xbcf3fe45	-0.029784331
191	0xbcbfcaee	-0.023412194
192	0xbd4b293f	-0.049599882
193	0xbdc0e1ec	-0.09418091
194	0xba6424f5	-0.0008703017
195	0xbdfd7350	-0.1237551
196	0xbbe471f3	-0.0069715916
197	0x3ce4274d	0.027850771
198	0xbb39acef	-0.0028331836
199	0xbcb1bdf4	-0.021697022
200	0xbd06dd2b	-0.032925766
201	0xbc88277b	-0.016620388
202	0xbe0b9a0e	-0.13632986
203	0xbca54826	-0.020176005
204	0xbcf5f01a	-0.030021716
205	0x3d277e02	0.040891655
206	0xbdc5bc9c	-0.09655115
207	0xbdac2996	-0.084063694
208	0xbc94a0a3	-0.018143004
209	0xbd2ad3f8	-0.041706055
210	0xbd5e9ae4	-0.054346934
211	0xbe011f71	-0.1260965
212	0x3d74eff3	0.059799146
213	0xbdfd524f	-0.12369215
214	0xbe275a1e	-0.1634297
215	0x3c55826a	0.013031581
216	0xbd950c07	-0.07277685
217	0x3cfb36ef	0.030665843
218	0x3d602d8c	0.054730937
219	0x3d0d4d17	0.034497347
220	0xbdb9ae9a	-0.09066506
221	0xbcf6de35	-0.030135253
222	0xbda13f33	-0.078733824
223	0xbd85d506	-0.065347716
224	0xbd6e6d74	-0.05820985
225	0xbc380f82	-0.011234166
226	0x3d42cc3a	0.047558047
227	0xbd21491f	-0.039376374
228	0x3d87c520	0.066293955
229	0xbe10f6ba	-0.14156619
230	0x3d3e19e1	0.0464114
231	0xbc584095	-0.013198991
232	0xbd33c442	-0.043888338
233	0x3c1c892e	0.009554191
234	0xbd251e8b	-0.04031233
235	0xbcb7c344	-0.022431977
236	0xbcb86da6	-0.022513222
237	0x3d32451a	0.04352293
238	0xbdd73dab	-0.10509809
239	0x3d125fb8	0.035735816
240	0x3d87bc96	0.06627767
241	0xbda90e77	-0.08254712
242	0xbd78dfca	-0.060760297
243	0xbac2b27c	-0.0014854218
244	0xbd439e9a	-0.047758676
245	0x3d005732	0.031333156
246	0x3d29b12d	0.041428734
247	0x3c19ce62	0.009387584
248	0xbcfc8ae7	-0.030827953
249	0x3c93fe74	0.018065669
250	0xbcedc8e8	-0.029026464
251	0x3da972b3	0.0827383
252	0xbd095c97	-0.033535566
253	0xbc0d1c6f	-0.008612736
254	0xbd330a68	-0.043711096
255	0xbdf07c58	-0.11742467

hidden2.bias f4 [128]
0	0xbdd56ae3	-0.10420778
1	0xbdc75e67	-0.09734803
2	0x3f8f01a3	1.1172374
3	0xbd80279f	-0.06257557
4	0xbca25086	-0.019813787
5	0xbd901442	-0.07035114
6	0xbd3aba05	-0.04558756
7	0x3f25ed7e	0.6481551
8	0xbd799fd5	-0.060943443
9	0xbd8a0f3d	-0.06741188
10	0xbdfee504	-0.12446025
11	0x3e3bb89f	0.18332146
12	0xbe0630ea	-0.13104597
13	0x3c21ef2c	0.009883683
14	0x3ca36fe6	0.019950818
15	0xbdb5bcae	-0.088738784
16	0xbdcc7b50	-0.099844575
17	0x3cd0d56a	0.025492389
18	0xbda39623	-0.07987621
19	0xbe02c0a2	-0.12768796
20	0xbd1a3c94	-0.037655428
21	0xbca27f34	-0.019836046
22	0x3d990107	0.07470899
23	0xbdb16364	-0.086615354
24	0xbe206e15	-0.15666993
25	0x3accec06	0.0015634305
26	0x3d751b51	0.059840504
27	0xbd0cd657	-0.034384098
28	0x3e8d2d43	0.27573594
29	0xbd597ff5	-0.053100545
30	0x3c99e9a1	0.01878816
31	0xbef60390	-0.48049593
32	0xbd9ecbc7	-0.07753711
33	0xbdeb813b	-0.11499258
34	0xbe2d34b7	-0.1691464
35	0xbdeadd2d	-0.11467967
36	0xbdc1dd2a	-0.09466012
37	0x3f02f80a	0.5115973
38	0x3b1e2021	0.0024128037
39	0xbde94139	-0.11389393
40	0xbdfa934d	-0.12235127
41	0x3eee55d2	0.4654985
42	0xbd5663fe	-0.052341454
43	0xbd5fe5c4	-0.05466248
44	0xbd901b84	-0.07036498
45	0xbd4bbab3	-0.049738597
46	0x3d39193a	0.045190074
47	0xbd838ba1	-0.064231165
48	0xbdf3e73d	-0.119093396
49	0xbd404174	-0.04693742
50	0xbd872eef	-0.06600749
51	0xbdd698d6	-0.1047837
52	0xbdb3ddf4	-0.087825686
53	0xbe125925	-0.14291818
54	0xbcbdfb88	-0.023191229
55	0xbdd8aad0	-0.10579455
56	0x3f186b86	0.5953907
57	0xbe00dbda	-0.12583867
58	0xbe159088	-0.14605916
59	0xbd81a566	-0.063303754
60	0x3d127f87	0.03576615
61	0xbdac41fe	-0.084110245
62	0xbd8440a2	-0.0645764
63	0xbbd46aff	-0.0064824815
64	0x3eaf89e2	0.34284884
65	0xbccf50d0	-0.02530709
66	0xbe1bdc0a	-0.15220657
67	0xbd349198	-0.04408416
68	0xbc5f3449	-0.013623306
69	0x3f3957a5	0.7239936
70	0xbcdefd2c	-0.027220331
71	0xbd93799e	-0.07200931
72	0xbdc47a34	-0.09593621
73	0xbd3e4e6b	-0.046461504
74	0xbca3f12f	-0.020012466
75	0x3f2127a8	0.62951136
76	0xbe18f9df	-0.14939068
77	0xbd5980ee	-0.053101473
78	0xbf19cf6f	-0.60082144
79	0x3f24ebff	0.644226
80	0xbe16ab1c	-0.1471371
81	0xbec245df	-0.37943932
82	0x39ecb9ba	0.00045151805
83	0xbd9a7086	-0.075409934
84	0xbd4b67cd	-0.04965954
85	0xbd5bb6e6	-0.053641222
86	0xbdc68255	-0.096928276
87	0xbd8cbb40	-0.068716526
88	0x3eff728a	0.49892074
89	0xbe1f9af2	-0.1558645
90	0x3ef95b8d	0.4870266
91	0xbe2a6b8b	-0.16642587
92	0xbd89f549	-0.067362376
93	0xbdb35c96	-0.08757894
94	0x3ea0965f	0.31364724
95	0xbe5fbb28	-0.21848738
96	0xbdc60415	-0.09668747
97	0xbd61d6e8	-0.05513659
98	0x3c94445d	0.018099004
99	0xbc359149	-0.011082002
100	0xbc92c485	-0.017915973
101	0xbe14f136	-0.1454514
102	0x3d498795	0.049201567
103	0xbe026d74	-0.12737066
104	0x3d09ff69	0.033690844
105	0xbd231f5a	-0.03982482
106	0xbd0bb82f	-0.034111198
107	0x3b6bdf21	0.003599115
108	0xbdf996c7	-0.121869616
109	0xbbfa72b1	-0.007643067
110	0xbe07fcde	-0.13280055
111	0xbd9ac2aa	-0.075566605
112	0xbddfa751	-0.10920585
113	0xbd47384c	-0.048637673
114	0x3f33112a	0.69948065
115	0xbd933adc	-0.07188961
116	0x3c3c342d	0.011487049
117	0xbbaad925	-0.005213874
118	0xbdd333c2	-0.103126064
119	0xbe034db2	-0.12822607
120	0x3c847bd1	0.016172322
121	0x3cc4e2ed	0.024033988
122	0x3cb71a51	0.022351416
123	0xbddab21b	-0.10678502
124	0xbe0a0c59	-0.13481273
125	0x3dc71f73	0.09722795
126	0xbd8f6cae	-0.07003151
127	0xbdbc8f13	-0.09206977

out.weight f4 [1, 128]
0	0x3cfffa61	0.03124732
1	0x3cc87871	0.024471493
2	0x3e19bd4a	0.15013614
3	0x394c5b22	0.00019488906
4	0xbc804fba	-0.015663017
5	0x3ca203d3	0.019777214
6	0xbcbbbad5	-0.022916237
7	0x3c195d15	0.009360571
8	0x3b68b61b	0.0035508934
9	0xbc4cbcb7	-0.012496165
10	0xbcee94e2	-0.029123727
11	0xbd52cdd9	-0.051465843
12	0xbcaa221e	-0.020768221
13	0xbc302fa4	-0.010753546
14	0xbc01f526	-0.007931983
15	0x3bcf2473	0.0063214838
16	0xbcce2e23	-0.025168484
17	0xbba2d087	-0.004968706
18	0x3b2c03f2	0.0026247469
19	0x3a10656c	0.0005508277
20	0x3b5f5033	0.0034074902
21	0xbc6b660c	-0.014367592
22	0x3c822bef	0.01589009
23	0x3c14b5c0	0.009076536
24	0x3cc241cc	0.023713015
25	0xbcd6670a	-0.02617218
26	0x3c22b783	0.009931448
27	0x3cbf2366	0.023332309
28	0x3d79f61e	0.06102573
29	0x3ca777db	0.020442894
30	0xbdc53926	-0.09630041
31	0xbdc489dc	-0.09596607
32	0xbc85bef1	-0.0163264
33	0x3b4c272d	0.003115128
34	0x3c4eeb84	0.0126293935
35	0xbcb608cf	-0.022220997
36	0x3cce7e89	0.025206821
37	0x3d180a30	0.03711909
38	0x3c19882e	0.009370847
39	0x3bf686b3	0.0075233816
40	0xbc1d286e	-0.009592159
41	0x3d52a034	0.051422313
42	0x3cc92f47	0.024558676
43	0x3ae198d1	0.001721168
44	0xbbcbfe05	-0.00622535
45	0x3c58660a	0.013207922
46	0x3be9c976	0.0071346117
47	0xbc9f708a	-0.019462842
48	0xbbf4ae17	-0.007467042
49	0x3ca58558	0.020205185
50	0xbcca4ae8	-0.024693921
51	0x3a955ef4	0.0011396096
52	0x3ccbd5e6	0.024882268
53	0x3c8683b4	0.016420223
54	0x3bc85b5a	0.0061144056
55	0x3cbd2ca3	0.023092574
56	0x3c1a8ac7	0.009432501
57	0x3d190d99	0.037366483
58	0xbd031741	-0.0320046
59	0x3d2cfa94	0.042231157
60	0xbc04b390	-0.008099452
61	0xbc50148d	-0.012700212
62	0x3ce10836	0.027469736
63	0x3cb9d658	0.022685215
64	0x3cbd78ef	0.023128955
65	0xbb6b166a	-0.0035871514
66	0xbb73da8d	-0.0037209124
67	0x3cbef932	0.023312185
68	0xba4e7882	-0.00078762334
69	0x3c26735b	0.010159339
70	0xbcb35448	-0.021890774
71	0x3d338019	0.043823335
72	0x3b96e254	0.004604617
73	0xbc6f6367	-0.014611102
74	0x3cc6f6ad	0.024287546
75	0x3ce7a179	0.028275238
76	0xbc3b9f24	-0.011451516
77	0x3abfd21c	0.0014634761
78	0xbd0761d3	-0.033052277
79	0x3cad2be7	0.021139098
80	0x3cae90ca	0.021309275
81	0xbd49e083	-0.049286377
82	0xbc900805	-0.017581949
83	0xbbe2eff4	-0.0069255773
84	0xbc953bb1	-0.01821694
85	0xbb1b350c	-0.0023682741
86	0xbc3cb602	-0.011518003
87	0x3c8482fd	0.016175741
88	0x3d0a7fa9	0.033813152
89	0xbcd24c5d	-0.025671178
90	0xbd1004df	-0.035160895
91	0xbccfd895	-0.025371829
92	0xbb30957a	-0.0026944564
93	0x3be8cd17	0.0071045267
94	0xbcc08aa2	-0.023503605
95	0xbd8306aa	-0.063977554
96	0x3c74f074	0.014949907
97	0x3c80e3f6	0.0157337
98	0x3c6f62dc	0.014610972
99	0x3cbfd360	0.023416221
100	0x3c3ab803	0.011396411
101	0xbc05f09c	-0.0081750415
102	0x3cc1126c	0.023568355
103	0x3c97fb86	0.018552553
104	0xbc06ac05	-0.008219724
105	0xbb578bd4	-0.003288974
106	0x3cb8875b	0.02252548
107	0x3cc6d08b	0.024269363
108	0xbbc4e9b1	-0.0060093035
109	0xba3e87e9	-0.0007268177
110	0x3c0ce709	0.008600005
111	0x3bcc2511	0.0062300046
112	0x3cfef7da	0.031124044
113	0xbe099ea3	-0.13439421
114	0xba083d0c	-0.0005197085
115	0xbca22147	-0.019791258
116	0xbd5887fd	-0.052864064
117	0xbb7ef23f	-0.0038901714
118	0x3bdf27e6	0.006810176
119	0xbca491dc	-0.020089082
120	0x3bd2b00d	0.0064296783
121	0xbcad0b96	-0.021123689
122	0x3c5ed1cf	0.013599827
123	0x3c9c259d	0.019060904
124	0xbbbdd348	-0.005793009
125	0x3c4d5345	0.01253206
126	0xbca02cb6	-0.01955257
127	0xbc8899b3	-0.016674852
