checkpoints/checkpoint_actor_median_6.pth (torch, 87447 bytes, 6 tensors)

hidden1.weight f4 [128, 33]
-0.21582504 0.33865798 -0.111906774 0.08094746 0.25688308 0.024608858 -0.115324706 0.28596345
0.35204977 0.24210055 -0.10776433 -0.06727244 -0.089201905 0.20525654 -0.41853327 -0.110310934
0.1973168 0.007957416 0.34205118 -0.03281925 -0.057775628 -0.06903102 0.054964706 -0.09014017
-0.14256196 -0.16517287 -0.24476449 0.14669365 -0.21044225 0.10479975 -0.097309574 -0.0010080785
-0.8396369 0.09294248 -0.31275126 0.14593087 0.08769239 -0.10046063 -0.15786982 -0.20266628
-0.15789928 -0.054180834 -0.040862344 -0.087828316 -0.033184387 0.011961994 -0.39532018 0.17005396
-0.018646514 0.057920456 -0.12383755 0.17641453 -0.05316388 0.17031683 -0.07000489 -0.081152305
-0.05146193 -0.014399223 0.039966624 0.3286413 -0.029883409 -0.058796078 -0.17323716 0.20778766
-0.07598178 -0.009889162 -0.12136629 -0.03828587 0.082962416 -0.20832829 0.19890986 0.2073876
0.16479385 -0.13117054 -0.25767964 0.07354908 -0.1842713 0.10019342 -0.07305248 -0.2620334
-0.12923585 -0.21072216 0.13414074 0.19477136 0.080882184 -0.055120792 -0.13778026 0.1779887
0.085203245 -0.048061553 -0.061895788 -0.054536816 0.20873666 0.07963778 0.026406756 -0.036533818
-0.21198231 0.17177966 0.66290456 -0.03786932 0.33772895 -0.4189182 -0.049260296 -0.18615818
-0.019228483 0.01952339 0.23791233 -0.17428207 -0.25899798 -0.05983968 0.09291515 -0.009915413
-0.06417928 -0.40457854 -0.11660437 0.13830185 -0.055468462 0.17807394 -0.114283666 -0.00027148382
-0.08900329 -0.08797342 -0.05024863 -0.04664886 -0.029025009 0.043551043 0.13664411 0.15005057
-0.14830688 0.13280019 -0.021237776 0.3313208 -0.104307055 -0.18591191 0.31569818 -0.03945291
0.14360186 0.08457665 -0.12530781 0.0318737 0.1443567 -0.07313587 -0.22975688 0.004569233
0.044900678 -0.067720555 -0.036703654 -0.30309469 -0.028443087 0.012437638 0.005171817 -0.028069714
0.082111895 0.12470863 -0.0040498218 -0.019129053 0.05347319 -0.052336935 0.08946628 -0.09177239
0.18123506 0.030437931 0.22754915 0.1637187 -1.3853117 -0.018907292 -0.08257503 0.0026655975
-0.15218042 -0.03286592 0.37563848 -0.029671874 -0.13350576 0.1392186 -0.17364019 0.15263255
-0.008634846 0.106957056 0.36045378 -0.13167186 0.03533954 -0.30310333 0.028810265 0.033144336
0.046058472 -0.027512707 0.0087404065 -0.18705894 -0.06598249 -0.03628528 0.13400736 -0.37987226
0.24720956 0.18567783 -0.026021272 -0.24055976 0.13231173 -1.6708385 0.018294862 -0.11951981
-0.31089687 -0.12491211 0.016381798 -0.10348362 -0.027502839 0.062390577 -0.02656537 0.022700584
0.1312129 0.07125958 0.047137 0.21241784 0.13211976 0.3097796 -0.21241723 -0.116627894
-0.038082596 -0.03785324 -0.06939022 -0.018624676 0.02374635 0.15413556 -0.03730241 0.17673199
-0.17717165 0.045990825 0.12523007 -0.17375842 -0.2765361 0.058552667 0.62990016 -0.2446565
0.131517 0.13103351 -0.2965375 -0.047879227 0.07741839 0.04124162 -0.2151369 -0.080997184
-0.25776362 -0.079343066 -0.083728574 0.011659136 -0.12913662 -0.06893345 -0.27751178 0.1995295
-0.0021856946 0.030490505 -0.14488727 -0.018297497 0.104709215 0.04472309 -0.083831415 0.00577389
00000000: 3d01 5dbe 9464 ad3e 612f e5bd c8c7 a53d
00000010: 2e86 833e 8498 c93c 5c2f ecbd cd69 923e
00000020: de3f b43e 35e9 773e 8cb3 dcbd 22c6 89bd
00000030: 7daf b6bd c52e 523e fe49 d6be b3ea e1bd
00000040: 6a0d 4a3e d25f 023c 5521 af3e 7a6d 06bd
00000050: 23a6 6cbd 2360 8dbd ac22 613d 699b b8bd
00000060: c3fb 11be 1423 29be 8ba3 7abe dc36 163e
00000070: 2c7e 57be 40a1 d63d 3e4a c7bd 8021 84ba
00000080: 72f2 56bf a158 be3d ef20 a0be e76e 153e
00000090: 1198 b33d 4ebe cdbd a0a8 21be c087 4fbe
000000a0: 59b0 21be b9ec 5dbd 465f 27bd 55df b3bd
000000b0: 5aec 07bd 3dfc 433c 6867 cabe a022 2e3e
000000c0: 93c0 98bc 003e 6d3d 8b9e fdbd 03a6 343e
000000d0: 5ec2 59bd 8967 2e3e b95e 8fbd 2e33 a6bd
000000e0: bfc9 52bd b8ea 6bbc 0bb4 233d ac43 a83e
000000f0: 0dce f4bc 28d4 70bd 1565 31be 4ac6 543e
00000100: 569c 9bbd 2706 22bc e48e f8bd a5d1 1cbd
00000110: 33e8 a93d 0354 55be 07af 4b3e 6a5d 543e
00000120: b8bf 283e 9251 06be 96ee 83be e6a0 963d
00000130: 9eb1 3cbe 3532 cd3d 8a9c 95bd 3e29 86be
00000140: 6756 04be 8dc7 57be 315c 093e 2572 473e
00000150: 8fa5 a53d 57c6 61bd 4516 0dbe ab42 363e
00000160: 0a7f ae3d 31dc 44bd 7086 7dbd ff61 5fbd
00000170: 10bf 553e 2219 a33d fb52 d83c 7ca4 15bd
00000180: e411 59be 02e7 2f3e 1db4 293f dc1c 1bbd
00000190: cfea ac3e 727c d6be 2ac5 49bd 40a0 3ebe
000001a0: 0d85 9dbc 84ef 9f3c 4a9f 733e 0077 32be
000001b0: 629b 84be 741a 75bd 4c4a be3d 4274 22bc
000001c0: 6d70 83bd eb24 cfbe 46ce eebd 009f 0d3e
000001d0: e632 63bd 0459 363e 8e0d eabd f155 8eb9
000001e0: 5b47 b6bd 692b b4bd 82d1 4dbd e012 3fbd
000001f0: dbc5 edbc 9462 323d 6fec 0b3e dba6 193e
00000200: c2dd 17be c6fc 073e d8fa adbc e1a2 a93e
00000210: f09e d5bd b15f 3ebe 31a3 a13e 6099 21bd
00000220: 5e0c 133e 8636 ad3d b150 00be ff8d 023d
00000230: 3ed2 133e 42c8 95bd 6345 6bbe 81b9 953b
00000240: c6e9 373d 13b1 8abd 9256 16bd 3a2f 9bbe
00000250: 7a01 e9bc 3cc7 4b3c 5878 a93b 75f2 e5bc
00000260: 482a a83d 3d67 ff3d 5eb4 84bb 88b4 9cbc
00000270: b406 5b3d 415f 56bd 193a b73d 2af3 bbbd
00000280: af95 393e f858 f93c a502 693e e0a5 273e
00000290: e551 b1bf 77e3 9abc 191d a9bd 4eb1 2e3b
000002a0: 2fd5 1bbe 6a9e 06bd b053 c03e 6e12 f3bc
000002b0: bcb5 08be 528f 0e3e bcce 31be b54b 1c3e
000002c0: 2b79 0dbc 4d0c db3d 668d b83e fdd4 06be
000002d0: 32c0 103d 5c30 9bbe 8103 ec3c 5bc2 073d
000002e0: cfa7 3c3d 5462 e1bc ec33 0f3c 618c 3fbe
000002f0: d421 87bd e09f 14bd 3a39 093e 9e7e c2be
00000300: 8124 7d3e 5422 3e3e 902a d5bc 4c55 76be
00000310: ba7c 073e 09de d5bf 1bdf 953c cdc6 f4bd
00000320: e02d 9fbe ecd1 ffbd 1f33 863c 38ef d3bd
00000330: a24d e1bc 438d 7f3d 9e9f d9bc 93f6 b93c
00000340: ad5c 063e 8bf0 913d ba12 413d 1084 593e
00000350: 674a 073e 6f9b 9e3e e783 59be 9bda eebd
00000360: 7ffc 1bbd 000c 1bbd 761c 8ebd c792 98bc
00000370: b587 c23c b6d5 1d3e 69ca 18bd 3bf9 343e
00000380: 7c6c 35be e060 3c3d 503c 003e baed 31be
00000390: 2496 8dbe ecd4 6f3d 2341 213f 3c87 7abe
000003a0: 64ac 063e a62d 063e c3d3 97be 021d 44bd
000003b0: 888d 9e3d f9ec 283d d94c 5cbe dae1 a5bd
000003c0: 98f9 83be 9e7e a2bd e379 abbd f605 3f3c
000003d0: 643c 04be fb2c 8dbd 0616 8ebe 7651 4c3e
000003e0: df3d 0fbb 39c7 f93c 545d 14be a2e4 95bc
000003f0: c971 d63d 8f2f 373d ceaf abbd e632 bd3b

hidden1.bias f4 [128]
-0.12535322 -0.016351247 -0.20307183 -0.030646825 -0.0029411647 -0.14964956 -0.00021765904 0.024513913
-0.18591881 0.008714506 -0.3228253 -0.16492246 -0.06942785 -0.1808588 -0.062520795 0.009587132
0.2269324 0.3015231 0.075869545 0.040256478 -0.015914356 -0.0131601775 -0.022773232 0.3399093
-0.048062455 0.03773214 -0.21766594 -0.06907685 -0.08523318 0.013753177 -0.17042726 -0.041248236
0.0124360435 0.23191132 0.16199824 0.10124369 -0.40523145 -0.33971238 -0.18152332 -0.3413543
-0.13115063 -0.14127168 -0.15195249 0.006742591 0.34882647 0.36482373 -0.025972348 -0.07987678
0.0054457816 -0.15100354 -0.13063529 -0.13738996 -0.12132507 0.09196683 0.053551342 0.09286609
0.062323388 -0.0714365 0.13283652 0.113810554 -0.087787166 -0.06265445 0.101004675 0.053546082
-0.031578157 -0.362494 0.1995488 0.08807021 -0.3575557 -0.004833599 -0.21776858 0.17854775
0.116507374 -0.048801653 0.15255791 0.12578599 -0.1460005 0.18591027 0.078421205 -0.29186517
0.045454998 -0.017059734 0.14249381 -0.2112638 0.15703687 0.15086396 -0.02895923 -0.10217864
-0.113367625 0.09836191 -0.13074943 0.11428847 0.13670334 0.028263016 -0.28445613 -0.023761462
-0.026559439 -0.14481616 0.26310596 -0.014845086 0.32859337 0.112013616 0.07549004 -0.11010793
-0.20238093 0.32601815 -0.27980798 -0.06443606 -0.04266835 0.14967878 0.11056219 0.00033434576
0.24414857 -0.3164397 -0.15877014 0.012794921 -0.15896101 0.17916887 0.26725653 0.22865535
-0.30136257 0.21732268 0.03020078 -0.23701365 0.08079788 -0.07343437 -0.17189038 0.031187732
00000000: 985c 00be 0df3 85bc 10f2 4fbe 0d0f fbbc
00000010: 8ec0 40bb bc3d 19be 673b 64b9 67d1 c83c
00000020: 8061 3ebe 4ac7 0e3c 5c49 a5be 6fe1 28be
00000030: 3030 8ebd 0d33 39be e70a 80bd 5913 1d3c
00000040: f860 683e 3c61 9a3e 7e61 9b3d fae3 243d
00000050: d35e 82bc c99d 57bc ee8e babc 9708 ae3e
00000060: 23dd 44bd 048d 1a3d d2e3 5ebe 2a78 8dbd
00000070: bc8e aebd 0155 613c 7c84 2ebe e9f3 28bd
00000080: 8cc0 4b3c 297a 6d3e dee2 253e da58 cf3d
00000090: 7f7a cfbe c8ee adbe 40e1 39be fec5 aebe
000000a0: 5a4c 06be 86a9 10be 6f99 1bbe f4f0 dc3b
000000b0: 6299 b23e 2dca ba3e f6c3 d4bc 7096 a3bd
000000c0: 8772 b23b aca0 1abe 42c5 05be f4af 0cbe
000000d0: 4779 f8bd 1b59 bc3d a758 5b3d 9430 be3d
000000e0: cf46 7f3d 4d4d 92bd 4c06 083e 8215 e93d
000000f0: c2c9 b3bd fa50 80bd 8adb ce3d 2353 5b3d
00000100: 1958 01bd d098 b9be 8556 4c3e 275e b43d
00000110: 8a11 b7be 2b63 9ebb bafe 5ebe 39d5 363e
00000120: 6b9b ee3d 3ee4 47bd 2438 1c3e 0bce 003e
00000130: 2881 15be 435f 3e3e 4c9b a03d 5a6f 95be
00000140: 052f 3a3d dbc0 8bbc e6e9 113e 8a55 58be
00000150: 46ce 203e 157c 1a3e e83b edbc 0943 d1bd
00000160: 492d e8bd f871 c93d 2ee3 05be 1310 ea3d
00000170: f6fb 0b3e d787 e73c 3ca4 91be 66a7 c2bc
00000180: 2e93 d9bc b04a 14be d3b5 863e ce38 73bc
00000190: 643d a83e 6567 e53d 869a 9a3d 4480 e1bd
000001a0: f23c 4fbe daeb a63e fe42 8fbe 0ef7 83bd
000001b0: 02c5 2ebd 6545 193e 6e6e e23d 214b af39
000001c0: 1502 7a3e 6204 a2be a494 22be caa1 513c
000001d0: adc6 22be 0b78 373e d9d5 883e a124 6a3e
000001e0: 324c 9abe d689 5e3e a067 f73c b5b3 72be
000001f0: 5c79 a53d c264 96bd 0804 30be 6a7d ff3c

hidden2.weight f4 [128, 128]
-0.042347945 -0.032651965 0.12993068 -0.09963448 -0.11436893 -0.06677092 0.29888672 -0.2808342
-0.009997427 0.523756 0.13194092 0.13296986 0.061085407 0.2552715 0.16566963 0.07737215
-0.065046966 -0.084120326 0.25508052 -0.09037563 -0.03200331 -0.118107945 -0.23852912 0.21281627
-0.18058291 -0.25084698 -0.1402312 -0.04111401 -0.019532582 -0.12644471 0.17971851 0.16841345
-0.02616217 -0.06446237 0.050355345 0.06312409 -0.112931974 -0.111434445 0.13595098 -0.013819269
0.11004627 -0.3262119 0.1223388 0.047431473 -0.24105282 0.28742167 -0.09745785 0.24727231
0.11419976 -0.04237951 -0.28815475 -0.02568447 -0.07946801 0.15630524 0.3342301 -0.3574219
0.0045651714 -0.07580893 0.2831307 -0.16011186 -0.500839 0.03643304 -0.063611455 0.097348735
0.16371684 0.08766026 0.002401816 -0.031472735 -0.10158105 -0.16772862 0.13950999 -0.18456708
-0.1058256 -0.24039048 -0.23492932 -0.16141511 -0.0062127397 -0.038124904 0.10207495 -0.11932482
-0.09178973 0.16010174 -0.3188045 -0.33770972 0.083661094 -0.014275729 0.10835842 -0.026269995
-0.106615834 -0.05246171 -0.080080055 0.13406985 -0.08403887 -0.11950006 0.067891836 -0.07097565
0.07868014 -0.2438752 0.018219577 -0.34174287 -0.17253537 -0.10487082 0.06381985 0.23421414
0.015618527 0.111225866 -0.3685044 0.41738924 -0.46393573 0.15620668 -0.24256128 -0.24459353
0.2730714 -0.10144608 -0.2358264 -0.35161406 -0.03638844 -0.15828645 0.00034148744 -0.002737837
0.15637065 -0.28369597 -0.0013768938 0.49098262 0.026287125 -0.24721836 0.0901535 0.15908283
-0.07075612 0.105083145 0.14836006 0.07824583 0.20831464 0.24492559 0.27423412 0.1050335
0.11929558 0.18772689 -0.2119239 0.086051464 0.17841303 -0.044747505 0.16657823 -0.021568747
0.2862123 0.24635375 0.16754477 -0.1299808 0.08849784 -0.028317414 0.0040748524 0.3726679
0.28532645 0.049930006 0.31040084 -0.01093461 -0.028963715 0.055013247 0.051493693 0.3016539
0.07921396 -0.21903153 -0.014148387 0.0060911016 -0.0377523 0.19231857 -0.07374774 -0.23638731
0.02638451 -0.12437251 0.29228842 0.25190383 -0.24274991 0.16226122 0.08270275 -0.008717809
-0.025745764 -0.002583001 -0.03281457 -0.0052068587 0.08609264 0.2264331 0.07981821 0.1578293
0.25767115 0.008266927 0.18021333 0.25605083 0.21041724 0.18023215 0.033386115 -0.011290236
-0.08559931 -0.018036686 -0.19054498 0.1083129 -0.053325325 -0.05127111 0.005881796 -0.1190718
-0.08201881 -0.20559882 0.092677 -0.108683 -0.09877101 0.16975318 -0.19625996 0.10438512
0.0945444 0.08168983 -0.06547318 0.27629635 -0.0691053 -0.20924722 -0.035212304 0.091418624
-0.033549506 0.13031055 0.1509615 -0.06461801 0.28590736 0.116813175 0.09712187 -0.032779116
0.14996661 0.104815446 0.33439523 0.18807596 0.02301151 -0.60787505 0.21735129 0.22168712
0.10427621 0.05629381 -0.104183815 -0.091170125 -0.0018911186 0.15001804 -0.01712329 0.21026166
0.23303205 0.053047843 -0.2653213 -0.0066351397 0.28750414 -0.02206548 -0.2643056 -0.23967734
-0.14514896 -0.155983 0.14837012 -0.19781423 0.14648876 -0.08411473 -0.3245759 0.03632901
00000000: 0a75 2dbd 11be 05bd 8c0c 053e 2a0d ccbd
00000010: 423a eabd 31bf 88bd ae07 993e 80c9 8fbe
00000020: 40cc 23bc e014 063f 851b 073e 4029 083e
00000030: b134 7a3d f2b2 823e 4da5 293e 4a75 9e3d
00000040: 5837 85bd 4747 acbd ea99 823e dc16 b9bd
00000050: e715 03bd 94e2 f1bd fa40 74be 82ec 593e
00000060: baea 38be 046f 80be c598 0fbe 2a67 28bd
00000070: cb02 a0bc b97a 01be 2108 383e 9374 2c3e
00000080: 0c52 d6bc d904 84bd 6841 4e3d 3447 813d
00000090: e148 e7bd be37 e4bd bc36 0b3e 376a 62bc
000000a0: f05f e13d 3f05 a7be c48c fa3d 8147 423d
000000b0: 8dd6 76be ef28 933e fb97 c7bd f434 7d3e
000000c0: 90e1 e93d 2396 2dbd 0589 93be 3d68 d2bc
000000d0: 20c0 a2bd 7b0e 203e 3520 ab3e 0100 b7be
000000e0: 6f97 953b b641 9bbd 82f6 903e 5df4 23be
000000f0: fc36 00bf d03a 153d b946 82bd c65e c73d
00000100: 63a5 273e 3987 b33d c967 1d3b 8ee9 00bd
00000110: ba09 d0bd 0dc1 2bbe b5db 0e3e 27ff 3cbe
00000120: 18bb d8bd ec28 76be 5091 70be 014a 25be
00000130: 3d94 cbbb dc28 1cbd ac0c d13d 9260 f4bd
00000140: 41fc bbbd b6f1 233e 583a a3be 4ae8 acbe
00000150: 8256 ab3d bfe4 69bc 05eb dd3d 2c34 d7bc
00000160: 6759 dabd 17e2 56bd 0301 a4bd 9b49 093e
00000170: 921c acbd 73bc f4bd e00a 8b3d ae5b 91bd
00000180: 0e23 a13d 6cba 79be 3941 953c ecf8 aebe
00000190: 1dad 30be 83c6 d6bd fbb3 823d d5d5 6f3e
000001a0: dae4 7f3c 63ca e33d 9cac bcbe 0bb4 d53e
000001b0: fc88 edbe a5f4 1f3e fc61 78be ba76 7abe
000001c0: 04d0 8b3e f6c2 cfbd 7a7c 71be c206 b4be
000001d0: 0b0c 15bd d815 22be ab09 b339 486d 33bb
000001e0: a11f 203e 9940 91be e478 b4ba 1362 fb3e
000001f0: 1958 d73c cf26 7dbe 66a2 b83d 9ce6 223e
00000200: 96e8 90bd d535 d73d b3eb 173e 5a3f a03d
00000210: 6f50 553e c6cd 7a3e 6a68 8c3e ce1b d73d
00000220: 3e51 f43d 7a3b 403e 9402 59be c03b b03d
00000230: e8b1 363e 2949 37bd 7c93 2a3e f1b0 b0bc
00000240: 6b8a 923e 2844 7c3e db90 2b3e b019 05be
00000250: 5b3e b53d ecf9 e7bc 5786 853b 54ce be3e
00000260: 4f16 923e 6883 4c3d dcec 9e3e 1427 33bc
00000270: 5045 edbc 9255 613d 0deb 523d 6172 9a3e
00000280: ee3a a23d cd49 60be a3ce 67bc dd97 c73b
00000290: 28a2 1abd 29ef 443e 0e09 97bd 840f 72be
000002a0: 5424 d83c 04b7 febd d4a6 953e 8af9 803e
000002b0: 6f93 78be ce27 263e 0f60 a93d 24d5 0ebc
000002c0: c8e8 d2bc 9147 29bb 9268 06bd 4c9e aabb
000002d0: 5751 b03d 14de 673e bb77 a33d 019e 213e
000002e0: 79ed 833e 0172 073c d889 383e 1819 833e
000002f0: 9e77 573e c78e 383e e1bf 083d affa 38bc
00000300: b14e afbd acc1 93bc 391e 43be 27d3 dd3d
00000310: a86b 5abd a801 52bd 15bc c03b eadb f3bd
00000320: 7af9 a7bd 7f88 52be 70cd bd3d 3195 debd
00000330: 7548 cabd c7d3 2d3e 5ff8 48be dec7 d53d
00000340: 7fa0 c13d ff4c a73d cd16 86bd b776 8d3e
00000350: 1487 8dbd e744 56be c73a 10bd b039 bb3d
00000360: 356b 09bd 2170 053e a795 1a3e 7256 84bd
00000370: 7362 923e bf3b ef3d d5e7 c63d 6543 06bd
00000380: d990 193e 7ba9 d63d da35 ab3e fc96 403e
00000390: a282 bc3c b39d 1bbf 5691 5e3e f301 633e
000003a0: c48e d53d 5794 663d 535e d5bd 67b7 babd
000003b0: 69df f7ba 549e 193e 2446 8cbc d54e 573e
000003c0: f49f 6e3e b248 593d 32d8 87be 966b d9bb
000003d0: be33 933e aac2 b4bc 1053 87be fa6d 75be
000003e0: eea1 14be 02ba 1fbe 56ee 173e d08f 4abe
000003f0: 2601 163e 5844 acbd d02e a6be bacd 143d

hidden2.bias f4 [128]
-0.099546716 0.073091805 -0.13638234 -0.1187492 -0.080334865 -0.00996256 -0.15166005 -0.114918314
-0.090992615 -0.1756779 -0.08130894 -0.023022994 -0.010471051 -0.022132646 0.06812395 -0.12345306
0.011499159 0.047666334 -0.10314371 -0.17337972 -0.016130509 0.07433049 0.081647836 -0.10032317
-0.30332333 -0.031658657 0.002827125 -0.02866724 -0.048670843 -0.09182916 0.0046439385 0.08369781
0.13464218 -0.010034159 -0.30046472 -0.06247648 -0.03418036 0.15921715 -0.08828795 -0.11502884
-0.023887778 -0.023829883 0.076148376 0.06459915 -0.05343941 -0.04078211 -0.077036 -0.03706387
-0.12166512 -0.11795777 0.054146722 -0.050456993 -0.094424516 -0.04065382 -0.08017873 -0.1021088
-0.013879803 -0.35099483 -0.0847274 -0.029217258 -0.11281059 0.10554253 -0.12151722 0.091096304
-0.154317 -0.020513993 0.08210869 -0.07612399 -0.006579351 0.05579783 -0.18901786 0.075669244
0.0050750608 -0.21715385 -0.043605246 0.008233944 -0.07725354 -0.26479363 0.086927645 -0.044930376
-0.05507093 -0.23236997 -0.007475495 -0.08195655 -0.041093543 0.10172201 -0.25815696 -0.014569118
0.023269517 0.09992955 -0.05992573 0.0456354 0.034242984 -0.35223696 -0.028086029 -0.14297931
0.03088355 -0.054921947 0.071649164 -0.25098872 0.02272061 -0.17008647 0.1570811 -0.0854722
0.13411933 -0.09651998 0.021834657 -0.10057042 0.014685384 -0.17869952 0.057474315 -0.017285515
-0.08113918 -0.052637994 -0.13732532 -0.067932375 -0.0011233588 -0.059296023 -0.04510099 0.05578556
0.016644059 -0.04998571 0.0058903545 0.14169581 -0.008673038 0.17163162 0.033360586 -0.12931497
00000000: 26df cbbd 28b1 953d d0a7 0bbe c832 f3bd
00000010: 9b86 a4bd 013a 23bc c64c 1bbe 4b5a ebbd
00000020: 565a babd e8e4 33be 4d85 a6bd b89a bcbc
00000030: c58e 2bbc 864f b5bc 9284 8b3d f5d4 fcbd
00000040: f866 3c3c c63d 433d 023d d3bd 748a 31be
00000050: 2124 84bc 953a 983d fb36 a73d 3c76 cdbd
00000060: 324d 9bbe 82ac 01bd 4947 393b 8fd7 eabc
00000070: 145b 47bd ed10 bcbd 2e2c 983b c269 ab3d
00000080: a4df 093e 5066 24bc 83d6 99be 56e7 7fbd
00000090: b500 0cbd d209 233e 50d0 b4bd 3e94 ebbd
000000a0: 4db0 c3bc e336 c3bc aef3 9b3d 8f4c 843d
000000b0: 48e3 5abd 240b 27bd 0dc5 9dbd 49d0 17bd
000000c0: 902b f9bd d893 f1bd f4c8 5d3d feab 4ebd
000000d0: a461 c1bd 9f84 26bd bf34 a4bd 6b1e d1bd
000000e0: 1d68 63bc 98b5 b3be 8f85 adbd 0859 efbc
000000f0: 3d09 e7bd af26 d83d 05de f8bd b390 ba3d
00000100: 4705 1ebe f60c a8bc 9a28 a83d e5e6 9bbd
00000110: 9997 d7bb 448c 643d e68d 41be 7af8 9a3d
00000120: b24c a63b 945d 5ebe 6a9b 32bd aae7 063c
00000130: 1b37 9ebd 0893 87be 1f07 b23d ea08 38bd
00000140: 0e92 61bd 65f2 6dbe fff4 f4bb d6d8 a7bd
00000150: b451 28bd a153 d03d 262d 84be 4fb3 6ebc
00000160: b79f be3c dda7 cc3d af74 75bd 2fec 3a3d
00000170: 5f42 0c3d 6758 b4be ac14 e6bc 2b69 12be
00000180: 80ff fc3c d6f5 60bd ccbc 923d 9881 80be
00000190: 9320 ba3c 262b 2ebe ded9 203e 0c0c afbd
000001a0: 9456 093e 44ac c5bd 98de b23c ddf7 cdbd
000001b0: f79a 703c 02fd 36be 306a 6b3d 5a9a 8dbc
000001c0: 4c2c a6bd f09a 57bd 029f 0cbe 2120 8bbd
000001d0: ab3d 93ba 63e0 72bd d1bb 38bd 667f 643d
000001e0: 1f59 883c d1bd 4cbd e003 c13b b518 113e
000001f0: 5c19 0ebc 33c0 2f3e 1ca5 083d 256b 04be

out.weight f4 [4, 128]
-0.3046997 -0.003346615 -0.2914535 -0.74014187 0.4425431 0.0039499514 0.047427267 0.4242041
-0.45737797 0.20535849 -0.17620757 0.5962068 -0.13528004 0.1401211 0.15502925 -0.40666378
-0.21306553 0.30014247 -0.38874635 0.14175808 -0.59485275 0.36151534 -0.1603949 0.2113614
-0.9935099 0.21130724 -0.6784702 0.21843565 0.64286226 0.063375816 -0.27947712 -0.21702246
0.06372064 -0.497885 -0.020259693 0.5263489 -0.09064811 -0.13147026 -0.9612981 0.1330094
0.16889596 -0.28187734 0.3421795 0.26065812 0.038591407 -0.21902075 0.36462897 -0.1762909
0.2899674 0.24823578 0.14850426 0.29537332 -0.15729615 0.6057538 -0.2161168 -0.032189567
-0.3590103 -0.24041599 -0.3295219 0.084677696 -0.35180047 -0.23092234 -0.23754552 -0.07901896
0.321888 0.2155381 -0.2561145 0.59618163 0.69300807 0.5997085 0.02946526 0.048346724
0.19719496 -0.1862533 0.08360416 -0.12715468 0.03675758 -0.16408798 -0.18918039 0.18900867
0.13563535 0.7058693 0.62013185 0.09977987 0.016061297 -0.29753482 -0.39630866 -0.2590408
-0.5357164 -0.15751459 -0.20137978 -0.38387224 -0.22957169 -0.078864835 -0.08438608 0.36516687
0.019019606 0.4805116 0.41140163 -0.5340531 0.19072686 0.22282463 0.029570416 -0.59006864
-0.16180916 -0.46334675 0.511072 -0.5401068 0.39717802 0.4152351 0.00093649665 0.015068901
0.4947845 -0.12565085 -0.15535524 0.49330816 -0.29521483 -0.10260436 -0.2950718 0.10815618
0.39676422 -0.00817327 0.10917992 -0.20106088 -0.015155745 -0.13158903 -0.28151962 -0.32538113
0.5098626 -0.081944026 0.18382074 -0.29504913 0.04429744 0.48000205 0.6731445 -0.054342072
0.34631148 0.17602874 -0.24151254 0.0831044 -0.18753803 0.15488745 0.03682898 -0.15995137
0.4221073 -0.21378265 0.44751558 0.4594528 0.2679501 -0.1295188 -0.3073331 0.52502984
0.35103875 -0.08539044 0.54096675 0.048487607 -0.09874313 0.17871922 -0.5704981 0.114407256
-0.4127156 -0.27453235 -0.14909634 0.22614019 0.0045879018 0.17653574 0.019588165 0.26872092
0.12321064 0.3013109 0.53188986 0.2488881 -0.44841197 -0.20599328 0.27057093 0.02386814
-0.36102524 -0.10070864 -0.022402138 -0.4352847 -0.56964433 0.15730393 -0.2736074 -0.19487037
0.046316233 -0.57178235 0.2998641 -0.12930404 -0.04063705 0.0014882702 -0.056031086 0.34923565
-0.009852148 0.04131236 0.15068194 -0.41925582 -0.26092342 -0.13512643 -0.3571205 0.38030908
-0.18386589 -0.112860546 0.43981478 0.3557742 -0.3521538 -0.25936213 -0.11422423 -0.4059615
0.14132416 -0.11779858 -0.51424545 0.118984364 -0.01644685 -0.13006692 -0.013468583 -0.15890178
-0.14608641 0.0011450623 0.15792365 -0.66495764 -0.022223512 -0.17668818 -0.16391516 0.47344437
0.08940325 -0.35379148 0.16592343 0.02166772 -0.43778822 -0.5430672 0.44018674 0.26378682
0.1784901 0.335735 -0.0936823 -0.100114964 -0.031569213 0.5099837 -0.22387783 0.45820108
-0.30676413 0.80987173 0.31266466 0.6452295 -0.1077746 0.38050607 0.3051124 0.16666092
0.31837317 -0.29221705 0.042151332 -0.0963776 -0.5216667 -0.22776419 -0.19449902 0.27828807
00000000: 9901 9cbe e252 5bbb 6539 95be f079 3dbf
00000010: 0295 e23e 986e 813b 1843 423d 4831 d93e
00000020: 722d eabe 7f49 523e c26f 34be 02a1 183f
00000030: da86 0abe e87b 0f3e fdbf 1e3e 3c36 d0be
00000040: da2d 5abe 46ac 993e c309 c7be 0829 113e
00000050: 4548 18bf 8a18 b93e 903e 24be 1f6f 583e
00000060: aa56 7ebf ed60 583e 39b0 2dbf 98ad 5f3e
00000070: 9f92 243f 2ecb 813d a017 8fbe 233b 5ebe
00000080: f87f 823d c8ea febe a8f7 a5bc cdbe 063f
00000090: b7a5 b9bd 24a0 06be a217 76bf 9e33 083e
000000a0: 10f3 2c3e 3a52 90be 2732 af3e fb74 853e
000000b0: 0612 1e3d fa46 60be a6b0 ba3e 9a85 34be
000000c0: 9b76 943e 8531 7e3e 8011 183e 2c3b 973e
000000d0: 3e12 21be ae12 1b3f b94d 5dbe 35d9 03bd
000000e0: 33d0 b7be 9c2f 76be 18b7 a8be 806b ad3d
000000f0: 311f b4be e876 6cbe 223f 73be b1d4 a1bd
00000100: 81ce a43e 05b6 5c3e 7121 83be 5c9f 183f
00000110: fa68 313f 7f86 193f 2161 f13c 3707 463d
00000120: 7aed 493e 2fb9 3ebe a838 ab3d d634 02be
00000130: 1e8f 163d ae06 28be 81b8 41be 7d8b 413e
00000140: fee3 0a3e dab3 343f f6c0 1e3f 6359 cc3d
00000150: fb92 833c 7c56 98be f8e8 cabe ffa0 84be
00000160: b624 09bf 814b 21be 8036 4ebe e78a c4be
00000170: d714 6bbe e383 a1bd 9cd2 acbd 27f7 ba3e
00000180: 01cf 9b3c 9e05 f63e 3ca3 d23e b4b7 08bf
00000190: e74d 433e 242c 643e a83d f23c bd0e 17bf
000001a0: 4db1 25be c93b edbe 9dd5 023f 7044 0abf
000001b0: eb5a cb3e b299 d43e 3a7f 753a 8de3 763c
000001c0: 6554 fd3e 9eaa 00be 7215 1fbe e392 fc3e
000001d0: 6626 97be 3c22 d2bd a713 97be fd80 dd3d
000001e0: ae24 cb3e 2ee9 05bc b999 df3d e7e2 4dbe
000001f0: cd4f 78bc 46bf 06be 5723 90be 5b98 a6be
00000200: 5b86 023f 45d2 a7bd 813b 3c3e ae10 97be
00000210: 3c71 353d d4c2 f53e 3353 2c3f cb95 5ebd
00000220: bd4f b13e e140 343e 104f 77be a432 aa3d
00000230: f809 40be d19a 1e3e fcd9 163d 4bca 23be
00000240: 731e d83e d7e9 5abe c320 e53e 663d eb3e
00000250: c130 893e 94a0 04be c45a 9dbe 5b68 063f
00000260: 5abb b33e 2fe1 aebd cc7c 0a3f f19a 463d
00000270: d739 cabd 2c02 373e 2a0c 12bf 5a4e ea3d
00000280: 764f d3be 818f 8cbe b6ac 18be 4b91 673e
00000290: 1c56 963b c9c5 343e 5c77 a03c ca95 893e
000002a0: dc55 fc3d 6c45 9a3e ef29 083f 86dc 7e3e
000002b0: 4196 e5be e7ef 52be 4688 8a3e 1e87 c33c
000002c0: 4dd8 b8be 5540 cebd b084 b7bc a3dd debe
000002d0: 36d4 11bf 4814 213e 4516 8cbe 198c 47be
000002e0: 17b6 3d3d 5460 12bf ca87 993e 4768 04be
000002f0: 0973 26bd 1012 c33a da80 65bd 04cf b23e
00000300: e76a 21bc 2637 293d 5e4c 1a3e b3a8 d6be
00000310: c197 85be 955e 0abe 80d8 b6be dfb7 c23e
00000320: 5747 3cbe 6e23 e7bd 672f e13e 0928 b63e
00000330: 814d b4be 1dcb 84be 65ee e9bd 30da cfbe
00000340: 48b7 103e 6240 f1bd 97a5 03bf 13ae f33d
00000350: 8bbb 86bc 4330 05be 55ab 5cbc 26b7 22be
00000360: ad97 15be ea15 963a bdb6 213e aa3a 2abf
00000370: 150e b6bc bfed 34be 60d9 27be 4d67 f23e
00000380: 0d19 b73d 2824 b5be d5e7 293e 8180 b13c
00000390: c725 e0be 7406 0bbf 2860 e13e 110f 873e
000003a0: 1cc6 363e 75e5 ab3e 81dc bfbd 1309 cdbd
000003b0: b84e 01bd 4b8e 023f 3b40 65be 5599 ea3e
000003c0: 3010 9dbe c153 4f3f 9515 a03e c32d 253f
000003d0: eeb8 dcbd b1d1 c23e b137 9c3e 29a9 2a3e
000003e0: cf01 a33e 799d 95be e0a6 2c3d 9f61 c5bd
000003f0: f38b 05bf 043b 69be c02a 47be c67b 8e3e

out.bias f4 [4]
-0.15017025 -0.10609613 0.058592264 -0.060094472
00000000: 3bc6 19be ee48 d9bd 71fe 6f3d 9f25 76bd
