checkpoints/checkpoint_critic_4_mean_4.pth (torch, 87959 bytes, 5 tensors)

hidden1.weight f4 [128, 37]
000000 ec ac 99 3e 17 3b 3d 3e 19 8b 34 bd 98 f1 24 3d
       0.3001474 0.18479572 -0.044077966 0.040269464
000010 c6 61 22 be 17 0b b9 be 1b db 88 be e0 7e 33 bd
       -0.1585761 -0.36141273 -0.26729664 -0.04382217
000020 22 57 00 be d6 41 96 3e 79 54 6d 3e cd fd 92 3e
       -0.12533239 0.29347104 0.23176755 0.2870926
000030 5f 8c a0 bd 24 54 b0 3e ff 02 bc 3e 7b dd 02 3d
       -0.07839274 0.34439194 0.36721036 0.0319495
000040 04 ad 12 bf 98 45 2b 3e 38 32 15 bf a8 0f 0c 3d
       -0.5729525 0.16725767 -0.5827975 0.03419462
000050 f1 d7 d8 bd 30 9f 00 bd 5a e8 15 3e f9 35 77 3e
       -0.105880626 -0.031401813 0.14639416 0.24141683
000060 01 22 5b 3d c7 d1 50 3c 82 0a e2 3e b5 cf 9e 3e
       0.053499226 0.012745327 0.44148642 0.31017843
000070 e9 6a 54 3d 0c a2 de bd 1e 6f e4 be c0 62 a8 bb
       0.05185977 -0.10870752 -0.44616026 -0.005138725
000080 71 db 16 bf a8 57 dc 3d bc 7e 45 3d 5c 52 0f 3e
       -0.5892859 0.107589066 0.048216566 0.13996261
000090 f9 c6 9e 3e b4 0c 0a be 77 2e a0 3e f9 12 17 3d
       0.3101118 -0.13481408 0.3128545 0.036883328
0000a0 e7 f2 6c be 62 53 85 be 02 fe b9 3d 22 db b1 3e
       -0.23139535 -0.2604018 0.09081651 0.34737498
0000b0 81 ab 1f be a8 1c 5a be ff 94 88 3e c7 43 a2 bd
       -0.15592767 -0.21299994 0.26676175 -0.07923084
0000c0 e3 02 b3 3e b4 e6 aa bd 83 34 04 bf 5d ef 13 3f
       0.3496314 -0.083447844 -0.51642627 0.57787114
0000d0 29 e7 09 3e 26 aa 33 be 46 46 41 bf 81 10 15 bf
       0.13467087 -0.17545375 -0.75497854 -0.5822831
0000e0 fa df 3c 3e 39 06 52 3c 30 6d e1 3d e3 53 6f 3d
       0.18444815 0.012818866 0.11007154 0.05842961
0000f0 b3 a5 14 be 57 de ae 3e 3c af 43 3d 5b 62 c0 3e
       -0.14516334 0.34154007 0.04777454 0.3757504
000100 bd 89 6f 3f c8 f9 ad 3e 50 b7 9b 3c 33 eb 8e bf
       0.93569547 0.3397963 0.019008309 -1.1165527
000110 60 e5 a0 bc ec 29 04 40 6e 45 24 bf cd aa d4 be
       -0.019640625 2.0650587 -0.6416844 -0.4153656
000120 71 f8 cb 3e 54 45 01 bf 63 98 a4 3e a6 b8 2d 3d
       0.39837983 -0.5049641 0.32147512 0.042412423
000130 7e 61 c0 3d 3c d2 c8 be b6 89 9f bc 06 a6 0b 3f
       0.09393595 -0.39222896 -0.019474845 0.54550207
000140 af d1 99 bd 0b e5 2d 3e 2b c0 7b be ca 9c 8a be
       -0.07510697 0.16981904 -0.24585025 -0.27072746
000150 5f 43 be bd 69 ad c6 bd 0a 6b 83 3d cd d3 c2 3e
       -0.09290194 -0.09701044 0.064169005 0.38052216
000160 e8 9f 65 3f 24 03 51 3e ae 2f 3b bf 00 97 a7 bd
       0.8969712 0.20411354 -0.7311963 -0.08183098
000170 6a 91 a4 bd c2 98 97 bd db 55 d3 bd 99 fe b7 3e
       -0.08035548 -0.07402183 -0.1031911 0.3593643
000180 ad 9c db be 14 25 98 3e 86 bf 7f bd 44 ee 03 be
       -0.42892972 0.29715788 -0.06243851 -0.1288386
000190 aa df 60 be a1 b6 d4 3e 35 e4 62 be a1 fb 04 be
       -0.21960321 0.41545585 -0.22157367 -0.12986614
0001a0 36 f3 82 be 17 48 25 be 53 5b d8 3f 8f 9a 5c 3e
       -0.2557618 -0.16140781 1.690287 0.21543334
0001b0 5d ef 17 3f 2f 9f c5 bd b4 c1 de ba a2 a7 50 bf
       0.59349614 -0.096495025 -0.0016994984 -0.8150579
0001c0 bf 4e 4f 3f 09 a2 6b be 05 1e e7 be f7 9c 29 bf
       0.8097953 -0.2301103 -0.4514009 -0.66255134
0001d0 03 66 00 bf 3d d1 46 be 53 8e bf be 68 23 3a 3f
       -0.5015566 -0.19415756 -0.37413272 0.72710276
0001e0 39 4a 22 be 69 f4 12 be 11 44 89 be e5 dd 46 be
       -0.15848626 -0.14351048 -0.26809743 -0.19420584
0001f0 79 9f 94 3e d2 e9 6d 3e d7 9c 59 3e de 7d a7 be
       0.29027918 0.23233727 0.21251236 -0.32713217
000200 32 ce c5 3d 09 43 c0 3e 2f 46 b7 3e 4f 27 fb 3c
       0.09658469 0.37551144 0.35795733 0.030658392
000210 5f 34 83 be 73 3b 90 be 6a df df 3c 83 0b f8 bd
       -0.25625893 -0.28170356 0.027328212 -0.12111571
000220 8e 8d 38 bd 6e 1d 7d be 5c e2 18 3f 31 8b 08 bf
       -0.045056872 -0.24718258 0.59720397 -0.5333739
000230 26 ec fe bd f5 1e f5 be 18 39 cb 3c b4 c8 22 3f
       -0.124473855 -0.4787518 0.024807498 0.635875
000240 2f 32 d1 bd dd a0 e3 3d fd 01 3c 3e a1 3d dd 3e
       -0.1021465 0.111146666 0.18360133 0.43211082
000250 78 6a c0 bd bc e0 e8 3e 7b ea aa 3e 51 8b b5 be
       -0.09395307 0.4548396 0.3338202 -0.35457852
000260 30 53 a9 bd 19 d0 20 3f 8f 2f 1c 3f 04 c5 85 3d
       -0.0826782 0.6281753 0.6101007 0.065317184
000270 f4 a7 22 3f 10 3d 7a be a1 bf ca 3c 35 71 90 be
       0.63537526 -0.24437356 0.024749579 -0.2821137
000280 f8 e5 3c 3e 5e 45 9d 3d 1b 42 fa 3d 81 cc 16 bf
       0.18447101 0.07679246 0.1221964 -0.589058
000290 19 74 95 3e ee 84 85 3d 71 2a e1 3e 1e 18 62 be
       0.29190138 0.06519495 0.43977693 -0.22079512
0002a0 0c 54 59 be 33 51 8f be 52 2c 72 bc 34 e6 ad 3d
       -0.21223468 -0.27991638 -0.014781075 0.084911734
0002b0 20 4a 2b 3e 21 a5 5c bd 1e c8 3f bd 72 1c 35 3f
       0.16727495 -0.053868417 -0.046821706 0.7074653
0002c0 7e ab 9c 3e 00 23 98 3a 81 4e 03 bf 91 29 09 3e
       0.30599588 0.001160711 -0.5129166 0.13394763
0002d0 91 f6 23 c0 e8 b3 96 be 64 28 e3 3d 31 e8 e1 3d
       -2.5619242 -0.29434133 0.11091688 0.11030615
0002e0 e5 86 03 be 0c c1 fe 3d 10 fb e2 3d 73 39 80 3d
       -0.12844427 0.124391645 0.110830426 0.062609576
0002f0 6e 8d 19 be 24 b8 38 3e 14 8b da bd 42 ab ec bd
       -0.14995357 0.18038994 -0.10671058 -0.11556102
000300 60 e3 61 bd c7 a2 96 3e 0b 73 84 3e 37 3a 01 3e
       -0.055148482 0.29421064 0.2586902 0.12619863
000310 00 42 a2 bc d5 43 00 3e 67 75 02 be 7a ec fb 3d
       -0.019806862 0.12525876 -0.12740098 0.12300964
000320 81 2e 53 3e ce 6e 04 3e 22 bc 85 bd 44 50 2c 3d
       0.20623209 0.12932894 -0.06530024 0.042068735
000330 35 64 9d 3d d6 dc 39 be 02 39 46 3e 17 76 0e 3e
       0.076851286 -0.18150648 0.19357684 0.13912235
000340 ce cb c5 be d0 9e 1d b9 b2 1f 0a 3e b2 46 55 bd
       -0.38632053 -0.00015031849 0.13488653 -0.052069373
000350 bb 24 8b 3f 2b 15 90 be a0 e2 d4 bc e7 8b 95 bf
       1.0870584 -0.2814115 -0.02598697 -1.168332
000360 00 6d 97 bb d4 e0 65 c0 29 35 3c 3e d0 1a 19 3e
       -0.004621148 -3.5918474 0.18379654 0.14951634
000370 ae 1b 8a be 18 61 c9 bd f3 81 6a 3e 9c bd 42 3f
       -0.26974243 -0.09832972 0.22901134 0.7607057
000380 31 4e 96 3e 37 fe ec bd 2c 80 47 3e ec 85 03 be
       0.2935653 -0.11571925 0.19482487 -0.12844056
000390 55 59 a3 3e 35 52 76 3c 7e 2d 5c 3d c3 74 26 bc
       0.31904092 0.015034248 0.053754322 -0.010159674
0003a0 4d c2 0a be 77 e3 c6 3d 5b dc 29 b9 0b c2 5e bf
       -0.13550682 0.09711354 -0.00016199185 -0.87014836
0003b0 6c 7d 44 bf 4d 98 43 3d be aa a9 3e c9 7a 17 3d
       -0.7675388 0.047752667 0.33138078 0.03698233
0003c0 89 a8 64 3e e7 27 b1 bd 45 10 6e 3d d3 61 36 3d
       0.22329916 -0.08650189 0.058120985 0.044526886
0003d0 0f 39 e0 bb 6e e1 0b be c4 ee 58 be 17 22 90 3c
       -0.0068427394 -0.13660213 -0.21184832 0.01759438
0003e0 5b 88 04 3f 03 fb 8b 3f e1 50 3c be 99 16 14 3e
       0.5177056 1.0935978 -0.18390228 0.14461745
0003f0 b4 a9 9b bf aa ad ab 3d 56 b8 28 bf d0 fe 81 bd
       -1.2161164 0.08382733 -0.65906274 -0.0634743

hidden1.bias f4 [128]
000000 af 72 19 bf 92 eb 52 bf 0e b3 cc be de fc 12 bf
       -0.5994062 -0.823907 -0.39980358 -0.57417095
000010 b7 eb 3c bf 5a 6e 96 bf 37 c5 8b bf 44 a7 b3 bf
       -0.7379717 -1.1752427 -1.091956 -1.403542
000020 bb 16 8c be 24 56 87 be 51 c5 19 3f 4c 58 49 bf
       -0.27361092 -0.26432908 0.60066706 -0.78650355
000030 cd c7 68 bf bb 5a 9b bf 31 f1 a2 bf 25 66 f3 be
       -0.9092987 -1.2137064 -1.2729856 -0.47538868
000040 c3 e3 a3 bf 15 83 22 bf e1 c2 6c bf 66 a4 24 bf
       -1.2803882 -0.63481265 -0.9248486 -0.6431335
000050 c6 3c 17 bf fd 0f 7b bf e7 34 d3 be 22 df 83 bf
       -0.5907711 -0.9807127 -0.412513 -1.030247
000060 31 06 0c bf 1a bc bc bf 6a 5c 15 bf 10 6a 22 be
       -0.5469695 -1.4744904 -0.5834414 -0.15860772
000070 b8 07 f5 be 31 3e 84 bf 41 4e 00 bd 80 fe 1c bf
       -0.4785745 -1.0331479 -0.03132463 -0.61325836
000080 dc 94 7a bf d9 08 80 bf 83 ed 03 bf ad a1 60 bf
       -0.9788339 -1.00027 -0.5153429 -0.877467
000090 e0 4a 33 bf aa 9f cb be 4c 5f f9 be 73 ce 51 bf
       -0.70036125 -0.39770252 -0.48705518 -0.8195564
0000a0 d3 35 9a be 30 37 bd 3d 1d ec 09 bf 9b 88 cd be
       -0.3011919 0.09239042 -0.53875905 -0.40143284
0000b0 0f 86 b8 bf e8 8e 83 bd bc d3 6c bf 7f b0 ba bd
       -1.4415911 -0.064237416 -0.9251058 -0.09115695
0000c0 45 4c aa bf dd b2 8d bf e9 6a 00 bf 76 41 34 bf
       -1.3304526 -1.107021 -0.5016313 -0.70412385
0000d0 87 fe 80 bf 1f 45 24 bf 46 e5 96 bf b8 6f 51 bf
       -1.0077676 -0.6416797 -1.1788719 -0.81811094
0000e0 e4 53 76 bd c0 fa ca be da 41 73 bf a8 05 4c bf
       -0.060138598 -0.39644432 -0.95022357 -0.7969613
0000f0 49 c8 20 bf bc f1 33 bf b1 0f 95 3e 39 e1 14 bf
       -0.6280561 -0.7029073 0.29113534 -0.5815616
000100 5a 77 68 bf ef 76 20 bf b6 89 67 bf 74 e1 4c bf
       -0.90807116 -0.6268148 -0.90444505 -0.80031514
000110 17 19 1f bf 83 40 83 bf 3a 7f 3b bf 4d 59 52 bf
       -0.6214766 -1.0254062 -0.7324101 -0.8216751
000120 e2 ad a7 be 20 e6 4a bf 46 57 fb be 6d 7e 90 bf
       -0.3274985 -0.7925739 -0.49090022 -1.1288582
000130 a4 ae 11 bf af c1 6c be 48 2d 68 bf df a7 88 bf
       -0.56907105 -0.2312076 -0.90694094 -1.067623
000140 62 98 03 be b5 cc df be 18 fe cd be 33 73 09 3f
       -0.12851098 -0.43710867 -0.4023292 0.53691405
000150 00 86 2c bf d5 ae 3d 3f 09 98 82 bf a6 ec c4 be
       -0.6739197 0.740949 -1.0202647 -0.38461798
000160 d8 bb 97 bf ab bc 99 3d 1b 12 9a bf 16 31 8e 3f
       -1.18542 0.07506689 -1.2036775 1.110873
000170 90 ed 84 bf b1 61 61 3e 5f 1c c1 be 3d c3 77 bf
       -1.0384998 0.22009923 -0.37716958 -0.96782285
000180 f7 0d 7a bf 43 52 4f bf 35 1c 8f bf bb 1e 74 bf
       -0.9767756 -0.80984896 -1.1180483 -0.9535939
000190 c8 17 75 bf 84 6b 9f be 97 0b 95 bf b9 5d 36 bf
       -0.9573941 -0.31136715 -1.1644162 -0.7123676
0001a0 a6 7a 78 bf 8d cc 83 bf 29 b1 9a bf 02 90 3e be
       -0.97062147 -1.0296799 -1.2085315 -0.18609622
0001b0 ae 23 3e bf 04 28 23 bf ce 2c 8a bf 1c 78 4d bf
       -0.7427319 -0.63732934 -1.0794923 -0.802614
0001c0 67 2c 80 bf a5 6f 82 bf 2c 45 99 be fa 33 01 bf
       -1.001355 -1.0190321 -0.29935586 -0.50469935
0001d0 39 e7 fd be e6 15 28 bf 68 85 86 bf 37 2e 5f bf
       -0.4959047 -0.65658414 -1.0509462 -0.87179893
0001e0 41 cf 70 bf a7 03 5b 3f 1b 0c 41 be 1a d9 97 bf
       -0.94066244 0.8555245 -0.18852274 -1.1863129
0001f0 74 4e 87 bf 53 34 52 bf a9 09 a4 bf fe 4c 17 be
       -1.0570817 -0.8211109 -1.2815448 -0.14775464

hidden2.weight f4 [128, 128]
000000 08 b4 15 be 87 42 5a bd 9b 30 4a bd 11 ce 0e bd
       -0.14619458 -0.0532861 -0.04936276 -0.03486449
000010 14 44 03 be a3 fe 0f 3d 62 3a 12 bb 27 da eb bc
       -0.12818938 0.03515495 -0.002231263 -0.028790547
000020 38 f1 8d bb 62 a2 b7 bd 72 b7 70 ba 16 1a a1 bc
       -0.004331734 -0.08966519 -0.0009182609 -0.019665759
000030 6c db c6 bc b2 37 5b bd ee ab 3e 3d f3 3f 85 bd
       -0.02427455 -0.053519912 0.046550684 -0.06506338
000040 fc 91 89 bd 82 f4 47 bd 0f 76 a5 bd 27 7a 03 bd
       -0.067172974 -0.048817165 -0.080791585 -0.032098915
000050 c7 12 e1 3b e9 33 ac bd ef 9c 27 bc f7 61 ef bc
       0.0068686935 -0.084083386 -0.010230287 -0.029221518
000060 93 44 a7 bd 16 74 b9 bd 12 64 48 3d ec a7 89 bc
       -0.08167376 -0.09055345 0.04892356 -0.016803704
000070 ed 81 a5 bc 25 66 03 bc 31 e3 a1 bd 94 f6 e7 bc
       -0.020203555 -0.008019959 -0.079046614 -0.02831582
000080 96 c9 c4 bd 0a f7 8f bd 2b ab d4 bd e2 0a 3b bd
       -0.09608762 -0.07029541 -0.1038421 -0.045664676
000090 a2 c5 15 bc de 9b d8 bd c8 80 d0 bd ed 52 b5 bd
       -0.009141358 -0.10576604 -0.10180813 -0.088537075
0000a0 4f c8 07 be a3 88 06 3d 88 9b 1d bd a9 a1 b5 bc
       -0.13260005 0.03284515 -0.038478404 -0.022171812
0000b0 e2 2d ac 3c 56 b4 15 3d e8 e3 b3 3d 46 82 0f 3b
       0.021017972 0.036548935 0.08783704 0.0021897717
0000c0 66 d9 d8 3c 66 69 a6 bd ea 2e c7 bc 42 80 fe 3c
       0.026470851 -0.08125572 -0.024314363 0.031067017
0000d0 47 9e e5 3c c3 64 4b bd ac 9b b4 3c e5 68 91 bd
       0.028029574 -0.04965664 0.022046886 -0.07100085
0000e0 8c 8a d0 3c d3 e9 b6 bc e1 c2 83 bd c4 57 89 bd
       0.02545669 -0.022328293 -0.064336546 -0.06706193
0000f0 cb ba b7 bd f0 e6 61 bd 67 00 ef bb 83 5a 48 bd
       -0.08971175 -0.05515188 -0.007293749 -0.048914444
000100 f4 6d aa 3d 62 a1 40 3d a7 b9 ae bd ce b4 4d 3d
       0.08321753 0.047028907 -0.08531504 0.050221257
000110 d6 6c d9 bc e3 f7 55 3b c7 ef 43 bd 92 fa 6c bd
       -0.026541155 0.0032648973 -0.04783609 -0.05785615
000120 04 f0 4d bc 90 fd 65 bc 4e e0 48 3d e0 df 51 bb
       -0.012569431 -0.014037505 0.04904204 -0.003202431
000130 15 19 ca bd e5 8f a8 3b a4 b1 01 bd 73 73 00 be
       -0.09868065 0.0051441067 -0.031663552 -0.1254404
000140 f7 d0 a4 3c d5 5f 07 3c 0d 7b 96 bd 28 de e6 3b
       0.020119173 0.008262594 -0.07347689 0.007045526
000150 02 32 af bb b4 d9 ac 3c 36 4a ba bc 35 62 6f bd
       -0.0053465376 0.021099903 -0.022740465 -0.058443267
000160 27 53 58 3c ce a9 43 bd 77 8b cc 3c 84 c4 cd bd
       0.013203419 -0.04776936 0.024968846 -0.10047248
000170 5d 46 aa bd df 88 15 bd 76 00 40 bd a2 14 60 3d
       -0.08314202 -0.036507484 -0.04687544 0.054707177
000180 63 92 b9 bd e0 60 2d 3d 49 23 80 bd ed 98 5f bd
       -0.09061124 0.042328715 -0.0625673 -0.0545892
000190 44 1b bb bd 9a 24 ef bd c0 7a c6 bc 38 0f 28 bd
       -0.0913606 -0.11676903 -0.024228454 -0.04103014
0001a0 0e 96 99 bd ce 05 2b bc 72 c8 a6 bc dd 61 33 3d
       -0.07499324 -0.010438396 -0.020359252 0.0437945
0001b0 91 12 f1 3c 1d ca 7e bb 9b 83 66 bc 13 b5 3b bd
       0.029427798 -0.0038877793 -0.014069463 -0.045826983
0001c0 46 4b 03 3c 9a 9b 9d bd ef 66 bd bd f9 27 99 bd
       0.008013552 -0.07695694 -0.09248149 -0.07478327
0001d0 40 a6 be bd 61 e3 4b 3b c4 74 d7 3c 5d d8 80 bd
       -0.093090534 0.003111087 0.026300795 -0.06291268
0001e0 36 47 64 3c b1 72 b6 bd ec 1d ef 3c 26 62 12 bd
       0.013932994 -0.089085944 0.029189073 -0.035738133
0001f0 b4 56 3c bd f1 f3 86 bc f7 ae b3 bd e2 b7 d8 bd
       -0.045981124 -0.016473742 -0.08773606 -0.10581948
000200 02 c3 08 be b8 25 c3 bd 31 08 04 3d 26 ab 49 3d
       -0.1335564 -0.09528679 0.032234374 0.049235485
000210 41 3c fc ba 19 3d bf bd eb dc a7 3c 90 c3 b0 bb
       -0.0019244031 -0.09337825 0.020491084 -0.0053944066
000220 cf 73 ad bd 1d 77 13 bd c1 8b a3 bd 30 f3 44 bd
       -0.08469354 -0.036002267 -0.0798564 -0.048083484
000230 9c 49 e0 bb 8f bc 10 bd a3 8f 94 bd e8 57 52 3d
       -0.0068447124 -0.035336073 -0.07253959 0.051353365
000240 ba ea 29 3c 78 c7 84 3d 22 7d a4 bd 40 ba a6 bd
       0.010370905 0.06483358 -0.0803168 -0.08140993
000250 1c 61 8c bb 1e 71 c0 bd 40 08 b5 bd e7 fd 8e 3b
       -0.0042840373 -0.093965754 -0.08839464 0.0043637636
000260 0b dc 20 bd 8f 19 3e bd f6 e0 f2 3c 74 06 a9 bd
       -0.03927235 -0.046411093 0.029648285 -0.08253184
000270 90 5b 1c 3d 62 27 ae bd bc ae 82 bd cb 97 1f 3c
       0.03817326 -0.085036054 -0.06380984 0.00974078
000280 05 2d c9 bd b4 d3 a2 bc 15 69 54 3d 05 ce a7 bc
       -0.0982304 -0.019876339 0.051858027 -0.02048398
000290 e5 40 7d bd 47 60 24 3c 1f 33 e0 bd 02 32 ab 3c
       -0.061829466 0.01003272 -0.109472506 0.020897869
0002a0 7d e1 d5 bd b9 96 11 bd f1 91 a8 bd 7d d5 1e 3b
       -0.10443399 -0.03554413 -0.08230961 0.0024236136
0002b0 95 7f 00 3d 6a 0f a0 3b 98 36 32 bc 5e ea 24 bd
       0.03137167 0.00488465 -0.010877274 -0.040262572
0002c0 37 eb 22 3d ce 91 62 bd 41 7d 01 bd 6b fb 30 3d
       0.0397751 -0.05531483 -0.031613592 0.04320852
0002d0 74 75 98 bd 27 c9 3a bd 56 c8 e9 bd cf 20 9b bd
       -0.074442774 -0.04560199 -0.11415164 -0.07574617
0002e0 1e 93 80 bc bf 9e 64 bd 0f 1b 3a bc b9 e8 bf bd
       -0.015695151 -0.055815455 -0.01135899 -0.0937056
0002f0 72 85 e3 3b 4d 9b bb bd 9d fb a5 bb 79 c3 81 bc
       0.006943398 -0.09160481 -0.005065395 -0.015840279
000300 90 5c bc bd c8 21 73 bc 9d a8 56 bd a2 73 1c bd
       -0.091973424 -0.014839597 -0.052406896 -0.038196214
000310 16 b8 32 bd c5 f4 e5 bd 15 11 d2 bd d3 14 82 3d
       -0.04363259 -0.11228327 -0.102571644 0.06351628
000320 91 29 e6 3c 66 55 9f bd 32 0a 1a bd 62 b1 4e bd
       0.028095992 -0.0777996 -0.03760738 -0.050462134
000330 13 24 3b 3d d2 a7 b3 bc a6 31 13 bc 55 f2 cb 3c
       0.0456887 -0.021930609 -0.008984005 0.024895826
000340 e3 3a 34 bd 47 a0 0c 3d 6e 66 56 3d af 7b 0f 3c
       -0.04400147 0.03433254 0.05234378 0.008757516
000350 bc 1f e4 bd dc 1e 89 bd be 8f 0c bd 8f 5f 24 3d
       -0.11138865 -0.06695339 -0.03431677 0.040130194
000360 0d 8a 07 3a e9 23 5f bd 37 fd 3d bd b8 d4 ba bd
       0.00051704125 -0.054477606 -0.046384063 -0.09122604
000370 3c 0a a0 bd ca 22 90 bd c7 31 c4 bd cc a3 3c bd
       -0.07814452 -0.070378855 -0.09579807 -0.046054646
000380 af 2c 77 3d 90 18 a8 bd ce bb 01 bb c7 a9 04 bd
       0.060345348 -0.0820781 -0.0019795778 -0.032388475
000390 83 2b 57 bd bf f0 ba 3c a7 6f dc 3b 7d 2f 15 be
       -0.05253173 0.022819875 0.006727177 -0.14568897
0003a0 46 bd a0 bd bd 01 e6 3c 75 17 80 bd 40 10 f9 bc
       -0.07848601 0.028077 -0.06254474 -0.030403256
0003b0 20 eb 30 3d 30 9f 0f bd 09 a0 d0 bd 17 1a 98 bd
       0.043192983 -0.035063922 -0.10186774 -0.07426851
0003c0 88 47 8c 3c 12 eb 45 bd bd b1 03 bd cb 62 90 3b
       0.017123953 -0.048319884 -0.032151926 0.0044063083
0003d0 8e 79 65 bd ef e5 ec bd 6e 24 f9 bc 67 2f 93 bd
       -0.056024127 -0.11567294 -0.030412879 -0.07186776
0003e0 5c 68 a0 bd 60 dc 3d 3d 90 ed 20 bd e1 77 af bd
       -0.07832405 0.046352744 -0.039289057 -0.08567787
0003f0 50 8d 16 3d 97 71 60 3c 83 d2 23 bb 7f ac 51 bd
       0.03675586 0.013698957 -0.00249973 -0.051189896

hidden2.bias f4 [128]
000000 4f 7d 8a bd 18 b7 de bd d0 09 e6 bd ea e4 56 bd
       -0.06762182 -0.10874766 -0.1123234 -0.052464403
000010 0f 2e 4f bc 05 ad ed bb 3c 0c 25 be 02 34 ac be
       -0.012645259 -0.0072532916 -0.16117948 -0.3363343
000020 ba 5b a6 bc 8b 60 e8 bd 28 a3 81 bd 07 a9 d8 3d
       -0.02030741 -0.11346539 -0.06329948 0.105791144
000030 67 ea e8 bd 14 26 cd bd 38 f7 91 bd 0c 57 23 be
       -0.11372834 -0.100170285 -0.07127231 -0.15951174
000040 0e bf ca bd 0f 03 f0 bd 2b ee 59 bd 91 81 7f 3a
       -0.09899722 -0.117193334 -0.05320565 0.0009746785
000050 19 82 6f bd d1 4d f0 bd 39 4f 3f bd 89 56 4d 3d
       -0.05847368 -0.11733592 -0.046706412 0.050131354
000060 9c ef a8 bd 49 80 cf bd ce b6 84 bd 11 fc 0f 3f
       -0.08248827 -0.1013189 -0.0648018 0.56244
000070 07 7d fc bd 89 9f 11 be 1e 79 1c bb 1c 67 cf 3c
       -0.123285346 -0.14221014 -0.0023875902 0.025317721
000080 a6 fd 8f bb c6 d0 07 be 17 d8 a4 bd 6e 4d ca 3b
       -0.004394251 -0.13263234 -0.08049028 0.006173781
000090 cb e5 f2 bc fb a3 f7 bd ff 5e 7b bd 1f 2d ed bd
       -0.02965059 -0.12091824 -0.061369892 -0.11580872
0000a0 72 a4 09 bd 67 2b ed bd 46 7b 9f bc 9b 0b 3a be
       -0.033604093 -0.11580544 -0.019467961 -0.1816849
0000b0 18 1e 04 be 4a 00 bb bd b0 c1 06 bf bb cc 7d bd
       -0.12902105 -0.091309145 -0.52639294 -0.061962824
0000c0 46 c7 05 be 3f e2 f6 bd 20 70 d2 bd 69 34 0a be
       -0.13064298 -0.12054872 -0.102752924 -0.13496555
0000d0 66 8f 2e be 8c e8 00 be ba 15 da bd 8e 58 b1 bd
       -0.1704689 -0.1258871 -0.10648675 -0.086594686
0000e0 48 ed 37 bc 3c 17 88 bd 7c e3 d8 bd 39 71 b3 bd
       -0.011226006 -0.066450566 -0.10590264 -0.0876183
0000f0 f2 80 5f 3e 4d 51 03 be d8 f9 4a be a7 5c eb bb
       0.21826532 -0.12823983 -0.1982187 -0.007182676
000100 c8 9f 02 be 58 e0 d7 bd 6b f7 a3 bd 29 94 4e bd
       -0.12756264 -0.10540837 -0.080061756 -0.050434265
000110 ba 5e c6 bd f2 1e 23 be 6e c8 e1 bd 4d 73 19 be
       -0.096860364 -0.15929773 -0.11024557 -0.1498539
000120 73 64 78 bd a1 b5 d7 bd 49 9e f9 bd a0 c8 26 be
       -0.06064267 -0.1053269 -0.121883936 -0.1628747
000130 68 df b7 3c a4 56 cf bd 62 96 99 bb b3 11 e5 bc
       0.022445396 -0.10123947 -0.0046871165 -0.027962541
000140 1e 52 7a bc 8a 2f 0f bd fa 55 3a bc 0b 4f 51 bb
       -0.015278367 -0.034957446 -0.0113730375 -0.0031937982
000150 9c 85 2b bd 6b f5 6a 3c 45 65 1b be 50 c6 03 be
       -0.041875467 0.014340739 -0.1517535 -0.12868619
000160 84 ae e5 3b 21 c5 c4 bd ba 51 6e 3f 57 d8 cd bd
       0.0070093293 -0.09607912 0.93093455 -0.10051029
000170 28 cd 06 ba 04 39 97 bd 87 3b 22 bd 4d 08 c3 bb
       -0.0005142265 -0.07383922 -0.03960755 -0.0059519173
000180 ec 8b 22 3b 3a 7d 1a be 48 bc 94 3f 3f a7 b4 be
       0.0024802638 -0.15086833 1.1619959 -0.3528385
000190 21 7e d3 3f 8c 75 c8 bd 48 03 ee bd 88 f3 f6 bb
       1.6522866 -0.09788045 -0.116217196 -0.0075363554
0001a0 37 0f e7 3c c4 50 a7 bd 40 9e 8d 3c d8 75 48 be
       0.028205497 -0.08169702 0.017287374 -0.19576204
0001b0 bd 2f ba bd 0b 72 9a bb a6 53 22 be 46 75 d5 bd
       -0.090911366 -0.004713302 -0.15852222 -0.10422759
0001c0 f9 44 69 bc d5 be 4c bd 12 9a 86 bd 7d 59 d8 bd
       -0.014237636 -0.04998668 -0.06572355 -0.105639435
0001d0 88 09 71 bd ed 18 a2 bc 9e ed 59 bd 0c 58 09 bc
       -0.05884698 -0.019787276 -0.053205125 -0.008382808
0001e0 c9 ab 36 3c 73 e5 32 be 9d 45 c5 3f 93 eb a2 bd
       0.011149355 -0.1747034 1.5411869 -0.079550885
0001f0 75 76 8d bd 75 e6 31 3f 78 7c 99 bd ae 41 55 bd
       -0.069073595 0.69492275 -0.07494444 -0.05206459

out.weight f4 [1, 128]
000000 4e 82 25 bc 56 5c 5b 3c ad 91 d6 3c e5 b6 18 bc
       -0.010101868 0.013388714 0.02619251 -0.009320949
000010 bd d5 6f bc 08 e8 19 3d a0 66 80 3c f3 70 54 bd
       -0.0146383615 0.037574798 0.015673935 -0.05186553
000020 b8 6d d6 bc 63 9d 2c bd 00 7c d8 bc 6e 12 8a 3c
       -0.026175365 -0.042142283 -0.026426315 0.016854491
000030 82 e1 d4 bc d1 e8 dc 3c 87 7c 54 3c 12 2c ce bc
       -0.025986437 0.026966484 0.012969143 -0.025167499
000040 b9 c7 04 bd 3e 37 b1 bc dd 10 8f bc bd 86 0b 3c
       -0.032417033 -0.021632787 -0.017464096 0.008516011
000050 59 ff 2e 3c 56 93 1f 3c 48 f0 17 bc e8 32 d7 bb
       0.010680997 0.0097397175 -0.009273596 -0.006567348
000060 dd c9 bf bc a8 af c8 bc 66 96 ad bc 6d e6 2f bd
       -0.023411686 -0.024497822 -0.02118988 -0.04294436
000070 3b c3 a1 ba 3c 12 14 bc 13 21 59 bc db 1d b3 bc
       -0.0012341508 -0.009037551 -0.013252514 -0.021864822
000080 bd be 2e 3c 4f b5 da ba 31 24 82 3b c9 ea 8e bb
       0.010665593 -0.0016686114 0.0039715995 -0.0043614847
000090 c4 04 be bc 47 c9 fa 3b 08 e3 99 bb ee 4e 87 3c
       -0.023195632 0.0076533887 -0.0046962537 0.016517129
0000a0 95 83 99 bb 01 38 ec 3a 57 2a cd 3c 7b b8 c7 bc
       -0.0046848753 0.0018022062 0.025044603 -0.02437996
0000b0 92 3a 60 bc 00 67 c3 39 ae 50 92 bc 30 56 8e bc
       -0.013685839 0.0003727004 -0.017860737 -0.017375082
0000c0 19 6e 11 3d 53 15 2e 3c 89 65 15 3d 3e 35 1e 3c
       0.035505388 0.010625201 0.036473785 0.009656249
0000d0 fd a7 42 bc 5f 2b c5 3c b1 3e b2 bb 00 68 04 bd
       -0.011880872 0.024068533 -0.0054396023 -0.032325745
0000e0 ec 9c d0 bc 20 a9 97 3b 6f 54 05 bc 14 93 e7 bc
       -0.025465451 0.0046283156 -0.008137806 -0.028268375
0000f0 b9 c6 11 bd d0 5e 86 38 6b d9 af bb bd 02 56 ba
       -0.035589907 6.407278e-05 -0.0053664944 -0.000816386
000100 52 ee bb bb ac 1c aa 3b 0f d6 90 3c eb f0 af 3b
       -0.005735197 0.0051914062 0.017680196 0.005369296
000110 73 9f bb 3c 55 bd 3f 3c f5 bd 90 bc 99 96 34 3b
       0.02290318 0.011702855 -0.017668704 0.0027555584
000120 4d 0a 98 bc 85 6e d9 bc 90 bf 8f 3c c3 70 71 bc
       -0.0185596 -0.026541958 0.017547399 -0.014736357
000130 00 28 77 bb 54 42 a0 bc 2c f2 76 3c 91 88 a9 bb
       -0.003771305 -0.019562878 0.015072387 -0.0051737507
000140 36 77 b1 bc 58 f1 e6 bc 74 b3 60 bb 91 d9 82 3b
       -0.02166329 -0.028191254 -0.003428665 0.003993221
000150 fa ec bd bc 38 f2 84 bc be eb c8 bc 15 bb 56 bc
       -0.023184288 -0.01622878 -0.024526473 -0.013106127
000160 0b b3 99 bc 6d e8 4c 3c 37 e0 86 3c f6 5f db bc
       -0.018762132 0.0125065865 0.016464336 -0.026779156
000170 b5 1b 00 3d 84 55 7a 3c 42 c7 80 3c 6d 6e cf bc
       0.031276423 0.015279178 0.015720014 -0.02532121
000180 a0 53 ad 3a 78 b7 6e bc 97 4f 82 3d d3 83 98 bd
       0.0013223775 -0.01457011 0.06362837 -0.074470185
000190 56 8d e2 3d c2 05 58 bc 8a 1c dd bc e9 95 84 3c
       0.11062114 -0.0131849665 -0.026991148 0.016184764
0001a0 18 04 81 3c af 28 a9 bc 78 2d 43 3c f7 9b 22 bc
       0.015749022 -0.020649282 0.011912696 -0.00992488
0001b0 0e 64 d7 3c 4c a5 a4 bb f5 3c 05 3c dd 6d f6 3b
       0.026292827 -0.0050245877 0.008132209 0.007520421
0001c0 93 e7 cf 3b ba d4 b5 3c 49 40 5e bc e9 f0 88 bc
       0.0063447445 0.022196162 -0.013565131 -0.016716437
0001d0 c4 ac c1 3c 77 9e 5e bc 53 85 78 3c db f1 1b 3c
       0.023641951 -0.013587586 0.015168506 0.009518112
0001e0 48 33 9d 3c 27 56 69 bc b8 40 8d 3d 81 eb fa 3b
       0.019189492 -0.014241732 0.0689711 0.007657469
0001f0 78 c2 9f 3c d3 7d d0 3c bc a8 f9 3c ea b3 94 bc
       0.01950191 0.025450623 0.030475967 -0.018152196
