checkpoints/checkpoint_model_8.pth (torch, 56062 bytes, 12 tensors)

std f4 [1, 4]
00000000: 330b 813f 5da9 843f c863 793f a9e4 7c3f
1.0081543 1.0364186 0.9741788 0.9878641

actor_body.linear1.weight f4 [64, 33]
00000000: 95a2 163e 5f49 3d3c 5b45 453d 74ea bb3d
00000010: 5317 533e 166a 02be 8e21 00bd c174 473e
00000020: 6e72 21be bb71 633d 6d4b efbd 412c 55bc
00000030: d9a4 04be ce88 333c b734 f3bd 9ea4 cf3d
00000040: 03da 963d 4915 63bd 63d6 41bc e5d3 aebd
00000050: f615 c0bd 8e09 d5bd 66ac bdbd c655 693e
00000060: e5af e3bc 2f95 0ebd 6931 913d c9bd b1bd
00000070: 5cde 163d 9db3 a1bd 3c1a cfbc 500a 113e
00000080: 12ec 1bbe 5a0f d8bd 15c5 96bc 28e3 3b3e
00000090: bf23 183e 57ad 20be beb3 0e3e c9ce a6bc
000000a0: 7cdb ba3d 86f9 abbd e3e1 ba3d 9c03 85bb
000000b0: af99 0cbe 3d3f 333e 6dd5 133c bf06 cc3d
000000c0: c46e a3bd b5d9 0a3e 329e 4a3d 88ff 103d
000000d0: da0a 7fbd 2c7d 453e e411 c9bd 658e 873d
000000e0: 52cc c2bd 676f ff3a 82d6 0e3e b7ae 2cbe
000000f0: b207 d5bd 2874 3bbd 805e 063c 5c59 bf3d
00000100: 0814 35bd c9f4 abbd eed9 1cbe 146e cbbb
00000110: 9bf2 6abd fe4f 92bd ccd9 493d 0d97 afbd
00000120: d130 46bd 2f8e 54be e9a6 22be 903f 343c
00000130: e70d 07be e412 543e 2db1 273e 8aae 3bbe
00000140: 2218 aa3d 47e4 c63d b8a9 e3bb e63c 5bbd
00000150: 8ce5 a33d 5776 4bbd 5ac7 fd3c c9cd 973a
00000160: 03b6 a2bc e81a 0abe b085 e83d 0ae7 08be
00000170: eaf4 1bbd 653c 7c3d a729 d8bd 1047 953c
00000180: 3f4b 083c e9a3 0fbe c8f2 b0bd abdf 38bd
00000190: 5188 55bd ce2e 2ebe 8951 d2bd ed15 db3d
000001a0: 4f34 d4bd 21b9 51be e659 533e 8049 a33d
000001b0: ec7c 3abd 5e82 32be 98e1 9bbd ba9f acbc
000001c0: ffdd 01be 82a0 033c f16d ffbc c17d 8abc
000001d0: 8d72 273e 7bfa 38bc 47a1 a2bd c78d fabd
000001e0: 703a 8dbd 4f75 2c3e ee0f 9e3c aefe 323c
000001f0: 72d1 56bc 945d 3b3d f846 5cbc 0758 013e
00000200: d8f4 2abd c9e0 2bbe 44e5 053d 3dd7 b5bd
00000210: 1b1b de3c a520 da3d 4891 05be 57e2 923d
00000220: 5821 0bbe 29ca 463d 5ba8 ad3b c682 36be
00000230: 9c29 18be 00f6 223e 8034 853d f841 02be
00000240: 46b2 f6bd 03d9 27be 103f c03b 26a8 cdbc
00000250: a659 5ebe e51b 01be 54b7 873d afee dd3b
00000260: 2a2c 01be e62b e1bc 0eb5 5b3e ba42 05bd
00000270: d89c dfbc 51b6 83bd 8abd 05bd 9524 bc3d
00000280: ed5f abbc d457 d93d 1a46 2abd 6083 b23c
00000290: 96b1 533d 813b 273e 9eaf ee3d 0a6d 293e
000002a0: f3d7 38be 8ce7 8fbc 3bea 963d 916b 01bc
000002b0: c2ae 473e da4a b8bd ac8d 14be d8a1 16be
000002c0: e27e 13be b542 07be e657 bdbd b9ae 6c3d
000002d0: acc9 46be 7156 96bd 5612 7dbd f485 e7bd
000002e0: 1e93 37be dd8e f7bd 492e 5ebd e268 203d
000002f0: 8b5b a03d a185 e8bd 319a 56bd 1692 9c3b
00000300: 4bf0 1fbd d180 cb3d 0012 6bba 6738 d93d
00000310: 0c68 20bd 824c 093e 1164 903d 0d7e 5a3e
00000320: 69fa 38bd 3f71 473d 8fe8 173e b257 e7bc
00000330: 3ea8 e738 8915 8ebd 9247 10bc 8e95 7abd
00000340: 4de9 823d 44f9 80bd b032 1ebb f93d 24be
00000350: d549 493e 64c2 193e 3a98 893c ab64 a73d
00000360: 3b81 2f3e acf5 38be 87a6 99bd 423c 8bbd
00000370: c404 1abe 7f15 0fbe 4713 333d 8f5e 0bbe
00000380: 8446 08be 9f24 343e f1d5 b0bd f864 d93c
00000390: dc6d 39b8 9833 af3c b448 183e ea17 1ebe
000003a0: 45ef 8ebd afff 9c3d 8dda 04be ea6c 5ebd
000003b0: 91af 62bd b88b 303e e1a1 d9bd 6985 963d
000003c0: 806e 46bc 73eb 033e 2455 1fbe e561 863b
000003d0: dc33 c73d 629e 023e e79a 423e 01d6 23be
000003e0: 535e 1cbe 6094 c63b 46e7 3d3d 9b9c 153d
000003f0: e176 223e 3ab9 96bd d760 733b ce5d 873c
0.14710458 0.011553138 0.048161846 0.09175578 0.20614366 -0.12735781 -0.031282 0.19478132
-0.15766308 0.055528384 -0.11684308 -0.013011039 -0.1295351 0.01095791 -0.11875289 0.1013882
0.07365801 -0.05544022 -0.011830899 -0.085365094 -0.09379189 -0.10402213 -0.09261398 0.22786626
-0.027793834 -0.03481024 0.07089502 -0.08678777 0.036833152 -0.07895587 -0.025281064 0.1416409
-0.15226772 -0.10549803 -0.018404523 0.18348372 0.14857386 -0.15691124 0.13935754 -0.020362275
0.091238946 -0.08397202 0.09125116 -0.004059268 -0.137305 0.17504592 0.009023053 0.09962224
-0.07980111 0.13559611 0.049467273 0.035399944 -0.06226621 0.1928603 -0.098178655 0.066189565
-0.09511627 0.0019488157 0.13949016 -0.16863523 -0.104018584 -0.045765072 0.0082012415 0.09343216
-0.044208556 -0.083962984 -0.15317509 -0.0062081907 -0.057360273 -0.071441635 0.049279973 -0.085737325
-0.0483864 -0.20757364 -0.15883984 0.011001483 -0.13188897 0.20710331 0.16376181 -0.183283
0.08305384 0.09711509 -0.0069477223 -0.053524874 0.08002767 -0.049673405 0.030978847 0.0011581714
-0.01986218 -0.13486826 0.11353624 -0.13369384 -0.038075365 0.061581034 -0.105548196 0.018222362
0.008318721 -0.1402737 -0.08640057 -0.04513518 -0.052131955 -0.17010042 -0.10269458 0.106975414
-0.103615396 -0.20480777 0.20639762 0.079730034 -0.04552929 -0.17432544 -0.07611388 -0.021072257
-0.12682341 0.0080338735 -0.031180354 -0.016905667 0.16352291 -0.011290188 -0.079409175 -0.12234073
-0.06895912 0.16841625 0.019294705 0.010924978 -0.013111459 0.04574354 -0.013444655 0.12631236
-0.041737407 -0.16784967 0.032689348 -0.08878944 0.027112534 0.10650758 -0.13043702 0.07172077
-0.13586938 0.04853264 0.0052996106 -0.17823324 -0.14859623 0.15914154 0.06504154 -0.12720478
-0.12045722 -0.16391377 0.0058668926 -0.025104593 -0.21713886 -0.12608297 0.06626764 0.006772838
-0.12614504 -0.027486753 0.21455786 -0.03253434 -0.027296469 -0.064312585 -0.03265146 0.09186665
-0.020919764 0.10612455 -0.04157076 0.02179116 0.05168303 0.16331293 0.1165459 0.16545501
-0.18051128 -0.017566465 0.07368895 -0.007899181 0.19500259 -0.08998652 -0.14507169 -0.14710176
-0.1440387 -0.1320904 -0.09245281 0.057783816 -0.19412869 -0.07340706 -0.061785065 -0.113048464
-0.17927215 -0.12087796 -0.05424336 0.039162524 0.078299604 -0.11353613 -0.052393142 0.004778157
-0.03904752 0.09936679 -0.0008967221 0.10606461 -0.039161727 0.13408092 0.07050336 0.21337147
-0.045160685 0.048691984 0.14834808 -0.028240059 0.00011046276 -0.06937701 -0.008806126 -0.061177783
0.06392155 -0.06297544 -0.0024139099 -0.16039266 0.19657071 0.1501556 0.01679622 0.08173498
0.17139141 -0.18062466 -0.07502466 -0.06798603 -0.1504088 -0.13973044 0.043719556 -0.1361029
-0.1330815 0.17592095 -0.08634556 0.026537403 -4.420975e-05 0.021386907 0.14871484 -0.1543881
-0.06979231 0.07665955 -0.12973996 -0.054303087 -0.055343214 0.17240798 -0.10626579 0.07349665
-0.012111306 0.12882785 -0.15559822 0.0041010254 0.09726688 0.12755731 0.19004403 -0.15999605
-0.15270357 0.006060168 0.046363138 0.036526304 0.15865661 -0.07359548 0.0037136578 0.016524222

actor_body.linear1.bias f4 [64]
00000000: 0403 923d 1eae 28be b810 4f3e 3a90 873d
00000010: 6e2e 13be a9da a2bd c08a 18be e8c9 26bd
00000020: f236 1dbd c301 c7bd 9e91 72be 6a28 33be
00000030: 41c6 8e3d f7ad 6fbd 2bb8 0e3e 9555 12be
00000040: 42ce abbd bf9e f63b b217 0c3d 8a4f 383d
00000050: 472d bc3d f163 8e3d 5fd2 2eba cc24 7b3c
00000060: bf40 01be a67d 8ebd bbe1 96bd 1d3b 6ebc
00000070: eb99 13be 7ed7 babd b802 84bd bd7a 05be
00000080: 4eff b53d 550a 833d f8d4 163e 356e e0bd
00000090: db5f 2e3e ad48 053e 6350 18be 320d c43c
000000a0: 92dd ccbd 17ca 3a3d f8a7 123e c72a 4d3e
000000b0: 65bb 513d 502e fdbd 86a6 18be 5a42 27be
000000c0: 7402 debd 6af1 a9bd c7aa 513e 88b4 083d
000000d0: 004b 893d 09a9 b0bc a4b7 80bd 2c19 483d
000000e0: d9b3 063d 1812 0c3e 5682 1b3e cc6b 943c
000000f0: 6193 5ebd 96b2 9d3d eff5 d53c c1b7 ae3d
0.071294814 -0.1647267 0.20221221 0.06619306 -0.1437318 -0.07951862 -0.14896679 -0.040719897
-0.038382478 -0.09717133 -0.23688361 -0.17495885 0.06971408 -0.058515515 0.13937442 -0.1429046
-0.0838895 0.007526248 0.034202285 0.04499773 0.091883235 0.06952656 -0.0006668921 0.015328597
-0.12622355 -0.06957559 -0.073672734 -0.014540461 -0.14414184 -0.09123133 -0.06445831 -0.13035102
0.08886586 0.06398455 0.14729679 -0.1095852 0.17028753 0.13016005 -0.14874415 0.023932073
-0.10003199 0.045602884 0.14321887 0.2003585 0.051204104 -0.12362349 -0.14907274 -0.16333905
-0.10840312 -0.08297999 0.20475303 0.033375293 0.06703758 -0.021564977 -0.06285027 0.04885213
0.03288636 0.13678777 0.15186438 0.018117808 -0.05433977 0.07700078 0.026118247 0.08531142

actor_body.linear2.weight f4 [64, 64]
00000000: 4365 933c 4214 dc3d 0766 a53d 3b1d aeb9
00000010: 2088 913d 33e0 003e b7ed 52bd 5a42 cdbc
00000020: 1cb6 ad3d f982 a13d 99cc 2ebd 08de d4bd
00000030: 5362 8abb 231c c03b 84bb 413e e089 283e
00000040: b8cf c73c 6e6f 9fbc a4d1 043e bced 80bd
00000050: 0771 31bd cd9b 2b3e 6a2c 253a bfc9 12bd
00000060: 4e65 c23d 5a05 b2bd 3443 0a3e 793f cf3d
00000070: 1999 003e 389f 2c3c fcf4 693d be8c a03d
00000080: 16b3 a4bc c9f8 4d3e 705e e5bd 52e0 debd
00000090: 4482 96bd ed41 e8bc 4441 a43d d289 963c
000000a0: f9e7 fa3c 88d5 113e a97e c53b 35a3 e43d
000000b0: 0d7c 823d 416a 35bc c275 b6bd 0c9d dc3c
000000c0: 1309 0f3d 4f55 c5bd c1c6 993d d796 3fbc
000000d0: 3a39 da3c eac8 263d dd1d 34bd b2d9 32bd
000000e0: 72fc ef3d da41 173e cfcf ccbd bb68 803d
000000f0: 4ba0 033c bb95 24bd b363 0abd 371a 8c3d
00000100: dc69 da3d 342b e0bd 1a20 d7bc 5ca7 17bc
00000110: ecff 9fbd 4771 043e f753 debd ebf7 a8bd
00000120: dc72 d63d 4e91 083d 5d92 90bd 8761 aebd
00000130: e047 1f3c 18d2 813d 5f5c 14bb f367 e53c
00000140: 950a 5abd 58e0 43bd 4bde c9bc a49b d6bd
00000150: 20c0 01be cfd9 d73d aefa b13d ac43 04be
00000160: 12cf 81bd 5cc3 09be 11d3 0dbe 4c4b f9bd
00000170: f1f2 81bd 6f72 773d 8004 3cbc 77b3 9fbd
00000180: e8da 98bd 8fcd c9bc afd8 f7bc 468e 1fbc
00000190: dbdc debd 26ec c4bd 7f3f 0c3d 4aa8 813c
000001a0: 8286 57bd 73c0 83bc 9b0f bf3d b88f d0bd
000001b0: 456b 2abe 86da 0cbe 19c5 3dbd 660c 88bd
000001c0: 16e3 1cbd 616f f0bc b84f 123d db57 22be
000001d0: 952b 6cbd a1b7 a13d 1ac8 e5bd 33ab 773d
000001e0: f14a 1abe 7fda 743d 7d42 2bbe 14ac 80bd
000001f0: cf2b 28bd edd1 b63d 3fa4 efbd 5897 4f3d
00000200: 8dc1 c33c af63 bdbd 24a0 71bd fdb8 0a3d
00000210: 76e0 e33d dc9a cf3d ecb9 babd 24ad d53c
00000220: 0fc7 933d 9aae e73d 2171 f7bc ce53 46bc
00000230: 6ee6 2a3d 9b6d 2d3d 2ace 333e 8e24 193e
00000240: 8489 14bc a4f6 17bc 885c 253e ae8a 6b3d
00000250: c7b1 92bc 7daa 0e3e b6f3 adbd c361 a7bd
00000260: c771 193e 0c54 a83d 27f2 733d b358 923c
00000270: 9d08 233d 23c2 423d d172 fb3d 4b0b e53c
00000280: 3a3a bcba 40cc 013e 23f5 04bd 5329 e4bd
00000290: 0056 e33c bd82 ee3c 9770 25bc f6cc abbd
000002a0: 8437 d03d 7a30 89bd 267d 53bd c52e 6fbd
000002b0: fa6b 413e 4c6f 4cbd 02ab 86bd 7e49 40bd
000002c0: 5daa ecbd 277a b3bd d134 1d3e e45c 743d
000002d0: 9186 f53c 0e84 ae3d 6902 bcbd 4b9c 593d
000002e0: 5020 1bbd 1c1f e53d 384a 033d 8ed0 ec3c
000002f0: df4e b63b cd05 16bd c977 0cbb 4912 9b3d
00000300: d5a8 8b3c 6e58 c73b e03a 93bc a31b 0fbe
00000310: aa8e fcbd 31a2 0dbc 367d bc3d 179e 02bd
00000320: 9857 a5bd 6e01 803d e78d 1e3d aa93 03bd
00000330: 0b4a f03c 760d eabd e62e 2d3d 7051 f53b
00000340: 79db c23d c03b f5bc 2587 c13d 8b70 393c
00000350: 4cee 8dbd d5b8 fd3d 57a5 dfbc 83b2 953c
00000360: e6bf 743c 1765 0dbd 9459 95bd 8999 1f3e
00000370: 744d 01be 73dd 42bd b5eb e8bc 604c 12bd
00000380: 9009 a8bd 69ae 89bd a642 a2bc 1d1c 0abc
00000390: 1596 09be f055 3e3b 9236 a1bd 87b0 593d
000003a0: b712 0e3d af7e aabd a708 e7bc d6b9 9cbd
000003b0: c5ea 8f3c 2331 eebd 9423 2abe dfed 97bd
000003c0: fba3 fb3d 4834 b7bd 4558 01be 4ca3 853d
000003d0: 90a7 743c e773 98bd 4aef e03b 3cf8 6f3d
000003e0: af6e 6bbd cfec b0bd 7f4a 98bd 4159 0ebd
000003f0: cb0f 8dbd 9914 8d3c f4c1 cb3d 03fa 9fbd
0.017992621 0.10746051 0.08076101 -0.00033209645 0.07106042 0.12585525 -0.051496234 -0.025056053
0.08482 0.07886309 -0.04267559 -0.103939116 -0.004223147 0.005862729 0.18919188 0.16458845
0.02439104 -0.019462314 0.12970597 -0.06295344 -0.043320682 0.16758652 0.00063008687 -0.03583693
0.094919786 -0.08692427 0.13502198 0.10119528 0.12558402 0.010536008 0.0571184 0.078393444
-0.020104926 0.20114435 -0.11199653 -0.108826295 -0.07349065 -0.028351748 0.08020261 0.018376265
0.030628191 0.14241612 0.006027062 0.11163942 0.06371317 -0.011072696 -0.08909179 0.026930355
0.034920763 -0.09635412 0.075086124 -0.011693678 0.026638616 0.04071895 -0.043973792 -0.04366464
0.11718072 0.14771214 -0.10000574 0.06269976 0.008033822 -0.040181857 -0.033786487 0.068409376
0.10664722 -0.1094574 -0.026260424 -0.00925621 -0.07812485 0.12933837 -0.10855859 -0.082504116
0.104711264 0.0333417 -0.070591666 -0.085146956 0.009721726 0.063389 -0.0022638065 0.028003668
-0.053232748 -0.047821373 -0.02464213 -0.10478905 -0.12670946 0.105395906 0.086903915 -0.1291644
-0.06338324 -0.1345343 -0.13850047 -0.12172565 -0.063451655 0.060411867 -0.011475682 -0.07797902
-0.07463628 -0.02463415 -0.03025469 -0.0097385105 -0.108819686 -0.09615354 0.034240242 0.015827317
-0.05261851 -0.016082978 0.093291484 -0.10183662 -0.16642483 -0.13755235 -0.046330545 -0.0664299
-0.038302504 -0.029349985 0.035720557 -0.15853827 -0.05765875 0.078963526 -0.11219807 0.060466003
-0.1506765 0.059778687 -0.16724582 -0.06282821 -0.041057404 0.08926759 -0.11701249 0.050681442
0.023896003 -0.09247529 -0.058990613 0.033867825 0.11126797 0.10136959 -0.09117493 0.026083536
0.07215702 0.113125995 -0.030205311 -0.0121049415 0.04172366 0.042340856 0.17559114 0.14955351
-0.009065989 -0.009275112 0.16148579 0.057505302 -0.017907036 0.13932224 -0.0849375 -0.081729434
0.14984809 0.08219156 0.059557106 0.01786456 0.039803136 0.047548424 0.12277759 0.027959486
-0.0014360615 0.12675571 -0.032460343 -0.111406945 0.027750969 0.029115075 -0.010097644 -0.083887026
0.10166839 -0.06698699 -0.051633023 -0.058394212 0.18888846 -0.04991083 -0.06575586 -0.046945088
-0.11555932 -0.08763533 0.15352179 0.0596589 0.029971393 0.08521281 -0.09180147 0.05312757
-0.037872612 0.11187574 0.032053202 0.02890804 0.0055636014 -0.036626626 -0.0021433702 0.07571847
0.017048279 0.0060835397 -0.01797241 -0.13975386 -0.123318985 -0.0086446265 0.092035696 -0.031889047
-0.08073348 0.06250273 0.038709547 -0.032123245 0.029332181 -0.11428349 0.042281054 0.0074865147
0.09514517 -0.029935718 0.09449605 0.011318336 -0.06930217 0.123887695 -0.02730052 0.018273598
0.01493833 -0.034520235 -0.07292476 0.15585913 -0.12627202 -0.04757447 -0.028432706 -0.035717368
-0.08204949 -0.06722719 -0.019807171 -0.008429554 -0.13436158 0.0029042922 -0.078717366 0.053146865
0.034685817 -0.08324944 -0.028202368 -0.07652633 0.017568002 -0.11630466 -0.16615134 -0.07418417
0.12287136 -0.08945519 -0.12631328 0.06525287 0.014932528 -0.074439816 0.006864463 0.058586344
-0.057478603 -0.08638918 -0.07436084 -0.034753088 -0.06887778 0.017221736 0.09949103 -0.07811358

actor_body.linear2.bias f4 [64]
00000000: 0a68 e83c 6a50 943b a945 f7bd 977d 7abd
00000010: 65fa b53d a5c3 f3bc c049 abbd a749 fb3c
00000020: 3c9f 8fbd 5020 e43c 948a d0bd 3dc0 3c3b
00000030: 5f5d e7bd 9cd6 b2bd 9deb a83d 87d6 213c
00000040: f60a 293e 8c4f 8e3d d8f3 dfbd 466d 24be
00000050: a020 61bd 60e8 f6bd 545a d53d bcba ee3c
00000060: 11a4 7bbd 1af9 00bd d518 cbbd 054f 593d
00000070: 0d01 d13c 0940 8bbd 8a8d 5abd f9cf 44bd
00000080: f7b6 f4bd c1ab fbbd 68ce b63b 500f ddbd
00000090: c023 343d 195a 0abe a9eb ad3d 84e7 70bd
000000a0: 22aa 52bd 9f5e 8f3c 9151 f5bd 7a86 fcbb
000000b0: 1f64 313e bed8 bb3d 13a1 5fbd f933 d23c
000000c0: 213a 023c 7a1a f03c 5fe6 3c3b 792e 173e
000000d0: 8bfa c03d 195f 0cbe 2e10 04bc 52fb ad3d
000000e0: 7813 c1bd 7b8a fbbd b1f6 633d 1a3b 363d
000000f0: c7e0 41bc 30e7 993d f78f 4b3d 52c2 36bd
0.028369922 0.0045261877 -0.120738335 -0.061154928 0.088856496 -0.029756377 -0.08363676 0.030674769
-0.070127934 0.027847439 -0.10182682 0.0028801106 -0.11297106 -0.0873234 0.08248065 0.009877807
0.16508088 0.06948766 -0.109351814 -0.1605731 -0.054962754 -0.12056041 0.10417619 0.029141776
-0.061435763 -0.03148756 -0.09916846 0.053053875 0.025513196 -0.06799323 -0.05335764 -0.0480499
-0.1194896 -0.12288619 0.0055788048 -0.10793936 0.043979406 -0.13510932 0.08492214 -0.05881454
-0.051431783 0.017501174 -0.11978448 -0.0077064605 0.1732335 0.091722 -0.05459697 0.025659548
0.007948429 0.0293095 0.0028823835 0.14763822 0.09422787 -0.13708152 -0.008060498 0.08495201
-0.094275415 -0.122822724 0.055655185 0.044489957 -0.011833376 0.07514799 0.049697842 -0.044618912

actor_body.linear3.weight f4 [4, 64]
00000000: 8d73 52bd 0844 923c 00b6 3ebc 2a3e 8e3d
00000010: 71d7 dd3d 858e e53d b82e d7bd f60f d4bd
00000020: 2ef5 a53a 909d fdbd fef2 c43d d430 c5bd
00000030: 3b55 d33d 6dee 4cbc 0e04 d6bd ff70 3c3d
00000040: 53f9 71bd 9aa1 cdbc 8634 b0bc c0af 81bd
00000050: 201a a33d 77ef b23b f588 84bd 7745 b7bd
00000060: 1d69 f83d ec93 7ebd 57c3 0bbc d477 193d
00000070: 9ea9 b73d 9f2d bf3d 86de 643d 6f4c 213c
00000080: 0ee1 aa3d 47a1 93bc 6a14 bfbc da84 5d3d
00000090: 4939 0cbd 31a8 283d badd 5abb 342d 4f3d
000000a0: 34c3 073d 3006 713c b75c 153d 2e29 9e3c
000000b0: 7303 e8bd 433a 01bd f832 253e 7540 ccbd
000000c0: c644 423c 6a6b 44bd e905 05be 233b e9bd
000000d0: 9f4d 7ebd 41ef 14bd dead 883d ef66 f0bd
000000e0: c7a0 1ebd eefd 93bd 6390 473c b671 d73c
000000f0: 3791 e9bd d9fe 853d ce31 74bd 9b19 4d3c
00000100: 1b08 97bd ee39 56bd baf0 7bbd f15a 173d
00000110: f93a 463d d7a2 ba3b 38b9 53bd b0dc e53c
00000120: 957c bf3d 415d a1bd cbc0 7cbd 1373 f53b
00000130: 90a6 c0bc b864 f4bd 0304 d13d 10d9 ccbd
00000140: ea65 c13c 8a75 b9bd 4bb6 503d 442f 64bc
00000150: e7fe a33d c320 363c cb52 00be 8a86 1a3d
00000160: b39e cbbd 099a f4bd 678a 8abd c12e 693d
00000170: aeab cabd e74a 5fbd a4d0 a63d 45ee 91bb
00000180: b951 60bd 3e45 b03c dc57 91bd 9d92 d83d
00000190: 8068 54bd d448 c7bd 5ea2 dd3d 0885 fbbb
000001a0: de1a fdbd 7a35 e1bd 87ad 75bd c786 e6bc
000001b0: e23b 6abd 4d7f fd3d 0b44 68bd 58a6 dabc
000001c0: 2079 88bd 7a3a eabc 1282 11be 5055 07bd
000001d0: 1f12 6ebd 4381 73bd 7af6 bd3d 6e90 09bd
000001e0: c3de c4bc 6bc8 5d3d e920 be3d e0e4 a43b
000001f0: d0ee 613c bc3a 573d be83 b73c 169d c03d
00000200: f734 babd 7b7a b53d 18b1 8ebd 6a27 0cbe
00000210: 31ac aabd b6e3 f13b a23b 923d 11fa a8bd
00000220: ca86 a7bd 5468 b03d 6e8c a3bd 9eb4 b1bd
00000230: d6f0 e0bd 219b 13be 08ac f53c d7b8 7c3d
00000240: 9bce 1dbe 5318 c9bd 6551 ca3b 14c1 adbc
00000250: 4064 8e3d ca9f b4bd a9f9 d4bd 19dc ed3c
00000260: 9596 953c 4193 723d aa44 43bd 85c6 ec3c
00000270: d147 c8bd 238b 6dbc a298 75bb d62c d8bb
00000280: 02c2 05bc d8e8 7abd 5c0b 593d 6802 d5bd
00000290: 5f66 86bd 2777 0f3d 3477 79bd 24c8 6a3d
000002a0: 046b 88bd 7db9 9dbd 95f8 4f3d d0d2 e8bd
000002b0: 7a7e 05be efc9 2a3c d44c c1bd 125d 6f3c
000002c0: 8363 893c eb86 57bd 32ee f4bd f0d4 1fbe
000002d0: ef0d babd 181b 4c3c 26d6 cdbd 7364 1e3d
000002e0: b660 b03d e9f7 963d 8205 733c 0647 c03c
000002f0: 0d27 5bbd 7da4 ab3d d67c d8bd 403a 893d
00000300: 0e0d dd3d 5b27 953d 0b60 903d 9a85 173d
00000310: 4ae0 c7bd 8f67 4bbc 8d49 a0bc 3871 173d
00000320: 8e49 a63d c7f1 80bd 4a13 9a3d e6f2 43bd
00000330: 6a98 a53a 0b18 a63c 9d84 8e3d d235 8e3d
00000340: 8ce6 9d3c 6c8b 7cbc 85ed c13d 546d 403d
00000350: df73 ea3d eb3a 8a3c ebd5 533d 014c b3bd
00000360: 4a3c 6ebd 7292 a13d 3c72 b4bd aa17 c4bc
00000370: 032b a9bc 1da8 e5bc 881b 46bc 93c2 e53d
00000380: 8e7b 08bd e06d 8d3c 14a5 103d 819a f3bd
00000390: cac8 ab3d 89b5 b33c e5f3 f1bc 9d91 fd3d
000003a0: 1c17 023e cb04 553d 06f5 cf3d d7c9 9ebd
000003b0: ddd8 7a3c 0c91 1ebd cef9 8ebc 60bd 9bbd
000003c0: c4d7 fcbc dd07 f73d 0655 d33d 72b3 c7bd
000003d0: d1a7 033e 0a44 bcbc fa93 a03d abe8 a7bc
000003e0: c363 dc3d 66d1 a43d 3c34 ea3d 99c3 b73c
000003f0: 2e11 e13b 95ef ea3d b791 c03d 137d 89bc
-0.05137973 0.017854705 -0.011640072 0.069454506 0.10832108 0.11208824 -0.10506958 -0.10354607
0.001266157 -0.12383568 0.096166596 -0.09628454 0.10318991 -0.012508017 -0.10449992 0.0460062
-0.059075665 -0.025101472 -0.02150942 -0.0633235 0.07963967 0.0054606753 -0.06471435 -0.08948796
0.12129424 -0.062152788 -0.008530459 0.037467793 0.08967899 0.093348734 0.055876277 0.009844883
0.08343707 -0.018021239 -0.023325164 0.054081775 -0.03423432 0.041176025 -0.003339632 0.05058022
0.033145145 0.014710948 0.036465373 0.019306745 -0.11328783 -0.031549703 0.16132724 -0.09973232
0.011857217 -0.047954 -0.12990536 -0.113882326 -0.062085744 -0.036360983 0.066737875 -0.11738383
-0.038727548 -0.072261676 0.012180421 0.026299339 -0.11404651 0.06542749 -0.05961781 0.012518312
-0.07374593 -0.05230134 -0.06150887 0.036951963 0.048396084 0.0056956816 -0.05169031 0.028059334
0.09349934 -0.07879115 -0.0617073 0.0074905246 -0.023516923 -0.11933273 0.10205843 -0.10002339
0.023608167 -0.09055622 0.050955098 -0.013927285 0.08007603 0.011116209 -0.12531583 0.037725963
-0.09942379 -0.119434424 -0.067646794 0.056929354 -0.098960266 -0.05451479 0.08145264 -0.004453453
-0.054765437 0.021517392 -0.07096836 0.10574839 -0.05185747 -0.09730688 0.10821985 -0.0076757707
-0.1235864 -0.10996528 -0.05997994 -0.028140439 -0.057186015 0.12377796 -0.056705516 -0.026690647
-0.06663728 -0.028592337 -0.14209774 -0.033040345 -0.05812275 -0.059449445 0.09275527 -0.033585005
-0.024032002 0.05414621 0.09283621 0.005032167 0.0137898475 0.052546248 0.022401687 0.09404962
-0.090921335 0.08861252 -0.06967372 -0.1368691 -0.08333624 0.0073818816 0.0714028 -0.082508214
-0.08180006 0.08613649 -0.07985769 -0.08677028 -0.10983436 -0.14414646 0.029989257 0.061699715
-0.15410845 -0.098190926 0.0061742538 -0.02121023 0.06952715 -0.0881954 -0.103991814 0.029035615
0.01826028 0.059222464 -0.047672905 0.028903255 -0.09779323 -0.014498505 -0.003747501 -0.0065971417
-0.008163931 -0.061257213 0.05298935 -0.104008496 -0.065624945 0.035025742 -0.060904697 0.057319775
-0.066610366 -0.07701395 0.050774176 -0.11368334 -0.13036528 0.010424121 -0.09438482 0.014609592
0.016771084 -0.052618902 -0.11959495 -0.15608573 -0.09084689 0.0124576315 -0.10050611 0.038670015
0.08612196 0.07371504 0.014832856 0.023471367 -0.05350404 0.08380983 -0.105706856 0.067005634
0.107935056 0.07282897 0.07049569 0.036992647 -0.097595766 -0.012414827 -0.019566322 0.03697321
0.08119498 -0.06296115 0.0752321 -0.047839068 0.0012633924 0.020275136 0.06958888 0.06943859
0.019274972 -0.0154141 0.094691314 0.046979263 0.11447882 0.016873797 0.05171768 -0.08754731
-0.058162965 0.0788926 -0.08810851 -0.023937065 -0.020650392 -0.028034264 -0.012091525 0.11218753
-0.033320956 0.017264307 0.03531368 -0.11894704 0.08387907 0.021937149 -0.029535243 0.12381289
0.12704128 0.052006524 0.101541564 -0.07753342 0.015310493 -0.038712546 -0.0174531 -0.0760448
-0.030864604 0.12062047 0.10318951 -0.09751023 0.12856986 -0.022981662 0.07840724 -0.020496687
0.107612155 0.08047752 0.11435744 0.022432135 0.006868503 0.11471478 0.09402793 -0.016783273

actor_body.linear3.bias f4 [4]
00000000: 358b e9bd f518 cb3d 900b b6bd a7f5 f93d
-0.11403505 0.099168696 -0.08888924 0.122050576

critic_body.linear1.weight f4 [64, 33]
00000000: 3162 a23d 32cb 583d 9fda a6bd c9d4 1dbe
00000010: 81f9 6d3e fad1 9c3d 984d 1ebe 64d4 343d
00000020: 4955 1fbe f0d0 c3bd 7a80 b63d b32e aabd
00000030: e322 3e3d c026 debb 0ad6 273e 689b f8bd
00000040: 5ce7 c8bc 5907 2bbe 839b 653e 4dd7 3bbe
00000050: 9de1 55bd d89a ba3d 766c 6cbd d4a2 bebd
00000060: 4362 f5bd 5340 96bd ddcc 983d edf5 183d
00000070: de5b 9b3c 28a9 bc3c 7a81 dbbc f694 f8bd
00000080: f6f0 443d 9620 7abd 8f7e 74bc c68b c9bd
00000090: 8ac2 4b3d 034c 233d 4468 1a3c e354 e0bd
000000a0: 4cbb c4bd a4cb 223a 8ef1 1dbd 3a78 d1bd
000000b0: f740 b7bd d5bf d4bd 05c8 85be a712 413d
000000c0: ba33 10bd d365 02be 50bf 473d 79ca 483d
000000d0: c04f afbc 3f76 7ebd 56d4 083e e385 233e
000000e0: 1b9b 8d3c a774 e33d 25e2 ed3d 624f 5b3c
000000f0: 8dab cdbd 7d4b 5fbe d898 e8bd 7a5a 1cbb
00000100: 30fa 69bd 6c17 5c3c 8aeb 07be a012 0abd
00000110: 0ab0 3d3e c337 e9bb 7f96 413d 7efb 253e
00000120: 4fc2 7fbd f4f9 a2bd 1419 25bd 8985 25bc
00000130: 155e c1bd 9e28 383d 9f4e b4bd cf88 9bbd
00000140: 0c50 07be 16a2 82bd 4bf2 153e cf5f 46be
00000150: 40c3 1fbe a26f dd3d dc65 1abe a122 d7bc
00000160: 8cd6 b2bc dddb 0f3e 321a 30bd f756 ca3d
00000170: 499e 16be eba7 583d 4e1f f73c c072 423c
00000180: e229 fe3d c832 1fbd 6d6e 0e3e f933 e03d
00000190: 892b c8bc 862f 84bc 199d 0e3d 723f b63d
000001a0: d383 b83d 3428 98bd edbe c1bd 13bc e53d
000001b0: 8862 4c3e 37dc 6cbd d155 373d 6c4c 12bd
000001c0: 1c1c 073e 4486 38bc e067 183e 9927 833d
000001d0: d215 efba 27d1 243b ffd5 36bd dd54 74bd
000001e0: 8d51 f13d 3475 1d3d 9028 023e f122 7ebd
000001f0: 47db 383e 1267 5bbd 3031 123e fbc5 863d
00000200: fee5 0a3e 67b9 32be e0f7 2fbe 1638 9fbd
00000210: 74db 673e f22f 62bd e7b0 38be c6a3 d63d
00000220: 9c34 7fbd a63a 9c3d 3538 253e 74d1 b93d
00000230: e619 17bd 7aae 623d ed6e 1d3c 985b c1bd
00000240: a140 803d bfb8 383d df4f 0c3e 378d 9a3d
00000250: aba3 493e 828d aa3c 6b31 a73c 71df 1e3b
00000260: eb76 f6bc 35bd f2bd c26b 22be 36ee 6bbb
00000270: 952b e33c 7a95 1d3d 0111 8a3c 1994 80bd
00000280: a535 cd3d 05ed 94bd 2979 3cbe 8477 d43d
00000290: ef65 8c3d fa36 953d 3e11 a0bd 2551 ed3d
000002a0: 4c10 8ebc d28a df3c 1b59 a1bc 89ba e53d
000002b0: 7130 93bc 8eeb 7dbd 5b31 1cbd b87b 0cbe
000002c0: e4cc 6e3d db45 c93d 6e2d 3e3e 01b7 2f3e
000002d0: 86ae bd3d 0f51 073e 40db d73d bd95 253c
000002e0: bddd fbbd a53d ecbd b36d 283d e324 d1bd
000002f0: 9f2b 083c 7224 843d 1904 faba 8da5 95bc
00000300: f403 193e 8ba9 93bc 4486 8ebd e03e 083d
00000310: d80b 57bd 0de0 4b3e da78 10be e3a5 0f3e
00000320: 1e36 8abd b749 d1bd a0ec ffbd f047 853d
00000330: 8090 cb3d ef18 06be bdf7 d63d a89e 2b3d
00000340: 56d2 273e b515 bfbd 5953 d6bd 9d7a afbc
00000350: 7e6f 56bd 30cd 153d 6efe 43be 25cd 643c
00000360: 6dd1 193d 9946 023e c9af 183e f9bc ef3c
00000370: b24d 243e b2c5 efbd 42a5 643d 6587 333e
00000380: 62f0 f63d 64d3 133e 2ba3 b1bd b240 153e
00000390: dcb0 42be e30a d0bd 9344 97bd 648c 6b3d
000003a0: e9b5 03be b218 58bd 7bc8 92bd a9df 203e
000003b0: a2d4 20bd c13d 16be 5f0e 2abe 00a9 3abe
000003c0: b37d 1fbe cb2d 14bd bb5f 003d d57b 92bd
000003d0: 28fd 133d 881d 3f3e e5d5 0a3e a1bd 393d
000003e0: b5d8 db3c a050 b03d 2416 303d d4ee 22be
000003f0: f1dc 8a3d 657e 42bd 94c2 aa3b f80b 18be
0.07928885 0.052928157 -0.081471674 -0.15413202 0.2323971 0.07657237 -0.15459287 0.044147864
-0.15559877 -0.09561336 0.08911224 -0.083096884 0.04641999 -0.0067795217 0.16390243 -0.121390164
-0.024524383 -0.16702022 0.22422604 -0.1834385 -0.052217115 0.09111565 -0.057720624 -0.09308401
-0.119816326 -0.073364876 0.074609496 0.037343908 0.018964704 0.023029879 -0.026795138 -0.12137787
0.04808136 -0.061066233 -0.014922752 -0.09841113 0.049746074 0.039867412 0.009424273 -0.10953691
-0.096060365 0.00062101544 -0.038560443 -0.102280095 -0.08947938 -0.103881516 -0.26129165 0.04713693
-0.03520558 -0.12734155 0.048766434 0.049021218 -0.021400332 -0.062124487 0.1336225 0.15969042
0.017285874 0.11106234 0.11615399 0.013385626 -0.10042486 -0.2180614 -0.11357278 -0.002385764
-0.057123363 0.013433319 -0.13273445 -0.03370917 0.18524185 -0.007117243 0.047262665 0.16209218
-0.062441166 -0.07957831 -0.04030712 -0.010102638 -0.09441773 0.04496061 -0.08804058 -0.075944535
-0.13214129 -0.06378572 0.14643209 -0.19372486 -0.15601826 0.10812308 -0.15077919 -0.02626163
-0.02183082 0.14048715 -0.04299373 0.098798685 -0.14708818 0.052894514 0.030166294 0.011868179
0.12410332 -0.03886679 0.13909312 0.10947413 -0.024434822 -0.016135942 0.03481779 0.0889882
0.090095185 -0.07429543 -0.09460244 0.11217513 0.19959462 -0.0578272 0.044759575 -0.035717413
0.13194317 -0.01126248 0.14883375 0.06404037 -0.0018240756 0.0025149079 -0.044637676 -0.059651244
0.11783133 0.03844185 0.12710786 -0.06204504 0.18052398 -0.053565092 0.14276576 0.065807305
0.13564298 -0.17453538 -0.171844 -0.077743694 0.22642308 -0.055221505 -0.18036233 0.10480456
-0.06230603 0.07628374 0.16134723 0.09073153 -0.036889933 0.055342175 0.009608966 -0.09441298
0.06262327 0.045098063 0.13702343 0.07546466 0.1969134 0.02081943 0.020409307 0.0024242068
-0.030086001 -0.118524946 -0.15861419 -0.003600014 0.027730742 0.03847263 0.016853811 -0.062782474
0.100199975 -0.072717704 -0.18405594 0.10374358 0.0685538 0.072858766 -0.07815789 0.11587743
-0.017341755 0.027287874 -0.01969581 0.112172194 -0.017967435 -0.06199222 -0.038133007 -0.1371907
0.058300868 0.09827777 0.18572018 0.17159654 0.09261803 0.13214515 0.105398655 0.010106501
-0.122981526 -0.11535195 0.041120242 -0.10212114 0.008311181 0.06452264 -0.0019074708 -0.018267417
0.14942914 -0.01802518 -0.06959203 0.033263087 -0.05250153 0.19909687 -0.14108601 0.14028125
-0.06748603 -0.10219138 -0.124963045 0.065078616 0.099396706 -0.13095449 0.10496471 0.041899353
0.1638883 -0.09330312 -0.10465116 -0.021420771 -0.05235242 0.036572635 -0.19140026 0.013964926
0.03755324 0.12722243 0.14910807 0.029264914 0.16045263 -0.11707629 0.055821665 0.17532118
0.12057568 0.14436108 -0.086737 0.1457546 -0.19012779 -0.101583265 -0.07386126 0.057506934
-0.12862362 -0.052757926 -0.07167145 0.1571032 -0.039265282 -0.14671995 -0.16607045 -0.18228531
-0.15575294 -0.036176484 0.031341296 -0.07152525 0.0361301 0.18663609 0.13558157 0.04534686
0.026836732 0.08609128 0.042989865 -0.15911418 0.067804225 -0.04748382 0.005211184 -0.14848316

critic_body.linear1.bias f4 [64]
00000000: 621a a5bd 16ec bebd 304c 043e 50b4 1abe
00000010: 0721 abbd 2875 313c be90 8dbd 17ee f3bd
00000020: c51d ecbd 0e81 0abd 2d85 b0bc 9bbd 24be
00000030: 1ae3 52be a9e0 823d fdba 963d 8f4f 53be
00000040: 4377 a33d 6afe 29be 4225 33bd e618 913d
00000050: 4e52 f8bd 8467 3fbe df26 58be d4d5 003a
00000060: 2868 a03c 2d2f 58be 2ea1 853d fc3e 29be
00000070: e13f c9bd 1934 483d 2f10 47bd 0a5f 25be
00000080: 76e9 6fbd 261d d23d 6064 003e d3dd 2e3d
00000090: 45c7 23bd 1c11 06be f672 593e aba7 a8bd
000000a0: 084c a9bb 007a 103e ba0e d1bd a3b3 23bc
000000b0: 21eb 193d 08ac c9bd 65a5 33be 81a2 87be
000000c0: 31af acbd 53d6 4dbd 35dc 4dbe d7f9 23be
000000d0: d7d9 19be 71c0 8bbd 2e8f 5b3d 11e3 1fbe
000000e0: 394b 97bd dcca b0bd 5ea9 c7bb 209b 5ebe
000000f0: ea1b d83d f8e6 2fbe f0d2 13be de96 c03d
-0.08061673 -0.093223736 0.12919688 -0.15107846 -0.08355909 0.010831155 -0.06912373 -0.119106464
-0.115291156 -0.033814482 -0.021547878 -0.16087954 -0.20594445 0.06390507 0.07359884 -0.20635818
0.07981732 -0.16600958 -0.043736704 0.07084827 -0.121250734 -0.18691832 -0.21108578 0.00049146754
0.019580916 -0.21111746 0.06524883 -0.16527933 -0.09826637 0.04887781 -0.04859942 -0.16149536
-0.058572255 0.10259466 0.1253829 0.042692017 -0.03998496 -0.13092464 0.2123526 -0.08235105
-0.0051665343 0.1410904 -0.10207887 -0.009991559 0.037577752 -0.098472655 -0.17543562 -0.26491168
-0.084318526 -0.050253224 -0.20103534 -0.16013275 -0.15024506 -0.06823815 0.053603344 -0.15613963
-0.073873945 -0.08632442 -0.006093188 -0.21738863 0.10552199 -0.17177951 -0.14435935 0.09403776

critic_body.linear2.weight f4 [64, 64]
00000000: 8586 883d 915a 1a3d 03ce 513d f8e9 74bd
00000010: 159e d13c b58f a23d bb7d 07be cd6b 38bd
00000020: dafb 19be fda1 9bbd 9fae 61ba 872f d0bd
00000030: 253d 11bc 68ec 1dbe 845d abbd f534 823d
00000040: 64b5 f93d 95ef eb3d 1fe6 00be 77e5 3ebc
00000050: d730 483d d72a 483d ed60 b8bd e1d2 4cbd
00000060: 4d23 9b3d 5ff7 c5bd 082f edbd 4525 92bd
00000070: 5b62 4dbc d5eb da3d b136 09bd 7a52 bc3c
00000080: 3a53 4cbd 3802 e23d 457b c13d 0790 c03d
00000090: 2e92 8e3d 0dc6 fabc 78eb ccbc 95d4 d23d
000000a0: b573 943d 7b9d fabd 03c4 e53d 037f 88bd
000000b0: 29fd 0bbe e384 4d3d 108d 3dbc 3a81 20bb
000000c0: 63fb 0abe e8f7 2b3d e8fa a23d ba25 c8bc
000000d0: eb7c 30bd f1cc 04bd 857b 03bd 4e4d dbbd
000000e0: fa95 2f3d 2ccc 0bbd 746e e03b 7879 b4bd
000000f0: 7322 723d 5cfa c2bd e048 92bd 2d1b 943d
00000100: 9811 3dbd ebdf c8bd 97e6 bbbd 5ec9 f1b9
00000110: 29cd efbc b02d debc 2c5d 9b3c dcfa cbbd
00000120: 2508 a6bd dafc 97bd ad58 f0bd f1e2 7b3d
00000130: 2e65 a93d e2d6 6fbc 1a39 10be 3a7d e23d
00000140: 652b 0cbe 2086 aebd 8a52 21bd f61c 1ebb
00000150: d268 e4bd 8718 843c 1e35 4f3c f11a f2bd
00000160: 7f2c dcb9 fb6d 0bbd c4ba 443d 4b2f de3c
00000170: 5cbf 323d 843d c73c ba91 12be 4120 61bc
00000180: 59f6 863d db6e af3d 1e4f bebd d38e a83d
00000190: b313 0a3d bf19 b43d 5ff9 d43c 17ac 49b7
000001a0: ade1 84bd 9e38 853d 82b1 babd 9c7d ba3d
000001b0: 7367 09be 58b9 dabd aedf 883d 0f3f 3d3d
000001c0: ebd6 07be b302 00be dabf a43d 8a3a 6e3d
000001d0: 62c5 d4bd cf29 4a3d 7996 833d 29f8 8abb
000001e0: ff20 603d 1317 d5bd 5834 fcbd a5e3 c13d
000001f0: e4c5 dabd faf1 903d cb8f dfbd 004e 55bb
00000200: 7a4e 98bd 06c8 163e 9392 34bd 9d16 b1bd
00000210: e747 64bd 5359 0bbe b136 1e3e b942 04be
00000220: 7471 283d c590 32bd 8b95 d33d 44b2 d43d
00000230: a19f c3bc e94e 423d 64bd aebd 2483 c73d
00000240: eb53 0fbe afeb 72bd 169e f03c e41e 5cbd
00000250: 28e4 843d 73e7 da3c 523f 943d b2dc 1dbd
00000260: 95fd e3bc 6fcf e5bd 8bfc b43a 8047 f93c
00000270: 935a 993d 1d37 63bd 87f4 843d 791a 843d
00000280: 110a 10be 7196 85bd e6be 403d d11b 933d
00000290: 2583 f8bd af8a 59bd b837 11be ec97 823d
000002a0: e151 ffbd 7403 843d 6e46 8ebd ff47 2b3d
000002b0: c6cd f0bc 5fdc c83d 7e34 02be 8851 3dbd
000002c0: 0e14 e3bc 3ac8 00bd 206b 1abe 4cde a53d
000002d0: 87fa 323d 8a44 803c 61de 9e3d a63a c23d
000002e0: d124 973d f1a3 96bd f19f 903a d0ba bebd
000002f0: ef56 87ba e73e efbd b67c e0bd 39b3 903b
00000300: 2520 6d3d 6259 a5bd a390 87bd d2a6 13be
00000310: a830 bf3c 8443 8cbc c040 87bd 08ef a0bd
00000320: 59c9 433d c71e 24be 394f 32bd 11f5 be3d
00000330: b543 8abc c9d3 083d 2820 013b c060 c2bd
00000340: c4ff 703d f617 843d c874 c0bd 2d93 abbc
00000350: 2d1c 9b3d 8fa7 fb3d 3a91 20bd 88a2 6cbd
00000360: 0857 bbbd bf0f 89bd 1492 2ebd 77df c3bd
00000370: f97f 233d 580b 0cbe 690a 9f3d 6a86 93bd
00000380: 8078 2cbd 8e8d a23d 069e bb3d e650 c6bd
00000390: c569 59bd b27f b8bc 8ca4 8a3d f38a 3fbd
000003a0: 8f36 813d fba1 67bd f119 88bb 64f8 bfbd
000003b0: a353 95bd 359b e93c 11fb fb3d e0d1 003a
000003c0: d82d 9ebd 8088 a23d 8644 e7bd 1d86 77bc
000003d0: d84f e03c 7d6a 2e3d 8d7c 863d 78b1 d3bd
000003e0: 96c6 eeba 6ed6 ccbd 7aa5 16bc 5cd6 393d
000003f0: 3e8e 05be 54d6 13be 13dc f1bc 648c 8e3c
0.066662826 0.037684027 0.05122186 -0.059793442 0.025588075 0.07937566 -0.13231556 -0.04502468
-0.1503748 -0.07599256 -0.00086090894 -0.10165315 -0.008864676 -0.15422213 -0.08367446 0.06357757
0.12192801 0.11520306 -0.12587784 -0.011651388 0.048874702 0.04886898 -0.09002862 -0.050005797
0.075750925 -0.09666323 -0.11581236 -0.07136015 -0.012535657 0.10689513 -0.033499423 0.022988547
-0.04988406 0.110355794 0.0944734 0.09402471 0.06961475 -0.030612016 -0.025014624 0.10294453
0.07248632 -0.12237068 0.11219027 -0.066648506 -0.13670792 0.05017556 -0.011569276 -0.0024491088
-0.13572459 0.04198447 0.07958013 -0.024432052 -0.04308788 -0.03242201 -0.03210022 -0.10708104
0.04286764 -0.03413026 0.0068491045 -0.08812231 0.059114885 -0.095204085 -0.07142806 0.07231746
-0.046159357 -0.09808334 -0.09174841 -0.00046117132 -0.029272633 -0.027121395 0.018965326 -0.09959957
-0.08107022 -0.074212745 -0.117356636 0.061495725 0.082712516 -0.014638634 -0.14084283 0.11059041
-0.13688429 -0.08521676 -0.039385356 -0.0024126149 -0.111528054 0.016124977 0.0126469415 -0.11821545
-0.00041994822 -0.034040432 0.048029676 0.02712216 0.043639526 0.024321325 -0.14313403 -0.0137406
0.06589956 0.08566066 -0.09292434 0.082303666 0.033710193 0.08793973 0.025997816 -1.2020601e-05
-0.06488357 0.065049395 -0.09115888 0.09105989 -0.13418369 -0.10679883 0.066832885 0.046202715
-0.13265578 -0.1250103 0.08044405 0.058161296 -0.1038921 0.049356278 0.06425185 -0.004241009
0.054718968 -0.10404792 -0.12314671 0.09467248 -0.10682276 0.07077403 -0.10916098 -0.0032547712
-0.07436843 0.1472474 -0.044085097 -0.08646891 -0.055732634 -0.13608293 0.1545055 -0.12916078
0.041123822 -0.043595094 0.103312574 0.10385564 -0.023879828 0.047438536 -0.08532217 0.0974181
-0.13996856 -0.059306797 0.029372256 -0.053740397 0.0648883 0.026721692 0.0723864 -0.03854055
-0.027830878 -0.112212054 0.0013808174 0.030429602 0.07487979 -0.055472482 0.064919524 0.06450362
-0.1406634 -0.06522835 0.047057055 0.0718304 -0.12134389 -0.053110775 -0.14181411 0.06376633
-0.12466789 0.06445971 -0.06947027 0.041816708 -0.029394995 0.098076575 -0.12715337 -0.046220332
-0.027719524 -0.03144095 -0.15079927 0.080990404 0.043695953 0.015657682 0.07757259 0.094838426
0.07380069 -0.07355488 0.0011033994 -0.093129754 -0.0010325591 -0.116819195 -0.10961287 0.0044158963
0.057891984 -0.08073689 -0.06619384 -0.14419106 0.02333863 -0.017122038 -0.06604147 -0.078580916
0.047799442 -0.16027366 -0.043532584 0.093240865 -0.016877988 0.0334051 0.0019703005 -0.0949111
0.058837667 0.06449883 -0.09397274 -0.020944202 0.075737335 0.12287819 -0.039201 -0.05777219
-0.09147459 -0.066924565 -0.04261978 -0.09564107 0.039916966 -0.13676202 0.077656575 -0.07203372
-0.042107105 0.07937156 0.09161 -0.09683399 -0.053079385 -0.022521827 0.06769666 -0.04676337
0.06309234 -0.05655096 -0.004153483 -0.093735486 -0.07291343 0.028516391 0.123037465 0.00049140863
-0.07723588 0.079361916 -0.11292367 -0.015107659 0.027381822 0.042582024 0.06566725 -0.10336584
-0.0018217142 -0.10001837 -0.009194726 0.045370445 -0.13042542 -0.14437228 -0.029523885 0.017400928

critic_body.linear2.bias f4 [64]
00000000: acaf 2d3c f276 04be 6cf5 30bd d238 823d
00000010: 8628 0cbd da57 e2bd 510a 3ebd e33e 6f3c
00000020: 9f54 98bd 5f31 d9bd e0af f1bc 2789 283d
00000030: 3268 d03c 3abc a93d 0540 693b c50e 4d3d
00000040: b4be 35bd f60f 1e3d deb2 67bd 5759 86bd
00000050: b723 7a3d bf00 7c3b ee71 8a3d c470 0abe
00000060: 7b39 07bd fdf1 68bd b0a7 cb3d 0e6f babd
00000070: 6f27 adbc db72 03bd efa6 00bd 4b4c debd
00000080: 6328 8dbd 05be 06be 76cb 963d 049d e6bd
00000090: b0de 2cbe b3bb 373c 5c47 543c ec78 17bd
000000a0: 986d 26bd af51 1bbd 58c8 39bd 66c9 0ebe
000000b0: 88b7 f1bd 84bb 94bd 0f87 24be 34c5 67bd
000000c0: bbbf d53c 7512 85bd 98de c9bd 3c0e e0bd
000000d0: a57e 373d 0094 efbd 138d 91ba 2057 b7bd
000000e0: 5bf5 a8bd a74a 15be 39ff bc3d 9eea c7bd
000000f0: 3b7e 9bbd 80e1 76bd e818 973c d9cb 183d
0.0106009655 -0.12935999 -0.043202803 0.06358494 -0.034218334 -0.110519126 -0.046396557 0.014602396
-0.07438015 -0.1060512 -0.029502809 0.041146424 0.02544031 0.082878545 0.0035591137 0.050062913
-0.04437132 0.03858944 -0.056567065 -0.06560009 0.061069217 0.0038452593 0.067600116 -0.13519579
-0.033013802 -0.056871403 0.09944093 -0.09103213 -0.021136967 -0.032091957 -0.0314092 -0.108543955
-0.06892469 -0.13158424 0.07363026 -0.11260417 -0.16881824 0.011214185 0.0129564665 -0.036980554
-0.04063186 -0.037919696 -0.04535708 -0.13944015 -0.11802584 -0.07262328 -0.16067146 -0.056584552
0.0260924 -0.06497661 -0.098569095 -0.10940215 0.044798512 -0.11698151 -0.0011104665 -0.08952165
-0.08249923 -0.14579259 0.09228367 -0.097615466 -0.07592436 -0.060273647 0.018444493 0.03730378

critic_body.linear3.weight f4 [1, 64]
00000000: 01bf 233d e06d 5f3d ad89 a4bc 8c67 3b3c
00000010: d5b9 6a3c 1216 df3c ca08 703c e396 ec3c
00000020: 98a9 333b 9825 fe3c 71f3 733b 19c6 b93c
00000030: 7e45 00bb 9e7f 8b3c d6eb 303b 859d 48bd
00000040: 8a07 933d 3625 8fbd eae8 a03c 7099 0f3c
00000050: 3347 a9ba dc0a fd3c 9189 723c b21c 7dbd
00000060: 09e4 c53c 0d80 cb3b 8f1c 413c 8547 513d
00000070: dfe4 e93c 1db9 2bbd e318 943b b2fa 123c
00000080: 6a0d 15bb fa21 76bb 38b7 b03b 7a70 d93b
00000090: e85d 0abc 7694 70bc 495a e13c b86e 603d
000000a0: 7ebb 8fbc 01f9 2b3d 3df5 6a3d f189 d3bb
000000b0: 39ed 2bbb 5fdc 93bc 1e74 95bb f6c9 e53b
000000c0: 8a3f a83b 6d57 1c3c 7eb1 f5ba c2ab 86bb
000000d0: 021d b2bc a8b1 53bc 040b 96bb 3385 4abc
000000e0: f000 803a f39c 9cbd 1f4a 993c 05c3 943c
000000f0: ce75 73bc 2f8f 14bc 0771 813c f4bc 02bb
0.039977077 0.054548144 -0.02008518 0.011438262 0.014326532 0.027232204 0.014650533 0.028880542
0.0027414318 0.031023785 0.003722396 0.022677468 -0.001957267 0.017028626 0.0026996038 -0.048978347
0.07179172 -0.06989519 0.019642312 0.00876461 -0.0012914896 0.030888967 0.014803306 -0.061794944
0.024156587 0.006210333 0.011786594 0.051093597 0.028551517 -0.041924585 0.0045195683 0.008970903
-0.002274359 -0.0037556873 0.005392935 0.0066357227 -0.008445241 -0.014683833 0.027508872 0.05479309
-0.017545458 0.041985516 0.057362784 -0.006455653 -0.0026233925 -0.018049417 -0.0045609614 0.007012601
0.0051345276 0.009542328 -0.0018744913 -0.0041098306 -0.021742348 -0.0129207745 -0.00457895 -0.012360859
0.0009765904 -0.07647123 0.018712102 0.018159399 -0.01485963 -0.009067341 0.015800966 -0.001994905
