models/checkpoint_9.pth (torch, 29323 bytes, 8 tensors)

std f4 [4]
000000 51 94 38 bf dd c3 27 bf 23 9a 39 bf 25 28 49 bf
       -0.7210131 -0.6553324 -0.7250082 -0.7857688

shared.0.weight f4 [64, 33]
000000 10 b8 ad bd a4 02 d0 3e 00 80 85 be be 5f 96 be
       -0.08482373 0.40627015 -0.2607422 -0.2936992
000010 41 98 9f bd fd 9c 70 bf c9 82 38 be 03 52 e1 3e
       -0.07792712 -0.93989545 -0.1801864 0.44007882
000020 d2 e7 ff bc a6 3a 64 3e 5b 4f a8 bd 6c 22 af bb
       -0.03123847 0.22287998 -0.08218261 -0.0053446796
000030 4d 2d 09 be c1 1d a5 bd ba 1a b8 3d aa be b0 3d
       -0.13396187 -0.08062316 0.08989473 0.08630116
000040 e2 20 0c 3f f0 51 df 3e df 42 74 be 8a 05 88 bd
       0.54737675 0.436172 -0.23853634 -0.066416815
000050 0c 45 2f 3e 05 22 02 3e ef f2 aa 3b a0 4a be 3d
       0.17116183 0.1270829 0.005216948 0.09291577
000060 85 c6 92 be 5f 8e 29 bc b0 f3 e8 3d d3 42 5b bd
       -0.28667083 -0.010348885 0.11374605 -0.053530525
000070 69 a7 a8 be 2c 83 34 bd 80 08 34 be 4e 03 1a 3e
       -0.32940224 -0.044070408 -0.17581367 0.15040323
000080 9d 0b ad bf 58 35 80 bd 34 1a c0 3d ff 61 05 bf
       -1.3519169 -0.062601745 0.09379998 -0.52102655
000090 c4 46 4b bd a9 71 b7 3c 98 47 9b 3e d5 45 62 be
       -0.049628034 0.022393065 0.3032806 -0.22096951
0000a0 21 07 81 bd 6d 2a b6 3d 81 f3 35 be bc df 17 bf
       -0.06300188 0.08894811 -0.1776867 -0.59325767
0000b0 14 59 5f be ed d7 91 be 74 b5 aa 3d 59 ce 08 3f
       -0.21811324 -0.2848505 0.08335391 0.5343986
0000c0 76 09 81 be 19 5e d8 be 99 f6 7d be 9f 00 0f 3f
       -0.2520253 -0.4225929 -0.24801101 0.5586032
0000d0 fe 18 64 3e ff 2a 44 3e 10 ea e5 3d b5 d1 d6 be
       0.22275159 0.19157027 0.112262845 -0.4195687
0000e0 ac ce 83 3e a3 96 ab bb bc c1 22 bd 81 88 2f bd
       0.25743616 -0.005236463 -0.03973554 -0.04285479
0000f0 e9 11 f9 3d 81 16 ac 3e 22 2e d3 bd 6a 81 1f 3c
       0.12161619 0.3361092 -0.103115335 0.009735445
000100 f0 b6 c3 3d 26 5e 6b bd e0 2b 19 3e b4 6c 94 3e
       0.09556377 -0.057462834 0.14958143 0.28989184
000110 53 cf 0a 3e 82 41 6c bc 69 2d 23 3e dc d9 2e be
       0.1355565 -0.014419915 0.15935291 -0.17075294
000120 ae fc 64 3c 11 05 3d 3d d1 69 27 3e 66 a6 8f 3e
       0.013976259 0.04614741 0.1634896 0.2805664
000130 e8 b4 19 3e 1d 51 44 be 3a f2 3f bd 60 ec 41 be
       0.15010417 -0.19171567 -0.046861865 -0.18937826
000140 c7 3a de be 90 b4 e8 3e 93 b1 c4 3d 5b 3d fa be
       -0.4340422 0.45450258 0.09604182 -0.48874936
000150 71 7a 87 be 5e fd a2 bd 45 16 d0 3c 23 45 2b 3e
       -0.26460603 -0.07958482 0.025401244 0.16725592
000160 7b 4d 8e bd ec 64 0f be 14 49 be bc ca 6c cd 3d
       -0.06948372 -0.14003342 -0.023228206 0.100305155
000170 df 73 ce bc 15 03 86 3e be 88 c0 be 82 44 e7 bd
       -0.025201736 0.26174226 -0.37604326 -0.11292364
000180 24 bd e0 bd 8c 3c 15 3d d4 56 2c bf d9 08 3a be
       -0.10973576 0.036434695 -0.6731999 -0.18167438
000190 35 9b 29 3e c4 ec 9c 3e 06 25 e6 bd 1b f5 01 be
       0.16563113 0.30649388 -0.112375304 -0.12691157
0001a0 b8 e6 e1 3e 19 32 52 3e d2 76 47 3d 05 f7 ae be
       0.44121337 0.20526923 0.0486973 -0.34172836
0001b0 ea 38 af 3e de 34 a6 3e b4 86 ca be 83 86 b6 bd
       0.3422311 0.3246221 -0.39555895 -0.08912375
0001c0 6d e5 23 be 94 d2 d8 3e 14 64 49 3d 2d 29 99 3e
       -0.16005488 0.42348158 0.049167708 0.29914227
0001d0 64 74 a0 3e 70 c1 21 3f 04 62 89 bd 73 36 56 3e
       0.313388 0.6318579 -0.06708148 0.20919208
0001e0 11 95 b1 3e 70 78 ab 3e 7a 35 00 3e bb 08 fd 3d
       0.3468404 0.33490324 0.125204 0.12355181
0001f0 bc 7a 64 be 0f f3 1f be fc 94 0a 3d 4e 69 c4 3b
       -0.22312444 -0.15620063 0.03383349 0.0059939986
000200 5e 70 79 bd 77 5f 61 be ac ab 17 bd b2 fb 33 3f
       -0.060898177 -0.22009073 -0.037028953 0.7030593
000210 4c 66 c4 be 0d 42 ec 3d 68 2a 31 3e 4d da d2 3d
       -0.38359296 0.11536036 0.17301333 0.10295544
000220 69 d3 17 be ec 1e c0 3e 82 7d 84 3e 86 57 45 3e
       -0.1482674 0.37523592 0.25877005 0.19271669
000230 08 ea e2 3e 62 d3 73 3e 79 8d 86 3e eb a8 0b 3e
       0.44319177 0.23811105 0.2627981 0.13638656
000240 23 2a ef be 69 e5 07 be 91 a6 f6 3e 5c ab a2 3d
       -0.46711835 -0.13271107 0.48173955 0.079428405
000250 95 24 10 3e 1a 8e 92 be db 6f 79 3e 67 dd 82 bd
       0.14076455 -0.2862404 0.24359076 -0.063898854
000260 ad 13 33 3e f2 8d 89 3d de af d4 3d 15 f6 e8 be
       0.17487974 0.06716527 0.103851065 -0.45500246
000270 c7 ef 31 3e f8 ab da bd e7 d9 a7 3d a5 61 ef bd
       0.17376624 -0.10677332 0.081958584 -0.11688546
000280 0e 81 14 3d 28 ff 0b bd 41 16 e1 bd 9e e9 19 be
       0.03625589 -0.034178883 -0.10990573 -0.15030524
000290 89 e1 08 3e ee 0a 2d be af 36 c3 3d 13 ec 8e be
       0.13367285 -0.168987 0.095319144 -0.27914485
0002a0 42 43 d9 be a3 78 16 bc 21 87 88 be 54 a1 8a be
       -0.42434126 -0.0091840355 -0.26665595 -0.2707621
0002b0 ac 3e 87 3e 4a bc ca 3e e7 07 fb 3d 1b ad a5 3e
       0.26415002 0.39596778 0.122573666 0.32358631
0002c0 1c a8 24 be 1e d4 cb bd b9 b5 38 3e 46 6c b2 be
       -0.16079754 -0.099525675 0.18038072 -0.3484823
0002d0 f7 27 9c 3b 2a ee 04 3e 15 a2 11 3e 04 85 b6 3e
       0.0047655064 0.12981477 0.14221986 0.35648358
0002e0 b2 da 77 3e 80 87 3a 3e d6 a9 87 be 66 ff bb be
       0.2420452 0.18215752 -0.26496762 -0.3671829
0002f0 a0 b1 b4 be b3 da 07 3e bd 9a c6 3d 0b 90 fc 3d
       -0.35291767 0.13267021 0.09697483 0.123321615
000300 0a f5 d5 3d 2e fe 59 3e 1a 51 fb bd 06 6c a5 be
       0.10447128 0.21288368 -0.12271328 -0.32308978
000310 af bd cf bd 29 db 1d bf 9c e5 a3 be d2 4d 43 3e
       -0.10143601 -0.61662537 -0.32011116 0.19072655
000320 da bd 05 be 61 9f ed bd 4c 04 a9 be 01 82 b0 bd
       -0.13060704 -0.11602665 -0.3301109 -0.08618546
000330 ff 12 2c be af 62 32 3d c4 06 fd be 87 63 55 bb
       -0.16804121 0.043551143 -0.49419224 -0.0032560544
000340 15 71 b2 3c 9b c8 9b 3e 46 2e cd bd bb 08 da 3d
       0.021782437 0.30426487 -0.100185916 0.106461965
000350 cc e3 8f 3e ae 4d 46 3d 14 93 e0 3d 09 7d a3 be
       0.28103483 0.048413925 0.10965553 -0.31931332
000360 96 6e 09 3e f7 1a fd 3e c9 5c 95 3e 0d d0 e9 be
       0.13421091 0.49434635 0.29172352 -0.45666543
000370 3d 2b 00 bd 5a 04 c1 3e 58 ce e0 3e 0a 90 b8 3d
       -0.031291235 0.37698632 0.43907428 0.09011848
000380 63 af 7e be 56 64 44 3e ca d2 29 be c8 66 4a bd
       -0.24871592 0.191789 -0.16584316 -0.049414426
000390 5e e4 27 be e0 2d d3 bc d7 d8 94 3e 56 dc 9b 3d
       -0.16395709 -0.02577871 0.29071686 0.07610385
0003a0 44 b6 a3 3e 6f cd e1 bc be d7 3c be f7 2d f7 bd
       0.31974995 -0.027563779 -0.18441674 -0.12069314
0003b0 f9 f0 0f be a8 40 ae be f6 66 ba bd 8e 90 18 be
       -0.14056768 -0.34033704 -0.091016695 -0.14898893
0003c0 1c bd 1d 3e 05 ef 69 3e 2d 60 a9 be a4 01 8f bd
       0.15404171 0.22845085 -0.3308119 -0.06982735
0003d0 ee 72 a1 3d 9f e0 98 bd c7 c8 2f 3e de 4b 0f 3f
       0.07883249 -0.07464718 0.17166434 0.5597514
0003e0 3d c8 b6 bc e2 93 77 3e 73 65 06 be a5 f4 ec 3d
       -0.022312278 0.24177507 -0.13124637 0.115701
0003f0 15 bc 69 3d e0 27 62 be a0 66 b7 bb 6d be bc 3d
       0.057064135 -0.22085524 -0.0055969507 0.09216008

shared.0.bias f4 [64]
000000 3c 11 ce bd c4 fc e5 3d c6 0a 36 be a8 c9 e4 bd
       -0.10061881 0.11229852 -0.17777547 -0.111712754
000010 d7 03 cf bd b7 1e a4 be fc 44 a5 3c a4 6d 6f be
       -0.10108154 -0.32054684 0.020174496 -0.23381668
000020 dd e9 81 be 83 c3 b1 3c 69 41 67 ba f0 41 0f bd
       -0.25373736 0.021699673 -0.00088216976 -0.034974992
000030 b6 da ae be 65 1d 7a 3e 18 41 62 be ae 42 ac bd
       -0.34151238 0.24425276 -0.22095144 -0.08411156
000040 bc 78 b6 bd e7 94 7b be b2 44 5f be a6 e3 28 be
       -0.08909747 -0.2456852 -0.21803549 -0.16493091
000050 80 2f 9d bd 69 03 5f 3e 5e 36 82 be 8a 8d dd bd
       -0.076750755 0.21778645 -0.25432104 -0.10818012
000060 ac 9e 66 3c 1c de 52 be da 92 3f 3e 45 79 b0 3d
       0.014075916 -0.2059254 0.18708363 0.0861688
000070 99 7c 25 be b5 1e 2f 3b 75 d0 8a bd c9 5c 83 be
       -0.16160811 0.0026721184 -0.06778041 -0.25656727
000080 a2 4d c1 3c df 0b ec bd bf 24 82 3d 88 4c d4 be
       0.023596589 -0.11525702 0.06354665 -0.4146464
000090 25 fe 5f 3d 18 23 89 be d7 88 1c bc 27 c3 25 3d
       0.05468573 -0.26784587 -0.00955411 0.040469315
0000a0 1c 4e 20 3e 92 f0 97 be 04 09 6c be 6d 7e 87 be
       0.15654796 -0.29675728 -0.23050314 -0.26463643
0000b0 51 09 16 bd 14 b6 14 bd 01 5b 30 be 17 c9 41 be
       -0.03662998 -0.036306456 -0.17222215 -0.18924366
0000c0 70 3d 2a 3b d8 e4 6b be 20 ad f4 bd dc 9a e6 bd
       0.002597656 -0.23036516 -0.119470835 -0.11260006
0000d0 88 58 5e be a1 af 4b be fd 07 b1 bc 9e 17 39 3c
       -0.2171346 -0.19891216 -0.021610254 0.011297135
0000e0 7e 4a e0 bd 44 f7 ab bd 39 06 2f be 6a e2 cb bd
       -0.10951708 -0.083967716 -0.17092218 -0.099552944
0000f0 1a 51 01 3d c8 b4 87 bd c4 43 f5 bd f5 63 92 3d
       0.031571485 -0.06626278 -0.11975816 0.071479715

shared.2.weight f4 [64, 64]
000000 e9 a3 fb 3c 5d b0 72 3d c4 3e 13 3d e6 cb 25 be
       0.030717807 0.059250224 0.03594853 -0.16191062
000010 f1 12 d7 bd 75 08 6a 3d 4a 42 5e 3d 64 bc 73 bc
       -0.1050166 0.05713697 0.054262437 -0.014876459
000020 3b 61 b4 bd 1b ac 70 bd c4 ec 36 be 88 1f 51 bd
       -0.08807608 -0.058757883 -0.17863756 -0.05105546
000030 d2 d4 a3 be a0 31 32 be 3b db 76 3e f4 75 8b be
       -0.31998307 -0.17401743 0.24107067 -0.2723843
000040 69 66 80 be 17 54 08 3c 05 60 be be 15 4c d3 3d
       -0.25078133 0.00832083 -0.37182632 0.10317246
000050 e9 a9 ac 3d 18 b9 39 be 8a 40 4b 3c 79 51 6c 3d
       0.08430845 -0.18137014 0.012405524 0.057694886
000060 a8 81 7c 3b 1b 29 f7 3c 8b 5b b7 be d5 6f ab bd
       0.003852943 0.030170968 -0.3581203 -0.0837094
000070 8e 2a ff 3d 19 85 fc 3c 83 66 19 3d df 5e 4e 3d
       0.124592885 0.030825185 0.03745128 0.050383445
000080 79 08 2d 3e 42 d7 10 bd 8f eb 8b 3e 17 2b 37 3e
       0.16897763 -0.035361536 0.27328154 0.17887531
000090 0d 2b 38 bd 76 08 c1 3e 83 29 80 bc 64 48 b0 39
       -0.04496293 0.37701768 -0.015644794 0.0003362327
0000a0 50 ec 2f bf a7 21 54 be 72 88 df 3c b7 09 34 be
       -0.6871996 -0.20715962 0.027286742 -0.17581831
0000b0 9f 49 ce bd 8d dc 69 be 76 bf 73 bd 2d f5 26 3f
       -0.10072636 -0.2283804 -0.059508763 0.6521786
0000c0 ea ba 1e 3e c0 af 16 3d bf 80 9f bb 67 09 20 3d
       0.1550099 0.036788702 -0.0048676427 0.039071467
0000d0 be 0c 08 3d 7c cb 5b 3d 87 94 0c be 46 2b 03 3c
       0.033215277 0.053660855 -0.13728534 0.008005923
0000e0 13 fd 56 bd 0d 4e 39 3d d8 e4 24 3d bd 71 30 bd
       -0.052487444 0.04524045 0.040257305 -0.04307722
0000f0 40 01 30 3e fa 09 2e 3e 04 de d1 3d 0b e5 11 be
       0.17187977 0.16995993 0.10247424 -0.14247529
000100 e3 f3 ca 3d 1b 05 03 bf 3f 0b 1f be b1 4b 91 be
       0.09909799 -0.51179665 -0.15531634 -0.2837806
000110 dc be 35 bf 1b 39 fe 3d cd 52 60 bd fa 18 f8 bc
       -0.70994353 0.12413236 -0.054766465 -0.030285347
000120 c7 90 a6 3d ac 35 81 3d 08 85 c4 3e 8f 81 82 3e
       0.08133083 0.06309065 0.38382745 0.2548947
000130 3b 3a fe 3d d8 04 59 3d 4a cc 60 3e 7b 28 28 3e
       0.1241345 0.052983135 0.2195293 0.16421692
000140 9c 6e 1b 3c 84 da 69 bf bd c9 3d be 63 70 bd 3c
       0.009486821 -0.91349053 -0.18533988 0.02312488
000150 38 24 34 bf a0 09 29 3d 16 61 b1 bd aa f9 03 bf
       -0.70367765 0.041268945 -0.08661096 -0.5155283
000160 64 6d e6 bd c2 8c fb 3b ff 42 1e be 9b 84 7b 3e
       -0.11251333 0.0076766917 -0.15455244 0.24562304
000170 c4 ba 3a bd e1 4f 10 be 38 a6 61 3e a0 77 c7 bd
       -0.04558827 -0.14092971 0.22036064 -0.097396135
000180 61 c5 a4 3e 0a 34 de 3d 39 5a ab bd 6c 55 07 3e
       0.32181838 0.108497694 -0.08366818 0.1321618
000190 0e af 8a be 6c 41 0b bf 56 3a 01 be d6 5c 8e be
       -0.2708668 -0.543967 -0.1261991 -0.27805203
0001a0 fd 30 58 3e b0 6e 9a 3e 0e 61 8f bf 92 ed 14 3e
       0.21112438 0.30162573 -1.1201494 0.14543751
0001b0 f8 f4 38 3e 6f df e9 bd 9a 08 09 bf ff 9f 53 be
       0.18062198 -0.1141957 -0.5352875 -0.20666502
0001c0 40 4c 0a 3d d3 f7 db bd 0b 57 30 3e f0 5b 18 3e
       0.033764124 -0.10740628 0.17220704 0.14878821
0001d0 30 f3 c7 be ce 3f 2c 3e 44 4b e8 3e 50 09 4b bd
       -0.39052725 0.16821215 0.45369923 -0.049569428
0001e0 15 06 1b be bb 5c 9d be 82 3b 5c be 20 ad 22 be
       -0.15139039 -0.3073481 -0.21507075 -0.15886354
0001f0 77 85 7e be 30 9d ca 3d 97 27 49 bf 76 aa 5f 3e
       -0.248556 0.098932624 -0.78576034 0.2184237
000200 9e 4f 7a be 0b 50 26 be d3 a3 42 3b 0a af c3 be
       -0.24444434 -0.16241471 0.0029699698 -0.38219482
000210 96 ae e6 bc 20 c7 2e 3e 76 10 8f bd ba 29 58 3d
       -0.028159421 0.17068148 -0.069855615 0.05277417
000220 7a 38 02 bf 47 eb f8 3d 8a 2e eb 3e 57 b6 4d ba
       -0.50867426 0.121542506 0.45933944 -0.00078473
000230 7c b4 78 be 01 a4 83 be fc b5 00 be 00 9a b0 bd
       -0.242876 -0.25711063 -0.12569422 -0.08623123
000240 af 52 f9 bb 2a 22 f2 3d 54 2f 51 3e 72 d7 14 be
       -0.0076087336 0.118229225 0.2042821 -0.14535311
000250 e4 f2 1b bf fb e8 9e 3d 7a 43 db bd ef ac 9d 3e
       -0.60917497 0.07759281 -0.107062295 0.30796
000260 9f f3 ac bb a2 d3 1d 3e 07 dc 41 be 9a 44 6f be
       -0.0052780653 0.15412763 -0.1893159 -0.23366013
000270 df d7 b1 be 5f 11 7b be f3 fc 16 3c a8 f3 ed bd
       -0.3473501 -0.24518345 0.009215581 -0.11618739
000280 7f f1 62 be d9 cd f4 3c 57 f6 15 3d ec 6e 20 be
       -0.22162436 0.029883312 0.03661188 -0.15667313
000290 40 e7 14 be 91 a2 d9 3c 57 39 da 3c be de 5b bc
       -0.1454134 0.026566776 0.02663867 -0.013419805
0002a0 9d fb f1 bc 32 9d 74 3e 9d de 1d be 16 ef d3 3e
       -0.029538924 0.2388809 -0.15416951 0.41393346
0002b0 be b1 a4 3e bc a3 01 3e 40 34 e7 3c 50 cf 7e 3d
       0.32166857 0.12660116 0.028223157 0.062209427
0002c0 48 6b 61 3e 74 8e aa be fc 91 e3 3d 40 66 06 3e
       0.22013581 -0.33311808 0.11111829 0.13124943
0002d0 bd 35 30 3f d1 98 1f be 90 f7 b0 3e 4c 98 0f bf
       0.68832 -0.15585639 0.34563875 -0.5609176
0002e0 33 70 59 be 35 55 43 bd 0f dc 44 bd 2a a7 ca bd
       -0.21234207 -0.04768868 -0.048061427 -0.09895165
0002f0 15 e5 6a bf df 4e b8 3d 65 72 06 bf 4f ba 0f 3e
       -0.917558 0.089994185 -0.525183 0.14035915
000300 8d d3 1c be 0b 0f 84 3e 78 6b 8a be cb 96 81 be
       -0.15315075 0.25792727 -0.27035117 -0.25310358
000310 a2 c4 76 3b d5 4c 93 be b6 df 25 bf e8 b2 ab bd
       0.0037653823 -0.28769556 -0.6479448 -0.08383733
000320 5e ee 06 3e 0e f3 14 bf da d7 30 bd 46 37 66 3e
       0.13176867 -0.5818337 -0.043174602 0.22482023
000330 f2 f3 da be 7c 2c 03 bd c9 d5 ea bd e0 66 27 3d
       -0.4276424 -0.032024845 -0.114665575 0.040869594
000340 59 22 80 3d 13 5c fc be a7 95 49 bd 49 39 0f bf
       0.06256551 -0.49288997 -0.049214985 -0.55946785
000350 fa c3 a2 3e 12 1d 8f 3d 1b b6 06 bf 8c b8 8d be
       0.31790143 0.069879666 -0.5262162 -0.2767986
000360 4f 28 95 be 75 20 24 3e cc f6 3e be 34 94 16 bf
       -0.29132316 0.16028006 -0.18648833 -0.5881989
000370 68 74 43 3e b9 32 f1 bd 84 5a 89 bd e3 3e 46 3e
       0.19087374 -0.11777253 -0.067067176 0.19359927
000380 d7 75 0f bf 7f d4 ed 3d 54 ea 85 be 7a 2a 3c 3e
       -0.56039184 0.11612796 -0.2615534 0.18375579
000390 5d 40 02 bf df f7 04 bf f4 2d c9 bd 0d 76 8f bf
       -0.5087946 -0.5194072 -0.09823218 -1.1207901
0003a0 33 27 13 be 75 03 08 3e 42 b3 22 bb 9f 5e 65 bf
       -0.14370422 0.13282569 -0.0024826084 -0.89597505
0003b0 47 c5 b5 3d 7f 49 c2 3d 3b 19 c7 3e e1 a1 a4 be
       0.08875518 0.094866745 0.38886437 -0.32154754
0003c0 01 2a 70 3d fa a0 f4 be eb 6e 47 bf b1 02 91 be
       0.058633808 -0.47779065 -0.7790362 -0.28322366
0003d0 d2 d7 a8 3e b2 43 16 3e 77 ae 31 bf bb ef c7 be
       0.32977158 0.14674261 -0.6940684 -0.39050087
0003e0 59 63 55 3e ef e6 08 3e bd 4b 82 be 1d a7 33 be
       0.2083868 0.13369344 -0.2544841 -0.17544217
0003f0 a2 c0 b0 3d ef 56 81 3e 58 11 04 be 88 ea f6 bc
       0.08630492 0.25261638 -0.12897241 -0.03014113

shared.2.bias f4 [64]
000000 49 77 f1 3e f3 71 cf 3c 5a ca 51 be 97 45 1c 3d
       0.4716132 0.02532289 -0.20487347 0.038152304
000010 fb 62 40 be 1f c0 3e bc 22 a4 f5 3a 60 b4 43 bd
       -0.18787758 -0.011642485 0.0018740932 -0.04777944
000020 25 71 ca 3d ec fa 91 3e 83 0b 20 3e f5 5b 82 3d
       0.09884862 0.2851175 0.15629391 0.06365196
000030 ca 15 a9 bd 3b 9c 4c be 01 fc c1 bd de 17 25 3e
       -0.08256109 -0.19981472 -0.09471894 0.16122386
000040 f0 22 7e bb dc c0 27 bd 15 f1 cf bc 0e 27 2d be
       -0.0038778149 -0.04095541 -0.025383512 -0.1690943
000050 9a 83 9b bd d9 87 d0 bb 78 5a 9b 3d b0 42 07 3e
       -0.075934604 -0.0063638506 0.07585615 0.13209033
000060 3a 89 da 3d ce ef 82 bd a3 d8 82 3f f2 65 a0 3d
       0.10670705 -0.06393395 1.0222362 0.078319445
000070 ea ac 35 3e 51 7a 84 3d 2b 9a 7f 3d b4 0d 16 3e
       0.17741743 0.064686425 0.062402885 0.14653665
000080 ff 01 7c bc 16 94 8c 3d ee ff 42 3d 5e 00 70 3c
       -0.015381335 0.06864183 0.047607355 0.014648525
000090 fa ad 1e be 84 2a 8a 3e 98 9d 0c be 99 7b 88 3d
       -0.15496054 0.26985562 -0.13731992 0.066641994
0000a0 44 bd 14 3e 9b 3e 0c 3e d3 e0 56 bc 9c 73 08 be
       0.14525324 0.13695757 -0.013115126 -0.13325351
0000b0 bd 85 18 be 07 dc 24 3b 33 69 a4 bc 7d ab 9c be
       -0.14894767 0.002515556 -0.020069694 -0.30599585
0000c0 fd dd 80 3e 47 3c 81 3e f6 37 f6 3b 46 d8 12 3d
       0.25169364 0.252413 0.0075139953 0.035850786
0000d0 df 99 9f 3c 23 de 8f bd 5d 03 28 bd b7 92 48 be
       0.019482551 -0.07024791 -0.041018832 -0.19587217
0000e0 1c 66 c8 3d c6 04 b2 3e e7 4f 27 be e7 f6 93 be
       0.09785101 0.34769267 -0.16339074 -0.2889931
0000f0 9e f2 75 bd 0c a5 6c 3d 17 d8 29 3e 63 69 e4 3d
       -0.06004583 0.05777459 0.16586338 0.111529134

actor.0.weight f4 [4, 64]
000000 c7 f9 62 3c b7 bc 90 3e b1 74 01 3e 0e 0f ad be
       0.013853497 0.28268978 0.1264217 -0.33800548
000010 0b 71 90 be ec e1 a7 be 6d f1 04 3d fc b6 bd 3e
       -0.28211245 -0.32789552 0.032456804 0.37053668
000020 5c 1d 76 be 80 26 87 be bf bb c7 bd 50 91 d7 3d
       -0.24034637 -0.2639656 -0.097526066 0.10525763
000030 aa c8 27 be bc dc 00 be 96 3b 7e 3e da c8 a9 bd
       -0.16385141 -0.12584203 0.24827418 -0.082902625
000040 d2 6a 2a 3d 27 95 0d be a3 4f 92 3e 61 92 ed 3e
       0.041605778 -0.13826428 0.28576383 0.4640074
000050 7a dc 8f be df 3f 4a be 47 ed 7c 3d 01 ec 0a be
       -0.28097898 -0.19750927 0.061749723 -0.13566591
000060 45 65 de be cd 89 aa bd d2 e6 6c 3b 03 21 6f be
       -0.43436638 -0.08327065 0.0036148322 -0.23352437
000070 d5 1c ff bd d6 c1 44 be 86 23 28 be 96 f6 64 3d
       -0.12456671 -0.19214568 -0.16419801 0.055899225
000080 95 04 2a be b5 57 bd 3d 01 22 c8 be 06 28 4b 3e
       -0.1660331 0.092452444 -0.39088443 0.19839486
000090 19 9c fd be ee d2 a2 3c fe 37 67 be ae a7 b9 3d
       -0.49533156 0.01987597 -0.22579953 0.090651855
0000a0 5a 19 ce bd b8 45 68 3e 28 e1 7c be 37 0d 85 3e
       -0.10063429 0.22682846 -0.24695265 0.25986645
0000b0 b7 04 84 3e b1 7c 0e bd 1f 50 b2 bd 0f 09 ff 3e
       0.25784847 -0.034786884 -0.08706688 0.498116
0000c0 6e b8 4f 3d 28 10 ad 3b 16 e7 17 be 17 3a 60 be
       0.050712995 0.005281467 -0.14834246 -0.2189716
0000d0 7f e2 2e be 8b 60 e4 bd 59 98 a1 3e 52 83 0e 3e
       -0.17078589 -0.111512266 0.31561545 0.13917282
0000e0 93 e5 08 be bd 97 24 bc 06 f2 81 3e f0 ec ac bd
       -0.13368826 -0.010045943 0.25379962 -0.0844363
0000f0 02 98 9d be 42 84 b5 3e c4 90 4e 3e 2e e2 a2 3d
       -0.30780035 0.35452467 0.20172411 0.079532966
000100 5f a1 e1 3c eb 14 2b be a9 66 e9 bd 06 91 8c 3e
       0.027542768 -0.16707198 -0.11396534 0.27454394
000110 61 13 0d 3e 65 cb 7a be 83 68 98 3e 16 7b 8b 3d
       0.13776924 -0.24491651 0.29767236 0.06810586
000120 d8 0f ec 3d 6c 62 aa bd 85 14 d1 be f0 56 46 3e
       0.115264595 -0.08319554 -0.40835968 0.19369102
000130 3b 48 e6 bd 5f eb a6 3d 18 f7 2d be e2 d3 02 bd
       -0.112442456 0.08150362 -0.1698879 -0.03194035
000140 31 6b f6 be 0c 55 c3 3c 9d 8f 9e be c0 b9 8d 3d
       -0.48128656 0.023844264 -0.30968943 0.069201946
000150 41 12 aa 3e 04 b4 1a be 2d 96 05 be 23 0b 01 3e
       0.33217052 -0.15107733 -0.13045569 0.12601905
000160 a4 2b ea bd b9 f2 56 3e fe 33 8d 3d e2 9d b0 bc
       -0.11434105 0.20991029 0.06894682 -0.02155966
000170 8f a8 a2 be 71 a4 9d 3e a7 a8 e4 3d f7 72 a7 ba
       -0.31769225 0.3078952 0.111649804 -0.0012775351
000180 65 e0 77 3e 47 d0 9d 3e 21 94 50 3e 7e f9 04 bf
       0.24206693 0.30822966 0.20369007 -0.51943195
000190 a4 fb 73 be 8e b6 03 3e bf bc ee bd 3e 3d b4 bd
       -0.23826462 0.12862608 -0.11657094 -0.088007435
0001a0 e4 40 be 3d 41 1c 68 3e fc c0 c3 3e b0 33 7e 3e
       0.09289721 0.22667028 0.38233173 0.24824405
0001b0 07 cd b7 3d d4 dd 58 be 69 fe 48 3d 9d 4a fb bd
       0.08974653 -0.2117837 0.04907075 -0.12270091
0001c0 68 a7 13 be 0b c4 70 be 3b 09 ce bd 09 3f 04 be
       -0.14419329 -0.23512284 -0.10060354 -0.12914671
0001d0 1e 8b 68 be 25 49 9b be 8e 93 de 3e 28 59 4c bd
       -0.22709319 -0.30329242 0.4347195 -0.049889714
0001e0 c4 97 b3 be 62 d6 14 bd 44 a9 72 bd 33 4c 02 3e
       -0.35076725 -0.036337264 -0.059243456 0.1272438
0001f0 55 09 fa be 45 ba b2 bd ad 41 d3 bc 97 4b ab 3e
       -0.48835245 -0.08726934 -0.025788153 0.33456108
000200 3b 20 2f 3c 57 88 af 3c 5e de ae 3d 08 bd 1b be
       0.010688837 0.021427317 0.08538507 -0.15208828
000210 16 f2 4e be 14 b1 60 3e ca e1 0e 3e b2 74 a2 3e
       -0.20209536 0.2194255 0.13953319 0.31729656
000220 54 15 c4 3d 24 6a 0c 3d de 9e 13 3f 14 c2 82 be
       0.095743805 0.03428091 0.5766429 -0.25538695
000230 d1 72 72 be 3c ad 40 bd db f6 ba bd 4d f8 cc be
       -0.23676611 -0.04704021 -0.09129115 -0.40033188
000240 36 4c 63 be 9e 2a 5e 3e 55 33 8b be e7 c6 91 3e
       -0.22197041 0.21695945 -0.271876 0.28472063
000250 67 ad bc 3e 14 7c 20 3e 84 05 a3 3e 37 1e 41 be
       0.36851045 0.15672332 0.31840146 -0.18859182
000260 25 58 07 be e1 6f 83 3e a9 67 b9 3c c9 64 bd 3d
       -0.13217218 0.25671294 0.022632437 0.09247739
000270 3b de 89 3e 6f 9d 70 bd 82 69 96 be 84 75 20 3e
       0.2692736 -0.05874389 -0.2937737 0.15669829
000280 91 4b 68 be 7f b0 02 be 7f e6 c8 bd e9 b0 88 bc
       -0.22685076 -0.1276264 -0.09809589 -0.01668592
000290 f2 ed c5 3c 0b ec 94 be a1 d6 21 3f 37 5d 17 be
       0.024161313 -0.29086336 0.6321812 -0.14781652
0002a0 55 0d 25 3e 43 6c e5 bd b6 08 63 3e e1 86 3a 3d
       0.16118367 -0.1120229 0.22171292 0.045538787
0002b0 f2 d9 d5 3d 71 16 f6 bd 42 a1 49 bd 68 ba 6f be
       0.104419604 -0.12015999 -0.049226053 -0.23410952
0002c0 b4 ee 8b bc 7f 97 8a be ae 6b d5 3e 68 50 6e bd
       -0.017081596 -0.27068707 0.41683716 -0.05818215
0002d0 3b f6 bf 3e 89 d0 fa be 3b 37 f7 bc 5b 5f e3 3c
       0.37492546 -0.48987225 -0.030177703 0.02775543
0002e0 c6 6f b3 3d 51 c4 25 bd 5f 30 ad be 1b 4e d4 3e
       0.087615535 -0.040470425 -0.33825967 0.4146584
0002f0 f1 79 0c be 34 05 38 bd e6 2b c9 3d 1e b3 36 3e
       -0.13718392 -0.044926837 0.09822826 0.17841765
000300 03 04 42 bd 2a a4 49 3e eb 9c b1 3e 31 29 a6 be
       -0.047367107 0.1969153 0.3469003 -0.32453302
000310 09 c4 84 be fc 56 e1 3e 13 20 e7 bc 70 b8 bc 3d
       -0.25930813 0.44011676 -0.028213536 0.09214866
000320 e1 51 12 3f ea 02 72 3e 65 5f 61 bd bc 6f 0f be
       0.5715619 0.23633924 -0.055022616 -0.14007467
000330 c9 4b 9f 3e 2a e9 2e 3f 6d 34 2a 3f 8b a5 85 3c
       0.31112507 0.6832453 0.66486245 0.016314289
000340 14 e6 60 3d 2e a8 35 3e 79 e8 25 3e 98 ef 7d 3d
       0.05490692 0.17739937 0.16201963 0.061996073
000350 e2 cd a8 3e 93 5d 6d be 02 09 a0 be 64 86 b8 3d
       0.32969576 -0.23180227 -0.31256872 0.09010008
000360 96 73 a1 bd cd 2f 8d 3e 83 c0 11 bd a3 5f 9d be
       -0.078833744 0.27575532 -0.035583984 -0.30737028
000370 11 c1 12 be 6e 09 26 bc f6 61 c5 3c 31 e8 0a be
       -0.14331461 -0.010134084 0.024094563 -0.13565136
000380 54 f7 86 be 0c eb f8 bd f4 21 5f 3e a9 3d 7c be
       -0.2636057 -0.12154207 0.21790296 -0.24632896
000390 76 8b 94 3c 92 70 2d be d6 be 0f 3d 64 c0 44 3e
       0.018132906 -0.16937473 0.035094105 0.19214016
0003a0 bf 92 89 be 32 ae 14 be 12 3a b3 bd 1b 50 a2 bd
       -0.2686977 -0.14519575 -0.087513104 -0.07925435
0003b0 85 ca d4 3d 43 8c 1a 3e 93 70 48 be ec 2e eb be
       0.1039019 0.15092568 -0.19574194 -0.45934236
0003c0 cf 09 88 bd fa 2d 42 3d 25 54 c3 3d 0d c1 b2 be
       -0.06642496 0.047407128 0.09537534 -0.3491291
0003d0 eb f9 90 bc 70 cb 01 bb 4a a0 59 3e 9f 44 a5 bd
       -0.017697295 -0.0019805096 0.21252552 -0.08069729
0003e0 90 35 68 3c c4 f2 87 3c 3a 54 9a bd 16 3c 49 3e
       0.014172927 0.016595252 -0.07535596 0.19651827
0003f0 53 70 17 be 3f d2 85 be 35 a4 88 be 17 fd 57 3e
       -0.14788942 -0.26136968 -0.2668778 0.2109264

actor.0.bias f4 [4]
000000 67 e6 05 3e 06 b7 66 3e 70 e0 d8 bd 13 a6 07 3e
       0.13076173 0.22530755 -0.10589683 0.13246946

critic.weight f4 [1, 64]
000000 32 14 40 3e f0 aa 9f 3b c2 39 7c bb 11 b7 c7 bd
       0.18757704 0.0048726723 -0.0038486575 -0.09751714
000010 c9 b0 9e bc 72 ce 24 3d d3 87 80 bc fd b2 d8 bb
       -0.019371407 0.040235944 -0.015689766 -0.006613134
000020 0b b3 66 bc ae 38 77 bc 9c d0 dd bc 99 94 2a bd
       -0.014080773 -0.015089197 -0.027077012 -0.04164562
000030 f1 8c 8b 3d 14 45 6d bc d1 da aa 3c 2b e0 e6 3c
       0.06813992 -0.014481802 0.020856293 0.028183063
000040 6d 3d 76 bc 27 f0 ec 3c 29 39 6e bc ab cc 01 3b
       -0.0150292935 0.028923107 -0.014539995 0.001980583
000050 c0 29 e1 3c e8 87 cb bb 3b 38 39 3c 50 13 ff bb
       0.027485728 -0.0062112696 0.01130491 -0.0077842847
000060 4a 17 21 3c 76 15 72 bd 10 35 2c 3f 68 98 04 bd
       0.009832213 -0.059102498 0.67268467 -0.03237191
000070 cb 7b 5f bb 9b a4 b6 ba fe 5e 32 3c b1 7b 89 bc
       -0.0034100886 -0.0013934554 0.010886906 -0.016782613
000080 9a 2e ce 3b 5e eb dd bc b0 f3 6d 3c 60 4f c1 bc
       0.0062921764 -0.02708977 0.014523432 -0.02359742
000090 80 81 87 bc af 0b 4c 3c b8 99 ce 3c 51 9d 35 bc
       -0.016541243 0.012453957 0.025219783 -0.01108487
0000a0 fa 10 30 bc 1b 16 9f bd d7 fa 0e bd 03 c1 ac bc
       -0.010746235 -0.07767888 -0.03490719 -0.021088129
0000b0 bc 9a 18 3c 72 9f eb bc cb a9 ec b9 d2 03 fb 3c
       0.009314235 -0.028762553 -0.00045139933 0.03064147
0000c0 fc 76 87 3b a7 e1 68 bb 1d 53 fa bc 0e c5 31 bd
       0.004134057 -0.003553489 -0.03055721 -0.043400817
0000d0 22 a0 26 bc 77 bf 5b bc 86 46 05 3d 90 4e 8d bd
       -0.010170015 -0.013412348 0.03253796 -0.0689975
0000e0 47 87 ff bc fd 40 0e 3f 4b a0 3f bd 5a 59 20 bd
       -0.031192435 0.55567914 -0.046783727 -0.039147712
0000f0 7f 65 7e bc 1c 73 f1 bb 71 60 21 3d 33 30 85 bb
       -0.015527128 -0.0073684584 0.039398614 -0.0040645837
