models/checkpoint.pth (torch, 29323 bytes, 8 tensors)

std f4 [4]
-0.587261 -0.60317814 -0.7648128 -0.8008565
00000000: bd56 16bf e269 1abf c6ca 43bf ee04 4dbf

shared.0.weight f4 [64, 33]
0.2414203 0.049274582 -0.37088737 -0.2024584 0.25823596 0.11293072 -0.16267373 0.08050117
0.08075944 -0.14628546 -0.20290995 -0.109476656 -0.12652378 -0.46492517 0.26427707 0.17975463
0.40755886 0.67498 0.12842005 0.0075346776 -0.19747639 0.42877626 -0.27158713 0.078911565
0.09113087 0.047734864 0.30305204 -0.27530447 -0.081348516 -0.044070408 0.04596417 0.15040323
-0.31118485 -0.5602807 -0.22893216 -0.1407212 -0.0060440307 -0.2853805 0.26459655 0.04161513
0.025648575 -0.24149773 -0.016525973 -0.18410018 -0.114194565 0.0069850534 0.4964514 0.22160786
-0.0041650715 -0.44003662 0.1219222 0.21610925 -0.02678118 -0.04355139 0.0005007261 -0.28299493
0.28301048 -0.07032148 -0.07160398 -0.17778385 -0.02081082 0.2076273 -0.103115335 0.1521709
0.09556377 -0.8082524 0.019384358 0.35883388 -0.024584444 -0.17989345 -0.04379996 0.15448576
-0.095500894 -0.08853372 0.47911832 0.13750944 0.0814266 -0.20230092 -0.09744317 -0.3051621
-0.5319797 0.25439003 -0.043284234 -0.35815609 -0.12500776 0.06892599 -0.050133325 -0.3616925
0.049995158 -0.039383877 0.12550227 0.097524844 0.19973025 0.20531096 -0.17418821 -0.11292364
-0.053304456 0.036434695 -0.69821864 -0.14900753 0.29631314 -0.11535671 -0.17830773 0.009798407
-0.40645882 -0.34293216 -0.09029956 -0.8286357 -0.10155147 -0.24836838 -0.13487871 0.19279711
-0.31074077 0.21068129 -0.0027035081 -0.7428568 0.13606687 -0.0045073074 0.2704377 0.16997059
0.23854877 -0.4002746 0.094192155 0.34003156 -0.3577871 -0.15910797 -0.026216695 -0.09085467
-0.060898177 -0.16003913 -0.037028953 -0.086894356 0.17541765 -0.07911328 0.108400844 -0.013499621
0.28760377 -0.23007834 0.11786812 -0.105021656 -0.14106017 0.30283922 0.43501568 0.29226947
-0.07077742 -0.15545166 0.2299921 -0.04777031 -0.2323891 -0.06467752 -0.1935782 0.20819308
-0.18008326 0.30702078 0.30890837 -0.3690246 0.3644232 -0.14805387 -0.11055749 -0.14755058
-0.12182758 -0.034178883 -0.07924024 -0.15030524 -0.09816593 -0.31146175 0.07320582 0.26716042
-0.35253644 -0.47422317 0.43966302 0.18829744 0.082231164 0.19516718 -0.38903472 0.09389593
-0.28291234 0.012377332 0.10027223 0.02624792 0.0055996384 0.0707242 -0.3378453 0.1578302
-0.11916346 0.31406665 -0.020176414 -0.48006976 -0.24839227 0.26915857 0.05946676 0.11432503
0.19430903 0.085869394 -0.12271328 -0.41292262 -0.10143601 0.12288013 -0.0021274919 0.07088281
-0.00017580594 0.037036043 0.088632785 -0.04719838 -0.07423236 -0.024847073 0.19439489 0.43640563
0.26657227 -0.065758206 0.18431729 0.20872277 0.27455583 0.018564891 -0.02146495 -0.1247616
0.023513138 0.07880847 0.31183228 0.07461898 -0.0668038 0.20371784 0.15374012 0.104465954
-0.28082672 0.19445013 -0.2871352 -0.049414426 -0.16662182 -0.02577871 -0.35880744 -0.32856208
0.16540343 0.29680225 0.032194857 -0.44861665 -0.17532995 -0.021017745 -0.3388359 -0.24620035
-0.115579024 0.0030078792 -0.1015822 0.22281411 0.04755723 -0.22560716 0.01803213 -0.01509726
-0.012836376 -0.29200926 0.4485825 0.02840348 0.22229633 0.013056796 -0.20242 -0.41157243
00000000: e236 773e 25d4 493d f3e4 bdbe 4151 4fbe
00000010: 8137 843e 3948 e73d f193 26be ccdd a43d
00000020: 3565 a53d dbcb 15be a0c7 4fbe 4c35 e0bd
00000030: 738f 01be ac0a eebe 534f 873e 9911 383e
00000040: 8eab d03e 7dcb 2c3f 8c80 033e 75e5 f63b
00000050: 4037 4abe 9088 db3e 780d 8bbe 639c a13d
00000060: d2a2 ba3d a285 433d a329 9b3e b5f4 8cbe
00000070: 0d9a a6bd 2c83 34bd ed44 3c3d 4e03 1a3e
00000080: 9f53 9fbe 8e6e 0fbf 316d 6abe 3819 10be
00000090: 010d c6bb 651d 92be 3379 873e a074 2a3d
000000a0: f61c d23c 2e4b 77be 7a61 87bc c284 3cbe
000000b0: d7de e9bd e0e2 e43b e12e fe3e 2ced 623e
000000c0: 277b 88bb 7b4c e1be 59b2 f93d be4b 5d3e
000000d0: 3564 dbbc f162 32bd 2943 033a b6e4 90be
000000e0: c0e6 903e b504 90bd 1ca5 92bd f80c 36be
000000f0: 747b aabc 409c 543e 222e d3bd b0d2 1b3e
00000100: f0b6 c33d a1e9 4ebf f2cb 9e3c 13b9 b73e
00000110: 5165 c9bc fd35 38be 9667 33bd 8431 1e3e
00000120: f995 c3bd 2b51 b5bd ff4e f53e 46cf 0c3e
00000130: fdc2 a63d f927 4fbe 4990 c7bd 353e 9cbe
00000140: d22f 08bf 693f 823e cf4a 31bd 3c60 b7be
00000150: 0902 00be 1229 8d3d 9a58 4dbd c22f b9be
00000160: b9c7 4c3d fd50 21bd ab83 003e 1bbb c73d
00000170: 1686 4c3e 093d 523e 655e 32be 8244 e7bd
00000180: c655 5abd 8c3c 153d 75be 32bf 6e95 18be
00000190: 5bb6 973e 2440 ecbd 4d96 36be 7f89 203c
000001a0: 5f1b d0be ce94 afbe faee b8bd 7821 54bf
000001b0: 38fa cfbd 4854 7ebe a51d 0abe 9b6c 453e
000001c0: 6a19 9fbe d6bc 573e 572d 31bb dd2b 3ebf
000001d0: 1d55 0b3e 09b2 93bb cf76 8a3e c50c 2e3e
000001e0: 2146 743e cbf0 ccbe d1e7 c03d 9e18 ae3e
000001f0: df2f b7be 33ed 22be 65c4 d6bc 0312 babd
00000200: 5e70 79bd 4ce1 23be acab 17bd abf5 b1bd
00000210: afa0 333e 2506 a2bd 4301 de3d 842d 5dbc
00000220: cd40 933e a899 6bbe d764 f13d 9815 d7bd
00000230: 1472 10be be0d 9b3e 60ba de3e 58a4 953e
00000240: c1f3 90bd b82e 1fbe 0d83 6b3e cdaa 43bd
00000250: 69f7 6dbe a675 84bd 5d39 46be 9130 553e
00000260: bf67 38be d431 9d3e 3d29 9e3e cbf0 bcbe
00000270: ad95 ba3e 6f9b 17be f76b e2bd 8017 17be
00000280: bd80 f9bd 28ff 0bbd b548 a2bd 9ee9 19be
00000290: 380b c9bd ea77 9fbe efec 953d 40c9 883e
000002a0: a87f b4be 61cd f2be 831b e13e 0bd1 403e
000002b0: d068 a83d e8d9 473e 8f2f c7be 824c c03d
000002c0: e3d9 90be 4bca 4a3c 875b cd3d e105 d73c
000002d0: 2c7d b73b d9d7 903d 0ffa acbe 3d9e 213e
000002e0: f90b f4bd 58cd a03e 0249 a5bc b4cb f5be
000002f0: 8b5a 7ebe 27cf 893e 6b93 733d 3e23 ea3d
00000300: f2f8 463e 4bdc af3d 1a51 fbbd 986a d3be
00000310: afbd cfbd 94a8 fb3d 646d 0bbb 022b 913d
00000320: 8c58 38b9 1bb3 173d 1b85 b53d 1753 41bd
00000330: 2307 98bd 178c cbbc 740f 473e 8f70 df3e
00000340: 297c 883e 3dac 86bd acbd 3c3e 6cbb 553e
00000350: 9592 8c3e 6615 983c 43d7 afbc 0283 ffbd
00000360: a09e c03c 5666 a13d 7ba8 9f3e d6d1 983d
00000370: 6ed0 88bd 699b 503e 0d6e 1d3e 3ff2 d53d
00000380: 85c8 8fbe ef1d 473e 6303 93be c866 4abd
00000390: e99e 2abe e02d d3bc 9cb5 b7be 4a39 a8be
000003a0: 845f 293e 77f6 973e c1de 033d 15b1 e5be
000003b0: b289 33be 682d acbc e67b adbe f21b 7cbe
000003c0: b2b4 ecbd d71f 453b 540a d0bd 6229 643e
000003d0: 5fcb 423d 9005 67be 1eb8 933c 7f5a 77bc
000003e0: aa4f 52bc 3d82 95be 9bac e53e 6aae e83c
000003f0: a6a1 633e 2cec 553c 3047 4fbe 9fb9 d2be

shared.0.bias f4 [64]
0.12115416 0.25473422 -0.12134661 -0.051666662 -0.07041496 -0.41038245 0.017505242 -0.22846285
-0.13431284 -0.14278774 -0.13867496 -0.119741105 -0.29694155 0.12105301 -0.02729598 0.11577858
-0.017355964 -0.13980983 -0.27680308 -0.069563404 -0.20276353 -0.097818546 -0.24638918 0.019663718
0.06955151 -0.17328002 -0.21072683 -0.12833977 -0.36081636 0.20485184 -0.13670754 -0.16179289
0.019032747 -0.09202763 -0.09525092 -0.19472487 -0.135486 -0.10965434 0.0049240696 2.3074746e-05
0.00986783 -0.17906813 0.027245307 -0.30653647 -0.093647555 -0.3001428 -0.028920038 -0.07179289
0.11622847 -0.02651088 -0.31048483 -0.094897464 -0.2787021 -0.117908664 -0.13590394 0.095379755
-0.04276751 -0.032629915 -0.1073612 0.14489125 0.023178177 -0.24368814 -0.2580429 -0.07416304
00000000: ac1f f83d 866c 823e 9284 f8bd 6ca0 53bd
00000010: b835 90bd a61d d2be 2767 8f3c 2af2 69be
00000020: 4e89 09be f336 12be cf00 0ebe d33a f5bd
00000030: b908 98be a4ea f73d d29b dfbc 521d ed3d
00000040: 182e 8ebc 4f2a 0fbe 22b9 8dbe 4277 8ebd
00000050: 3ea1 4fbe 1755 c8bd 724d 7cbe ce15 a13c
00000060: 0671 8e3d 5170 31be c6c8 57be 806b 03be
00000070: ecbc b8be aec4 513e 10fd 0bbe 09ad 25be
00000080: 90ea 9b3c fb78 bcbd ea12 c3bd f565 47be
00000090: d8bc 0abe 7492 e0bd 175a a13b a490 c137
000000a0: aeac 213c a35d 37be 8d31 df3c 59f2 9cbe
000000b0: 4aca bfbd 51ac 99be b7e9 ecbc 2708 93bd
000000c0: 3109 ee3d 582d d9bc def7 9ebe 9a59 c2bd
000000d0: 0bb2 8ebe 197a f1bd 672a 0bbe 7656 c33d
000000e0: fc2c 2fbd f2a6 05bd 30e0 dbbd 5f5e 143e
000000f0: 29e0 bd3c 6289 79be 331e 84be cbe2 97bd

shared.2.weight f4 [64, 64]
0.22879417 -0.5937272 0.083947375 -0.80982727 -0.24408048 -0.2628644 0.117498085 0.11221962
-0.2607546 -0.02780853 -0.07567548 0.37908888 0.14629859 -0.13852273 -0.13366131 -0.13328974
-0.45353043 -0.4838393 0.021602603 0.16234225 -0.41907507 0.37039152 -0.2575769 -0.2290433
-0.07564359 -0.12903039 0.07707672 -0.064005874 -0.34333888 -0.13982834 -0.6013818 -0.2365928
-0.03368338 -0.0056842356 0.49086446 -0.2677095 0.095039986 -0.58517057 -0.0792446 0.15488523
0.24244934 -0.025581326 -0.2912955 -0.4210873 -0.2619818 0.05804998 -0.2027111 -0.24933058
-0.865849 -0.2262126 0.13648371 0.1964454 0.13378292 -0.43923846 -0.4834584 -0.13970862
-0.32249624 -0.29883286 -0.31923085 -0.11516653 0.15621679 0.17905542 -0.069385 -0.14978714
-0.1416999 -0.45231658 -0.44135976 -0.2817903 -0.413993 -0.4977421 -0.73721486 0.10937753
-0.03533765 -0.13017465 -0.0361886 0.075977266 -0.031743877 -0.06248801 -0.35941753 0.093882516
0.05162422 0.23767509 -0.07860327 0.063469455 -0.048227254 0.0570007 0.019978207 0.118238956
0.364759 -0.29964954 -0.6011737 -0.17402819 0.13345756 0.32528278 -0.32677287 0.035192017
0.69641227 0.13571058 0.13250475 0.15845667 -0.3644079 -0.8522753 -0.42863292 -0.23882991
0.1540999 0.13348402 -0.66895586 0.0360538 -0.45273253 0.062499166 -0.071670115 0.016000357
-0.1923174 -0.7381739 0.04026427 -0.25670725 0.1713718 -0.069091015 0.19396073 0.017529508
-0.0058788056 -0.5705264 0.14798155 -0.35539547 -0.92691237 -0.25332776 -0.19468796 0.06502547
-0.14477904 0.004615668 0.18665312 -0.70075923 0.28992277 0.26500323 -0.12466291 -0.07714107
-0.38109797 0.116586186 0.0073430985 -0.23610575 0.15046766 -0.20381603 -0.096380174 -0.77090156
-0.07031181 0.24236187 0.091066554 -0.047779046 -0.30787697 0.23901005 -0.17242897 0.24672085
-0.12069013 0.43698022 -0.036254384 -0.22924243 0.22442801 -1.0789608 0.0023503797 0.112397514
-0.6337492 0.13194308 0.14434569 -0.4104487 -0.121674016 -0.030469116 0.14704557 0.1075548
0.044339824 0.45927975 0.0073368517 -0.34930462 -0.08787516 0.034804482 -1.0071295 -0.107484065
-0.17143774 -0.16686794 0.11132796 -0.51457095 0.3579484 -0.03606511 0.20727968 0.17198004
-0.4717578 -0.29007933 0.21796203 0.039812133 -0.18327387 -0.030763583 0.13620307 -0.21230295
-0.046258125 0.09181938 -0.543552 0.002646253 -0.18320099 0.07424296 0.04866523 0.26192066
0.2786909 -0.55660635 0.28804168 0.2634993 0.21738885 -0.046970047 -0.22576256 -0.18138416
0.28806853 -0.18746746 -0.09418459 -0.17692462 -0.017078066 -0.124054916 -0.27708507 -0.38940403
-0.06475543 0.013843756 -0.25031653 0.104994275 0.16757144 0.138325 -0.2647101 -0.24924684
-0.07903802 0.0058559626 -0.24998277 0.15461583 0.13542457 0.10048719 -0.14878644 -0.1654377
-0.028964238 -0.034759093 -0.1175117 0.1073551 -0.09406533 -0.14476162 0.28676736 -0.003141947
-0.12641156 0.1514861 -0.11743088 -0.11671616 0.40579164 -0.052684616 -0.2445075 0.1630595
0.12118725 -0.10696585 -0.50779676 -0.25388497 -0.10740844 -0.017055824 0.052405283 0.24461824
00000000: 0549 6a3e 81fe 17bf 9aec ab3d d750 4fbf
00000010: 3cf0 79be 2a96 86be d6a2 f03d 66d3 e53d
00000020: a081 85be b7ce e3bc bffb 9abd f017 c23e
00000030: 4ccf 153e e7d8 0dbe 83de 08be 1b7d 08be
00000040: 2435 e8be c9b9 f7be f1f7 b03c 0c3d 263e
00000050: 0291 d6be f5a3 bd3e 1fe1 83be 548a 6abe
00000060: 07eb 9abd 8b20 04be 66da 9d3d 8315 83bd
00000070: 1dca afbe 292f 0fbe 28f4 19bf 6245 72be
00000080: 95f7 09bd d342 babb 9652 fb3e 3811 89be
00000090: 53a4 c23d bdcd 15bf fe4a a2bd 3c9a 1e3e
000000a0: a444 783e ee8f d1bc af24 95be c198 d7be
000000b0: 7a22 86be d1c5 6d3d 8093 4fbe 8450 7fbe
000000c0: 48a8 5dbf 47a4 67be 63c2 0b3e fc28 493e
000000d0: 64fe 083e dde3 e0be dc87 f7be c70f 0fbe
000000e0: 3a1e a5be 9f00 99be 3a72 a3be 6edc ebbd
000000f0: 4bf7 1f3e 4e5a 373e b919 8ebd cd61 19be
00000100: c719 11be 0a96 e7be e8f9 e1be d146 90be
00000110: e4f6 d3be 0dd8 febe 1dba 3cbf 5401 e03d
00000120: 36be 10bd 814c 05be 7f3a 14bd f899 9b3d
00000130: de05 02bd 6df3 7fbd 9305 b8be 7a45 c03d
00000140: eb73 533d 1961 733e c0fa a0bd 46fc 813d
00000150: f189 45bd 9179 693d 56a9 a33c 4427 f23d
00000160: b1c1 ba3e aa6b 99be 85e6 19bf 7234 32be
00000170: 19a9 083e 778b a63e c64e a7be 8125 103d
00000180: 1348 323f b7f7 0a3e 53af 073e 7742 223e
00000190: ac93 babe b72e 5abf c675 dbbe d48f 74be
000001a0: 5dcc 1d3e 09b0 083e b140 2bbf 26ad 133d
000001b0: 8fcc e7be 20ff 7f3d c8c7 92bd 2e13 833c
000001c0: daee 44be f7f8 3cbf 26ec 243d 226f 83be
000001d0: 177c 2f3e 977f 8dbd a49d 463e 0b9a 8f3c
000001e0: ffa2 c0bb 050e 12bf 7a88 173e 65f6 b5be
000001f0: 214a 6dbf 2db4 81be 485c 47be 132c 853d
00000200: f540 14be 083f 973b ff21 3f3e f564 33bf
00000210: c270 943e 81ae 873e 454f ffbd 23fc 9dbd
00000220: 461f c3be bdc4 ee3d 609e f03b b5c5 71be
00000230: 3214 1a3e 26b5 50be f862 c5bd ce59 45bf
00000240: a3ff 8fbd b62d 783e 1a81 ba3d f6b3 43bd
00000250: 0da2 9dbe 0dbf 743e 3891 30be 64a4 7c3e
00000260: 632c f7bd dfbb df3e 7a7f 14bd 87be 6abe
00000270: 75d0 653e 631b 8abf d408 1a3b ab30 e63d
00000280: 633d 22bf 161c 073e 5bcf 133e 5526 d2be
00000290: 3a30 f9bd 5e9a f9bc 1d93 163e b145 dc3d
000002a0: ad9d 353d b726 eb3e f969 f03b 0ed8 b2be
000002b0: e4f7 b3bd 258f 0e3d 9fe9 80bf 9b20 dcbd
000002c0: 608d 2fbe 6edf 2abe eaff e33d ecba 03bf
000002d0: 0345 b73e 02b9 13bd 2041 543e 891b 303e
000002e0: 3d8a f1be 4785 94be 7031 5f3e 0c12 233d
000002f0: 25ac 3bbe e903 fcbc d178 0b3e f265 59be
00000300: 2979 3dbd cd0b bc3d 3926 0bbf c26c 2d3b
00000310: 0a99 3bbe b10c 983d 3155 473d 771a 863e
00000320: 93b0 8e3e c17d 0ebf 337a 933e 61e9 863e
00000330: 2f9b 5e3e aa63 40bd 4d2e 67be c5bc 39be
00000340: b87d 933e 78f7 3fbe dae3 c0bd ba2b 35be
00000350: 4de7 8bbc 8110 febd 18de 8dbe f75f c7be
00000360: 7f9e 84bd ecd0 623c 7d29 80be 3d07 d73d
00000370: d997 2b3e 12a5 0d3e 1588 87be 903a 7fbe
00000380: afde a1bd 60e3 bf3b 7cfb 7fbe 9d53 1e3e
00000390: bdac 0a3e 3acc cd3d 795b 18be 8068 29be
000003a0: 6946 edbc 8d5f 0ebd f9a9 f0bd fedc db3d
000003b0: 53a5 c0bd 643c 14be 2cd3 923e 20e9 4dbb
000003c0: 0872 01be 2c1f 1b3e 9a7f f0bd e208 efbd
000003d0: ecc3 cf3e d3cb 57bd 2d60 7abe 12f9 263e
000003e0: 0531 f83d e910 dbbd f8fe 01bf 36fd 81be
000003f0: f5f8 dbbd a8b8 8bbc eca6 563d 347d 7a3e

shared.2.bias f4 [64]
-0.21361314 -0.14541624 -0.34572077 0.16163667 -0.033443123 -0.20032586 0.259763 0.1587372
0.13551585 0.062657855 0.06129213 0.16921254 -0.03891054 -0.13806356 0.23647855 0.066152066
0.4704613 -0.0759906 0.09578027 -0.17484812 -0.039571896 0.30954513 -0.09430738 0.2642568
0.1379218 -0.19154316 0.89119756 0.036904354 0.1402081 -0.0790986 -0.0994667 0.043887682
-0.056304358 -0.12954831 -0.078189656 -0.09418668 -0.20970374 0.13122779 0.030484144 -0.0024900723
-0.01741928 0.85371447 0.0066713053 -0.12560202 -0.09766117 -0.18077937 -0.03181646 -0.2929534
0.05855655 0.28771392 -0.100938365 0.07356474 0.07791256 0.12645261 0.027813068 0.09312311
-0.0049095782 0.08046595 -0.0559879 -0.15876622 0.06295886 -0.0013261266 0.114362426 0.07163405
00000000: 67bd 5abe ffe7 14be 5002 b1be 1584 253e
00000010: a8fb 08bd 3922 4dbe a8ff 843e 018c 223e
00000020: abc4 0a3e c352 803d 750d 7b3d 0d46 2d3e
00000030: a960 1fbd 8960 0dbe 6f27 723e bc7a 873d
00000040: 4ee0 f03e f6a0 9bbd 7228 c43d 630b 33be
00000050: 2416 22bd b37c 9e3e 3a24 c1bd ab4c 873e
00000060: 5f3b 0d3e e423 44be 8625 643f 0529 173d
00000070: b692 0f3e 72fe a1bd 32b5 cbbd 92c3 333d
00000080: 669f 66bd 50a8 04be e621 a0bd f2e4 c0bd
00000090: 94bc 56be 9460 063e e2b9 f93c 7b30 23bb
000000a0: e1b2 8ebc 088d 5a3f f79a da3b d19d 00be
000000b0: 9402 c8bd 3a1e 39be fa51 02bd fdfd 95be
000000c0: fed8 6f3d 3d4f 933e c6b8 cebd 1ca9 963d
000000d0: 9f90 9f3d cb7c 013e 3bd8 e33c 54b7 be3d
000000e0: 87e0 a0bb 55cb a43d 9153 65bd 9d93 22be
000000f0: 93f0 803d 6dd1 adba d936 ea3d dfb4 923d

actor.0.weight f4 [4, 64]
0.024070632 0.088935 -0.656025 -0.043713067 -0.3360011 -0.30190948 0.1687584 0.5129953
0.05635447 -0.04931561 0.056623515 -0.26292577 0.38790488 -0.084793456 0.0629316 -0.40526643
0.02416854 -0.20285127 0.27766111 0.18114439 -0.50476986 0.13781358 -0.1421747 -0.18225408
0.09481447 0.7214049 -0.0013865778 -0.3151143 -0.15293416 -0.22089103 -0.0036645466 -0.13230236
0.23755072 0.19853172 -0.09669497 0.018036924 -0.0002990793 0.014988278 0.20549741 0.07004734
-0.0685583 0.09045466 -0.35555404 0.0056284512 0.48742706 0.0009546511 0.0606508 -0.059549354
0.08796186 -0.17721643 -0.11864615 -0.018266438 0.0822874 -0.14277148 -0.003110176 0.029590974
-0.32237434 0.15625003 0.07659595 -0.42600894 0.06672109 0.2803896 0.0232038 -0.090254106
0.012695131 -0.45885837 -0.05747432 0.13444012 -0.12829374 -0.037074596 0.15377894 0.048282243
0.04404056 -0.06745138 -0.14952984 -0.11903977 0.11859944 -0.47708735 -0.18155959 0.048121586
-0.063802026 -0.12702608 0.040673036 -0.21101849 0.17585248 0.24306487 0.026068173 -0.07050743
0.51710224 -0.37471247 -0.009209895 0.38808393 0.021741293 0.011645819 0.1938009 0.16974384
-0.14104109 0.09017863 -0.051771276 0.0074268263 0.21362157 -0.11886111 0.3489015 0.039897647
0.06916119 0.04400872 0.050204497 -0.06388063 -0.3198181 -0.11869884 -0.112230994 -0.44695118
0.050070256 0.15323302 -0.23681512 -0.12187918 0.07524236 0.45388898 -0.60586673 0.36247885
-0.08171153 0.004691273 0.043097988 0.023648424 -0.3469119 -0.030227648 -0.44847506 0.016492708
-0.73075074 -0.00046416145 0.07219298 0.06229737 -0.06864112 -0.22787529 -0.3203147 -0.07236018
-0.10310409 -0.08270303 0.2153601 0.038072374 -0.08389192 -0.24769019 0.3185881 -0.14950036
-0.036409374 -0.102784604 -0.11988726 0.13868898 0.2348071 0.17808981 0.58435416 0.087517425
-0.45352736 -0.16243944 -0.0238544 0.26310864 0.11289844 -0.0094033005 -0.078314744 0.28620777
0.20304018 0.20676656 0.23215772 -0.018534001 0.43984932 -0.32104492 -0.08056313 0.0034192752
-0.14174005 -0.040131714 0.04506053 -0.26721835 -0.0200193 0.25129008 0.2796521 -0.17765298
-0.22010797 -0.041562274 0.2593452 0.3008502 -0.105299585 -0.03759625 0.03920781 -0.08669977
-0.003953442 0.03220548 0.14378303 0.18037915 -0.033820648 -0.18692663 -0.028091058 -0.16439433
0.087407045 0.23546126 0.2555829 0.29895863 -0.052632578 0.5006176 0.05774857 -0.19093382
0.26728407 0.2699638 0.2700155 0.13826783 -0.07422417 0.17196982 0.11712619 0.0077473028
-0.065107875 -0.26659903 -0.3540876 0.3321453 -0.25701717 -0.1283662 -0.3070883 -0.22207734
0.15155315 -0.23251756 -0.02045502 0.03882008 0.21413255 0.43004194 0.31925544 -0.1270356
0.17203528 -0.09506499 0.029705705 0.009991909 0.30558956 0.32264268 0.054103 -0.32309455
-0.22698706 0.03625026 0.0874407 -0.039751183 0.070664376 -0.20607416 -0.30450436 -0.061019532
-0.25202563 -0.062503524 0.14188258 -0.052684005 -0.13049106 -0.03095629 -0.033852074 0.169175
-0.02081315 0.102393575 -0.46449828 0.010776006 -0.05490039 -0.028907638 0.068510264 -0.60117084
00000000: c62f c53c 8e23 b63d 41f1 27bf 790c 33bd
00000010: 5608 acbe e193 9abe 01cf 2c3e a953 033f
00000020: f2d3 663d 2aff 49bd 0fee 673d 359e 86be
00000030: 789b c63e 31a8 adbd 48e2 803d 157f cfbe
00000040: 1afd c53c 3eb8 4fbe 9929 8e3e ea7d 393e
00000050: 9938 01bf 011f 0d3e 3f96 11be d0a0 3abe
00000060: 172e c23d fead 383f d5bd b5ba a956 a1be
00000070: c69a 1cbe 4231 62be e428 70bb 457a 07be
00000080: 7f40 733e e64b 4b3e 0308 c6bd 2cc2 933c
00000090: becd 9cb9 6591 753c ea6d 523e fb74 8f3d
000000a0: 4b68 8cbd 4b40 b93d 2e0b b6be df6e b83b
000000b0: 0a90 f93e 8d41 7a3a f96c 783d 06ea 73bd
000000c0: 5925 b43d 3978 35be c1fc f2bd 7fa3 95bc
000000d0: 4c86 a83d b032 12be 18d4 4bbb c568 f23c
000000e0: 400e a5be 0200 203e 56de 9c3d d81d dabe
000000f0: 11a5 883d 3a8f 8f3e e515 be3c 25d7 b8bd
00000100: 3dff 4f3c 7cef eabe 316a 6bbd acaa 093e
00000110: 6f5f 03be 88db 17bd 3a78 1d3e 9ac3 453d
00000120: e063 343d f323 8abd 5a1e 19be 1fcb f3bd
00000130: 43e4 f23d cb44 f4be c2ea 39be 241b 453d
00000140: a3aa 82bd 2013 02be c598 263d 3b15 58be
00000150: ac12 343e ffe5 783e ec8c d53c 3366 90bd
00000160: d060 043f 50da bfbe 19e5 16bc f0b2 c63e
00000170: cc1a b23c 1bce 3e3c be73 463e 54d1 2d3e
00000180: 136d 10be 93af b83d 1e0e 54bd bc5c f33b
00000190: 9dbf 5a3e 746d f3bd 38a3 b23e b76b 233d
000001a0: 62a4 8d3d 7d42 343d 3ba3 4d3d d9d3 82bd
000001b0: 33bf a3be 6118 f3bd 5dd9 e5bd c9d6 e4be
000001c0: 7816 4d3d 1ee9 1c3e aa7f 72be cb9b f9bd
000001d0: ab18 9a3d 2364 e83e 151a 1bbf d496 b93e
000001e0: 6058 a7bd 40b9 993b 8487 303d 57ba c13c
000001f0: 709e b1be f99f f7bc 869e e5be b71b 873c
00000200: 7b12 3bbf b25a f3b9 ead9 933d 872b 7f3d
00000210: b793 8cbd 2458 69be 4a00 a4be 9331 94bd
00000220: 3d28 d3bd 3560 a9bd 5c87 5c3e c7f1 1b3d
00000230: 87cf abbd 7fa2 7dbe fb1d a33e 9f16 19be
00000240: ff21 15bd bc80 d2bd 7487 f5bd 7c04 0e3e
00000250: 4671 703e 2d5d 363e 3c98 153f 563c b33d
00000260: bd34 e8be 8656 26be 4d6a c3bc 2db6 863e
00000270: 4c37 e73d 4d10 1abc 7b63 a0bd d389 923e
00000280: c4e9 4f3e 9dba 533e c1ba 6d3e 9ed4 97bc
00000290: ee33 e13e 0060 a4be 48fe a4bd eb15 603b
000002a0: 4e24 11be 2761 24bd 6491 383d d8d0 88be
000002b0: 84ff a3bc 18a9 803e 8f2e 8f3e aaea 35be
000002c0: fc63 61be 343d 2abd e5c8 843e 0a09 9a3e
000002d0: 4fa7 d7bd 87fe 19bd 5e98 203d a68f b1bd
000002e0: e08b 81bb e5e9 033d dc3b 133e 50b5 383e
000002f0: 8587 0abd b269 3fbe 381f e6bc fd56 28be
00000300: 7702 b33d c21c 713e c3db 823e 1b11 993e
00000310: 4295 57bd 7a28 003f c489 6c3d 2884 43be
00000320: 75d9 883e b238 8a3e 793f 8a3e 1596 0d3e
00000330: d702 98bd db18 303e dbdf ef3d 16dd fd3b
00000340: 4757 85bd ab7f 88be f84a b5be f30e aa3e
00000350: c197 83be 6e72 03be ad3a 9dbe 3e68 63be
00000360: c030 1b3e 1519 6ebe 4991 a7bc ce01 1f3d
00000370: 9045 5b3e 752e dc3e 7375 a33e 9f15 02be
00000380: 042a 303e 6fb1 c2bd 6159 f33c 1bb5 233c
00000390: 3c76 9c3e 6c31 a53e 1b9b 5d3d a66c a5be
000003a0: 4c6f 68be 277b 143d 1c14 b33d 23d2 22bd
000003b0: 7cb8 903d 1b05 53be ffe7 9bbe 9eef 79bd
000003c0: 8109 81be d901 80bd ab49 113e 2fcb 57bd
000003d0: 739f 05be 0c98 fdbc 79a8 0abd 363c 2d3e
000003e0: 5780 aabc b9b3 d13d b8d2 edbe d88d 303c
000003f0: 3bdf 60bd b6cf ecbc 1c4f 8c3d 55e6 19bf

actor.0.bias f4 [4]
0.051096246 0.0794047 -0.14385144 0.026995722
00000000: 4c4a 513d ee9e a23d cb4d 13be 2226 dd3c

critic.weight f4 [1, 64]
0.0052895155 -0.015275355 -0.025577687 -0.03891 0.0008484429 0.024269678 0.01192754 -0.005107703
-0.012943797 0.028325064 0.052955195 -0.02267173 -0.010453965 -0.0002287565 -0.012938472 0.0133431805
0.01379694 0.016223261 0.02665549 -0.04490222 -0.0015127241 -0.01117791 -0.09306871 -0.004416672
-0.050572857 -0.03340991 0.5104497 0.02053831 0.011269511 -0.015344874 -0.006107198 -0.0019606575
-0.006882629 0.020344881 0.0155428415 -0.3926892 -0.013615176 -0.00089291274 -0.011498785 0.008626638
0.010064543 0.352594 0.038440123 0.034306355 -0.008453513 -0.0116178375 0.0073237116 0.004909591
-0.015278597 -0.013016907 0.022133242 0.0074611423 0.0110546 0.005895695 0.046476573 -0.018060386
-0.02555105 0.018328596 -0.0140670715 -0.034547318 -0.001966023 0.012714903 -0.0019903623 -0.10561175
00000000: ac53 ad3b 7c45 7abc 4c88 d1bc 1860 1fbd
00000010: 0a6a 5e3a 34d1 c63c bb6b 433c 855e a7bb
00000020: 3812 54bc f709 e83c 8ce7 583d 10ba b9bc
00000030: 1b47 2bbc 5bde 6fb9 e3fb 53bc 5b9d 5a3c
00000040: 900c 623c a5e6 843c 9d5c da3c 64eb 37bd
00000050: 9946 c6ba 8d23 37bc cf9a bebd bbb9 90bb
00000060: 7c25 4fbd d4d8 08bd d5ac 023f f53f a83c
00000070: c1a3 383c 1169 7bbc e41e c8bb 607e 00bb
00000080: ad87 e1bb 4faa a63c 67a7 7e3c 8f0e c9be
00000090: 3012 5fbc 5c12 6aba 6665 3cbc be56 0d3c
000000a0: c1e5 243c 3387 b43e 6473 1d3d d284 0c3d
000000b0: 9a80 0abc be58 3ebc bffb ef3b a2e0 a03b
000000c0: 1553 7abc dd44 55bc c650 b53c 997c f43b
000000d0: 5a1e 353c ad30 c13b 385e 3e3d 60f3 93bc
000000e0: 7050 d1bc da25 963c 9379 66bc 7d81 0dbd
000000f0: 64d8 00bb 2b52 503c bd70 02bb f94a d8bd
