models/checkpoint_critic_1_2.pth (torch, 87959 bytes, 5 tensors)

hidden1.weight f4 [128, 37]
00000000: 17a7 38be dc84 483f 4f8d 66be 88dc 54bf
00000010: 64fd f23e 4071 ba3d fa3a 463e b449 d9bc
00000020: 9d08 cdbe 7ac1 20bc 8fc7 db3d 1b17 873e
00000030: c73f a03e 2530 ad3e 894d 9c3f 5934 f33d
00000040: bf7a 0b3b 7ca7 b4be d1eb 323f 940d 95bd
00000050: c394 4c3e 80e4 7a3c 3aba a4be 9099 ba3e
00000060: 2ae4 c8be a075 8e3e 985f d1be c176 263f
00000070: 0351 42be dcd8 253d d8a8 4dbf d2d2 a43d
00000080: 1c6b 85bf 807f 7ebe 6988 873e 4092 07bd
00000090: fb8a ba3e 52b5 f3be 65d3 153f 6f86 c33c
000000a0: 2fe7 f2be 7d00 4a3e 01b2 163f 906d 5e3d
000000b0: 5cf2 74be e44b 18be fc72 adbe 42dc 0e3f
000000c0: deb2 b83e 390d 4cbd beb3 bb3d afec 013f
000000d0: 529e 323e f349 f23e 95c4 16be 2268 383f
000000e0: 99de 9ebe 1b10 c6bd d604 3abe a910 29be
000000f0: 751f 0d3e 4ae1 513e 576f 3f3f 475c 6d3e
00000100: 50be df3e 3743 233e 80a8 8f3b 1ca4 1cbf
00000110: f835 fc3c 0f33 06bf b66b eebd fe15 713e
00000120: f44f d13d 6aa0 123f 0613 873e 2a92 723f
00000130: 7c21 efbd 1aeb eebe 19bc f1be 5744 75bf
00000140: 3acb 9abe 6f50 753e 17c5 583e c4d4 0fbc
00000150: 7aa8 5f3e a372 043f 2e4b 99bd 579b b7be
00000160: 3d15 88be 03f9 483d d1a0 873a ea98 133e
00000170: 14af 233e 4004 c03e 9deb 80bc 3d56 0d3f
00000180: e782 b5be 956e 613d 62df c1be 3b77 c93c
00000190: 5322 5a3e 7f50 863f 2ff3 f03d 5bdd 113e
000001a0: 8be5 45bf 0c2b 9cbd 1c73 8c3f 5330 bbbe
000001b0: 3edd d73c 457e ef3e d1e4 80bf 4ee6 28be
000001c0: 62ee f23e fffc b1bd 9f78 fabe 2e3a 2d3e
000001d0: f242 f5bd 4c29 f03d 6ed9 3a3e 1f94 01bf
000001e0: 6106 8e3d b1ec f5bd c239 ab3c 794e 82bd
000001f0: 2cc4 723e 1856 bb3d c842 18bd 2de4 6fbd
00000200: cced 633f 0629 1cbf d737 493f b165 ca3d
00000210: 4520 23bd ae93 afbc 68ca b7bd ff11 203e
00000220: 3c25 2c3e 2325 97bd 4e55 f73e 3a89 ac3d
00000230: 50e4 513c cc3a 18bf d4d7 083d 8340 7f40
00000240: 1cdb 52bd fa76 24be 45e6 8c3e 3170 303d
00000250: a27d 29bf 4024 013f a020 dcbd 0212 babe
00000260: 409a c8bb 0fd8 4c3f a376 05be 8694 013f
00000270: 76f5 ccbe 321f 0a3f 3dda 63be 97a8 013e
00000280: df26 033f b819 45be 7e3f 06be dd4d 3bbd
00000290: 74b0 be3e 6ad9 febe 4ae4 febd 25ce 863e
000002a0: dccd 1e39 6a64 2abf db22 d1bc 1698 dbbd
000002b0: f0a1 dcbd a877 babe cc16 be3e b628 1e3f
000002c0: 4096 17bd 8f2c bbbd e69a 4abf b2e0 bd3d
000002d0: 3cc2 c93f 00ba 7b3e e8e7 d03e dee6 b13e
000002e0: b6d3 c43e 6a4e b2be 13f9 9f3e 5ae7 32bd
000002f0: b232 6a3e 4f2e afbe 48f4 34bf de33 67bd
00000300: 0bf6 86be 0b4c c03e 0c0f c9bd 642e 933d
00000310: 2d2a ce3d 28b1 9ebd 54e5 b63e 6963 b13f
00000320: e58b 32bf 9999 173c 87ac 84bb 3851 0a3e
00000330: aa33 8abd c690 9ebb f8df a3be 3339 6cbd
00000340: 271d cc3d 1290 8c3e 2b9a 05be c24e edbe
00000350: e1a7 67be 2afd 213f e2eb 27be 68ae bc3d
00000360: 7af5 1ebe 2313 c23c 345a c93d 705a 3f3e
00000370: e48c 603e ccb5 e7bd a5f3 36bf 8db3 2b3f
00000380: 797c 963e 3bca 50be 3778 4fbf 9efb 863f
00000390: 50e4 b03e fbd9 f5be d682 e13e 440e 053e
000003a0: 0c3c 93be f883 08bd 9c3f 17bd c92f 8a3c
000003b0: a3c4 91be b9f9 093f f830 e23d a5d8 473f
000003c0: 9206 513f 0f94 793e 4d9f d3bd 7606 e1be
000003d0: 939a cf3e 2873 c43d 9b5c ccbd 639c 3fbe
000003e0: 2c19 bebd 9df3 903e 1996 23be c773 c2bd
000003f0: f57d d8be 3efc bc3d 4208 b93d 88a0 783e
-0.1803249 0.7832773 -0.22514842 -0.83149004 0.47458947 0.09103632 0.19358435 -0.026524402
-0.40045634 -0.009811753 0.10731422 0.26384816 0.31298658 0.33825794 1.2211162 0.11875219
0.002128288 -0.3528403 0.6989108 -0.072779804 0.19978623 0.015313268 -0.3217333 0.36445284
-0.39236575 0.27824116 -0.40893245 0.65024954 -0.18976216 0.040490016 -0.8033576 0.08048023
-1.0423312 -0.24853325 0.2647126 -0.03309846 0.3643416 -0.47599274 0.5852569 0.023867814
-0.47442004 0.19726749 0.5886536 0.054303706 -0.23920578 -0.148727 -0.3387679 0.55804837
0.36073965 -0.049817298 0.091651425 0.50751776 0.17443207 0.47322044 -0.14723428 0.72033894
-0.31029204 -0.096710406 -0.18165907 -0.16510262 0.13781531 0.20496097 0.74779266 0.23179732
0.43699884 0.15943609 0.0043841004 -0.6118791 0.030787453 -0.5242166 -0.11641638 0.23543546
0.10220328 0.5727602 0.263817 0.9475428 -0.116763085 -0.46663743 -0.4721382 -0.95807403
-0.30233175 0.23956464 0.21168934 -0.008778755 0.21841612 0.5173742 -0.074850425 -0.35860702
-0.26578704 0.0490656 0.001034761 0.14413801 0.15984756 0.37503242 -0.01573735 0.55209714
-0.35451433 0.0550371 -0.3786574 0.024592986 0.21302156 1.0493315 0.117651336 0.14244597
-0.7730338 -0.07625398 1.0972629 -0.36560306 0.026350614 0.46776024 -1.0069829 -0.16494104
0.47447497 -0.08690833 -0.48920152 0.16916725 -0.119756594 0.11726627 0.18247005 -0.5061664
0.069348104 -0.12008036 0.020901565 -0.06362624 0.23707646 0.091472805 -0.037173063 -0.058567215
0.89034724 -0.61000097 0.7860083 0.09882677 -0.039825696 -0.021432724 -0.08974153 0.15631865
0.16811079 -0.0738013 0.4830727 0.084246114 0.012810782 -0.59464717 0.033408955 3.9883125
-0.05147849 -0.16061011 0.27519432 0.043075744 -0.66207325 0.5044594 -0.1074841 -0.36341864
-0.0061219037 0.8001718 -0.13033538 0.50617254 -0.40031022 0.5395385 -0.2225122 0.12661968
0.5123119 -0.19248092 -0.13110158 -0.045728553 0.37243998 -0.4977525 -0.124458864 0.2632915
0.00015144743 -0.6655947 -0.025529316 -0.107223675 -0.107730746 -0.36419415 0.37126768 0.6178087
-0.037008524 -0.09139358 -0.79142606 0.09271373 1.5762401 0.24582672 0.4080193 0.3474645
0.38442773 -0.3482545 0.31244716 -0.043677665 0.22870901 -0.34215018 -0.70685244 -0.05644595
-0.2635959 0.37558016 -0.09817323 0.07186583 0.10066638 -0.077486336 0.35721838 1.3858463
-0.6974471 0.009252929 -0.004048887 0.13507545 -0.067481354 -0.0048390357 -0.32006812 -0.057671737
0.09966498 0.27453667 -0.13047092 -0.4634915 -0.22622634 0.6327692 -0.16398576 0.09212953
-0.1552333 0.023690766 0.09831658 0.18686843 0.21928746 -0.11313972 -0.7146552 0.6707085
0.2939184 -0.20389645 -0.8104281 1.0545537 0.3454919 -0.48017868 0.44045132 0.12993723
-0.2875675 -0.03332898 -0.036925897 0.016868489 -0.28470334 0.5389667 0.11044496 0.7806495
0.8165065 0.24372886 -0.103331186 -0.43950242 0.40547618 0.09592277 -0.099786006 -0.18712
-0.09282145 0.28310862 -0.15975226 -0.09494739 -0.42283598 0.09227799 0.09034778 0.24279988

hidden1.bias f4 [128]
00000000: 2aef 31bf a5ea 18bf 19ba 68bf 97b1 21bf
00000010: f5de 29bf 1eea 123e c4b7 adbe 2b4d 2f3e
00000020: 3f3b 77bf 4245 d1bc 07b7 52bf 9868 c0be
00000030: a1b3 47bf 616b 0dbf f4b0 4dbf c341 43bf
00000040: 952b 39bf 08e0 9dbe 9f09 dcbe 8d8c 0f3f
00000050: 4d83 ecbe d0d4 1dbf 0bb6 38bf e036 2ebf
00000060: be0b 39bf 210e 68bf 88ad 6fbf 6511 37bf
00000070: 7b3e 93be b397 09bf cbc8 23bf 8b82 c3be
00000080: fb1b a7be 175d 403f b7a7 32bf ad89 c8be
00000090: a166 2cbf 3a0f a8bf a05d 08bf bd07 cdbe
000000a0: 2650 eebe 667c 64bf e7fc 4cbe 6824 2bbf
000000b0: 5640 28bf e00b 3abf a4c6 28bf 46c6 65bf
000000c0: ee9b 1cbf 417e fcbe df2e 54bf c2d4 8cbe
000000d0: 0d41 53bf 61e9 05bf f799 17bf 1c79 3cbf
000000e0: 9452 6fbe bb9e 97bf 3743 a0be 0664 3dbf
000000f0: fe77 2dbf 5359 d5bd 5a1c 0ebf 028f 99be
00000100: 0446 35bf b6cd 29be eb9d 1dbf c82b 7fbd
00000110: b9e9 e2be 14e1 c4bd bc5d bbbe 750d 2ebf
00000120: f696 35be 5ef4 f1be de0a 1bbf 5dac 27bf
00000130: 22c6 0ebf 67db c0be 70ee 03bf 6026 33bf
00000140: 04ca 31bf d4f7 96be c91c c9be 526e 2cbe
00000150: b0d7 74bf e435 89be 463e 1cbf 414d 14be
00000160: 39ee 2fbf b702 f3bd 8f71 8cbf 0e00 bebe
00000170: dcf1 50bf 514d c3be 54e3 813e 6292 58bf
00000180: 1c56 57bf 32c9 4abf d32e 303e c839 1fbf
00000190: 30af 3ebf 3f25 5cbf af89 03bf d568 5abf
000001a0: 135c 90bf b249 51bf 988c afbe 52ef a03d
000001b0: b923 78be b7f4 d2be 0dee 82be 3530 24bf
000001c0: 087e 62bf 3bce 90be 142b 33bf 93ec e7be
000001d0: 91a1 1fbf 1af0 16bf e76d dabe b5fe 2bbf
000001e0: 1523 febe d9e0 57bf 49f6 57bf 4b61 0cbd
000001f0: bc1e 9dbe 4b4e 6fbf de22 6cbd a99b 33bf
-0.6950556 -0.5973304 -0.9090896 -0.63161606 -0.6635583 0.14347121 -0.33929265 0.17119281
-0.9657478 -0.02554572 -0.8231053 -0.375798 -0.78008467 -0.5524197 -0.80348134 -0.7627222
-0.72332126 -0.30834985 -0.4297609 0.5607384 -0.46193925 -0.6165285 -0.72152776 -0.6805248
-0.7228354 -0.9064656 -0.9362416 -0.71510917 -0.28758606 -0.537471 -0.6397826 -0.38185534
-0.32638535 0.75142044 -0.6978716 -0.39167538 -0.673441 -1.3129647 -0.5326786 -0.40044966
-0.46545523 -0.89252317 -0.2001835 -0.66852427 -0.6572317 -0.7267437 -0.659281 -0.89755666
-0.6117543 -0.49315074 -0.8288402 -0.2750607 -0.82521135 -0.5230923 -0.59219307 -0.736223
-0.23371345 -1.1845316 -0.3130128 -0.7398075 -0.6776122 -0.10417428 -0.5551201 -0.2999192
-0.7080996 -0.16582379 -0.6156909 -0.062297612 -0.4431894 -0.09613243 -0.3659495 -0.67989284
-0.17733368 -0.4725675 -0.60563457 -0.6549738 -0.55771077 -0.3766739 -0.515357 -0.6998043
-0.69448876 -0.29485953 -0.39279774 -0.16838959 -0.95641613 -0.26798928 -0.6103252 -0.14482595
-0.68722874 -0.11865752 -1.0972155 -0.37109417 -0.8161905 -0.38144925 0.2536875 -0.8459836
-0.8411577 -0.7921325 0.17205362 -0.6219754 -0.74486065 -0.85994333 -0.51381963 -0.8531621
-1.1278099 -0.81753075 -0.34286952 0.07858147 -0.24232377 -0.41202328 -0.25572243 -0.6413606
-0.8847356 -0.2828234 -0.69987607 -0.4529768 -0.62355906 -0.58960116 -0.42661974 -0.6718553
-0.4963614 -0.84327465 -0.84360176 -0.034272473 -0.3068751 -0.9347884 -0.05765044 -0.70159394

hidden2.weight f4 [128, 128]
00000000: 2b0b d6bc c438 78bd a0ad f4bd 8134 d2bd
00000010: 67d5 d83c 0a54 54b9 9be8 33bd 6c85 c0bc
00000020: f422 c9bd 8562 25be 87dc 6dbd 4817 3bbd
00000030: 22fd 48bb e92f 58bd 8f06 cb3b ec33 ed3a
00000040: d1e9 e4bd 04d0 583c eb83 6abd 32fe 00be
00000050: 8e55 40be d9d9 d23c 4e51 06be 5e74 0c3c
00000060: 7d4b 3abd dbc6 d7bd c98e 00be 24db a4bd
00000070: 539a b2bc 1b11 90bd f0b5 a8bd 0d84 9ebd
00000080: 0ea6 743b a6e3 87bd 1c65 c03c 320a 40bd
00000090: ff1e 723d 9f8a 0bbe 337f d8bd 0c86 89bc
000000a0: 3be0 48bb ee06 49be 1bec 35be b7f7 02be
000000b0: 67c3 80bc 3256 3e3d af01 013d 83c8 c7bd
000000c0: 9e0b 853b 40fb 263d e229 4abd 7272 b03c
000000d0: 1887 64bd 6115 7b3d 2fc5 0f3c 4995 bc3c
000000e0: 2161 043d b7b9 5e3c 4da8 9fbd 8f45 f43b
000000f0: 7784 483c ab4b eebd 725d 483d d363 e8bd
00000100: 704a 67bd a278 e4bc 50c6 743d b93f 843b
00000110: 17e5 c1bc 5c92 b0bd f72c 493a f65c c5bd
00000120: cdd0 56bd 9a95 82bd 67ba 433d adea 06be
00000130: 56bd 3fbe 2bf6 86bd 4402 0ebd 1eb3 efbd
00000140: 11c4 3e3d 0edc ebbd 3060 34bd 557d b73a
00000150: 7e9f 1abd ea9f f2bd c157 aebd cec2 49bd
00000160: 4f7f 6f3d a69f ecbd 3a0e e83c 5659 21be
00000170: e0c1 4b3d 1d7d 1cbe afeb 15bd 93ec c1bc
00000180: 89c8 c4bd 35e5 e13c 0a82 8b3b f044 3b3d
00000190: 981a 04be 54eb d5bd 1ba7 6cbd efc4 e4bd
000001a0: eea4 d1bd 4e79 8bbd 2f19 f0bb 34e6 f63c
000001b0: 49da 81bd 53c2 c8bd a468 42bd 21af b7bd
000001c0: d57c 07bc 8de4 dfbd a06c dfbc 4f6d ffbd
000001d0: 18a5 2b3c ec85 9cbc 7b3b 5fbd 5093 03be
000001e0: c9fb 60bd 858b d6bd 29ea bd3b 9501 c43d
000001f0: fd7e 053d 3f66 18be d1ff 3dbd 33fa 44bc
00000200: 2309 74be 3d54 8dbd 9de4 37bf 4376 2fbf
00000210: edd0 13bf 8bcd 033e e9ab 243e b2c9 61be
00000220: 4f78 29be 21d4 26bf f1fc 73bd 527f 133f
00000230: fe7c 403d 6d90 4abe 682c 10be 9246 613e
00000240: f731 31bf e625 a43e b8c0 863c 46d0 03bf
00000250: 5a91 503d 2db7 bdbe d755 f33e 2a6e 2bbc
00000260: 64c5 4bbe d18f 36be 531f cfbc dd2d aabe
00000270: 0f5c 8fbe 8e0f d3be cab8 9cbe d0eb b4bf
00000280: 8ccc fdbe 0683 de3c 5303 983e 45ea 84be
00000290: e0cd 4e3e ef03 08bf c20b eabe 92fb 543e
000002a0: d4a1 0c3e 9c85 e4be 9eb6 033f b296 98be
000002b0: bfe2 8a3b 80c5 733c fd69 bcbe 631f 9abe
000002c0: 4ef2 babe cb80 973e 0f0f b0bd ce21 d6be
000002d0: 0afc 66be f3eb c7be 754b 55bc 6365 c73d
000002e0: 9506 bcbe 7665 72be e6bb 213e e406 07be
000002f0: 350b c63d f929 f5be 6bfb b7bd 1fe6 1bbe
00000300: 8f6c 633e afff 2dbe e4a7 0a3f cd31 d9be
00000310: eebf 1ebf ffb5 083e 493c 22bf d9c3 6ebd
00000320: a33c 2a3e afbf 903e 7495 d1be 349a 31bd
00000330: 550b b83d 4068 c8be 7707 80bf 3caf 59be
00000340: a30f 08bf 7276 423e 3dd6 95bf 9767 06bf
00000350: f215 efbe 4b41 a9bf eec9 d13e 30ce c0be
00000360: ea5d 7fbe 548f 2d3f 0d01 edbe 3ba1 da3e
00000370: 472c b8bd aaf6 41be 9161 f3bd 9fa6 b4be
00000380: 88fc 77be 5d30 103e ea49 6dbe b01c ac3d
00000390: a563 703e d602 723e 2c14 08bf 4af0 e53d
000003a0: 0d12 823e ceda 4a3e c16d 0dbd e937 f9bd
000003b0: 92fb 59be 2f4d 7c3e 9cc4 ffbe bbde 19be
000003c0: 0442 003e 9416 32bc 5228 ad3e d834 14bd
000003d0: 2d04 bd3e d0a9 283e c083 123f 82aa 90be
000003e0: d20d 8ebd 199c 14be a055 163e b0f8 553e
000003f0: d9d2 cd3c 8491 533e 0660 09bf 4f37 78bc
-0.026128372 -0.06060101 -0.11947179 -0.102639206 0.026468946 -0.00020249202 -0.043923 -0.02350112
-0.0982112 -0.16150863 -0.05807164 -0.0456765 -0.0030668457 -0.052780066 0.00619585 0.0018097139
-0.111774094 0.013233189 -0.057254713 -0.12596968 -0.18782637 0.025738643 -0.13116953 0.008572666
-0.045482147 -0.105359755 -0.12554468 -0.0804961 -0.021802103 -0.070345126 -0.08237827 -0.077400304
0.0037330422 -0.06635217 0.023485713 -0.046884723 0.05911159 -0.13627099 -0.10571136 -0.016787551
-0.003065123 -0.1963155 -0.17765848 -0.12789808 -0.015718175 0.04646892 0.031495746 -0.097550415
0.004060223 0.040766954 -0.04935635 0.021538947 -0.055792898 0.061299685 0.00877504 0.023020403
0.03231919 0.013594083 -0.07795773 0.007454581 0.012238613 -0.11635526 0.04891724 -0.11347165
-0.056467474 -0.027889553 0.059759438 0.0040359166 -0.023668809 -0.08621666 0.0007674242 -0.096368715
-0.05244522 -0.063761905 0.04778519 -0.13175459 -0.1872457 -0.065899216 -0.03467013 -0.11704086
0.046573702 -0.115165815 -0.044037044 0.0013999144 -0.03774976 -0.118469074 -0.085128315 -0.049258046
0.05847102 -0.11553888 0.028327096 -0.15756735 0.04974544 -0.15282102 -0.03660172 -0.023672378
-0.096085615 0.027575115 0.004257445 0.04572004 -0.1290077 -0.10445276 -0.05777655 -0.111703746
-0.10236536 -0.068102464 -0.007327221 0.030139066 -0.06340463 -0.098026894 -0.047463074 -0.0896895
-0.008269508 -0.109322645 -0.027273476 -0.12472021 0.010476373 -0.019106828 -0.054500084 -0.12849164
-0.05492762 -0.1047583 0.0057957363 0.09570614 0.03259181 -0.14882754 -0.046386544 -0.012022543
-0.2383161 -0.06900833 -0.7183321 -0.6853983 -0.5774067 0.12871377 0.16081204 -0.22049597
-0.165498 -0.65167433 -0.059567396 0.5761615 0.0469942 -0.19781657 -0.1407944 0.21999577
-0.69216865 0.32060164 0.016449317 -0.51489675 0.050919868 -0.37053815 0.47526428 -0.010463277
-0.19899517 -0.17828299 -0.025283491 -0.33238116 -0.27999923 -0.41222805 -0.30609733 -1.4134464
-0.4957012 0.027162086 0.29690036 -0.25959983 0.20195723 -0.53131 -0.45712095 0.20799091
0.13733608 -0.44633186 0.51450527 -0.2980247 0.004238456 0.014878631 -0.36799613 -0.3010207
-0.3651299 0.2959045 -0.08596622 -0.41822666 -0.22557083 -0.39047202 -0.013018479 0.09736135
-0.36723772 -0.23671517 0.15794334 -0.13186222 0.09670106 -0.47883585 -0.08983501 -0.15224503
0.2220938 -0.16992067 0.5416243 -0.42420807 -0.6201161 0.13350676 -0.6337324 -0.058292244
0.16624694 0.28271243 -0.40934336 -0.04335995 0.089865364 -0.39142036 -1.0002278 -0.21258253
-0.5314886 0.18990496 -1.1706005 -0.52501816 -0.4669643 -1.3223051 0.40974373 -0.3765731
-0.24938169 0.67796826 -0.46289864 0.42701134 -0.0899282 -0.18941751 -0.11883844 -0.35283372
-0.24217427 0.14080949 -0.23172727 0.08403909 0.23475511 0.23633894 -0.5315578 0.11227472
0.25404397 0.1981003 -0.034528498 -0.12168867 -0.21287373 0.24638818 -0.4995469 -0.15026371
0.12525183 -0.010869641 0.33819824 -0.03618321 0.36917248 0.16471028 0.57232285 -0.28255087
-0.0693623 -0.14512672 0.14681101 0.20895648 0.025124954 0.20660979 -0.53662145 -0.015149905

hidden2.bias f4 [128]
00000000: 08fa 02be 13ab bfbd 944a ad3c f8f5 81bd
00000010: acda cfbd d7fb b2bd b592 513c f3fa e4b7
00000020: d2ba aa3f 5065 d6bc b671 0bbe 68c8 02be
00000030: 86da ccbe e11e c7be b4c3 53bd 5a49 bf3f
00000040: 9dee 1fbe 7526 133f 568c 04be f1ee e13e
00000050: 8a79 0dbe 5898 23be 4d7e 0ebe 38a7 1bbf
00000060: 95aa 1dbd cae1 0f3f ba45 e4bd 7cea 1abd
00000070: c3f7 f5bd 57b9 43bf 91f4 05be 655c d93c
00000080: 9f25 73bd 948b 37be d76d 313e 3fae d3bd
00000090: 0665 99bd 56ac 28be 1d1d 9abe 9e23 c2bd
000000a0: 7006 79bd 5f2a bcbe 279b 8bbd 4e41 f5bd
000000b0: 2ead b7bc 5b45 10be 0d08 e6bc abbe 7cbd
000000c0: 0046 4bbe 90f4 d6bd 504e 4c3e be14 a7bc
000000d0: df25 85bd 1791 acbd 80d3 9e3c 8c0d b1bd
000000e0: b12d 4cbc cccc 37be 8118 a43f 31d7 babd
000000f0: 6bc2 d5bd 197a 45be 703b f6bd 16a1 2cbd
00000100: ffa4 babd 167d 943f 83ee 2bbe 7a4f febd
00000110: 0c1e 2bbe b82f 2a3d 9924 e4bd 6189 15bc
00000120: a6e3 fabd 86cc ce3c 6b32 1bbe 2bdf efbe
00000130: b64b d5bd 8996 da3c db56 b4bd 7b4e 0abe
00000140: 475b acbd 1cb6 b5bd 0333 11be a93f ecbd
00000150: e2c1 7abd 2b46 1abe 712a aebd 6ee7 08be
00000160: 786d 62bd 02e3 08be abcb 52bd 7739 7dbd
00000170: ef54 7ebd 3d1a d4bd 8882 1abe 784a 3cbe
00000180: e3b2 56bd e917 c3bd b0b3 b6bd 2953 01be
00000190: 90a1 12be b80d a7bd 0ced 37be ced6 05be
000001a0: c8ee 21be 8a71 fbbd c500 87bc 18e7 8abc
000001b0: 69a0 31be ac49 15be d587 58be 4508 d3bd
000001c0: ec27 bbbd 05ac 65bb 3f9a e6bd cb30 febd
000001d0: 1279 29be 31d1 733e a9e9 2cbe 5a3e 18bf
000001e0: 18b1 dabd 330c 8bbd dc2a be3c 31aa 033f
000001f0: f6d7 62bd 794a 323e 7ba3 e1bd a7b1 05be
-0.12790692 -0.09358802 0.021153726 -0.06345743 -0.1014913 -0.08739441 0.012791325 -2.7296575e-05
1.3338263 -0.026171356 -0.13617596 -0.12771761 -0.4001047 -0.38890746 -0.05170031 1.494426
-0.15618367 0.57480556 -0.12944159 0.4412761 -0.13815895 -0.15976083 -0.13915367 -0.6080203
-0.038492758 0.562039 -0.11146112 -0.037821278 -0.120101474 -0.7645468 -0.13081576 0.026533315
-0.05936205 -0.17924339 0.17327057 -0.10335969 -0.07489972 -0.16471991 -0.30100337 -0.0947945
-0.060797155 -0.36751077 -0.06816702 -0.119753465 -0.022421446 -0.14088957 -0.02808001 -0.061705273
-0.19850922 -0.10495865 0.19951749 -0.020395633 -0.06501364 -0.08426111 0.01938796 -0.08645162
-0.012462066 -0.17949218 1.2819978 -0.09123076 -0.10437473 -0.19284858 -0.120230556 -0.04214581
-0.09113502 1.1600673 -0.16790204 -0.12417503 -0.1671068 0.041549414 -0.11139793 -0.009126992
-0.12250452 0.025244009 -0.15155952 -0.4684995 -0.10414831 0.026683109 -0.08805629 -0.135065
-0.08415847 -0.08872625 -0.14179616 -0.1153558 -0.061220057 -0.1506583 -0.08504189 -0.13369533
-0.05528018 -0.13367847 -0.051463764 -0.06182238 -0.062092718 -0.10356567 -0.15088856 -0.18387783
-0.052416693 -0.09526045 -0.089209914 -0.1262938 -0.14319444 -0.081569135 -0.1796152 -0.13070223
-0.15813744 -0.12277515 -0.01647986 -0.016955897 -0.17346348 -0.14578885 -0.21145566 -0.10304312
-0.09138474 -0.0035045159 -0.11259889 -0.1241165 -0.16550091 0.23810269 -0.1688601 -0.5947014
-0.10678309 -0.06789436 0.023213796 0.51431566 -0.055381738 0.17411222 -0.110175095 -0.1305605

out.weight f4 [1, 128]
00000000: b283 fcbc 02c3 493d b784 7c3c 1d3a a9bc
00000010: ddeb e5bc d8b5 ff3c 7c51 653d 39f3 8bbd
00000020: 4520 433d 92e3 32ba 3f06 bf3c 9ba1 a3bc
00000030: 1c1b 84bb 43a8 7bbd e291 843c 735e aa3d
00000040: 2e16 f5bc 9010 083c 8bc6 b8bc a682 423d
00000050: 7666 e93c 6ac0 cabc 58ff ce3c 18f6 83bc
00000060: 072f 41bc 9183 a8bc c75a d1b9 e95e dfbc
00000070: 59b1 923c 4f9f 34bd c8a5 283c dfae 273c
00000080: 0a6d 363b 63a9 16b9 7cd4 4f3d efb3 9ebc
00000090: 4bad 83bc 5401 b03c 2315 6abd 759f b03c
000000a0: e1d0 523c 77cb 07bb 0ee3 d93c 12f3 afbb
000000b0: 7db6 8f3c 022d 23bc eae1 82bc 4a3b 25bc
000000c0: cd11 ab3c ea6c 623c 1550 f9bc c1e1 fcba
000000d0: 4f0c ac3c c9ad edbc 61b6 33bc 85eb 583b
000000e0: e57e 4b3b 46f3 e1bc e7dd 773d 11a6 89bb
000000f0: 2b45 6dbb bb2d 7cbc 428e 463c 1b42 34bc
00000100: d0fd 78bc c361 763d e1ab 6abc 8532 aabd
00000110: ddb9 68bc fa90 56bc 78fe 903b db8d a33c
00000120: dfea bd3c 8139 cbba 4f48 1c3c 824e e83c
00000130: ab2f b4bc 88cf a53c b2aa be3b 8a94 023d
00000140: 055b 99bc 6600 b2bc 5e89 bdbc a3e4 28bc
00000150: 827f 283c 3714 cfbc 51d4 c1bc 65ec 91bc
00000160: 4021 883c 6409 60bc e608 cb3c 2b0f 8d3c
00000170: f203 bfbc ea33 5abd 5f46 613c 086f 9b3c
00000180: de05 5c3c 0293 dfbc 574d c7bc 2770 11bc
00000190: d443 14bd e933 d73c 2553 5dbc c4d1 583c
000001a0: 4d50 b33b 340c 41ba 2756 3dbd 4443 4abc
000001b0: 6e70 9736 c944 203c 4e12 b5bc ff31 11bc
000001c0: 1b2f 0e3d 953a 91bb 57c9 fcbb 4dbb 79bc
000001d0: 3199 89bc f606 013d 729c ebbc 8b6a 0bbd
000001e0: 252e a03d 8ed6 cdb9 52de 02bc 1282 ae3c
000001f0: 43f0 473c 56cf 633d a6b8 6bbd bd5f f1bb
-0.030824516 0.04925824 0.015412501 -0.020657593 -0.02806657 0.03121464 0.055985913 -0.068335004
0.047638196 -0.0006824072 0.023318408 -0.01997452 -0.004031552 -0.061439764 0.016182844 0.08318796
-0.029917803 0.00830473 -0.02255561 0.047487877 0.02849124 -0.024749953 0.025268242 -0.016108558
-0.011790997 -0.020570548 -0.0003993122 -0.027266936 0.017906832 -0.04409724 0.010293432 0.010234564
0.0027835988 -0.00014368216 0.05073975 -0.019372908 -0.016073843 0.021485008 -0.057149064 0.02156041
0.012867183 -0.002072064 0.026597526 -0.0053695524 0.017543072 -0.009959461 -0.015976865 -0.010084936
0.020882512 0.013819912 -0.030433694 -0.0019293354 0.021001963 -0.029013531 -0.0109687755 0.0033099365
0.0031050977 -0.027581822 0.060514357 -0.004200705 -0.0036204557 -0.015391762 0.012118878 -0.011002089
-0.015197232 0.060151827 -0.014323206 -0.08310417 -0.0142044695 -0.013096089 0.0044248663 0.019965103
0.023183284 -0.0015504808 0.009538724 0.028357748 -0.021995386 0.02024056 0.0058186883 0.03187994
-0.01872016 -0.021728706 -0.02313679 -0.0103084175 0.0102843065 -0.025278194 -0.02366081 -0.017812917
0.016617417 -0.013674114 0.024784517 0.017219147 -0.023317311 -0.053272165 0.013749688 0.018973842
0.013429133 -0.027291778 -0.02432887 -0.008876837 -0.0361975 0.02626987 -0.013508593 0.013233606
0.005472219 -0.0007364184 -0.04622474 -0.012345139 4.513239e-06 0.009782025 -0.022103455 -0.008862018
0.034712892 -0.0044320324 -0.0077144313 -0.01524241 -0.01679668 0.03150078 -0.028761122 -0.034037154
0.07821301 -0.00039260503 -0.007987576 0.021302257 0.012203279 0.055617653 -0.05754914 -0.007366149
