models/checkpoint_actor_2.pth (torch, 87447 bytes, 6 tensors)

hidden1.weight f4 [128, 33]
0.32272646 0.2668375 -0.20436162 -0.13976954 0.047522046 0.26125407 0.11557853 -0.23557252
-0.034882955 -0.09301196 -0.12909906 0.14004618 -0.058770698 -0.25268072 0.06557935 0.026200967
0.27149212 0.25774953 -0.22101516 0.096716225 0.14997952 -0.03103141 0.1791857 -0.23072661
-0.04731184 0.08114157 -0.034056824 -0.05330517 0.19223483 0.16392213 -0.071063645 0.04194185
0.8408194 0.2792645 0.12579636 -0.23642763 0.031241735 -0.025269909 0.002703858 -0.0303953
0.07657497 -0.0069912258 -0.10964398 0.00081972545 0.100555345 -0.23165514 -0.052147567 0.43750262
-0.19101782 0.46424475 -0.13644202 -0.3118632 -0.023236586 -0.1832593 0.12324415 0.033052117
-0.19689038 0.045671213 0.08645307 0.005134061 -0.19938713 0.14956355 0.09931943 0.08538953
-0.1576686 -0.07491211 -0.25231254 0.16165976 -0.2623594 -0.10129027 -0.035609387 -0.4864289
-0.11616647 0.068055525 -0.08475081 0.12980537 0.04406818 -0.24450426 -0.120838284 0.14909376
0.05731424 -0.22064352 -0.107792094 -0.0822759 0.30404678 -0.06342073 0.09789407 -0.14138038
-0.16938111 -0.004885495 0.1940064 -0.08393617 -0.012524281 -0.08415429 -0.059797224 -0.08481491
0.2461689 -0.065047696 -0.24130957 0.16877519 0.15916029 0.014193065 -0.17894065 -0.3149006
0.1608435 0.019282132 0.029934278 -0.015107897 -0.07742361 0.109654106 0.09868148 -0.027633335
0.21087979 -0.05267174 -0.21382955 0.6663384 -0.070741154 0.15302962 -0.14417155 0.19394751
0.08726572 0.037965123 -0.08310714 0.13015887 -0.14507484 -0.26517668 0.45630178 0.18337138
0.13641655 -0.3207211 0.078635395 0.24224252 0.15867454 -0.1429991 0.06805887 0.026655627
-0.06807247 -0.36666706 0.02777208 0.10384687 0.14363477 0.085970454 -0.013607751 0.109214716
-0.059236057 0.34571344 0.01927202 -0.019974146 -0.19631967 -0.16087733 0.21629818 -0.059025653
0.18663163 0.29053405 0.010182212 0.120213024 -0.027867546 -0.046940986 -0.27307072 -0.014326382
0.21381976 0.010142878 -0.071591206 -0.0056513846 0.68822443 0.016820287 0.16921318 -0.35178956
-0.060465537 -0.20649496 0.0154760815 -0.12780353 0.14775552 0.08037229 -0.0827735 0.07003202
0.061261356 -0.18605393 0.34126788 0.008998868 0.025538886 0.3087452 -0.09683994 0.25221857
-0.1518314 0.01468918 0.025981383 -0.017144864 0.04232557 0.0033864533 -0.11238865 -0.40956265
0.30508748 -0.016993476 -0.025997505 -0.07353348 0.0054028034 0.13924138 -0.067599416 -0.15188651
-0.14055224 -0.16500789 0.09224385 0.11498319 -0.12872867 -0.2583712 0.20037599 -0.2072489
0.09350705 0.021346055 -0.016113117 -0.19700284 0.30094233 0.34296438 -0.32632205 0.33062774
-0.0034010683 -0.005444461 -0.12981649 0.059666973 0.014439432 -0.031661812 -0.033426035 0.1262982
0.28233632 0.00933997 -0.32688197 -0.06626918 -0.14402701 0.16341847 0.6850713 0.043037366
-0.026990404 0.27396253 0.07178152 0.100632004 -0.3270564 -0.015707593 0.004117722 0.023612756
0.16019757 -0.067822255 -0.07576891 0.026453404 -0.26033828 -0.016777586 -0.2062238 0.04406663
-0.01798597 0.007923627 -0.108518854 -0.073863275 0.1488454 -0.15327685 -0.11655517 0.0123699205
00000000: 673c a53e ed9e 883e 2c44 51be bf1f 0fbe
00000010: 7aa6 423d 18c3 853e 70b4 ec3d ec39 71be
00000020: 6ee1 0ebd 0e7d bebd 8b32 04be 4468 0f3e
00000030: 8bb9 70bd 5e5f 81be 774e 863d 69a3 d63c
00000040: 0401 8b3e bff7 833e cc51 62be 2813 c63d
00000050: 3b94 193e 9535 febc 757c 373e 9943 6cbe
00000060: 0fca 41bd 8d2d a63d 2b7f 0bbd 8656 5abd
00000070: 35d9 443e 34db 273e d189 91bd 38cb 2b3d
00000080: f13f 573f c2fb 8e3e c3d0 003e 161a 72be
00000090: abee ff3c d702 cfbc 3633 313b 90ff f8bc
000000a0: 56d3 9c3d a716 e5bb 068d e0bd d8e2 563a
000000b0: f6ef cd3d 0137 6dbe b098 55bd 5800 e03e
000000c0: 2d9a 43be 7db1 ed3e 75b7 0bbe 89ac 9fbe
000000d0: a75a bebc 53a8 3bbe 6e67 fc3d a861 073d
000000e0: a29d 49be bd11 3b3d 4f0e b13d a03b a83b
000000f0: 242c 4cbe 3027 193e fc67 cb3d b5e0 ae3d
00000100: e173 21be 856b 99bd 1c2f 81be 238a 253e
00000110: f953 86be 4671 cfbd 26db 11bd 350d f9be
00000120: b0e8 edbd b260 8b3d d591 adbd b3eb 043e
00000130: d680 343d 535f 7abe 107a f7bd 09ac 183e
00000140: 56c2 6a3d 60f0 61be 1ac2 dcbd 4480 a8bd
00000150: 05ac 9b3e bae2 81bd b07c c83d 05c6 10be
00000160: 3e72 2dbe 8116 a0bb 9da9 463e bae6 abbd
00000170: a432 4dbc 1659 acbd efed 74bd 71b3 adbd
00000180: b313 7c3e ba37 85bd db19 77be 67d3 2c3e
00000190: eafa 223e 088a 683c 383c 37be a73a a1be
000001a0: 29b4 243e 90f5 9d3c bb38 f53c 1d87 77bc
000001b0: 4590 9ebd 5592 e03d 8419 ca3d 4e5f e2bc
000001c0: dff0 573e 53be 57bd 22f6 5abe 2795 2a3f
000001d0: bde0 90bd ccb3 1c3e b5a1 13be 2d9a 463e
000001e0: 5fb8 b23d 5181 1b3d 1434 aabd 5e48 053e
000001f0: 808e 14be 3dc5 87be 63a0 e93e b5c5 3b3e
00000200: c8b0 0b3e 8e35 a4be 980b a13d 6c0e 783e
00000210: 947b 223e 5b6e 12be 7362 8b3d e75c da3c
00000220: 9469 8bbd c9bb bbbe 4682 e33c abad d43d
00000230: fe14 133e 4711 b03d 0bf3 5ebc f7ab df3d
00000240: 82a1 72bd 5a01 b13e 5be0 9d3c d2a0 a3bc
00000250: 0608 49be 07bd 24be 457d 5d3e e2c4 71bd
00000260: 5d1c 3f3e e1c0 943e 4bd3 263c 3f32 f63d
00000270: 7b4a e4bc 3145 40bd edcf 8bbe 34b9 6abc
00000280: 91f3 5a3e 502e 263c 699e 92bd 402f b9bb
00000290: 7a2f 303f b3ca 893c 3846 2d3e c31d b4be
000002a0: b6aa 77bd 6a73 53be 648f 7d3c eede 02be
000002b0: 394d 173e 3a9a a43d 2785 a9bd f36c 8f3d
000002c0: 30ed 7a3d ec84 3ebe aaba ae3e fd6f 133c
000002d0: ed36 d13c da13 9e3e 0554 c6bd cb22 813e
000002e0: b179 1bbe e3aa 703c e9d6 d43c 6373 8cbc
000002f0: 945d 2d3d 42ef 5d3b 052c e6bd 32b2 d1be
00000300: 6d34 9c3e e735 8bbc b8f8 d4bc b998 96bd
00000310: 000a b13b 4b95 0e3e 9071 8abd 2388 1bbe
00000320: edec 0fbe d4f7 28be 58ea bc3d 4f7c eb3d
00000330: 73d1 03be 3b49 84be 5d2f 4d3e 0e39 54be
00000340: a080 bf3d ecdd ae3c a8ff 83bc 1dbb 49be
00000350: 1d15 9a3e 0799 af3e af13 a7be 0a48 a93e
00000360: 75e4 5ebb 7367 b2bb 9dee 04be 5b65 743d
00000370: 5e93 6c3c d1af 01bd bde9 08bd 5154 013e
00000380: 638e 903e ac06 193c 135d a7be 23b8 87bd
00000390: d17b 13be 2c57 273e d560 2f3f f347 303d
000003a0: fb1a ddbc d144 8c3e 3102 933d 2718 ce3d
000003b0: f073 a7be 36ad 80bc f5ed 863b 8a6f c13c
000003c0: d50a 243e 65e6 8abd bb2c 9bbd cfb4 d83c
000003d0: 0f4b 85be 2671 89bc 552c 53be 367f 343d
000003e0: 5057 93bc 1ad2 013c 223f debd a145 97bd
000003f0: ee6a 183e 9bf4 1cbe 7ab4 eebd 35ab 4a3c

hidden1.bias f4 [128]
0.058126252 0.033163 -0.057778552 -0.28699493 0.055456173 -0.22498766 0.098883815 0.20423451
-0.021019688 -0.051548604 0.43163863 0.1998679 0.0117849205 0.12429313 -0.049476232 -0.24714725
-0.13440344 -0.048727293 0.08968255 0.11671583 -0.12906364 -0.12929548 -0.2670525 0.052873764
-0.088621534 0.32969576 0.3890622 -0.13048296 0.01787392 0.16365743 0.0037522174 0.10407584
0.24556373 -0.345082 0.13793407 -0.23425524 0.09703714 0.05425874 -0.06766245 0.17957065
0.12498828 0.13844809 -0.28497186 0.12757121 -0.02173143 0.13321711 -0.089313865 -0.021945883
-0.11761627 0.020256916 -0.22123648 -0.056710657 0.07660145 -0.13514793 -0.2264366 -0.11254883
0.036109947 -0.07767325 -0.045965575 -0.18866575 0.12204301 -0.20671816 -0.14479645 0.20183912
0.027740741 -0.047613926 0.17647564 -0.008554982 -0.26646855 0.026692137 0.015398054 -0.18055186
-0.02292499 -0.00035416137 0.029829849 -0.11007537 0.16468908 0.13493769 0.15004359 0.05463879
-0.055209883 -0.046651747 0.184 -0.15391682 0.18883789 -0.23128216 0.18328997 0.00042702057
0.27655262 0.04034185 0.08349388 0.14185354 -0.21077025 -0.042507757 0.12124338 -0.15718295
0.20543104 0.054291286 -0.25137457 0.28738716 0.17470187 0.27737615 -0.14593466 0.0109904185
0.05149469 0.05587181 0.04874173 -0.09218073 -0.058969125 -0.043696016 -0.13967647 0.123974234
-0.031403832 0.08219752 0.13811284 -0.09186251 -0.057600386 0.1968638 -0.32084513 0.049622208
-0.05091639 -0.34291717 0.15698887 -0.023396356 -0.2889358 0.10273039 -0.136037 -0.028275771
00000000: cb15 6e3d edd5 073d 34a9 6cbd 00f1 92be
00000010: 0326 633d 2a63 66be 9983 ca3d da22 513e
00000020: 7b31 acbc a124 53bd bdff dc3e 2caa 4c3e
00000030: 8a15 413c 668d fe3d 97a7 4abd 2b14 7dbe
00000040: 0ea1 09be 4596 47bd 7cab b73d b608 ef3d
00000050: 4229 04be 0966 04be 1bbb 88be 2992 583d
00000060: 357f b5bd e2cd a83e 2933 c73e 539d 05be
00000070: 546c 923c d095 273e c3e7 753b b725 d53d
00000080: 0f75 7b3e 97ae b0be 973e 0d3e 9be0 6fbe
00000090: 68bb c63d 6a3e 5e3d 9c92 8abd 5ee1 373e
000000a0: dbf9 ff3d 56c5 0d3e d5e7 91be 07a2 023e
000000b0: 1d06 b2bc 116a 083e 30ea b6bd dac7 b3bc
000000c0: cde0 f0bd d5f1 a53c d18b 62be 6f49 68bd
000000d0: 39e1 9c3d 3864 0abe ffde 67be 0080 e6bd
000000e0: 06e8 133d 2713 9fbd 6646 3cbd 9831 41be
000000f0: b0f1 f93d edad 53be 8545 14be eaae 4e3e
00000100: 8d40 e33c d206 43bd 08b6 343e 322a 0cbc
00000110: 916e 88be 78a9 da3c 1f48 7c3c 96e2 38be
00000120: 30cd bbbc bcae b9b9 ba5d f43c 326f e1bd
00000130: 41a4 283e 1b2d 0a3e 07a5 193e edcc 5f3d
00000140: c223 62bd e715 3fbd 7f6a 3c3e 5f9c 1dbe
00000150: b85e 413e 3bd5 6cbe 5eb0 3b3e bbe1 df39
00000160: 4e98 8d3e 7f3d 253d d7fe aa3d 0e42 113e
00000170: 28d4 57be 9d1c 2ebd 734e f83d 91f4 20be
00000180: 845c 523e 8a60 5e3d 2bb4 80be 6924 933e
00000190: 0ce5 323e 3f04 8e3e e56f 15be 2811 343c
000001a0: 19ec 523d d7d9 643d 69a5 473d 40c9 bcbd
000001b0: 9c89 71bd 98fa 32bd 5907 0fbe 34e6 fd3d
000001c0: 4ea1 00bd 2c57 a83d 746d 0d3e 6922 bcbd
000001d0: 62ee 6bbd aa96 493e d045 a4be a840 4b3d
000001e0: b48d 50bd d792 afbe b1c1 203e b7a9 bfbc
000001f0: 65ef 93be 5064 d23d 494d 0bbe 97a2 e7bc

hidden2.weight f4 [128, 128]
-0.05446576 -0.19770046 -0.15955171 -0.08881315 -0.280115 -0.5349264 -0.2746986 -0.1731248
-0.19183768 -0.28769052 -0.1291344 -0.040488757 -0.45083135 -0.13188864 0.11475864 -0.29835874
-0.24402143 0.20534343 -0.028543003 -0.2626399 0.021407664 -0.18303007 -0.08445356 -0.15157594
0.2678854 -0.18429652 -0.112365216 0.18193018 0.019172369 -0.33909774 0.08045328 0.124627985
-0.15677837 0.3376434 -0.16407217 -0.19065611 0.09527131 0.11595671 0.013136671 0.062288627
0.16013545 0.23945282 0.25035882 0.06735307 0.14705904 0.04677569 0.115332484 0.10737203
-0.110991836 -0.14932357 0.13002723 0.052764617 0.0816382 -0.0369939 0.21313302 -0.075453155
-0.43988633 0.3197107 -0.53733546 0.117671385 -0.18633689 0.031761244 0.14513595 0.1819201
0.24661002 -0.22963025 -0.042346515 0.26139167 0.12965424 0.03214439 -0.15386157 -0.25166193
0.20533225 -0.656254 -0.020149635 0.4429419 0.1336241 -0.24366751 0.003861646 -0.40829286
0.257188 -0.08456426 -0.09018513 -0.14297219 -0.23684439 -0.022327775 0.0013094287 -0.025038144
-0.38310805 -0.44878176 0.011693854 0.22085772 -0.3687688 -0.13832335 -0.002768649 0.34963113
-0.022451533 -0.402531 -0.47182742 0.15421459 0.14940612 -0.20151313 0.007846621 0.0024546138
-0.2795238 0.06740524 0.18306495 -0.008308136 0.013496345 -0.35165173 0.22449628 0.02281224
0.101578616 -0.3738059 -0.23154278 -0.11948393 -0.039106086 -0.29990795 -0.18476035 -0.23672342
-0.2597985 0.14808398 -0.076951794 -0.085438766 0.16858006 0.11556109 0.10432536 0.11609851
-0.15107627 0.2771106 0.028907457 -0.073993884 -0.108748294 -0.20734896 -0.052243885 0.16380504
-0.22875394 0.034934532 -0.03440736 -0.23493485 -0.14263116 0.3086393 0.10309596 0.08591485
-0.034241397 -0.019336741 0.0025027802 0.16361284 -0.25330383 -0.031260625 0.16595803 -0.1345188
0.068852596 -0.038639247 -0.062492713 0.13626644 0.04485841 0.09698346 -0.13013947 0.15088767
-0.107631944 -0.0165702 0.14426166 0.07297904 -0.00019436746 0.14585945 -0.17123547 -0.20350626
-0.04549436 0.29676935 0.047461905 -0.3851923 -0.087683454 0.124504626 0.0050919256 -0.14045665
-0.06618694 -0.14066334 -0.007019333 0.21940847 -0.20612518 -0.026884539 0.047734745 0.1230787
-0.021809286 0.08162226 -0.11432018 0.0048750513 0.24601822 -0.08024932 -0.10172859 0.16153753
0.039376214 0.06932543 -0.01535484 -0.0800486 -0.14143455 -0.07504673 -0.0510959 -0.014563432
-0.26906607 0.07078768 -0.09663021 -0.022938225 0.021554518 0.16747895 -0.20263037 -0.10790786
-0.10185324 -0.073056914 0.13545237 -0.19764228 0.079575986 0.1767028 0.12317988 0.2021096
0.15126744 0.07388923 -0.23928629 0.24772575 -0.1793593 -0.048538383 -0.0051424294 0.112375945
-0.1218498 -0.39621744 0.118036255 0.1322054 -0.095599025 0.19982065 -0.0056656306 -0.16074613
0.03406407 -0.10885028 0.07923137 -0.17768444 0.04387839 -0.09444621 -0.044382475 -0.26817566
-0.322015 0.41567189 -0.09698626 0.12347553 0.06094986 -0.028718412 0.14708865 -0.1674382
0.20784421 0.06140629 0.07179179 0.026909418 -0.17523144 0.0023673633 -0.09709141 0.175476
00000000: 7d17 5fbd fd71 4abe 8661 23be abe3 b5bd
00000010: 3c6b 8fbe f0f0 08bf 4ba5 8cbe a147 31be
00000020: 1971 44be 2c4c 93be cf3b 04be 8ad7 25bd
00000030: 5ed3 e6be d10d 07be 9406 eb3d 7ac2 98be
00000040: c1e0 79be 8c45 523e 04d3 e9bc bd78 86be
00000050: 205f af3c 3c6c 3bbe fdf5 acbd b936 1bbe
00000060: 4628 893e 3ab8 3cbe bc1f e6bd e84b 3a3e
00000070: 5f0f 9d3c 389e adbe b0c4 a43d f53c ff3d
00000080: 828a 20be 99df ac3e 8902 28be 5b3b 43be
00000090: 9b1d c33d b67a ed3d 313b 573c 5c22 7f3d
000000a0: 8cfa 233e 1f33 753e 082f 803e 68f0 893d
000000b0: a596 163e de97 3f3d 7033 ec3d dee5 db3d
000000c0: b04f e3bd 47e8 18be dc25 053e b61f 583d
000000d0: ee31 a73d ea86 17bd 8b3f 5a3e 2f87 9abd
000000e0: c838 e1be 1fb1 a33e d18e 09bf b2fd f03d
000000f0: 19cf 3ebe 1418 023d 859e 143e 4349 3a3e
00000100: 5687 7c3e 3124 6bbe 8a73 2dbd 21d5 853e
00000110: 15c4 043e d6a9 033d e38d 1dbe d5d9 80be
00000120: 9e42 523e 4300 28bf d910 a5bc 48c9 e23e
00000130: c2d4 083e fa83 79be ab13 7d3b c30b d1be
00000140: 25ae 833e 0730 adbd fbb2 b8bd 4d67 12be
00000150: 5687 72be bde8 b6bc 23a1 ab3a cb1c cdbc
00000160: bd26 c4be b9c6 e5be 9497 3f3c 8728 623e
00000170: 44cf bcbe a3a4 0dbe 3972 35bb da02 b33e
00000180: 47ec b7bc 8b18 cebe 5d93 f1be 6eea 1d3e
00000190: ebfd 183e 7559 4ebe 1d8f 003c 96dd 203b
000001a0: be1d 8fbe c20b 8a3d 6175 3b3e d91e 08bc
000001b0: c61f 5d3c b20b b4be 5ae2 653e bce0 ba3c
000001c0: 7308 d03d 7d63 bfbe 8d19 6dbe feb3 f4bd
000001d0: b42d 20bd 898d 99be d131 3dbe a067 72be
000001e0: 4f04 85be 54a3 173e e798 9dbd 85fa aebd
000001f0: 40a0 2c3e 4bab ec3d 89a8 d53d 0ec5 ed3d
00000200: bdb3 1abe 71e1 8d3e 55cf ec3c 1b8a 97bd
00000210: 6db7 debd 4953 54be affd 55bd 82bc 273e
00000220: 793e 6abe 8317 0f3d bbee 0cbd c392 70be
00000230: e70d 12be f805 9e3e fa23 d33d 20f4 af3d
00000240: b540 0cbd 1668 9ebc af05 243b 208a 273e
00000250: 0ab1 81be 240b 00bd e7f0 293e 4cbf 09be
00000260: 9702 8d3d 3044 1ebd 5cf8 7fbd 6e89 0b3e
00000270: 74bd 373d 449f c63d 4843 05be 4c82 1a3e
00000280: 236e dcbd 3abe 87bc 54b9 133e 0976 953d
00000290: 1ecf 4bb9 2e5c 153e 5a58 2fbe f263 50be
000002a0: 4b58 3abd 27f2 973e 6a67 423d ed37 c5be
000002b0: 6293 b3bd 48fc fe3d 2bda a63b ded3 0fbe
000002c0: 058d 87bd 0d0a 10be 6f02 e6bb 9dac 603e
000002d0: 7b12 53be f73c dcbc 8285 433d af10 fc3d
000002e0: 63a9 b2bc 9229 a73d b320 eabd e5be 9f3b
000002f0: 33ec 7b3e c159 a4bd 1457 d0bd 186a 253e
00000300: f448 213d 7efa 8d3d de92 7bbc 85f0 a3bd
00000310: 38d4 10be 1ab2 99bd ef49 51bd 769b 6ebc
00000320: 07c3 89be 22f9 903d 0fe6 c5bd f2e8 bbbc
00000330: 1a93 b03c 9a7f 2b3e 567e 4fbe ccfe dcbd
00000340: 6e98 d0bd dd9e 95bd 07b4 0a3e bd62 4abe
00000350: bcf8 a23d 94f1 343e bc45 fc3d d2f5 4e3e
00000360: dae5 1a3e 3d53 973d 7707 75be d2ab 7d3e
00000370: f7a9 37be 2fd0 46bd d381 a8bb 5c25 e63d
00000380: 638c f9bd 03dd cabe febc f13d da60 073e
00000390: 6cc9 c3bd c99d 4c3e c1a6 b9bb a29a 24be
000003a0: c486 0b3d e5ec debd 0e44 a23d e9f2 35be
000003b0: d4b9 333d 046d c1bd 66ca 35bd 524e 89be
000003c0: 26df a4be f2d2 d43e bba0 c6bd bde0 fc3d
000003d0: 8fa6 793d e042 ebbc 689e 163e eb74 2bbe
000003e0: 1dd5 543e 2985 7b3d 9307 933d 2471 dc3c
000003f0: df6f 33be c425 1b3b dcd7 c6bd fbaf 333e

hidden2.bias f4 [128]
-0.15471601 -0.14115919 -0.16646422 -0.089474656 -0.03505269 0.10211192 0.066858575 0.063564464
-0.061997835 0.045427706 0.068659775 0.124155246 -0.0710876 0.018504484 -0.07240261 -0.1234287
-0.028767735 -0.09417206 -0.010910581 -0.22562896 -0.053125303 0.042347126 -0.020854339 -0.22819361
-0.08493381 0.10437663 -0.13994327 -0.116067946 -0.025909295 -0.014529204 0.002498009 0.021637712
0.12492859 -0.15001188 0.07565837 -0.046937432 -0.0025904109 0.024866445 0.03533385 0.03293222
-0.01462513 -0.020145949 -0.17371754 -0.05606809 0.06328949 0.020070544 -0.060057268 0.062474895
0.08246001 0.041803945 0.008412173 0.028870072 -0.039646856 -0.04722146 -0.1411579 -0.0466149
0.04198917 -0.024575802 -0.096565835 0.05960753 0.03332188 -0.008178022 0.035750356 0.012933192
-0.19549951 0.16559993 -0.1948081 0.006389065 0.09219474 -0.059276234 -0.08810075 0.0744002
-0.023901965 0.09156689 -0.18414909 0.05174212 -0.04093137 -0.051437516 0.008073491 -0.13617417
0.014513429 0.052783694 -0.1674978 0.03477445 0.02294022 -0.074818894 0.013220072 0.018628277
0.012667429 0.07206466 0.008382996 0.02494954 -0.013305861 -0.02617228 -0.11916069 -0.029816585
0.11389452 -0.009179781 0.021123925 0.075220816 -0.06930649 -0.10974828 -0.11869685 0.007171447
0.09924834 -0.10898967 -0.058125522 -0.03244033 -0.06784265 -0.09336756 -0.021368489 -0.014049684
0.009675593 -0.10597354 -0.020055234 -0.06769483 0.089019604 0.07742983 -0.09427031 0.012435145
0.004065955 -0.11874801 -0.044343904 -0.17823072 0.00021133748 0.006372475 -0.101073146 0.020476805
00000000: e06d 1ebe 098c 10be 9975 2abe 7d3e b7bd
00000010: 6993 0fbd 0e20 d13d 26ed 883d 162e 823d
00000020: 71f1 7dbd 6712 3a3d 7f9d 8c3d 1b45 fe3d
00000030: 6096 91bd b796 973c d247 94bd 30c8 fcbd
00000040: 50aa ebbc 48dd c0bd 4bc2 32bc 470b 67be
00000050: eb99 59bd 2e74 2d3d b8d6 aabc 96ab 69be
00000060: c7f1 adbd 6ac3 d53d 4a4d 0fbe 08b5 edbd
00000070: bb3f d4bc e60b 6ebc a3b5 233b 9241 b13c
00000080: 90da ff3d b79c 19be c7f2 9a3d 7741 40bd
00000090: e2c3 29bb b7b4 cb3c 3aba 103d efe3 063d
000000a0: 3e9e 6fbc 1e09 a5bc 03e3 31be a7a7 65bd
000000b0: ec9d 813d fb6a a43c 9cfe 75bd ade5 7f3d
000000c0: cbe0 a83d 9d3a 2b3d 36d3 093c ee80 ec3c
000000d0: be64 22bd 4a6b 41bd b28b 10be 44ef 3ebd
000000e0: d6fc 2b3d 3153 c9bc 4fc4 c5bd 0627 743d
000000f0: 867c 083d 1cfd 05bc f76e 123d bde5 533c
00000100: 0631 48be 0793 293e c67b 47be 5d5b d13b
00000110: 99d0 bc3d a3cb 72bd 2b6e b4bd 225f 983d
00000120: 0ece c3bc 6c87 bb3d 9491 3cbe 8cef 533d
00000130: a7a7 27bd 25b0 52bd ad46 043c 3e71 0bbe
00000140: bcc9 6d3c b733 583d 8b84 2bbe a76f 0e3d
00000150: 21ed bb3c a63a 99bd 0099 583c 549a 983c
00000160: 0c8b 4f3c a396 933d d558 093c fa62 cc3c
00000170: d300 5abc 4067 d6bc 850a f4bd e941 f4bc
00000180: 8841 e93d cb66 16bc 150c ad3c 5f0d 9a3d
00000190: 90f0 8dbd b5c3 e0bd 5617 f3bd 75fe ea3b
000001a0: b742 cb3d fa35 dfbd 0715 6ebd 27e0 04bd
000001b0: 16f1 8abd 7e37 bfbd f80c afbc a530 66bc
000001c0: 6186 1e3c a808 d9bd e04a a4bc 96a3 8abd
000001d0: e94f b63d 8893 9e3d cb10 c1bd c7bc 4b3c
000001e0: b43b 853b 2832 f3bd f4a1 35bd 1d82 36be
000001f0: 799a 5d39 32d0 d03b 70ff cebd f9be a73c

out.weight f4 [4, 128]
0.26235083 -0.107922405 0.5147449 -0.45319447 0.11649811 0.16131751 0.24523252 -0.0264911
-0.6792532 0.17796226 0.09950512 -0.62927824 0.45825875 0.3971463 0.35460147 -0.07676738
-0.390632 0.026478907 0.25571367 -0.063214 -0.0042572976 -0.12927493 0.24326214 0.08811737
-0.34294733 0.33523643 0.20544976 0.8471572 0.40786156 0.08423041 0.15525016 0.026676727
0.10421559 -0.28954932 -0.16539128 0.25253144 -0.40601456 -0.027429124 -0.30109188 -0.6091569
-0.20466082 -0.3844714 -0.21660905 0.15640892 -0.29847205 0.37257835 -0.8369233 0.06515643
0.07553513 -0.029429568 -0.18221498 -0.044091724 0.2585728 0.16328594 -0.88169837 0.40875486
-0.025690312 0.24643031 0.30999586 -0.21996407 0.20454194 0.5235604 0.10565748 -0.1477858
0.28816137 -0.12546784 -0.3167614 0.4610946 -0.06460532 0.5429261 -0.23074235 0.18761252
-0.25009775 -0.05765186 -0.4447584 -0.06611873 0.44621992 0.3626784 -0.30504894 -0.27311504
0.51991373 -0.6358215 -0.685476 -0.10204934 -0.18643358 0.3943714 -0.031087164 -0.5077953
0.15375523 0.099327944 0.11750172 0.15614018 -0.5371159 0.50477237 0.67455894 -0.10296746
-0.29872882 -0.27479085 -0.6035769 -0.17529927 0.36649507 0.29296657 0.0058843438 0.22799923
-0.0038723762 0.033626758 -0.03972219 0.12155536 0.11353151 0.33931506 0.21864659 -0.54732966
0.092532605 0.20090915 0.02595427 0.19958901 0.33934796 0.102321796 0.43561083 -0.15187629
-0.14587264 0.25744948 -0.22851183 -0.19563241 -0.3632117 0.23477428 0.080104955 -0.27200013
-0.2891285 -0.20894894 0.4164007 0.6963786 -0.17914669 -0.025969593 -0.084375545 -0.03636058
0.123865284 -0.052678533 0.40251696 -0.1346566 0.025025971 -0.015881792 -0.03622914 0.18804847
-0.40873578 0.34924516 -0.36716726 -0.33346263 -0.32216257 -0.31190217 -0.25533065 -1.0068823
-0.29781437 -0.059605774 -0.44232136 -0.15007634 -0.087206796 0.76101553 0.25356543 0.37573746
-0.43057838 -0.27763945 0.015984192 0.33445278 -0.4709284 0.12100782 0.38628483 -0.080594964
0.30765465 0.564296 0.23932257 -0.20149633 -0.53204983 -0.19281067 0.22229381 0.27996182
0.044575807 0.22165619 -0.9245098 0.2834509 -0.12609419 0.35119015 -0.3662446 0.25415206
0.04241463 -0.20341775 -0.17511767 0.24670313 0.021703789 0.051505264 0.096212134 -0.025441127
0.3373876 0.19379963 0.114304595 0.6584976 0.13853893 0.13017713 -0.04468874 -0.011177146
0.009483028 0.46590328 -0.23763981 -0.10005059 0.4489102 -0.16093397 -0.20641772 -0.5623882
0.36081967 0.26014948 0.5996888 0.07561463 -0.4701922 -0.4442405 -0.073969096 0.40811342
0.21048312 0.31975314 -0.258862 0.10079808 -0.08369585 -0.71295685 0.026796324 0.34146506
-0.41300207 0.023271983 0.07545311 0.14814979 0.08561184 -0.51114446 -0.15371189 0.03832066
-0.76452136 0.4068087 0.9570739 -0.17256406 -0.22684337 0.3959263 -0.348479 0.15224624
0.28211352 -0.32882553 0.34980917 -0.515576 -0.52442104 0.22839808 -0.80949605 0.26008454
0.4370703 -0.2467446 -0.19986351 -0.652851 0.1299263 0.034437444 0.14926784 -0.4932008
00000000: d952 863e 6c06 ddbd 52c6 033f 1b09 e8be
00000010: 9096 ee3d 6b30 253e 3c1e 7b3e dd03 d9bc
00000020: 8ae3 2dbf bd3b 363e 57c9 cb3d 6118 21bf
00000030: e4a0 ea3e c356 cb3e 538e b53e 3738 9dbd
00000040: eb00 c8be 4bea d83c e7ec 823e 5776 81bd
00000050: cd80 8bbb a660 04be b619 793e e176 b43d
00000060: cb96 afbe 1ca4 ab3e 6c61 523e 4bdf 583f
00000070: 3bd3 d03e fe80 ac3d e6f9 1e3e 2789 da3c
00000080: fc6e d53d cf3f 94be 555c 29be cd4b 813e
00000090: 24e1 cfbe 0bb3 e0bc b728 9abe b5f1 1bbf
000000a0: 9b92 51be 6fd9 c4be c3ce 5dbe a929 203e
000000b0: 54d1 98be 97c2 be3e 9b40 56bf bc70 853d
000000c0: 2ab2 9a3d 4716 f1bc 9096 3abe 8699 34bd
000000d0: a763 843e 6e34 273e fcb6 61bf 5148 d13e
000000e0: 7d74 d2bc 3a58 7c3e c7b7 9e3e 433e 61be
000000f0: 7173 513e 0e08 063f f362 d83d 2955 17be
00000100: e389 933e a47a 00be 8d2e a2be 9714 ec3e
00000110: cb4f 84bd 34fd 0a3f b947 6cbe 7f1d 403e
00000120: d00c 80be 5b24 6cbd 5fb7 e3be 4269 87bd
00000130: f076 e43e fcb0 b93e 602f 9cbe bcd5 8bbe
00000140: 1119 053f 33c5 22bf 5b7b 2fbf 3fff d0bd
00000150: 72e8 3ebe 0ceb c93e 82aa febc dffe 01bf
00000160: 0372 1d3e 736c cb3d bea4 f03d 36e3 1f3e
00000170: 6d80 09bf c338 013f e5af 2c3f 9be0 d2bd
00000180: fcf2 98be 63b1 8cbe 0484 1abf a781 33be
00000190: 3ea5 bb3e b7ff 953e 74d1 c03b a178 693e
000001a0: b1c7 7dbb 36bc 093d bcb3 22bd 04f2 f83d
000001b0: 3583 e83d b4ba ad3e e4e4 5f3e cc1d 0cbf
000001c0: bc81 bd3d 21bb 4d3e 0d9e d43c 1061 4c3e
000001d0: 04bf ad3e 178e d13d 6208 df3e 7585 1bbe
000001e0: a35f 15be 6bd0 833e 01ff 69be dd53 48be
000001f0: e2f6 b9be ab68 703e 110e a43d 9a43 8bbe
00000200: a708 94be b6f6 55be 7932 d53e de45 323f
00000210: 3b72 37be 2fbe d4bc 16cd acbd d5ee 14bd
00000220: 15ad fd3d 72c5 57bd b416 ce3e 6be3 09be
00000230: 4403 cd3c 881a 82bc 0265 14bd c78f 403e
00000240: d145 d1be 43d0 b23e 59fd bbbe 9dbb aabe
00000250: 7ef2 a4be a4b1 9fbe b3ba 82be 85e1 80bf
00000260: 207b 98be 2f25 74bd f277 e2be 9dad 19be
00000270: 7a99 b2bd ead1 423f 54d3 813e a960 c03e
00000280: c574 dcbe c226 8ebe 48f1 823c 653d ab3e
00000290: 871d f1be f3d2 f73d 20c7 c53e f90e a5bd
000002a0: e984 9d3e b475 103f fa10 753e 0e55 4ebe
000002b0: 6b34 08bf 2970 45be fda0 633e 2857 8f3e
000002c0: 1f95 363d d7f9 623e adac 6cbf 7a20 913e
000002d0: d61e 01be 32cf b33e 6a84 bbbe 3820 823e
000002e0: f7ba 2d3d be4c 50be 0c52 33be bf9f 7c3e
000002f0: 25cc b13c 2ff7 523d de0a c53d e969 d0bc
00000300: 11be ac3e 6973 463e 8718 ea3d 4c93 283f
00000310: 26dd 0d3e 274d 053e 8a0b 37bd 5920 37bc
00000320: b45e 1b3c e08a ee3e da57 73be 53e7 ccbd
00000330: 8fd7 e53e e0cb 24be 2b5f 53be acf8 0fbf
00000340: 5bbd b83e 5032 853e 3585 193f d8db 9a3d
00000350: 08bd f0be 7e73 e3be 1c7d 97bd 3ef4 d03e
00000360: e388 573e afb6 a33e 8f89 84be 396f ce3d
00000370: bb68 abbd 5784 36bf f783 db3c 82d4 ae3e
00000380: 0275 d3be e3a4 be3c 2987 9a3d 94b4 173e
00000390: 4355 af3d 5dda 02bf a666 1dbe 20f6 1c3d
000003a0: acb7 43bf 3b49 d03e cc02 753f a2b4 30be
000003b0: a149 68be dab6 ca3e d76b b2be 70e6 1b3e
000003c0: 2f71 903e d25b a8be 301a b33e cafc 03bf
000003d0: 7540 06bf 30e1 693e 223b 4fbf cd29 853e
000003e0: aec7 df3e 9eaa 7cbe 05a9 4cbe 3e21 27bf
000003f0: 660b 053e 470e 0d3d abd9 183e d184 fcbe

out.bias f4 [4]
0.02174245 0.04844695 -0.05992078 0.030530551
00000000: 391d b23c 4f70 463d 7e6f 75bd 351b fa3c
