models/checkpoint_critic_1_min_3.pth (torch, 87959 bytes, 5 tensors)

hidden1.weight f4 [128, 37]
0	0xbf002424	-0.50055146
1	0xbe9a5668	-0.30144048
2	0x3f2772a6	0.65409315
3	0xbf72cb6d	-0.94841653
4	0xbfaf6a03	-1.3704227
5	0x3f8335ea	1.0250828
6	0xbf717533	-0.94319457
7	0x3e7d651e	0.24745604
8	0xbe5635de	-0.20918986
9	0x3ebb9dce	0.36643833
10	0xbefa6518	-0.48905253
11	0x3d0b1658	0.033956856
12	0x3e4dc7c7	0.2009574
13	0xbee54bd8	-0.44784427
14	0x3d90afa4	0.07064751
15	0xbf3d9f66	-0.7407135
16	0x3f0d5c0d	0.55218583
17	0xbdb25e6a	-0.08709414
18	0xbe6ad8d8	-0.22934282
19	0x3e9a3e2d	0.3012556
20	0xbccf885d	-0.025333578
21	0xbdf137a6	-0.11778192
22	0x3dcf0901	0.10109139
23	0xbf05524c	-0.520787
24	0xbdd99f0c	-0.10626039
25	0xbecc3413	-0.3988348
26	0x3e8e3ebd	0.2778224
27	0x3f893db4	1.0721955
28	0x3f47781e	0.7791766
29	0xbc75c850	-0.0150013715
30	0xbf92a6c1	-1.1457139
31	0xbd98f1b7	-0.074679784
32	0x4047ad1c	3.1199408
33	0x3ea47c79	0.32126215
34	0xbf4b02ef	-0.7930135
35	0xbeda90f5	-0.42688718
36	0xbf4c95cc	-0.7991607
37	0x3f658649	0.8965803
38	0x3f089421	0.53351027
39	0x3f78dae1	0.9720898
40	0xbfe89a85	-1.8172156
41	0xbf8e58ca	-1.1120846
42	0x3e080578	0.13283336
43	0xbf306cca	-0.68916
44	0xbe9dbf03	-0.30809793
45	0xbeb64d3d	-0.35605803
46	0x3ddd9f7a	0.10821433
47	0x3cb7cb9a	0.022435952
48	0x3d95eed0	0.073209405
49	0xbdbc25cd	-0.091868974
50	0xbf68c714	-0.9092877
51	0xbf0a7c4d	-0.5409592
52	0xbf072885	-0.527962
53	0xbf27380b	-0.6531989
54	0xbfacd713	-1.3503135
55	0xbe6d6234	-0.23181993
56	0x3e87ced6	0.2652499
57	0xbe65688b	-0.22403161
58	0xbe3e55d5	-0.1858743
59	0xbe0fdaa7	-0.14048253
60	0x3e05ce26	0.1306692
61	0xbd6bf09b	-0.057602506
62	0x3d036d5d	0.03208672
63	0x3f39fe3b	0.7265355
64	0x3ece377d	0.4027671
65	0xbea7aa04	-0.327469
66	0x3e2375db	0.15962927
67	0xbe9189fe	-0.28425592
68	0x3d68f798	0.05687675
69	0xc0064ebe	-2.098556
70	0xbdec2132	-0.11529769
71	0x3e247ce9	0.16063274
72	0xbeea59a5	-0.45771518
73	0x3e7d23d1	0.24720694
74	0x3f9a51b6	1.2056186
75	0x3eb714b6	0.3575799
76	0xbe8cf8e8	-0.2753365
77	0xbef92ae2	-0.4866553
78	0x3f7c5697	0.98569626
79	0xbedcc827	-0.43121454
80	0xbf794e09	-0.973847
81	0xbe3d0746	-0.18459806
82	0x3f7e275f	0.99278826
83	0x3dbd5ded	0.092464305
84	0x3f0c2243	0.5473978
85	0x3e9d775e	0.30755132
86	0x3c87d2db	0.016580036
87	0xbec84685	-0.39116302
88	0xbeb1d312	-0.34731346
89	0x3ee035e3	0.43791112
90	0xbd60a80d	-0.054847766
91	0xbe094023	-0.13403372
92	0x3e5fcd79	0.21855725
93	0xbe417abb	-0.18894474
94	0x3e14a1eb	0.14514892
95	0x3e14f537	0.14546667
96	0x3f47aa72	0.77994454
97	0xbdc1b2e8	-0.09457952
98	0xbe173455	-0.14766057
99	0x3ec3ea5a	0.38264734
100	0xbef6409e	-0.48096174
101	0x3f479c44	0.7797282
102	0xbf0b062d	-0.543063
103	0xbd4b967c	-0.04970406
104	0xbf32694b	-0.69691914
105	0x3d87023e	0.065922245
106	0x3f5942bf	0.8486747
107	0xbe896325	-0.26833454
108	0x3f0efaa7	0.55851215
109	0x3d001dfe	0.031278603
110	0x3fe4e7a5	1.7883192
111	0x3ea916e2	0.3302527
112	0xc00c6ac2	-2.194016
113	0x3ed94738	0.42437148
114	0xbe1aa8d2	-0.15103462
115	0xbf175aff	-0.59123224
116	0xbf28a3d6	-0.65874994
117	0xbf351db6	-0.7074846
118	0x3e9f1463	0.3107024
119	0x3f3b7cc3	0.73237246
120	0xbd92df72	-0.07171525
121	0x3e8fe9a3	0.28107938
122	0xbe82512d	-0.25452557
123	0x3ee94a64	0.45564568
124	0x3de76111	0.11297811
125	0x3fe88431	1.8165342
126	0xbe9d9042	-0.30774122
127	0x3f502415	0.81305057
128	0xbee4cf81	-0.44689563
129	0x3f5a9f77	0.85399574
130	0x3f08604e	0.5327195
131	0x3d1c2106	0.03811743
132	0xbd4ff8ce	-0.050774388
133	0x3d607ba2	0.054805405
134	0xbe3abc1b	-0.18235819
135	0x3ea86c01	0.328949
136	0x3c386677	0.011254898
137	0xbe41e55f	-0.18935154
138	0x3e0712e9	0.13190807
139	0x3e8f1322	0.27944285
140	0xbdb39606	-0.08768849
141	0xbeb868b4	-0.36017382
142	0xbd3f95ce	-0.046773724
143	0xbfb5c6a1	-1.4201242
144	0x3e4a59d3	0.19760828
145	0x3d9541e2	0.07287957
146	0xbe8751cd	-0.26429597
147	0x3d314d9b	0.0432869
148	0xbe8073b0	-0.25088263
149	0x3eb1b7a5	0.34710422
150	0x3d27694f	0.040871914
151	0xbf65bd3a	-0.8974186
152	0xbf0b7164	-0.54469895
153	0x3d8d0a60	0.068867445
154	0x3e338c51	0.17533995
155	0xbef15f27	-0.47142908
156	0xbe298ed2	-0.16558388
157	0xbd5437e5	-0.051811118
158	0xbd8fa1be	-0.07013272
159	0xbe057928	-0.13034499
160	0x3d37fc43	0.04491831
161	0x3f473008	0.77807665
162	0xbea57cf7	-0.32321903
163	0x3ebb9372	0.3663593
164	0x3e622952	0.22086075
165	0xbe9856c8	-0.2975371
166	0x3e9387b5	0.28814474
167	0x3f81271c	1.009006
168	0xbe823733	-0.2543274
169	0x3e1c7075	0.15277274
170	0xbde13b50	-0.10997641
171	0x3f3495fd	0.70541364
172	0x3c1b7bab	0.009489934
173	0x3ea19365	0.31557766
174	0xbdadd515	-0.08487908
175	0x3f5601f2	0.8359672
176	0xbefd4fd1	-0.49474958
177	0x3e227f25	0.15868814
178	0xbf42defd	-0.76121503
179	0xbd5bb4e6	-0.053639315
180	0x408103c0	4.031708
181	0xbe87a130	-0.26490164
182	0x3e767b59	0.24070491
183	0xbe815db2	-0.25266796
184	0xbf13a79d	-0.5767763
185	0x3e9a47cf	0.3013291
186	0x3fcff16d	1.6245552
187	0xbf1068f0	-0.5641012
188	0x3dc25847	0.09489494
189	0x3ee684bf	0.45023152
190	0x3f50ba75	0.8153451
191	0x3f03b6cb	0.51450795
192	0xbf018d11	-0.50605875
193	0x3eaeecd9	0.34165075
194	0x3eaed1c2	0.34144408
195	0xbe85cb4d	-0.2613167
196	0x3f1c6916	0.6109785
197	0x3e598880	0.21243477
198	0xbe9bf425	-0.30459705
199	0x3ea34413	0.31887874
200	0x3e677785	0.22604187
201	0x3e900a4a	0.2813285
202	0x3e8f9618	0.280442
203	0x3ee8ddfc	0.4548186
204	0x3df34df1	0.118801005
205	0x3e5b03dc	0.21388191
206	0x3f19cc7e	0.60077655
207	0x3f2f34fd	0.6844023
208	0xbe06b035	-0.13153155
209	0x3eb50380	0.35354233
210	0x3ec96fc9	0.39343098
211	0xbd9552aa	-0.072911575
212	0x3f700b5f	0.9376735
213	0xbd8ae968	-0.067828
214	0x3e180bdf	0.14848278
215	0xbf8fbe80	-1.1230011
216	0x3cf1f210	0.02953437
217	0xbfc6cc58	-1.5531111
218	0xbf4e5de0	-0.8061199
219	0xbf715f47	-0.94286007
220	0xbe52b057	-0.20575081
221	0xbe878d1a	-0.2647484
222	0xbfa79034	-1.3090882
223	0x3eb0d772	0.34539372
224	0xbf34109f	-0.7033786
225	0xbe698381	-0.22804071
226	0xbfc56b40	-1.5423355
227	0xbfca8f83	-1.5825046
228	0xbf57983a	-0.84216654
229	0x3cf899da	0.0303468
230	0x3ec59564	0.38590539
231	0xbd665645	-0.056234617
232	0xbf02a6cf	-0.5103578
233	0x3efaf06e	0.49011558
234	0xbcf1ca60	-0.029515445
235	0x3e4dfeb2	0.2011669
236	0xbe4861b0	-0.19568515
237	0x3ea345da	0.3188923
238	0xbe1b544c	-0.15168875
239	0xbed7dce4	-0.42160714
240	0x3f0be1e3	0.5464155
241	0x3f44f532	0.7693664
242	0x3e8f424e	0.27980274
243	0x3d594fd6	0.053054653
244	0x3c709631	0.014684246
245	0xbde8b75e	-0.113630995
246	0x3d658df5	0.056043584
247	0x3ec7a3f2	0.38992268
248	0x3ec65a88	0.38740945
249	0x3f3a9590	0.72884464
250	0x3e9685b1	0.29398873
251	0x3cec2d10	0.028830081
252	0xbf430f53	-0.7619526
253	0x3e027919	0.12741508
254	0x40011ca5	2.0173733
255	0xbeab43b2	-0.33450085

hidden1.bias f4 [128]
0	0xbf754657	-0.95810455
1	0xbe5b8cf0	-0.21440482
2	0xbf54a3c2	-0.83062375
3	0xbebfa40d	-0.37429848
4	0xbf35d42b	-0.7102687
5	0xbf7ccef1	-0.9875327
6	0xbf1f21b7	-0.6216082
7	0xbeab87d5	-0.3350207
8	0xbf33705b	-0.70093316
9	0xbd84071d	-0.06446669
10	0xbfa892d3	-1.3169807
11	0xbf412cb9	-0.75458866
12	0xbecee531	-0.40409234
13	0xbf962573	-1.1730179
14	0xbf633193	-0.8874752
15	0xbfaa80ad	-1.3320519
16	0xbf99690f	-1.1985186
17	0xbeba6d72	-0.36411625
18	0x3e08a6d0	0.13344884
19	0xbe8358d2	-0.25653702
20	0xbf0e197a	-0.55507624
21	0xbf3df4d2	-0.7420169
22	0xbfb8822d	-1.4414726
23	0xbf900f6e	-1.1254709
24	0xbef75a62	-0.48311144
25	0x3d9113f7	0.07083886
26	0xbff23e7c	-1.8925319
27	0xbf7ae5da	-0.98006976
28	0xbf83e20d	-1.030336
29	0xbebec500	-0.37259674
30	0xbf7b097b	-0.9806134
31	0x3d8cec93	0.068810605
32	0xbf0dc720	-0.55381966
33	0xbf6e803b	-0.93164414
34	0xbf42f56e	-0.76155746
35	0xbff407c6	-1.9064872
36	0xbfb18eba	-1.3871682
37	0xbf381266	-0.71903074
38	0xbeb19e0d	-0.34690896
39	0xbfc9adbd	-1.5756146
40	0xbefc8e86	-0.49327487
41	0x3cfac95c	0.030613594
42	0xbe0d9178	-0.13825023
43	0xbf981a5f	-1.1883048
44	0xbf856fde	-1.0424764
45	0xbf945229	-1.1587573
46	0xbe088267	-0.13330995
47	0xbf9cece7	-1.2259797
48	0xbfa794a9	-1.3092242
49	0xbf8596ee	-1.0436685
50	0xbf575a13	-0.8412182
51	0xbecc917d	-0.3995475
52	0xbf20599c	-0.62636733
53	0xc00e8499	-2.226843
54	0xbeaf2739	-0.34209612
55	0xbfb3f161	-1.4058038
56	0x3ec7e8ea	0.39044887
57	0xbd461442	-0.048359163
58	0xbf8c2f2c	-1.0951896
59	0x3e50a61a	0.20375863
60	0xbf7547b5	-0.9581254
61	0xbdef060d	-0.11671076
62	0xbe3c145a	-0.18367139
63	0xbf492bfd	-0.78582746
64	0xbf252849	-0.64514595
65	0xbf762e75	-0.9616464
66	0xbf8db98d	-1.1072251
67	0xbf40eea4	-0.75364137
68	0xbf597e61	-0.84958464
69	0xbf85bd4c	-1.0448394
70	0xbf30df81	-0.6909104
71	0xbf4ae11d	-0.79249746
72	0x3e9671c6	0.29383677
73	0xbf17614d	-0.59132844
74	0x3e550699	0.20803298
75	0x3e17d2a0	0.14826441
76	0xbf79fa77	-0.97647804
77	0xbfca5c25	-1.580937
78	0xbf8e8b46	-1.1136253
79	0xbfa6d501	-1.3033754
80	0xbdccee03	-0.10006335
81	0xbfc7446e	-1.5567758
82	0xbfa6cfea	-1.30322
83	0xbf8b4ced	-1.0882851
84	0x3c3d357f	0.011548399
85	0xbf1d51b6	-0.61452806
86	0xbfd72f2b	-1.681127
87	0xbee787f1	-0.45220903
88	0xbfaeb7da	-1.3649857
89	0x3eb3c86e	0.35113853
90	0xbf757ad6	-0.9589056
91	0xbd7e7fcb	-0.06213359
92	0xbfa30008	-1.2734385
93	0xbf39591e	-0.7240161
94	0xbf3fc68c	-0.74912333
95	0xbeaeeffc	-0.3416747
96	0xbf95fb47	-1.1717309
97	0xbf5d8c4d	-0.86542207
98	0xbf2c39bd	-0.672756
99	0x3e1f7ed1	0.1557572
100	0xbfe84397	-1.8145627
101	0x3e80d756	0.25164288
102	0xbf5d306a	-0.86402
103	0xbf99e415	-1.202273
104	0xbf6a7d3e	-0.91597354
105	0xbf4a49ea	-0.79019034
106	0xbf640982	-0.8907701
107	0xbe9ab250	-0.30214167
108	0xbf91d7dc	-1.1394
109	0xbecd10f8	-0.4005201
110	0xbf34fa7b	-0.706947
111	0xbe03d488	-0.12874043
112	0x3f01352c	0.5047176
113	0xbfb51066	-1.414563
114	0xbf35a25a	-0.70950854
115	0xbef96fee	-0.48718208
116	0xbebb10d0	-0.36536264
117	0xbf8fe258	-1.124095
118	0xbf673205	-0.903107
119	0xbf685405	-0.90753204
120	0xbe762c64	-0.24040371
121	0x3e7f8e07	0.24956523
122	0xbea39742	-0.31951338
123	0xbd9c759d	-0.076396205
124	0x3db54431	0.08850897
125	0xbf481198	-0.78151846
126	0xbf5594fb	-0.8343045
127	0xbedb4f67	-0.42834017

hidden2.weight f4 [128, 128]
0	0x39b06215	0.00033642413
1	0x3d4a2358	0.049350113
2	0x3bd6d51f	0.0065561677
3	0xbe31757f	-0.17329977
4	0xbdc7b0e7	-0.09750538
5	0xbd5d5a2d	-0.054041076
6	0xbdeb44a9	-0.11487705
7	0xbd62ec85	-0.055401344
8	0xbd525219	-0.051347826
9	0xb9670d9c	-0.00022034947
10	0xbda81345	-0.082068
11	0xbc9de847	-0.019275798
12	0x3c3138ee	0.010816796
13	0xbe1e1521	-0.15437748
14	0xbccd5346	-0.025064122
15	0x3d91f119	0.07126064
16	0xbdf3f2a4	-0.119115144
17	0x3d8f3926	0.06993322
18	0xbc9c59d2	-0.019085798
19	0xbe23b9d7	-0.15988861
20	0xbd445fd5	-0.047942955
21	0xbda68c97	-0.08132284
22	0xbd948af3	-0.07253065
23	0xbd99fe12	-0.07519163
24	0xbce4f0d8	-0.027946874
25	0xbd8d92d0	-0.06912768
26	0xbdcd1343	-0.100134395
27	0x3c35b09c	0.01108947
28	0x3d7a7d55	0.061154682
29	0xbd2c424e	-0.04205542
30	0x3d8f7780	0.07005215
31	0xbe24d83d	-0.16098113
32	0xbd10d2b8	-0.035357207
33	0xbd34106a	-0.043960966
34	0xbdc05a80	-0.093922615
35	0xbdeeefa4	-0.116668016
36	0x3d9ef39b	0.07761308
37	0x3c7a4650	0.015275553
38	0xbd7a6c59	-0.061138485
39	0x3da1ee44	0.07906774
40	0xbde264f1	-0.11054409
41	0x3a75a030	0.0009369878
42	0xbe1f794f	-0.1557362
43	0xbdc3ca47	-0.09560066
44	0xbddef4f6	-0.10886566
45	0xbcc3242c	-0.023820959
46	0xbdabca6e	-0.0838822
47	0xbe4655b6	-0.19368634
48	0xbce0bd35	-0.027433971
49	0xbe16ac0f	-0.14714073
50	0xbe4bfb39	-0.19920053
51	0xbe2edfe7	-0.170776
52	0xbdb00794	-0.085951954
53	0x3cd9b4df	0.026575504
54	0xbda7d349	-0.08194596
55	0xbca13b25	-0.019681523
56	0xbe3244d7	-0.17409073
57	0xbe1615bb	-0.14656727
58	0xbe2762bd	-0.1634626
59	0xbd9929a6	-0.07478647
60	0x3d98d442	0.0746236
61	0xbd936c2a	-0.07198365
62	0xbdd429d4	-0.103595406
63	0xbd8ae491	-0.06781877
64	0xbe09286d	-0.13394327
65	0xbdbb6143	-0.091494106
66	0xbdddef8c	-0.108367056
67	0xbe450100	-0.19238663
68	0xbdae3116	-0.08505456
69	0xbe173e66	-0.14769897
70	0xbda12400	-0.078681946
71	0xbca75c2a	-0.02042969
72	0xbe344cc8	-0.17607415
73	0xbdd0670a	-0.10175903
74	0xbd3e20da	-0.04641805
75	0x3d1622e1	0.036654357
76	0x3c1ca537	0.009560875
77	0xbd5731a2	-0.052537568
78	0xbc2176eb	-0.009855012
79	0xbda4fee8	-0.08056432
80	0xbdf52783	-0.11970427
81	0xbd06cac4	-0.032908216
82	0xbd32bbe1	-0.043636207
83	0xbcfc5f8e	-0.030807283
84	0xbd85dc9c	-0.065362185
85	0xbaf5380b	-0.0018708719
86	0xbe376fe6	-0.1791378
87	0xbda9536f	-0.08267867
88	0xbdd57a87	-0.10423761
89	0xbd09d623	-0.033651482
90	0xbe1fbc1f	-0.15599106
91	0xbd27516b	-0.04084913
92	0xbddf8ede	-0.10915922
93	0xbd8ddc5d	-0.069267966
94	0xbe0b3d70	-0.13597655
95	0xbe3a0de4	-0.18169361
96	0x3c8ffc91	0.017576488
97	0xbe3cc162	-0.18433145
98	0xbc08c374	-0.008347381
99	0x3cdd47dd	0.027011806
100	0xbd91053d	-0.07081077
101	0x3cd5e291	0.026109012
102	0x3c9ac776	0.018893939
103	0xbdfd5f7f	-0.1237173
104	0xbdaa3f01	-0.08312798
105	0x3d0be765	0.034156222
106	0xbdcccf36	-0.1000046
107	0xbddc733a	-0.10764165
108	0xbd80dd57	-0.06292217
109	0xbe0101b6	-0.12598309
110	0xbe15f872	-0.14645556
111	0xbe3a265a	-0.18178692
112	0xbbab2d8d	-0.005223936
113	0xbe609f8d	-0.21935864
114	0xbe3dfd81	-0.18553735
115	0xbdb4ecbd	-0.08834217
116	0x3bb8516e	0.0056249416
117	0x3c707b6d	0.0146778645
118	0xbdf65951	-0.120287545
119	0xbe3035b3	-0.17207985
120	0xbcc4a627	-0.024005009
121	0xbe0bfb12	-0.13669994
122	0xbcce6a0a	-0.025197048
123	0xbdfb0c3a	-0.122581914
124	0x3ca78187	0.020447506
125	0xbd840671	-0.06446541
126	0x3d0ba2e8	0.034090906
127	0xbd706801	-0.058692936
128	0x3f0d160b	0.5511176
129	0xbea6adfa	-0.3255461
130	0x3bf92faa	0.007604559
131	0x3e98e9ac	0.29865777
132	0xbea28cc7	-0.3174803
133	0xbf3c60c7	-0.7358517
134	0xbe3f0a0c	-0.18656176
135	0x3e3bb557	0.18330894
136	0xbdee6e22	-0.116421
137	0x3e8f89c1	0.28034785
138	0xbf325be1	-0.69671446
139	0xbe63db16	-0.22251543
140	0xbea791ba	-0.32728368
141	0xbda94084	-0.082642585
142	0x3d670815	0.056404192
143	0x3de4e3c1	0.11176253
144	0xbeb0822e	-0.3447432
145	0xbec7d720	-0.39031315
146	0x3cf89a99	0.030347155
147	0xbe4bacf5	-0.19890197
148	0xbd343236	-0.043993197
149	0xbe8c1c52	-0.27365357
150	0xbf1b743e	-0.60724247
151	0x3edcd727	0.43132898
152	0xbedf1c43	-0.4357625
153	0x3ea39734	0.31951296
154	0x3eb2ba98	0.34907985
155	0xbf0cf72e	-0.55064666
156	0x3e6ef923	0.23337226
157	0xbe96aa6e	-0.29426903
158	0x3ec48c87	0.38388464
159	0x3d60704b	0.05479459
160	0x3e1ba6d2	0.15200356
161	0xbfac324e	-1.3452852
162	0x3c107036	0.008815816
163	0x3e871dc8	0.2638991
164	0x3f4e2e43	0.8053934
165	0xbe82ab35	-0.25521246
166	0xbe12e8a9	-0.14346565
167	0xbf431bc0	-0.7621422
168	0xbea67e13	-0.32518062
169	0xbe339790	-0.17538285
170	0xbf228175	-0.63478786
171	0xbdf2bcb7	-0.11852401
172	0x3f16d869	0.58923966
173	0xbedd61f2	-0.4323879
174	0xbcf24752	-0.029575024
175	0x3e0158b2	0.12631491
176	0xbe796cc4	-0.24357897
177	0xbf5f69ad	-0.87270623
178	0xbea6d522	-0.32584482
179	0xbf3baab0	-0.73307323
180	0x3eac169a	0.33610994
181	0xbf795ded	-0.97408944
182	0x3e345ca2	0.17613462
183	0xbee5ecf3	-0.4490734
184	0x3e6f66a5	0.23379
185	0x3f06bb40	0.5262947
186	0x3ecc79df	0.3993673
187	0xbf843562	-1.0328791
188	0xbd584855	-0.052803356
189	0x3e443664	0.19161373
190	0x3e9580f9	0.2919996
191	0x3e0e85ba	0.139182
192	0xbf546fda	-0.8298317
193	0x3f69392d	0.9110287
194	0x3f2cd574	0.67513204
195	0x3f56274f	0.8365373
196	0x3e0d0dd6	0.13774809
197	0xbe7c5fd1	-0.24645926
198	0xbee4a684	-0.4465829
199	0xbe6a252d	-0.22865744
200	0x3eaa7714	0.33293974
201	0x3f4ba28b	0.79544896
202	0xbf012b61	-0.50456816
203	0x3f195f71	0.5991126
204	0xbe575807	-0.21029674
205	0x3dbe25e8	0.09284574
206	0xbd97bae6	-0.07408695
207	0x3e3aace6	0.18230018
208	0x3f02774d	0.5096329
209	0xbd348abe	-0.044077627
210	0x3d3af130	0.04564017
211	0x3e07e2f1	0.13270165
212	0x3ec236a4	0.37932312
213	0xbf2bc425	-0.6709617
214	0xbf0b0a9f	-0.5431308
215	0xbf1a5359	-0.6028343
216	0x3e1ef8a9	0.15524544
217	0x3eb749e1	0.35798553
218	0xbe72e306	-0.23719415
219	0xbf725ba2	-0.9467107
220	0xbf7e6659	-0.9937492
221	0xbe74affb	-0.23895256
222	0xbe874550	-0.2642007
223	0xbeccb179	-0.3997915
224	0xbfaecb87	-1.3655862
225	0x3ef9cec6	0.48790568
226	0x3d9bfd44	0.07616666
227	0xbf21aa8d	-0.63150865
228	0xbee7f2a8	-0.4530232
229	0xbdccb206	-0.09994893
230	0x3f120a2f	0.5704679
231	0x3d8b56fb	0.068036996
232	0xbf24cbe7	-0.6437363
233	0x3eae0cd5	0.33994165
234	0xbdb56203	-0.08856585
235	0xbfaf156e	-1.3678415
236	0x3e596dcc	0.2123329
237	0x3f2f0637	0.6836886
238	0x3f199fab	0.6000926
239	0xbf3310f0	-0.6994772
240	0xbf22d750	-0.6360979
241	0x3effa0fd	0.49927512
242	0x3ea05a84	0.31319058
243	0xbf32fcce	-0.69917
244	0xc00db880	-2.214386
245	0xbecf6c5a	-0.40512353
246	0xbf171420	-0.59015083
247	0xbf877f47	-1.0585717
248	0x3e3a2d03	0.18181233
249	0xbe89a10f	-0.2688069
250	0xbe7c240e	-0.24623129
251	0x3ef73115	0.48279634
252	0xbe0f4c5e	-0.13993976
253	0x3f42f531	0.7615538
254	0x3e25b6e9	0.16183056
255	0xbeeb083f	-0.4590473

hidden2.bias f4 [128]
0	0xbe06b5a6	-0.13155231
1	0x3f114872	0.5675117
2	0xbe049a49	-0.1294948
3	0x3ef37e5b	0.4755734
4	0xbdaad7a1	-0.08341909
5	0xbe24194a	-0.16025272
6	0xbd10d280	-0.035357
7	0xbd9374ff	-0.072000496
8	0xbd44fca8	-0.048092514
9	0xbdab01cd	-0.08349953
10	0xbd276011	-0.0408631
11	0xbd6e0e7a	-0.058119275
12	0xbe9b3758	-0.3031566
13	0xbdcd7d62	-0.100336805
14	0xbc92811d	-0.017883832
15	0xbe0fc4ac	-0.14039868
16	0x3fa3a5cb	1.2784971
17	0xbdb340ed	-0.08752618
18	0xbddc21bb	-0.10748621
19	0xbdeec449	-0.11658532
20	0xbe005864	-0.12533718
21	0xbdb69190	-0.089144826
22	0xbe152c65	-0.14567716
23	0xbdf0371a	-0.1172926
24	0x3bcca3c0	0.0062451065
25	0xbe492485	-0.19642837
26	0xbd4df2ed	-0.0502805
27	0xbc8fa334	-0.017533876
28	0xbc9c1b18	-0.019055888
29	0xbd5d387f	-0.054008957
30	0xbb119473	-0.0022213727
31	0xbe00affd	-0.12567134
32	0xbc582b64	-0.013193939
33	0xbd814d4a	-0.0631357
34	0xbd9501bb	-0.07275721
35	0xbe18936e	-0.1489999
36	0x3d4d37c6	0.050102018
37	0xbb856d1b	-0.0040718443
38	0x3f04192c	0.5160091
39	0xbd6b730c	-0.057482764
40	0x3fee79f3	1.8630966
41	0xbf8da458	-1.1065779
42	0xbda48fe4	-0.080352575
43	0xbe1a399b	-0.15061037
44	0xbe08490e	-0.13309118
45	0xbe0cde20	-0.13756609
46	0xbe042741	-0.12905599
47	0xbc7e174d	-0.015508485
48	0xbdf8457f	-0.1212263
49	0xbe18626c	-0.14881295
50	0x3d262413	0.040561747
51	0xbd7c27df	-0.06156146
52	0x3d070551	0.032964054
53	0xbd8368e6	-0.06416492
54	0xbd863570	-0.06553161
55	0xbf2c16ec	-0.67222476
56	0x3f423815	0.75866824
57	0x3f852d48	1.0404444
58	0xbc78c6e4	-0.015184138
59	0xbdccc667	-0.0999878
60	0xbd85173e	-0.06498574
61	0xbd8e4721	-0.069471605
62	0xbdabd670	-0.0839051
63	0xbdc10e70	-0.09426582
64	0xbd89588b	-0.06706341
65	0x3eb9dbcf	0.36300513
66	0xbd9fba44	-0.07799199
67	0xbd9fc294	-0.07800785
68	0xbe0ad1a4	-0.13556534
69	0xbdf56ac0	-0.119832516
70	0xbe0b8833	-0.13626175
71	0xbc183b72	-0.009291517
72	0x3c14b2f3	0.009075868
73	0xbd6c48ec	-0.05768673
74	0xbd4d6c4f	-0.05015212
75	0xbc999fc9	-0.01875295
76	0xbdb070dd	-0.08615277
77	0x3c93ca4f	0.018040804
78	0xbd1cad9e	-0.03825151
79	0xbd486156	-0.04892095
80	0x3de13e14	0.109981686
81	0x3fc593e2	1.5435755
82	0xbda802ca	-0.08203657
83	0xbcce4e60	-0.025183856
84	0xbdd42f7d	-0.1036062
85	0x3ba2b381	0.004965246
86	0xbd9ace55	-0.07558886
87	0x3eea23f7	0.45730564
88	0xbe2dbc4e	-0.16966364
89	0xbdf9b7e9	-0.12193281
90	0xbd0d8ea2	-0.034559853
91	0xbc9cbbb3	-0.01913247
92	0xbf550f39	-0.8322635
93	0xbcd98741	-0.026553752
94	0xbdff858b	-0.12476643
95	0xbce49b0e	-0.027905967
96	0xbcab80d5	-0.020935455
97	0xbe25a55d	-0.16176362
98	0x3ff1a54d	1.8878571
99	0xbd5bf7e3	-0.0537032
100	0x3d019c56	0.031643234
101	0xbda6cf77	-0.081450395
102	0xbdde6b1d	-0.10860274
103	0xbefe67a5	-0.4968845
104	0xbf2c2ee4	-0.6725905
105	0xbdf278f1	-0.11839474
106	0xbe2b12a8	-0.16706336
107	0xbdc3aac0	-0.09554052
108	0xbe5c52ec	-0.21516007
109	0xbce2f652	-0.027705345
110	0xbdb01284	-0.085972816
111	0xbe0319c5	-0.12802799
112	0xbe14e785	-0.14541443
113	0x3c7aaedd	0.01530048
114	0x3e67f979	0.2265376
115	0xbbdb89e1	-0.006699786
116	0xbd2474a3	-0.040150296
117	0xbddfb4d6	-0.109231636
118	0x3f876aca	1.0579464
119	0x3e9591f0	0.29212904
120	0xbdbe978d	-0.0930625
121	0x3f81e7b6	1.0148838
122	0xbd5d3e74	-0.054014638
123	0x3c646dfc	0.013942238
124	0xbe56be1a	-0.20970955
125	0xbe40aff1	-0.18817116
126	0xbb84963a	-0.0040462287
127	0xbcf73b1c	-0.030179553

out.weight f4 [1, 128]
0	0xbcc4a83a	-0.024005998
1	0xbd774379	-0.06036708
2	0xbbb6e0e2	-0.0055810073
3	0xbd6987ca	-0.057014264
4	0xbcd24cfb	-0.025671473
5	0xbc70a599	-0.014687919
6	0xbcfb3acf	-0.03066769
7	0x3ad9aa36	0.0016606513
8	0x3c933e35	0.017973999
9	0xbc88fd72	-0.016722415
10	0x3c5a0f72	0.0133093465
11	0x3cba3d25	0.022734234
12	0x3d3f6632	0.04672832
13	0x3d605ca5	0.054775853
14	0x3b22e97c	0.0024858406
15	0xbc2204b3	-0.009888816
16	0x3d65401c	0.055969343
17	0xbd672e0d	-0.0564404
18	0xbcb5bf15	-0.022185842
19	0xbcd0221b	-0.025406888
20	0x3c182351	0.009285764
21	0x3c08eb44	0.008356873
22	0xbc0065b7	-0.007836751
23	0xbc358f0d	-0.011081469
24	0xbc878f9b	-0.016547969
25	0xbc64f26e	-0.013973815
26	0xbba5a5ba	-0.0050551565
27	0xbc7548a3	-0.014970931
28	0x3cf5961a	0.0299788
29	0x3bec00c8	0.0072022416
30	0xbcd7d16c	-0.026344977
31	0xbcdd1a63	-0.026990121
32	0xbbd02215	-0.006351719
33	0x3c170c7a	0.009219283
34	0xbcbfa16a	-0.023392398
35	0xbcfd845a	-0.0309469
36	0xbba38a00	-0.004990816
37	0xbce07f65	-0.027404496
38	0xbcc34ee3	-0.023841327
39	0xbcafd12c	-0.021462046
40	0x3d77a05f	0.060455676
41	0xbdaaf115	-0.08346764
42	0x3be487c6	0.0069741933
43	0xbc53b9e2	-0.012922736
44	0xbcb99f83	-0.022659069
45	0xbc0b536e	-0.008503778
46	0xbccedf26	-0.02525289
47	0xbcd1b1ff	-0.02559757
48	0x3bbe83e5	0.005814063
49	0x3be2995d	0.006915255
50	0x3ce15f46	0.02751125
51	0x3b889caa	0.0041690664
52	0xbca737fe	-0.020412441
53	0xbc90fb88	-0.017698064
54	0xbaff9d50	-0.0019501839
55	0x3cec820c	0.028870605
56	0xbd1bf51f	-0.038075563
57	0xbd65d15a	-0.056107856
58	0xbcc45f8e	-0.023971345
59	0x3b5804fb	0.0032961953
60	0xbccda3cf	-0.025102524
61	0xbb993c9d	-0.004676415
62	0x3cf99f67	0.030471517
63	0x3bb9e186	0.0056726364
64	0xbc1cf83e	-0.00958067
65	0xbc0b8026	-0.00851444
66	0xbbcbf8e6	-0.0062247394
67	0x3b34d1a1	0.002759077
68	0x3bfdf6fa	0.007750389
69	0xbce63937	-0.028103454
70	0xbcab91fd	-0.020943636
71	0x3cbf5894	0.023357667
72	0x3bc4b272	0.0060027177
73	0x3d3ed98b	0.046594184
74	0x3ad62b1f	0.0016339755
75	0xbc129538	-0.008946709
76	0xbc6c892b	-0.014437
77	0x3ca9799f	0.020687876
78	0x3cdb5787	0.026775135
79	0x3c2dbb89	0.010603794
80	0xb9402770	-0.00018325238
81	0xbceb6ce5	-0.028738448
82	0x3bb00a1f	0.0053723003
83	0xbc87268b	-0.01649787
84	0xbca488b7	-0.020084722
85	0xbcf148cd	-0.02945366
86	0xba5dbd6f	-0.0008458709
87	0x3d36edf5	0.044660527
88	0xbcc6c8d3	-0.024265682
89	0xbae93264	-0.0017791507
90	0x3b762253	0.003755708
91	0xbca9d78d	-0.020732665
92	0x3d273122	0.04081834
93	0xbcfc295b	-0.030781439
94	0xbcc63210	-0.024193794
95	0xbc8980c1	-0.016785027
96	0xbbb72259	-0.0055888114
97	0x3cd28962	0.025700275
98	0xbcf6a639	-0.030108558
99	0x3ceaefb0	0.028678745
100	0xbd112246	-0.035433076
101	0x3c850279	0.01623653
102	0x3c9b74a2	0.018976513
103	0x3be3476c	0.0069360044
104	0x3cc06463	0.023485368
105	0xbcd7ff60	-0.02636689
106	0xbce16326	-0.027513098
107	0x3ccdfa98	0.025143906
108	0x3d8c1d62	0.06841542
109	0xbd228cbb	-0.039684992
110	0xbcd1e756	-0.025623005
111	0x3bae49a8	0.005318839
112	0x3c32315a	0.010876024
113	0x3c69646d	0.014245135
114	0x3cdb3415	0.026758233
115	0xbc7ce40a	-0.015435228
116	0xbc706b84	-0.014674071
117	0xb919fa3c	-0.00014684437
118	0x3cdd361b	0.027003339
119	0xbb877dd2	-0.004134872
120	0xbcfa9239	-0.030587303
121	0xbcbd2638	-0.023089513
122	0xba25af5e	-0.0006320382
123	0xbcef3802	-0.029201511
124	0x3ca959da	0.020672727
125	0xbcc7a114	-0.0243688
126	0x3bea50a9	0.0071507287
127	0xbadbf4ff	-0.0016781389
