models/checkpoint_critic_3_mean_4.pth (torch, 87959 bytes, 5 tensors)

hidden1.weight f4 [128, 37]
000000 ef b4 0d be 50 27 59 3f 01 89 92 3e 41 9f 2d bf
       -0.13838552 0.8482561 0.2862015 -0.6782113
000010 61 18 b6 bc f9 3b 2f be c5 72 e2 bd a6 34 81 3d
       -0.022228422 -0.17112722 -0.11057047 0.0630887
000020 95 6a 85 3f 59 5d 34 3c 76 6b 22 bd 2d 25 b7 bc
       1.0423151 0.011008584 -0.039653264 -0.022356594
000030 d7 d5 d2 3d 40 78 8a 3e e6 16 c8 be a9 cd 94 be
       0.10294693 0.27044868 -0.3907997 -0.29063156
000040 bb 05 a2 be 75 9a b3 3e e1 71 20 bd 5d 30 60 bd
       -0.31644997 0.3507878 -0.039171103 -0.054733623
000050 57 2c 1f bd b5 e9 d9 3d b4 84 7c 3d 88 12 6d 3e
       -0.038860645 0.10640279 0.061649993 0.231516
000060 a8 31 bd bc d5 e1 2a be 36 26 b0 bd 63 2d 4b 3f
       -0.023094967 -0.1668771 -0.08601038 0.7936613
000070 54 a1 e7 3e 63 0a cd bd 94 f4 5c bf 30 f2 a0 bd
       0.4524027 -0.10011747 -0.86310697 -0.078586936
000080 b3 69 34 c0 dd 9d 34 3e 01 64 3e 3e 49 9f 9f be
       -2.8189514 0.17638345 0.18592836 -0.31176212
000090 c9 2f 05 3d b2 ea e0 be ad d5 a0 3d cb e0 34 3e
       0.032516275 -0.43929058 0.078532554 0.17663877
0000a0 43 14 8f 3e 59 2c 3a be a0 de 29 be bb b8 46 be
       0.27945146 -0.1818098 -0.16588831 -0.19406407
0000b0 99 28 53 be 07 1c 32 3e 91 87 58 3e 12 01 18 be
       -0.20620956 0.17393504 0.21145464 -0.14844158
0000c0 dd df 73 bd 03 02 4c be 43 76 ad 3d 4b 9b f8 3e
       -0.059539665 -0.19922642 0.08469822 0.4855598
0000d0 5b 98 a2 be f6 ce 13 be c8 ed 8d be b8 33 ab 3e
       -0.31756863 -0.14434418 -0.27720475 0.33437896
0000e0 39 7f 88 bf 5f 86 20 be c5 41 00 3d 87 14 f4 3e
       -1.0663825 -0.15676259 0.031312723 0.4767191
0000f0 bd e9 4d be 6a ea 4f 3e 8e 02 0d bd da c4 19 3e
       -0.20108695 0.20304266 -0.034426264 0.15016499
000100 3f 22 e9 3e 2b ca c0 3d 44 3c 1b be a5 4c a8 be
       0.4553394 0.094135605 -0.15159708 -0.32870975
000110 2e 68 8f 3d 2a e8 14 3f a3 11 28 bc e8 2f a5 be
       0.070022926 0.58166754 -0.010258111 -0.32263112
000120 59 54 96 be 0d 39 01 be db 3e 1b 3e e9 08 06 3e
       -0.29361227 -0.1261942 0.15160696 0.13089336
000130 a1 16 b5 3d 93 8e b5 be 4e d5 5e bd ce d6 b5 3e
       0.08842207 -0.35460338 -0.054402642 0.35515445
000140 2d e3 c2 bd aa 39 06 be f7 de 3d 3d a1 db 70 3c
       -0.095159866 -0.13107935 0.046355214 0.014700801
000150 e6 f1 ae bd 3b 73 2c be 73 a0 7e 3c 62 64 e5 bd
       -0.08542232 -0.16840832 0.015541184 -0.11200787
000160 3d 75 a8 bd 64 a0 3b bd 4b f3 02 3f c2 cb 49 3e
       -0.082254864 -0.045807257 0.51152486 0.19706634
000170 5e 00 5e be 30 a9 7e be 4d 8e 54 bc f1 9b 11 3c
       -0.21679828 -0.24869227 -0.01297338 0.008887277
000180 b2 70 82 bd cf 14 e3 bd 7f 1b 8b bd db bb ef 3c
       -0.06369151 -0.11087953 -0.06792354 0.029264381
000190 97 df 93 be d5 34 c3 3e 10 5c 2b be 16 35 86 bd
       -0.28881523 0.38126245 -0.16734338 -0.06553094
0001a0 ed ce 21 bf ec 87 48 bd 95 1f 91 40 df 1a ba 3c
       -0.6320637 -0.04895775 4.535105 0.022717891
0001b0 3a 56 94 be ee a0 4b bd 4c 55 0f 3e e5 5c 26 3f
       -0.28972036 -0.04971402 0.13997382 0.64985496
0001c0 68 93 d3 3e 65 ec b9 be 38 28 ab be 47 db b4 be
       0.413234 -0.36313167 -0.33429122 -0.35323545
0001d0 5c 91 d0 be 58 75 7c 3e e4 16 1d 3c d9 64 9c be
       -0.407359 0.24654138 0.009587977 -0.3054569
0001e0 bd 5c ce 3e 88 34 92 3e bb e8 72 3e c2 50 8b bd
       0.4030513 0.28555703 0.23721592 -0.06802513
0001f0 f9 0e 02 3e f8 79 33 3f 2c 2a 0a be 6f e1 16 3f
       0.12701024 0.70107985 -0.1349265 0.58937734
000200 20 e2 cd 3e 66 7b 40 3e df 04 95 3d 31 71 d1 3b
       0.40211582 0.18797073 0.0727632 0.0063916673
000210 bc d3 47 be d4 2b b3 3e 96 7e e3 bd 5e 14 ae 3e
       -0.19514364 0.34994376 -0.11108129 0.33999914
000220 c8 34 b0 bd 3f 9c 02 be 77 4b 48 3f 55 a6 ca bd
       -0.08603817 -0.12754916 0.7824015 -0.098950066
000230 c0 86 9e bc 80 55 55 bf 3a f5 c2 3d 20 4e 20 3f
       -0.019351363 -0.8333359 0.095194295 0.6261921
000240 3d f8 4d 3f 6a 87 f3 3e 73 07 50 3e 7c 33 5e 3f
       0.80456907 0.4756425 0.20315342 0.8679731
000250 1a b5 d6 bc db 73 8d 3f 80 5b 1c 3e 2d 75 ab be
       -0.026209403 1.1050981 0.1526928 -0.33487836
000260 d5 5f 15 bd d3 8c 30 bf bc 89 73 3e 18 e3 6b bd
       -0.036468346 -0.6896488 0.2378301 -0.05758962
000270 73 08 e0 be 90 b9 8c 3e fe cf 2e 3e 45 62 07 3e
       -0.43756446 0.27485323 0.1707153 0.1322108
000280 59 d7 6b 3e 22 48 2c 3e c7 44 25 bd ab a4 c2 be
       0.23031367 0.16824391 -0.040348794 -0.38016257
000290 a5 9a 0a 3f cd ec 70 be 17 df 84 be 08 a6 97 bd
       0.5414222 -0.23527832 -0.25951454 -0.07404715
0002a0 9b 35 b2 3d a6 12 07 3e 0c 6d 9f be 1b ca b5 bd
       0.08701631 0.13190708 -0.31137884 -0.08876439
0002b0 87 f5 e0 3d c7 28 62 be 8b 89 1c 3d 7d 0b 84 3f
       0.109843306 -0.22085868 0.03821711 1.0316006
0002c0 7d ac 60 3e 2b fe 10 3e 69 dc 9c bf d2 21 53 bd
       0.21940799 0.14159457 -1.2254764 -0.051545925
0002d0 66 7b 06 c0 f2 8a ca bd 50 9b 37 3e ac 1a 37 bf
       -2.1012816 -0.09889783 0.17930341 -0.71525073
0002e0 dd 5a 97 3d c4 1d 07 3d 93 b7 f1 3e ad 43 9d bd
       0.07390378 0.03298737 0.4721037 -0.07678924
0002f0 fe 89 81 be 9c e1 39 3e 12 b2 ad 3e 06 9c 7f bd
       -0.25300592 0.1815247 0.3392492 -0.062404655
000300 e0 e3 a1 3c 50 2a 2e bf 3b c4 7c 3d 1f 01 66 3d
       0.01976198 -0.68033314 0.061710577 0.056153413
000310 c1 7e ba 3e f5 69 03 3e 48 57 4c 3c dd 68 75 be
       0.3642483 0.12833388 0.012471981 -0.23965783
000320 19 06 2e 3e 0f 6f 07 3f c4 e8 5a 3e c9 38 c5 be
       0.16994514 0.52903837 0.21377856 -0.38519886
000330 2f 29 60 be ba 95 8a 3d 95 26 54 3c f0 4e 4b 3e
       -0.2189071 0.06766839 0.012948652 0.19854331
000340 87 a4 73 3e d7 38 a0 3d 29 c2 8d 3e 63 94 0c 3e
       0.23793231 0.07823341 0.27687195 0.1372848
000350 b8 ae 72 3f a8 20 a6 be 70 79 12 bc b0 94 61 bf
       0.9479785 -0.3244679 -0.008940086 -0.88117504
000360 1d 84 c0 bd bc d0 58 40 af 13 68 be 7c 70 44 3e
       -0.094001986 3.3877401 -0.22663759 0.19183534
000370 4e d2 86 bd 5e 91 71 3e 47 c4 d1 3e 51 b5 b2 be
       -0.06583081 0.2359061 0.4097006 -0.34903958
000380 99 5c d2 3e 0d ea 39 be d5 3c 73 3e 00 3d 19 3e
       0.4108627 -0.1815569 0.23753674 0.14964676
000390 87 05 63 3d 05 7b 62 bd d0 fa 44 be a3 bd f2 3e
       0.055425193 -0.0552931 -0.19236302 0.47410306
0003a0 2a 56 b5 3e 2a 83 ab 3c 48 95 3a 3e 62 fd c5 3e
       0.354173 0.020936567 0.18221009 0.38669878
0003b0 29 3e 63 3f e1 d9 4c 3d 01 6e 55 be d8 9b af bd
       0.88766724 0.050012473 -0.20842744 -0.08574647
0003c0 cd d0 10 3c 95 ef af 3d 57 13 8a be e6 17 5d 3e
       0.0088388445 0.085906185 -0.2696788 0.21591148
0003d0 44 ad f9 3d 63 e8 3c be 61 af 64 3e a9 b0 3b 3d
       0.12191251 -0.18448023 0.22332527 0.045822773
0003e0 33 7e de be e5 bf ea 3e 61 2f 2f be 66 1c d8 bd
       -0.43455657 0.4584953 -0.17107917 -0.105522916
0003f0 9a 86 11 bf d7 53 c6 bd 1f 33 3b 3f 9e 41 e2 bd
       -0.5684601 -0.0968396 0.7312488 -0.11047672

hidden1.bias f4 [128]
000000 b5 8a 80 bf 49 1e 00 bf 88 b7 18 bf 5c 30 6d bf
       -1.004233 -0.5004621 -0.59655046 -0.92651916
000010 ee cd 89 bf 51 4a 6c bf ac ea 04 bf 59 4f dd bd
       -1.076597 -0.923009 -0.5192058 -0.1080615
000020 ed 1d e3 bd 36 43 9e bf 74 35 5e bf 3f 7b bb be
       -0.11089692 -1.2364261 -0.86800313 -0.36617467
000030 23 a4 70 bf 92 2b 1d be 6a 6b 0a 3e ad c2 70 be
       -0.9400045 -0.15348652 0.13517538 -0.23511763
000040 33 5c 8d bf 68 ae 8a bf 4e ab e3 be 3e 93 3d bf
       -1.1043762 -1.0834475 -0.44466633 -0.740528
000050 16 e5 70 bf aa e3 99 bf 1c ae 86 bf 2d ff 85 3e
       -0.9409956 -1.2022603 -1.0521884 0.26171246
000060 13 2a 86 bf bc b8 2a bf ce 5b dd be 8d b2 50 bf
       -1.048159 -0.6668813 -0.43234104 -0.81522447
000070 24 ec 0d bf ed cd 27 bf 90 3c bc be 72 2b 08 bf
       -0.55438447 -0.6554859 -0.36764956 -0.5319129
000080 1f 33 81 be 99 92 9e bf 02 dc 36 bf fe f3 dc be
       -0.25234315 -1.2388488 -0.71429455 -0.431549
000090 73 4e ea be 81 cc 5e bf 41 03 58 bf 2d 7e f4 be
       -0.45762977 -0.870308 -0.84379965 -0.47752514
0000a0 65 47 8d bf fe 12 c8 3e 68 f2 a9 bf 6c 8c 84 bf
       -1.1037413 0.3907699 -1.3277102 -1.0355353
0000b0 be fe f7 be 7b ab c0 bf 72 68 3f bf 92 fa 36 3c
       -0.4843654 -1.5052332 -0.74768746 0.011168139
0000c0 bb af 01 bf e0 25 85 bf a4 87 76 bf b8 2f 73 bf
       -0.5065877 -1.0402184 -0.9630072 -0.9499469
0000d0 c8 20 f3 be e2 cf 90 3e a5 45 19 bf 2c 99 87 be
       -0.47485948 0.28283602 -0.59871894 -0.26484048
0000e0 ed c6 6c 3f cd 55 7a bf 92 de 8e bf ac 43 ed be
       0.92491037 -0.9778717 -1.1161673 -0.46340692
0000f0 a3 26 83 bf c7 05 24 3d ce ef cd be e9 cc 67 bf
       -1.0246166 0.040044572 -0.4022202 -0.90547043
000100 2a 1b 9d bf 48 e3 13 bf 38 96 7c bf 15 e4 76 bf
       -1.2273915 -0.5776868 -0.98666716 -0.96441776
000110 ca ce 3e 3e 73 da 54 bf ac cd 1f bf 4f 0a 60 bf
       0.18633571 -0.8314583 -0.62423205 -0.8751573
000120 51 71 e3 be 3e be 72 bf 93 9d 2f 3e aa 9b 75 bf
       -0.4442239 -0.94821537 0.17149954 -0.9594065
000130 0f e2 60 bf 2e b1 77 bf e9 60 3d be 7e d0 6b be
       -0.8784494 -0.9675473 -0.18494 -0.23028752
000140 69 c4 71 bf cb 7e 0b bf 18 91 1f bf ff eb 2a bf
       -0.94440323 -0.54490346 -0.6233077 -0.6676635
000150 8d 15 a1 bc 6e 9d 09 bd 7a f6 64 3c 64 4d a8 3e
       -0.019663597 -0.033597402 0.01397478 0.32871544
000160 c4 f5 b6 be 2f e3 b6 bf f4 99 0c 3f 7c 5f 5d bf
       -0.3573438 -1.4288081 0.54922414 -0.8647382
000170 ea 11 70 bf cf d0 1b bf 7d 5b 85 bf 1d 84 38 bf
       -0.93777335 -0.6086549 -1.0418545 -0.7207659
000180 49 03 a3 bf 58 10 61 bf 8a 1b 8d bf ed c3 69 bf
       -1.2735378 -0.87915564 -1.1024029 -0.91314584
000190 a7 a0 19 3f 7a b4 44 bf dc 86 5d bf 14 79 41 bf
       0.6001076 -0.76837885 -0.86533904 -0.75575376
0001a0 c9 01 24 bf 32 aa bf be 9e 6a 2e bf 80 0d 8c be
       -0.64065224 -0.37434536 -0.68131435 -0.2735405
0001b0 70 cd 16 bf d4 83 1f bf 87 30 8a 3f 79 16 54 bf
       -0.5890722 -0.6231053 1.0796059 -0.8284679
0001c0 92 f5 1e bf 16 84 18 bf 6a 5a 51 bf 50 64 2c bd
       -0.6209346 -0.5957655 -0.81778586 -0.042087853
0001d0 0b f4 4f bf c7 64 72 bf 28 3b 3c bf e9 e8 66 bf
       -0.81231755 -0.94685024 -0.73527765 -0.9019914
0001e0 11 11 07 bf 9c b7 6d bf fa 7f 57 bf 55 bc 00 bf
       -0.52760416 -0.9285829 -0.8417965 -0.5028737
0001f0 f3 14 b0 be 4b b7 1d bf c0 c5 57 bf a6 94 82 bf
       -0.34390983 -0.6160781 -0.8428612 -1.0201614

hidden2.weight f4 [128, 128]
000000 1a d7 2e 3e a7 dd 30 bf cf 7c 8d 3e 93 57 a9 bd
       0.17074242 -0.69088215 0.27634284 -0.082686566
000010 7f 55 51 bf 22 6d 8e bd 99 75 21 3b 96 f9 7f be
       -0.8177108 -0.06954409 0.0024636744 -0.24997553
000020 60 c9 c5 be 4b ab d7 3d 19 28 23 3f 06 53 33 3f
       -0.386302 0.105307184 0.6373306 0.7004856
000030 92 4b 19 3f 36 ce b5 be 9a 08 83 be 80 1f ae bd
       0.59880936 -0.3550889 -0.255925 -0.08502102
000040 9e bb f0 3e 93 3c df 3e c5 23 30 be 92 af d9 be
       0.4701814 0.43600902 -0.17201145 -0.42516762
000050 a7 d2 99 3e a9 b5 f9 be 9e 08 8e 3d e7 08 ab be
       0.30043527 -0.48771408 0.06935237 -0.3340523
000060 93 d0 de be 07 c0 48 3e 93 88 29 3f db c0 00 3f
       -0.43518505 0.19604503 0.6622402 0.50294274
000070 2d 72 b2 3e ba 21 94 3d 44 a0 a0 3e 87 19 be 3e
       0.34852734 0.07232995 0.31372273 0.3712885
000080 55 b9 1e bf e1 19 71 3e 2b e6 9b be 2f c7 40 be
       -0.62001544 0.23545028 -0.30449042 -0.18825983
000090 ba 89 a1 3e 6e bd dc be a7 a7 5e bf 30 ab 36 bf
       0.3155039 -0.43113273 -0.8697457 -0.7135496
0000a0 d2 2a ae be 9b 8e df be 7e 1e 93 be aa 6d a0 3e
       -0.34017044 -0.43663487 -0.287342 0.31333667
0000b0 36 ca 87 bd 0d 1a 69 3f a6 49 cc 3e 9b 89 4c 3e
       -0.066303656 0.91055375 0.3989994 0.19974367
0000c0 60 d6 43 3e 61 1a 18 3f dd 04 2c 3d f2 62 63 be
       0.19124746 0.5941525 0.041996825 -0.22205713
0000d0 e7 ff ee bd 76 32 8d bd de 2e 8d 3e da 4d b0 be
       -0.11669903 -0.0689439 0.2757482 -0.34434396
0000e0 63 ca 77 be e9 c2 8a 3d 63 35 10 3e f3 1a 92 bc
       -0.24198298 0.067754574 0.14082865 -0.017835116
0000f0 16 3a ea 3d 2d 13 51 3d e2 e2 12 3f 6c 16 7a 3f
       0.1143686 0.051043678 0.57377446 0.97690463
000100 0d 41 a3 3f fa ef ec 3e e2 19 06 be c1 ce 8a 3e
       1.2754227 0.46276838 -0.13095811 0.27110866
000110 95 25 44 be e6 f6 c2 bd 6c a5 87 3e a2 7f 25 bf
       -0.19154961 -0.095197484 0.26493394 -0.6464788
000120 87 5c 49 be b0 57 a5 3d cc 4d 68 be 6e ab 1b bf
       -0.19664203 0.08073366 -0.22685927 -0.60808456
000130 5c 6b d9 3e ef d0 8a 3f 81 49 8f 3e dc e6 d7 be
       0.4246472 1.0845011 0.27985767 -0.4216832
000140 0b 86 1f bf 9f 9e 58 be 83 bf 8d 3a 6d 4f 27 3e
       -0.6231391 -0.21154259 0.0010814521 0.16338892
000150 3c 9d 00 be cb b2 e6 be f9 35 a0 be 19 2d aa be
       -0.1255998 -0.45058283 -0.31291178 -0.33237532
000160 5a c5 1a bf a6 f0 b7 3e 54 7d 88 3e 8d 1b 41 3f
       -0.60457385 0.35925788 0.26658118 0.75432664
000170 65 d5 30 3e b2 8f 90 bd b4 8c b9 bd 18 28 86 3e
       0.17268904 -0.07058658 -0.0906004 0.26202464
000180 68 db 6f be 62 4e f9 bd ea 97 97 be 6d 0a a3 3e
       -0.2342354 -0.121731535 -0.2960809 0.31843892
000190 a6 52 69 bd 67 30 24 3e f8 5a ad 3e 84 76 a3 3e
       -0.056963585 0.16034089 0.33858466 0.31926358
0001a0 b1 76 78 3e 05 e5 3d 3f 4e 62 5c 3e da 36 01 3f
       0.24264027 0.7417758 0.21521875 0.5047432
0001b0 59 bd 9b 3e 33 ef 33 be aa 0b 9e be 72 13 a8 bd
       0.30417898 -0.17571716 -0.30868274 -0.08206834
0001c0 51 f1 8a be 24 f4 11 3f dc de 90 3e f7 ee d7 bd
       -0.27137235 0.57013154 0.28295028 -0.10543626
0001d0 6c 62 bd bd 0f 7b d7 be b1 19 e7 3e f3 0d d6 3c
       -0.09247288 -0.42086074 0.45136788 0.026129698
0001e0 30 53 fc be 0d 3f 2d 3d 0b b9 96 3d 56 d0 35 3e
       -0.49282217 0.042296458 0.07359513 0.17755255
0001f0 eb 01 20 3e 5d 1c fe 3d 05 44 9c 3e f6 de b9 3e
       0.15625732 0.124077536 0.30520645 0.36302918
000200 73 88 31 bd 42 3b 32 bc ce a7 a2 bc ee d5 37 bd
       -0.04334302 -0.010878386 -0.019855406 -0.044881754
000210 db 9c 6b be 3a 33 43 3d 8d e3 eb 3c 0e a6 9a bc
       -0.23009054 0.047656275 0.028795028 -0.01887801
000220 00 72 50 bd 4b 27 4c bd df 0d 6c bd bb 38 0c bd
       -0.05088997 -0.04984216 -0.057630416 -0.03423379
000230 7f 30 04 be 03 1b 19 be 87 01 97 3b b5 05 aa 3d
       -0.12909125 -0.1495171 0.0046083364 0.0830187
000240 a5 51 d5 bd c4 60 2f bd 48 14 d0 3b 00 29 5e bd
       -0.10415963 -0.042816892 0.006350074 -0.05423832
000250 c6 ab 5d 3b 91 ed b5 bd c7 8b 84 be 8b ce ff bc
       0.0033824309 -0.08883203 -0.25887892 -0.031226417
000260 8a 84 c6 bd 96 b7 f5 3d 45 f6 14 bc 7d 2b 1c bd
       -0.096932486 0.11997907 -0.009091918 -0.03812741
000270 75 89 2a be 0f bd 30 bd 08 ac ba bd 46 19 d4 bd
       -0.16653998 -0.04314905 -0.091148436 -0.10356383
000280 51 f0 4b be 48 66 1e 3d 42 00 1b bd b0 3f 48 bd
       -0.19915892 0.03867176 -0.037842043 -0.048888862
000290 3a 1c 8a bd 38 58 05 be aa e2 07 3d 69 6b 02 be
       -0.06743665 -0.13021934 0.033175148 -0.12736286
0002a0 9e 49 ff bc 20 f5 8b bc 15 f2 b3 bd 75 ba a5 bd
       -0.031163033 -0.017084658 -0.08786408 -0.080922045
0002b0 dd a0 62 be 41 2d 87 3d 3a 3d 01 be 9f 33 8c 3d
       -0.22131677 0.066004284 -0.12621012 0.068457834
0002c0 c7 d2 c6 bd dd d6 95 bd 93 bf cb bd 9c a1 29 bd
       -0.09708171 -0.073163725 -0.09948649 -0.04141389
0002d0 a7 33 54 3c 9f 35 80 bd 8d b6 04 bd 03 a7 45 bd
       0.012951768 -0.062602274 -0.032400656 -0.048254978
0002e0 14 2e c1 bd 9c 2e 99 bd 5e b1 35 be 14 c5 17 be
       -0.09432617 -0.07479593 -0.17743441 -0.14821273
0002f0 06 ba ac bd a0 09 a2 bd 9c 44 e5 bd 70 20 8f bd
       -0.08433919 -0.07911992 -0.11194727 -0.06988609
000300 d5 9a 1c bc 42 61 dc bd 60 c1 04 be 0e f2 5a be
       -0.009558399 -0.10760738 -0.12964392 -0.21381399
000310 e2 26 9b 3c ad 8f 55 bc a4 be 95 bd 0a c5 7a bd
       0.01893944 -0.013034743 -0.073117524 -0.061223067
000320 87 7f db bd 5e 19 d0 bd 23 cc 45 be 78 af 63 bd
       -0.10717683 -0.101610884 -0.19316153 -0.055587262
000330 a8 bd 0e bd 16 da 14 bd c4 ff 90 bd fe 85 3a bd
       -0.03484884 -0.036340795 -0.070800334 -0.04553794
000340 93 d3 41 bb 0c de 1e be c8 58 70 ba 40 ab a7 3d
       -0.002957557 -0.15514392 -0.0009168503 0.0818696
000350 75 29 25 bc e8 5c 97 bd e4 4c f6 bd 9f c9 0d bd
       -0.010080685 -0.07390767 -0.120263845 -0.03461611
000360 b9 74 93 bd c5 55 ce bd e4 8c f3 bc fc 49 7b bd
       -0.071999975 -0.10074953 -0.029730268 -0.061349854
000370 4c d7 ae 3c 93 45 94 bc 4c 1b ea bd 1b 8e d3 bb
       0.021342896 -0.018099582 -0.11430988 -0.0064561493
000380 fb 3a 39 3c a6 19 2b bd 44 49 5a 3c 30 7d a3 bd
       0.011305566 -0.041772507 0.013323132 -0.07982862
000390 0c 98 c9 3b 90 8f ae bd db 19 e5 bd 2d 1c 0e bd
       0.0061521586 -0.08523476 -0.11186572 -0.03469484
0003a0 05 de 4d be 02 c2 f8 bc 77 4a 21 bd 80 37 1b bd
       -0.20104225 -0.030365948 -0.039377656 -0.037894726
0003b0 63 e1 eb bc 9a 8e ea bc fa c2 01 3d d6 64 ad bd
       -0.028793996 -0.02863245 0.031680085 -0.084664986
0003c0 6e 76 e4 bd 5f 90 3c bc a5 8f 9d bc 35 58 2c bd
       -0.11155401 -0.01150903 -0.019233534 -0.04207631
0003d0 8d 6b fb 3c 4f 69 fb bc e3 92 04 bd bb 3f fd bd
       0.030690933 -0.030689863 -0.032366645 -0.12365671
0003e0 23 3a ae bd 10 89 09 3a 4f 0b 92 bd ed 49 ae bc
       -0.085071824 0.0005246559 -0.07131063 -0.021275485
0003f0 b1 45 80 bd 44 d4 a4 bd 99 ea 7d bd 3f 80 2b bd
       -0.062632926 -0.08048299 -0.061991308 -0.041870352

hidden2.bias f4 [128]
000000 f2 e3 62 3e 11 72 d4 bc 88 48 23 bc ef ee ca bd
       0.22157267 -0.025933297 -0.009966023 -0.09908854
000010 87 65 af bd 53 72 1f bd 2e ad f7 bd 23 7c b3 bd
       -0.08564287 -0.038927387 -0.12093578 -0.087639116
000020 fa 6b 06 be 1c d4 97 bd 2c 90 d0 bc 64 19 13 be
       -0.13127127 -0.074135035 -0.025459372 -0.14365155
000030 dd 08 99 bd 61 be 2c be 1e d0 59 be 41 d1 14 be
       -0.07472394 -0.16869499 -0.21270797 -0.14532949
000040 1d 73 e0 bd ae d3 b6 be 58 10 e0 bd 13 bc b5 bd
       -0.10959456 -0.35708374 -0.10940617 -0.08873763
000050 01 7a 7e bd ff 07 ae 3c 33 85 2b bd 95 7b cd 3c
       -0.06212807 0.021244047 -0.041875076 0.025083343
000060 84 c7 7d 3e 94 4f 36 be 1d 30 8c bd ee 3d 18 bd
       0.2478314 -0.17803794 -0.068451144 -0.037168436
000070 de d6 04 be f8 38 45 bd 42 40 95 bd 25 41 7d 3b
       -0.1297259 -0.048150033 -0.07287647 0.0038643565
000080 f9 6a e8 bd 10 32 1f be 8f db d3 bd 7b 82 0e be
       -0.113485284 -0.15546441 -0.10344612 -0.13916962
000090 da b2 c9 bc 18 92 7c bd bb 00 16 be 3a 6f 29 be
       -0.024621416 -0.061662763 -0.14648716 -0.16546336
0000a0 04 56 20 be f4 55 09 be de 2e 96 3e c0 85 11 be
       -0.15657812 -0.13411695 0.29332632 -0.14211178
0000b0 38 50 60 bc 84 ed 2c be 04 9e 06 be 90 00 24 bd
       -0.013691001 -0.1688748 -0.13146216 -0.0400396
0000c0 be 1d bc bd 99 1e dd bd 43 a0 38 be 14 20 bc bd
       -0.0918536 -0.10796852 -0.18029885 -0.09185806
0000d0 67 ba 36 bd 0c 2c ed bd 54 06 2c be c5 ba 03 bd
       -0.04461136 -0.11580667 -0.16799289 -0.03216054
0000e0 47 f1 23 be b9 78 0b be d9 9b d0 bd 49 60 73 bc
       -0.16010009 -0.13620271 -0.101859756 -0.014854499
0000f0 4b b3 0b be 8d f0 05 be a6 69 b4 bd 45 07 71 be
       -0.13642614 -0.13080044 -0.08809213 -0.2353793
000100 77 02 bd bd 29 27 fc bc 7d 20 11 be 0e 1a 9d 3f
       -0.09228986 -0.030780392 -0.1417255 1.2273576
000110 07 4b 35 bd 82 5b c8 bd 2f 83 dc bd ac 01 75 bd
       -0.044261005 -0.09783079 -0.10767209 -0.059816048
000120 d5 ca 74 bd 72 b7 6b bd 74 45 da bd d8 74 a3 bd
       -0.05976375 -0.057547994 -0.106577784 -0.079812706
000130 ee 10 51 be 1d 4d 89 bd 7c 94 18 be 57 3b 05 be
       -0.20416614 -0.06704161 -0.14900392 -0.13010918
000140 f0 94 00 bd c6 42 e2 bd 0c bb 32 bb 0f bb 26 be
       -0.031392038 -0.11047892 -0.0027272133 -0.16282295
000150 40 4e 46 bd 9f 66 42 bd 80 3e 8d bc 60 12 77 bd
       -0.04841447 -0.04746115 -0.017241716 -0.06032026
000160 af ab 43 bd 81 16 1f bd 84 9f a2 bd e5 dc 85 bd
       -0.047771152 -0.03883982 -0.079405814 -0.06536273
000170 dd c4 b1 bd 26 9e 55 bd 68 ff a9 bd 90 54 68 bd
       -0.08680127 -0.052152775 -0.08300668 -0.05672127
000180 ac 0f ee bd 3f 77 0c bc 36 71 bf 3f e5 fa 48 be
       -0.11624083 -0.008573352 1.4956424 -0.19626959
000190 8d 9a c9 3f dd 7c 74 bd 0e f8 c1 bd da 43 70 bd
       1.575029 -0.05968939 -0.09471141 -0.05865846
0001a0 e4 a4 92 bd 8c f9 e5 be 8e 41 ac bd 2d 73 95 bc
       -0.07160357 -0.44916952 -0.08410941 -0.018243397
0001b0 9f 1c 20 bd fd bc 98 ba 30 3e 0a be f8 35 e1 bc
       -0.039089795 -0.0011653003 -0.13500285 -0.027491555
0001c0 7a 3e 71 be e3 31 d1 be fd bb b0 bc 44 87 a4 bd
       -0.23558989 -0.40858373 -0.021574015 -0.08033612
0001d0 a0 39 d3 ba 3b 74 0a be 42 7d cc bd 9e 8d 54 3b
       -0.0016115196 -0.13520901 -0.099848285 0.0032433043
0001e0 c6 3d a7 be c0 ad 11 be 33 00 e1 bd 03 b2 02 be
       -0.32664317 -0.14226437 -0.10986366 -0.12763219
0001f0 2f 7b e9 bc a0 22 1d bd 1c d0 46 be a4 eb cd be
       -0.028501121 -0.0383631 -0.19415325 -0.40218842

out.weight f4 [1, 128]
000000 58 a7 16 3d 26 7e 78 bc 26 c3 e9 3b 6f df 07 3c
       0.036780685 -0.015166795 0.007133859 0.008293017
000010 79 89 82 3c eb 40 5b bc cf 04 53 b9 b7 0f 13 3c
       0.015934693 -0.013382177 -0.0002012432 0.008975915
000020 23 3b 62 bc 38 24 ec bc 05 0d 82 3c c3 b6 cb 3c
       -0.013808045 -0.028825864 0.015875349 0.024867421
000030 f3 9b bd 3c 08 34 5c 3c 45 74 e2 bb 74 15 65 3b
       0.023145651 0.01344014 -0.006910833 0.0034955414
000040 01 5f 51 3c a4 6f 91 bd 70 f3 dc 3b 29 f7 b9 3b
       0.012778998 -0.07101372 0.006742887 0.0056752157
000050 5c 11 40 3c 76 9a ab ba 43 59 97 3a 54 d9 3b bc
       0.011722889 -0.0013092298 0.0011546988 -0.011465389
000060 68 ef 5c bc 48 15 b5 bd 7c b7 11 3c ec 92 7d bb
       -0.013484813 -0.0884195 0.008893844 -0.0038692309
000070 45 57 ea 3b b1 69 0e bc ca 0a 4b bb 68 d6 ea bc
       0.0071515166 -0.008692191 -0.0030981773 -0.02866669
000080 2b 02 cf bc 36 53 2c bc 38 3a 06 3c 54 df db bc
       -0.025269588 -0.010517886 0.008192591 -0.02683989
000090 d1 d1 ba bc 24 9b 4a bb a5 cc 70 bb 0c 39 f2 3c
       -0.022805126 -0.0030915225 -0.0036743071 0.029568218
0000a0 72 63 c0 bc 42 be 1e 3b 78 85 9f bb 24 0e 28 3d
       -0.02348492 0.002422229 -0.0048682056 0.04102911
0000b0 45 1c 71 3c f1 d4 fa 3c 2c 9b ad bc cd f9 04 3c
       0.014716213 0.030619117 -0.021192156 0.008116198
0000c0 63 c5 03 3b 4d 13 30 3b 90 0c 71 bb 6b e7 41 3b
       0.0020106665 0.0026866973 -0.003678117 0.0029587399
0000d0 d3 65 b1 bc 9e 40 79 bb 24 6e 74 3b 7f 10 4a 3c
       -0.021654999 -0.00380329 0.0037297094 0.012333035
0000e0 84 1e 93 ba 97 60 c3 3c 51 be 05 3b c7 0b 82 bd
       -0.0011224304 0.023849769 0.0020407627 -0.063499026
0000f0 47 60 5d bc b5 3c bb bb d6 09 4c bc 9f e5 b6 3c
       -0.013511724 -0.005714024 -0.012453517 0.022326289
000100 c1 ea 3b bc 14 1d 86 3c c4 25 7c bc 82 af 7a 3d
       -0.011469544 0.016371287 -0.015389863 0.061202534
000110 26 ba 88 3a ae 28 eb bc 23 3a ce 3b 2a 15 8f bb
       0.0010431453 -0.028705921 0.0062935515 -0.0043665366
000120 9b 1c cf 3a 9b 4c ab 3c 08 e6 55 3c 78 83 d7 3c
       0.0015801372 0.020910552 0.013055332 0.026307806
000130 26 51 23 3b 98 9f 0d 3c d2 7b 25 3c 29 49 78 3c
       0.0024920194 0.008644007 0.010100322 0.0151541615
000140 d0 a6 43 ba 4b b5 ec bb 5e da b2 bc f2 6e 32 bc
       -0.00074635167 -0.0072237602 -0.021832641 -0.010890709
000150 2d b5 fb 3c 86 1f 82 3c f4 48 e1 3b 93 ae e0 3b
       0.03072604 0.015884172 0.006875152 0.0068567484
000160 c5 6b 28 bc 9b c8 97 bb 88 ae 33 ba 1c ad df 3c
       -0.0102796005 -0.0046320683 -0.0006854315 0.027304225
000170 4d 5e c6 bc a0 fe 8d bb 42 41 5c bc 4f a1 72 bc
       -0.024214888 -0.004333332 -0.013443293 -0.014808967
000180 3e 81 f6 bc 01 63 1f 3b 8a 7b d0 3d cc 48 d9 bb
       -0.030090924 0.0024320486 0.10179813 -0.0066309925
000190 0e 19 80 3d 85 e4 1b 39 04 8f 82 3c dc e4 54 3c
       0.06254779 0.00014867082 0.015937336 0.012994017
0001a0 7d b0 53 bc 60 9f 35 bd ca d3 75 3c 28 7e 88 bb
       -0.012920496 -0.044341445 0.015004108 -0.0041654296
0001b0 a4 73 33 bb d9 6d 2a bb 42 9e c6 bc 10 8c 24 bc
       -0.002738216 -0.0026005416 -0.024245385 -0.010043159
0001c0 9a 4d 8a 3c dc 21 50 bd 96 d7 4e bc 42 ce d3 3c
       0.016882706 -0.05081354 -0.012624642 0.025855187
0001d0 0a 25 94 bc e8 be 70 3c d4 4f b2 39 4b f3 fa 3a
       -0.018084068 0.014693953 0.00034010282 0.0019145993
0001e0 6a a2 50 bd 07 e8 d2 3c 1c a6 a5 b9 24 c5 9e 3c
       -0.05093614 0.025745405 -0.00031595014 0.019381113
0001f0 6e 7d 69 bc 8c 98 da bc aa 47 83 bc fa cf ae bd
       -0.014251096 -0.026684068 -0.016025383 -0.08535762
