models/checkpoint_critic_1_median_6.pth (torch, 87959 bytes, 5 tensors)

hidden1.weight f4 [128, 37]
0	0x3f6b56f0	0.9192953
1	0xbec87d16	-0.39157933
2	0xbee2c1e4	-0.44288552
3	0xbbcf5978	-0.006327804
4	0xbe923099	-0.28552702
5	0xbf6bfdc0	-0.92184067
6	0xbe3328c9	-0.17496027
7	0x3d8230e2	0.0635698
8	0xbe9f829c	-0.31154335
9	0xbdba0264	-0.09082487
10	0x3d1ddb87	0.038539436
11	0xbc829af4	-0.015943028
12	0x3d008684	0.031378284
13	0xbfaad42b	-1.3345999
14	0x3ee2e533	0.4431549
15	0x3eeb42f1	0.4594951
16	0xbe13bfd3	-0.14428644
17	0xbd856cbd	-0.06514881
18	0x3e6a5122	0.22882512
19	0xbd356e4a	-0.044294633
20	0x3ddc93b4	0.1077036
21	0x3d76dc1e	0.060268514
22	0x3cf5dc96	0.03001241
23	0xbeacd0f7	-0.33753178
24	0x3e12e197	0.14343868
25	0x3dc91a4c	0.09819469
26	0x3f3ee555	0.7456868
27	0x3e6e9a21	0.23300983
28	0xbe2b3ee6	-0.16723213
29	0x3d84f378	0.064917505
30	0xbe9e1031	-0.30871728
31	0x3db5e61e	0.08881782
32	0x3f379512	0.7171184
33	0xbd1442f1	-0.036196653
34	0xbebe6a03	-0.37190256
35	0x3ef8ba38	0.48579574
36	0x3f1d0aa4	0.6134436
37	0x3e82ad51	0.25522855
38	0x3f49d2db	0.78837365
39	0x3d7bbee4	0.061461344
40	0xbf473355	-0.778127
41	0x3f91d55b	1.1393236
42	0xbf88cbcd	-1.0687195
43	0xbedfd791	-0.43719152
44	0x3e6c69ef	0.23087285
45	0xbf02379e	-0.50866115
46	0x3e88f0cb	0.2674621
47	0x3d80ab4b	0.062826715
48	0x3e6905ff	0.22756194
49	0xbe128e11	-0.14312007
50	0x3e8ff29b	0.2811478
51	0x3f985cb1	1.1903287
52	0xbe9e786e	-0.30951256
53	0xbcdd3100	-0.027000904
54	0xbd977300	-0.073949814
55	0x3f52dd6c	0.8236911
56	0xbeeb53be	-0.45962328
57	0xbeb60f7f	-0.35558698
58	0xbe3a4cda	-0.18193379
59	0xbc7eece2	-0.015559407
60	0x3e9862bb	0.29762825
61	0x3ec7618d	0.38941613
62	0xbea45e0c	-0.32103002
63	0xbdddf3fa	-0.108375505
64	0x3f85776f	1.0427073
65	0x3e96a355	0.29421487
66	0x3d3e6cdc	0.046490535
67	0xbf94785a	-1.1599228
68	0xbdf310fc	-0.11868474
69	0x3e8bd328	0.27309537
70	0xbc56182f	-0.013067289
71	0xbe6dcb9d	-0.23222204
72	0xbef6b0d3	-0.4818178
73	0xbdfbe67b	-0.1229982
74	0xbf414675	-0.75498134
75	0xbb84eb1b	-0.004056347
76	0x3ea75708	0.32683587
77	0xbd9155be	-0.07096432
78	0xbe8a3cfb	-0.2699965
79	0x3e263402	0.16230777
80	0x3e6b8338	0.22999275
81	0x3d87441e	0.06604789
82	0xbf03ac96	-0.5143522
83	0xbe1cdba7	-0.15318166
84	0x3d1765de	0.036962382
85	0x3cb2ad82	0.02181125
86	0xbd6b43b3	-0.05743761
87	0x3f75c20d	0.95999223
88	0x3e1c3c95	0.15257485
89	0xbf2c509a	-0.6731049
90	0xbdc35b0b	-0.095388494
91	0x3e767a3a	0.24070063
92	0xbe2122b8	-0.157359
93	0x3e8dae00	0.27671814
94	0xbc57915d	-0.013157216
95	0xbe1c60b9	-0.15271272
96	0x3e33c79c	0.17556614
97	0x3dca1eee	0.098691806
98	0x3c96d0d1	0.018410118
99	0xbda1984f	-0.07890379
100	0xbf0faca9	-0.56122833
101	0x3f025b61	0.50920683
102	0x3ee0d4eb	0.43912444
103	0xbd7fc586	-0.062444232
104	0xbf089e6f	-0.5336675
105	0xbdaeabd6	-0.08528869
106	0x3e8fe097	0.28101036
107	0x3df65056	0.120270416
108	0xbd478a29	-0.048715744
109	0x3d71f969	0.059075747
110	0x3e4e6392	0.2015517
111	0xbf7ef692	-0.99594986
112	0x3f0f67d0	0.5601778
113	0x3c9a45f1	0.018832179
114	0xbf149abd	-0.5804861
115	0xbe5ab5ad	-0.21358366
116	0x3dc9c051	0.098511346
117	0xbcf76e2c	-0.030203901
118	0xbe8aba20	-0.27095127
119	0xbde9838f	-0.11402046
120	0xbf0d4a42	-0.55191433
121	0x3e0f8fd5	0.14019711
122	0x3e4b8c1f	0.1987767
123	0xbef3c2ab	-0.47609457
124	0xbe81cdd3	-0.25352344
125	0xbdb73975	-0.08946506
126	0xbe9e413e	-0.3090915
127	0xbe9ea405	-0.30984512
128	0x3b5898e2	0.003305011
129	0xbf8a22fa	-1.0791924
130	0x3ec423d4	0.38308585
131	0x3d1d70f4	0.0384378
132	0x3ed5ee8a	0.41783553
133	0xbd353ba7	-0.044246342
134	0x3dd90758	0.10597104
135	0xbeb28c9d	-0.34872904
136	0xbe4d1c10	-0.20030236
137	0x3e9556c3	0.29167756
138	0x3f72c3ce	0.94830024
139	0xbe122c86	-0.14274797
140	0xbe19d41f	-0.15022324
141	0xbf8346b6	-1.0255954
142	0xbdd9c84c	-0.10633907
143	0xbe2ec233	-0.17066269
144	0xbddf9e9e	-0.10918926
145	0x3e5bc154	0.21460468
146	0x3e6ed8a1	0.23324825
147	0x3e7f08e7	0.2490574
148	0x3e0084e9	0.12550701
149	0x3e2cba4f	0.16867946
150	0xbd3a38b5	-0.045464236
151	0xbe05e700	-0.13076401
152	0x3ea1aaa2	0.31575495
153	0x3eb22867	0.3479645
154	0x3e0900ce	0.13379213
155	0x3da6e378	0.08148855
156	0xbe1ca809	-0.15298475
157	0x3f056720	0.5211048
158	0x3d60aea2	0.054854043
159	0xbd52866c	-0.051397726
160	0xbbe05398	-0.0068459027
161	0x3f2cb3b5	0.6746171
162	0xbd89467a	-0.067028955
163	0x3e2ef05c	0.17083877
164	0x3edfcef7	0.4371259
165	0x3e20a39a	0.15687409
166	0xbefbbc04	-0.49166882
167	0xbea05a25	-0.31318775
168	0x3c19f962	0.009397836
169	0x3f2e1644	0.68002725
170	0xbe60738f	-0.21919082
171	0x3e68ea88	0.22745717
172	0xbd27c9eb	-0.04096405
173	0xbe233ff0	-0.15942359
174	0xbd0d05f7	-0.034429517
175	0x3f3b5fb3	0.731929
176	0xbda6dbd2	-0.08147396
177	0xbe040a2f	-0.1289451
178	0xbf0e69e9	-0.55630356
179	0x3e183503	0.14863972
180	0x40250de3	2.5789726
181	0x3d4c5639	0.049886916
182	0x3c2598ba	0.010107214
183	0xbe36e7bd	-0.17861839
184	0xbda40ba4	-0.08010033
185	0xbe4ee185	-0.20203216
186	0x3fd045b8	1.6271276
187	0xbf3ea577	-0.7447123
188	0xbe063153	-0.13104753
189	0xbf32fcae	-0.6991681
190	0x3e9bee98	0.3045547
191	0xbee564d7	-0.44803497
192	0x3e705dc5	0.2347327
193	0xbf06a990	-0.5260248
194	0x3da55246	0.08072333
195	0x3e8ca7c1	0.27471736
196	0x3e439662	0.19100335
197	0xbe8f7baa	-0.28024036
198	0xbe4d7e9b	-0.20067827
199	0x3f2d556e	0.6770848
200	0xbec12c13	-0.37728938
201	0x3bac320c	0.0052549895
202	0xbf77d129	-0.9680353
203	0x3f0f49b3	0.5597183
204	0xbf2a55be	-0.6653708
205	0x3d12a4c9	0.035801683
206	0x3d56aec1	0.052412752
207	0xbe8004ba	-0.25003606
208	0xbda8956a	-0.082316235
209	0x3e7ca735	0.2467316
210	0xbe81d911	-0.2536092
211	0x3dd64bc9	0.104636736
212	0x3f8e3396	1.1109493
213	0xbe74bb93	-0.23899679
214	0x3d562008	0.05227664
215	0xbf4f7263	-0.81033915
216	0x3e247b2d	0.16062613
217	0xbf489c56	-0.7836355
218	0x3f836bf5	1.0267321
219	0x3f0fc031	0.56152636
220	0x3ed88831	0.42291406
221	0xbd89a17c	-0.06720254
222	0x3f1c3d2e	0.6103085
223	0xbd9a8e60	-0.07546687
224	0x3f3d2691	0.7388697
225	0xbe0e9a80	-0.13926125
226	0xbdccc476	-0.099984095
227	0x3f871c51	1.0555516
228	0x3e340bc5	0.17582615
229	0x3d817b16	0.06322305
230	0x3d151195	0.03639372
231	0x3e096876	0.13418755
232	0x3bf67ee2	0.00752245
233	0xbdc1368f	-0.09434234
234	0x3d843288	0.064549506
235	0xbf727516	-0.9470991
236	0x3d9998bf	0.07499837
237	0xbf7b5296	-0.9817289
238	0x3daf0374	0.085455805
239	0xbdad55e3	-0.08463647
240	0x3d9103b1	0.07080782
241	0x3cd563a0	0.026048481
242	0xbcbda043	-0.023147708
243	0xbc63628f	-0.013878479
244	0xbdf53b05	-0.11974148
245	0xbd86669a	-0.065625384
246	0x3d873fc5	0.0660396
247	0xbd3b0663	-0.045660388
248	0x3f061e40	0.5238991
249	0x3e92af48	0.28649354
250	0x3f12846f	0.5723333
251	0xbdbc93ae	-0.09207855
252	0xbe953eb6	-0.29149407
253	0xbdc8988f	-0.09794723
254	0xbeeeb37a	-0.46621305
255	0x3dca4516	0.09876458

hidden1.bias f4 [128]
0	0xbe7bd8a6	-0.24594364
1	0xbf967ee6	-1.1757476
2	0xbecb258c	-0.39677083
3	0xbf82a17f	-1.0205535
4	0xbf0cd142	-0.550068
5	0xbf87c63a	-1.0607369
6	0xbeed6b9c	-0.46371162
7	0xbf8af54e	-1.0856111
8	0xbf1d3ab2	-0.61417687
9	0xbddd2970	-0.10798919
10	0xbfa9746a	-1.3238652
11	0xbf4468e2	-0.7672254
12	0xbf7b1268	-0.9807496
13	0xbe17b201	-0.14813997
14	0xbf8d18a3	-1.1023144
15	0xbf9c0a31	-1.219061
16	0xbfa0b8b4	-1.2556367
17	0xbf977c91	-1.183489
18	0xbf6504dd	-0.89460546
19	0x3e7666f9	0.24062718
20	0xbf22a946	-0.6353954
21	0xbea5b6d7	-0.32366058
22	0xbf863f37	-1.0488042
23	0xbf25ee45	-0.64816695
24	0xbf2471e8	-0.6423631
25	0xbf7bb048	-0.9831586
26	0xbf977cba	-1.1834939
27	0x3ea6ed9a	0.3260315
28	0xbeedfafa	-0.46480542
29	0xbe1bbb61	-0.15208198
30	0xbf46ab7a	-0.776054
31	0xbf076355	-0.52885944
32	0xbf71e534	-0.9449036
33	0xbf7664dc	-0.9624765
34	0xbec16f0d	-0.37780038
35	0xbf889426	-1.0670211
36	0xbf3248b0	-0.6964216
37	0xbe4746dc	-0.19460624
38	0xbf8f04c3	-1.1173328
39	0xbf18a463	-0.59625834
40	0xbf2f37e6	-0.6844467
41	0xbf26daf7	-0.65177864
42	0xbf5bfd7a	-0.8593365
43	0xbf91c663	-1.1388668
44	0xbf84a889	-1.0363933
45	0xbe7a7a02	-0.24460605
46	0x3eeecc3d	0.46640196
47	0xbf7504c3	-0.9571039
48	0xbd0f3983	-0.034966957
49	0xbee4ea60	-0.44710064
50	0xbd88a26e	-0.06671606
51	0xbe7f9e72	-0.24962786
52	0x3e684a2b	0.22684543
53	0xbfa16dad	-1.2611595
54	0xbf8ed769	-1.1159488
55	0xbf4b129e	-0.7932528
56	0xbf62c625	-0.88583595
57	0xbf21e9b6	-0.6324724
58	0xbf8102cd	-1.007898
59	0x3c9d0846	0.019168984
60	0xbf76392b	-0.9618098
61	0xbe85acdf	-0.26108453
62	0xbf5fd7fa	-0.8743893
63	0xbf88841d	-1.0665318
64	0xbde329a7	-0.11091929
65	0xbe872a88	-0.26399636
66	0xbf1bf2ed	-0.6091755
67	0xbec383af	-0.38186404
68	0xbebdad15	-0.37046114
69	0xbf9151b3	-1.1353058
70	0xbf69536e	-0.9114293
71	0xbf90b6a6	-1.130574
72	0xbe983f0e	-0.29735607
73	0x3e5de758	0.21670282
74	0xbf8f2609	-1.1183482
75	0xbf351de7	-0.7074875
76	0xbf4cdc97	-0.80024093
77	0xbf5dfec6	-0.8671688
78	0xbf73acf0	-0.95185757
79	0xbf47e2a3	-0.78080195
80	0xbf256116	-0.64601266
81	0xbedcea86	-0.43147677
82	0xbf9bb5b6	-1.2164829
83	0xbf224c66	-0.63397825
84	0xbf907ccc	-1.1288085
85	0xbf48462d	-0.7823208
86	0xbf4b2453	-0.793523
87	0xbf06189b	-0.52381295
88	0xbf403130	-0.75075054
89	0xbfb32d9b	-1.3998293
90	0xbf638198	-0.8886962
91	0xbf506f4b	-0.8141982
92	0xbf1dec5e	-0.6168879
93	0xbf2ae667	-0.66757816
94	0xbf65d016	-0.8977064
95	0xbf46e5c0	-0.7769432
96	0xbf33558f	-0.7005243
97	0xbf061b57	-0.5238547
98	0xbf26d349	-0.65166146
99	0xbec4f612	-0.38468987
100	0x3f8a707c	1.0815578
101	0xbf086b53	-0.53288764
102	0x3ea99d3a	0.33127767
103	0xbfaeccda	-1.3656266
104	0xbd298812	-0.041389532
105	0xbf465578	-0.77474165
106	0xbf329eb0	-0.6977339
107	0xbf493d4a	-0.78609145
108	0xbea5b5a8	-0.32365155
109	0xbf84798f	-1.0349597
110	0x3f3c738c	0.7361381
111	0xbf940997	-1.1565427
112	0xbf6cdd9b	-0.92525643
113	0xbf538a58	-0.8263297
114	0xbf78b637	-0.9715304
115	0xbece40c7	-0.40283796
116	0xbfb5f1ab	-1.4214376
117	0xbf71349f	-0.9422092
118	0xbf6eb199	-0.9323974
119	0xbf41ea94	-0.7574856
120	0xbf59b3ce	-0.85039985
121	0xbeff4a90	-0.49861574
122	0xbf8c8047	-1.0976647
123	0xbf8e3c0d	-1.1112076
124	0xbf3e22aa	-0.74271643
125	0xbf3c6cd6	-0.7360357
126	0xbedb4909	-0.4282916
127	0xbf77c08f	-0.96778196

hidden2.weight f4 [128, 128]
0	0xbda07e1c	-0.078365535
1	0xbd8c6675	-0.0685548
2	0xbdda9c4c	-0.106743425
3	0xbddbffbc	-0.10742137
4	0x3be668bd	0.0070315287
5	0xbe030bc3	-0.12797455
6	0x3d1bd919	0.038048837
7	0x3bf471b7	0.007459845
8	0x3c2f9062	0.010715576
9	0xbd9f7c8f	-0.077874295
10	0xbdc5ec72	-0.09664239
11	0xbdc3437d	-0.09534357
12	0xbd267e07	-0.040647533
13	0xbb64e363	-0.0034925572
14	0x3dbf5c2a	0.09343751
15	0xbdbdad70	-0.09261596
16	0x3ab86b77	0.0014070113
17	0xbd488c99	-0.04896221
18	0xbd1b2e79	-0.037886117
19	0xbdc903fd	-0.09815214
20	0x3c9df87f	0.019283531
21	0xbc853e31	-0.016265007
22	0xbd571b90	-0.05251652
23	0xbc7e5a43	-0.01552445
24	0xbd9387e9	-0.07203657
25	0xbdb31f6d	-0.08746228
26	0x3bb21de9	0.0054356945
27	0xbd054d62	-0.0325445
28	0xbc8d2dd5	-0.017233768
29	0xbdcf8615	-0.10132996
30	0x3d39c8fe	0.045357697
31	0x3b4509ba	0.0030065612
32	0x3d4817a2	0.048850663
33	0xbd863d7d	-0.06554697
34	0x3c2e1206	0.010624414
35	0xbd2c954b	-0.042134564
36	0xbdb742bf	-0.08948278
37	0xbd766631	-0.06015605
38	0x3b67cc78	0.0035369676
39	0xbb1437b1	-0.0022616202
40	0xbdc29d1b	-0.09502622
41	0xbe5620e4	-0.20910984
42	0xbcfb8d11	-0.030706914
43	0xbdca1016	-0.098663494
44	0xbd0069cd	-0.0313509
45	0xbcf0701d	-0.029350335
46	0xbd020231	-0.03174037
47	0xbcb2ecd2	-0.02184144
48	0xbd19bf4d	-0.037535954
49	0xbc92c8de	-0.017918047
50	0x3c55dfb3	0.013053822
51	0xbdd5fd6f	-0.10448729
52	0xbdfab469	-0.12241442
53	0xbcc19dfb	-0.023634901
54	0xbd7ac533	-0.06122322
55	0xbd9ddc7f	-0.07708072
56	0xbac4c5da	-0.0015012578
57	0x3cfb1217	0.030648274
58	0xbc66d6d2	-0.014089303
59	0x3c346faa	0.011012951
60	0xbc6c8ede	-0.014438359
61	0xbd5856b5	-0.052817065
62	0xbe006052	-0.12536743
63	0x3c014980	0.007891059
64	0xbdb23926	-0.087023064
65	0xbdb578ac	-0.08860907
66	0xbdb0f433	-0.08640327
67	0x3cfe66a0	0.031054795
68	0xbbf4ffaa	-0.0074767666
69	0xbc609f6c	-0.013709884
70	0xbe47680a	-0.19473282
71	0xbd745c35	-0.059658248
72	0x3ce3fc26	0.027830195
73	0xbc2871b7	-0.010281018
74	0xbcf4d963	-0.029888814
75	0xbd869ece	-0.06573258
76	0x3cfae696	0.03062753
77	0x3d992124	0.07477024
78	0xbda3361a	-0.079693034
79	0xbc6e965d	-0.014562217
80	0xba09033a	-0.0005226616
81	0xbd522c8d	-0.05131202
82	0x3c0be2e2	0.00853798
83	0xbda2034e	-0.079107866
84	0xbdb17d65	-0.08666495
85	0x3d0837ba	0.03325627
86	0xbdaa31de	-0.08310293
87	0xbd0ec435	-0.034855086
88	0xbd3ebce2	-0.04656685
89	0x3d1258d4	0.035729244
90	0xbde82586	-0.11335282
91	0x3c219e5d	0.009864417
92	0xbda40539	-0.08008809
93	0x3c46a2c9	0.012123772
94	0xbdbe9a70	-0.093068
95	0xbd708680	-0.05872202
96	0xbd6a72c0	-0.05723834
97	0xbdb3e6de	-0.08784269
98	0xbc6bf720	-0.014402181
99	0xbcaf3558	-0.021387741
100	0xbdb234be	-0.08701466
101	0xbe795457	-0.2434858
102	0xbd5e752f	-0.054310974
103	0xbda43921	-0.08018709
104	0x3d04dd77	0.032437768
105	0x3d2a53fc	0.041584
106	0xbdb0eb1a	-0.08638592
107	0xbd9094ae	-0.070596084
108	0xbd9096c1	-0.07060004
109	0xbccf564b	-0.025309702
110	0xbd30e4cf	-0.04318696
111	0xbcfaa47f	-0.030596016
112	0xbdf48ecb	-0.11941298
113	0xbdb1283b	-0.086502515
114	0x3d2888bc	0.041146025
115	0xbdd373f6	-0.10324852
116	0x3d66f74e	0.056388192
117	0xbbc7e395	-0.006100128
118	0xbd24b79c	-0.040214166
119	0xbda3b750	-0.079939485
120	0xbcef8d77	-0.02924226
121	0x3d1fa42f	0.038974937
122	0xbdf76db3	-0.1208147
123	0xbd85bcd4	-0.06530157
124	0xbded3603	-0.115825675
125	0x3c19cdf0	0.009387478
126	0x3ccf29ec	0.025288545
127	0xbd1f2454	-0.038853005
128	0xbdddc13a	-0.10827871
129	0xbd988343	-0.07446911
130	0xbd94f46b	-0.072731815
131	0xbd344fdc	-0.044021472
132	0xbd8f1fda	-0.06988497
133	0xbc34f13c	-0.011043843
134	0xbd3d766b	-0.04625551
135	0xbc005030	-0.007831618
136	0x3b568415	0.0032732536
137	0x3cd4f732	0.025996778
138	0xbd911c3a	-0.07085462
139	0xbc55e72a	-0.013055602
140	0xbdbead79	-0.09310431
141	0x3b28b801	0.002574444
142	0xbe02a510	-0.12758279
143	0xbcc735e1	-0.024317684
144	0x3d2be4c8	0.04196623
145	0xbc3be5fe	-0.011468409
146	0x3d84d122	0.064852014
147	0xbcfeb403	-0.031091696
148	0xbd3dddd0	-0.046354115
149	0xbdc92f9f	-0.09823536
150	0xbdc5f076	-0.09665005
151	0xbdfea73d	-0.12434242
152	0xbe224384	-0.15846068
153	0x3c6372c8	0.013882346
154	0xbd5ea7d9	-0.05435929
155	0xbd522d1e	-0.05131256
156	0xbd33add5	-0.04386695
157	0xbd7242eb	-0.05914585
158	0xbc9e396b	-0.019314488
159	0x3cf9988d	0.03046825
160	0xbdb8e846	-0.09028678
161	0x3bda83fb	0.0066685653
162	0xbdc107cf	-0.094253175
163	0xbdc7d075	-0.09756557
164	0xbccca9e1	-0.024983348
165	0xbd517d6a	-0.051144995
166	0xbd8f69a6	-0.07002573
167	0xbcd8a050	-0.02644363
168	0xbdc6d7e5	-0.09709147
169	0x3c9166cf	0.017749218
170	0x3c66bce3	0.01408312
171	0x3acbcfeb	0.0015549635
172	0x3c82f909	0.01598789
173	0xbddf691c	-0.1090872
174	0xbdaaf3d5	-0.083472885
175	0xbd9703a7	-0.073737435
176	0xbd1e0da6	-0.038587235
177	0xbc9f2add	-0.019429618
178	0x3bb0d3dd	0.00539635
179	0xbe030c50	-0.12797666
180	0x3ca88935	0.020573238
181	0xbc5bdd56	-0.01341947
182	0xbdefeff9	-0.11715693
183	0xbda9e3ce	-0.082954034
184	0xbdebbc67	-0.11510544
185	0xbd75a9e8	-0.05997649
186	0xbd05b733	-0.032645416
187	0xbdb71316	-0.08939187
188	0x3bd84749	0.0066002947
189	0xbdd4132c	-0.10355219
190	0xbd32fddb	-0.043699127
191	0xbda9e36d	-0.08295331
192	0xbe13ba84	-0.14426619
193	0xbddf0626	-0.108898446
194	0xbcf85d41	-0.030317904
195	0xbd1352e6	-0.03596773
196	0x3cf84ba8	0.030309513
197	0xbc92eba8	-0.017934635
198	0xbbfdc27b	-0.007744131
199	0xbdc5a936	-0.09651415
200	0xbd956343	-0.07294323
201	0xbd3edda4	-0.04659809
202	0xbd6d03d7	-0.05786499
203	0xbd147b28	-0.036250263
204	0x3d727894	0.059197024
205	0xbd5d8853	-0.054085087
206	0xbd579e87	-0.052641418
207	0xbd761dbe	-0.060086958
208	0xbbba1388	-0.005678598
209	0xbc65ab10	-0.014017835
210	0x3c8a717b	0.016899815
211	0xbd94667c	-0.0724611
212	0x3caabc6f	0.020841805
213	0xbd414168	-0.047181517
214	0xbd59616b	-0.05307142
215	0xbd923a5c	-0.071400374
216	0xbd40516f	-0.04695266
217	0x3d1b4d15	0.037915308
218	0xbd009471	-0.031391565
219	0xbd0010d1	-0.031266037
220	0xbdf63f25	-0.120237626
221	0x3c93545c	0.017984562
222	0xbd49e68c	-0.049292132
223	0xbce8b40a	-0.028406162
224	0xbdeb7d13	-0.114984654
225	0xbd1986aa	-0.03748194
226	0x3d2a57a9	0.041587505
227	0xbda86c33	-0.08223762
228	0xbdb5f317	-0.08884256
229	0xbcd1622d	-0.02555951
230	0xbd6feb46	-0.058573984
231	0x3c50cdf6	0.012744417
232	0xbccf5df8	-0.025313362
233	0xbb13702d	-0.0022497282
234	0x3c1e203d	0.009651241
235	0xbd0aa50c	-0.033848807
236	0xbdf6fa0b	-0.12059411
237	0xbd429a2b	-0.047510307
238	0xbd371c0a	-0.044704475
239	0xbdb6bc34	-0.08922616
240	0x3bad62b5	0.005291308
241	0x3a83aed9	0.0010046615
242	0xbba611a5	-0.0050680214
243	0x3d474bd4	0.0486563
244	0x3c5dbc95	0.013533731
245	0x3cc674d7	0.024225635
246	0xbdea144d	-0.11429653
247	0xbd0d45e4	-0.03449048
248	0xbcd851ea	-0.026406247
249	0xbcac9056	-0.021064918
250	0xbd4fdc1d	-0.050747026
251	0x3ce03dbb	0.027373185
252	0xbddee3c4	-0.108832866
253	0xbd84869e	-0.06470989
254	0xbe104a01	-0.1409073
255	0xbd741739	-0.05959246

hidden2.bias f4 [128]
0	0xbe072d01	-0.13200761
1	0xbd83395a	-0.06407423
2	0x3fb0e8c9	1.382104
3	0xbe08f54c	-0.13374823
4	0xbdab3da3	-0.08361366
5	0xbd443d65	-0.047910113
6	0xbde9140d	-0.113807775
7	0xbe24674a	-0.16055027
8	0xbe224681	-0.15847208
9	0x3bb1bbed	0.005424014
10	0xbe7dae8f	-0.2477362
11	0x3b35a9bf	0.0027719585
12	0xbde3e5da	-0.11127825
13	0xbcca68a9	-0.024708109
14	0x3ff3aea9	1.9037677
15	0xbd96e562	-0.0736797
16	0x3f4a46b6	0.79014146
17	0xbc2a6c4c	-0.010401797
18	0xbd655d15	-0.055996973
19	0xbf2d8322	-0.6777822
20	0xbc31e7fd	-0.010858533
21	0xbdd9320f	-0.10605251
22	0xbdc6af65	-0.097014226
23	0xbe13b518	-0.1442455
24	0xbe2ca612	-0.16860226
25	0xbda007ae	-0.07813965
26	0xbdd53aa3	-0.10411575
27	0xbe13b8d1	-0.1442597
28	0xbd8cde7b	-0.06878372
29	0xbdc82b0f	-0.09773838
30	0xbb2e4f67	-0.002659762
31	0xbd7ca2a6	-0.06167855
32	0xbd4c73b8	-0.049915045
33	0xbe226638	-0.15859306
34	0x3ecf1822	0.404481
35	0xbe29466f	-0.16530775
36	0xbd9a4f9c	-0.075347155
37	0x3f5f5da8	0.87252283
38	0xbde3394e	-0.110949144
39	0xbd72bec1	-0.05926395
40	0xbe1dd3a3	-0.15412764
41	0xbc03358a	-0.00800837
42	0xbd8b2799	-0.06794662
43	0xbf1c54c1	-0.61066824
44	0x3f03e64b	0.51523274
45	0xbd574b69	-0.05256215
46	0x3faf607a	1.3701317
47	0xbe0b2f7a	-0.1359233
48	0x3d865157	0.06558483
49	0xbd328984	-0.043588176
50	0xbce4b617	-0.027918858
51	0x3e05880e	0.13040182
52	0x3eb1bdec	0.3471521
53	0x3b3c0815	0.002869134
54	0xbd90a27e	-0.07062243
55	0x3f0b6961	0.5445767
56	0xbacb64ff	-0.001551777
57	0xbe096456	-0.13417181
58	0xbe12c640	-0.14333439
59	0xbe2bd620	-0.16780901
60	0xbd699835	-0.05702992
61	0xbf57ead6	-0.84342706
62	0xbd3a5020	-0.04548657
63	0xbe223324	-0.15839821
64	0x3f25e5d2	0.648038
65	0x3dba9901	0.091112144
66	0xbe12616a	-0.14294973
67	0x3fe129bc	1.7590861
68	0xbcc92d6c	-0.024557792
69	0xbd509174	-0.050919965
70	0xbf0e21aa	-0.5552012
71	0xbda27150	-0.07931769
72	0xbe1717c7	-0.14755164
73	0xbd3c5da1	-0.04598773
74	0xbdae623e	-0.08514832
75	0x3c9deb56	0.019277256
76	0xbe191587	-0.14949618
77	0xbc0bcac6	-0.008532232
78	0xbe1af4ef	-0.15132497
79	0xbdd8b19b	-0.105807506
80	0xbd8660ea	-0.06561454
81	0xbcfd2524	-0.0309015
82	0xbe0a2a85	-0.13492782
83	0xbe080fe4	-0.13287312
84	0xbdbe657b	-0.092966996
85	0xbe1758a6	-0.1477991
86	0xbd8b3f5c	-0.06799194
87	0xbda89bd5	-0.082328476
88	0xbf2805d6	-0.65633905
89	0xbe090794	-0.13381797
90	0xbdc960cc	-0.09832916
91	0xbd870b1c	-0.06593916
92	0xbe2b5727	-0.16732465
93	0xbdce9d1c	-0.1008856
94	0xbe274e5b	-0.16338484
95	0xbddbbc44	-0.10729268
96	0xbe8e9951	-0.27851346
97	0xbe005354	-0.12531787
98	0xbeb2e834	-0.34942782
99	0xbdef09d9	-0.116718
100	0xbdafe22f	-0.08588063
101	0xbd0d9afb	-0.03457163
102	0xbceb1a67	-0.028699113
103	0xbc4d724c	-0.0125394575
104	0x3d26170b	0.04054932
105	0xbd8ff9aa	-0.070300415
106	0xbdf809c8	-0.121112406
107	0xbc7f23ae	-0.015572472
108	0xbe1d7e44	-0.15380198
109	0xbcc0a3a1	-0.023515524
110	0xbdaaf992	-0.08348383
111	0xbe4b8045	-0.1987315
112	0xbdd4a1ab	-0.10382398
113	0xbf3acf2e	-0.7297238
114	0xbdc8773c	-0.09788367
115	0xbd9a3f22	-0.07531573
116	0xbf480ad6	-0.78141534
117	0xbda189e8	-0.07887632
118	0xbde2cf3d	-0.11074684
119	0xbad3b704	-0.0016152565
120	0xbddb6675	-0.107129015
121	0xbd5ad7ac	-0.053428337
122	0xbde6225d	-0.11237023
123	0xbe107d57	-0.14110313
124	0xbe1eed40	-0.15520191
125	0xbe1e4cfb	-0.15459053
126	0xbd2b7791	-0.041862074
127	0xbe14eb62	-0.14542916

out.weight f4 [1, 128]
0	0x3c95590a	0.018230934
1	0xbccfca03	-0.025364881
2	0x3d1d4c4d	0.038402844
3	0x3be87ccd	0.0070949555
4	0x39c652c3	0.00037827165
5	0xbccc0da4	-0.024908848
6	0x3d6cdc87	0.0578275
7	0xbc36e449	-0.011162826
8	0x3c58ae2c	0.01322512
9	0xbb8f4836	-0.004372622
10	0x3cf4c312	0.029878173
11	0x3c96abd3	0.018392479
12	0xbc94fb51	-0.018186243
13	0x3b130a27	0.0022436471
14	0x3d71ec38	0.059063166
15	0xbc87892c	-0.0165449
16	0xbd8504a7	-0.06495028
17	0xbcdac156	-0.026703518
18	0xbc976f7a	-0.018485773
19	0xbc8689e2	-0.01642317
20	0xbc892190	-0.016739637
21	0xbd9615dc	-0.07328388
22	0xbc908089	-0.017639415
23	0xbc339077	-0.010959736
24	0x3c18a813	0.009317416
25	0x3bcf35e3	0.0063235625
26	0x3a77ea1c	0.0009457187
27	0xbc0ee438	-0.008721404
28	0xbc39a29e	-0.011330275
29	0x3b8dc900	0.0043269396
30	0x3bee641e	0.0072751185
31	0x3bc4b7fe	0.006003379
32	0xbc1c10bf	-0.009525477
33	0x3cb2fc21	0.02184874
34	0xbbc717a5	-0.0060758167
35	0xbca2ccb9	-0.01987301
36	0xb9f7bed9	-0.00047253704
37	0x3d475a5a	0.04867015
38	0xbc885bc0	-0.016645312
39	0x3c12d931	0.008962915
40	0xbc15333e	-0.009106455
41	0xbba84ecc	-0.0051363464
42	0xbca907bf	-0.020633576
43	0xbc6653b6	-0.014058044
44	0x3d094f2b	0.033522766
45	0xbbb45c60	-0.005504176
46	0x3c3f9907	0.011694199
47	0xbcce4a80	-0.025182009
48	0xb8133f4a	-3.5106474e-05
49	0xbc9ef236	-0.019402605
50	0x3beb8fc7	0.0071887705
51	0xbcc0cdc3	-0.023535615
52	0xbda6f218	-0.081516445
53	0xbca635ba	-0.02028929
54	0xbc3a85c3	-0.01138443
55	0x3ceaacf7	0.02864693
56	0x3c13be3d	0.009017524
57	0xbbd458a2	-0.0064802924
58	0xbc34e636	-0.011041215
59	0x3cd835a8	0.026392773
60	0x3c8c6067	0.017135812
61	0xbc346e48	-0.011012621
62	0x3b46ec77	0.0030353346
63	0xbb6317f8	-0.0034651738
64	0x3d1c052b	0.038090866
65	0x3cbdcc4f	0.023168711
66	0xbce109a8	-0.027470425
67	0x3dbda92f	0.09260785
68	0xbb49e540	-0.003080681
69	0x3c9ea45f	0.019365488
70	0xbcb1510d	-0.021645093
71	0xbcf4dbd5	-0.02988998
72	0xbc3d0ff4	-0.011539448
73	0x3a506749	0.0007949961
74	0x3c6e7d16	0.01455619
75	0x3be19fad	0.00688549
76	0x3cb99503	0.022654062
77	0xbca653a4	-0.020303555
78	0xbb862019	-0.004093182
79	0x3bc5515d	0.006021662
80	0x3cda0f9e	0.026618775
81	0xbba8c29b	-0.005150152
82	0xbc7836a5	-0.015149747
83	0xbce8e170	-0.02842781
84	0x3ce6f8df	0.028194843
85	0x3c3632c7	0.011120505
86	0x3bc5ae78	0.006032761
87	0xbca6871c	-0.020328097
88	0xbc8460c5	-0.016159425
89	0xba59c20c	-0.00083068083
90	0x3ca0dc1c	0.019636206
91	0x3b57168a	0.003281983
92	0xbd615b98	-0.05501899
93	0x3d1a4908	0.037667304
94	0x3b2a0cc2	0.0025947546
95	0xbb3ee5c5	-0.0029128653
96	0xbb8380b2	-0.0040131444
97	0xbcce9bc1	-0.025220754
98	0xbca8931b	-0.020577958
99	0x3c168ea6	0.0091892835
100	0xbb11945e	-0.0022213678
101	0x3a95a072	0.0011415614
102	0x3cbc8d62	0.023016635
103	0xbc1e0b72	-0.009646283
104	0x3d3c0c78	0.04591033
105	0x3bda68d9	0.006665331
106	0x3c9c5ecc	0.019088171
107	0x3c2cca92	0.010546343
108	0x3c467e2d	0.012115044
109	0x3c02e421	0.0079889605
110	0xbbb8d91a	-0.005641115
111	0x3cc1dcdc	0.023664884
112	0x3d072e56	0.033003174
113	0xbd90ccd0	-0.07070315
114	0x3d17f0f3	0.03709502
115	0xbc7d5746	-0.015462702
116	0xbca0f695	-0.01964883
117	0x3c15ac8b	0.009135376
118	0xbcfa8751	-0.030582102
119	0xbc9e2976	-0.01930688
120	0x396aac58	0.00022380182
121	0xbcaaad2f	-0.020834533
122	0xbcf8859d	-0.03033715
123	0xbce1e544	-0.027575143
124	0x3bd1d675	0.006403739
125	0x3be85ecd	0.0070913793
126	0xbc7ade56	-0.015311798
127	0xbcf46352	-0.029832516
